ch3_figures_output_tuned_corrected/model_130L_none.pth (torch, 668541 bytes, 8 tensors)

backbone.0.weight f4 [256, 130]
00000000: 2891 e9bc b6d3 653d 4468 95bc ec0c af3d
00000010: f48a 63b9 97f3 a3bc ebca 813c cd46 d8bb
00000020: af7d 88bd 069e 433d 27ce 923d eea2 2b3d
00000030: d03a a33c f42c af3d 0f97 2f3d b29d 023d
00000040: f2f4 2f3d 81d0 4a3d 3936 883d f687 37bd
00000050: 7e65 613d 2368 4c3d c0a7 75bb 3a39 a3bd
00000060: 85b9 a2bd 9e1d 263d 4e80 23bd f855 14bd
00000070: 0abf 623c 0546 91bd 96c2 ccbb 9b50 bbbd
00000080: d80a 7a3d 717a 8f3c 8e47 053d 0a37 51bd
00000090: 8596 d43c bae5 5c3d 654e 213d 112a 8cbd
000000a0: 6392 613c dabb 4b3d 9c53 3d3d 6014 263d
000000b0: 727b a6bd a46d 453d fd09 b3bd b7ce a8bc
000000c0: d930 82bd d56d 9fbc 4365 0b3d 1a18 833d
000000d0: 2cee e93c e78f 9d3d 8ac6 b03c ff81 843d
000000e0: 553c 073d 83d1 703d 84e2 84bd c3da d6bc
000000f0: 466d 0d3d e3b9 2a3d f7be 553d 4e5c 10bc
00000100: 8322 a23d 63a5 933d 0239 a1bd 8c91 b83d
00000110: 4505 443c 257c b93d 2495 a8bd fc47 abbd
00000120: 6374 6abd c974 913d 20a0 14bd ffaf 113c
00000130: 92be 60bc 314c 0b3d 3fac 7ebd 02da 5abc
00000140: 46ce 65bd 6aa5 b13d 4e00 213d f8bc 393c
00000150: 0424 043d fe16 92bd 67cb a53d 3b45 ee3c
00000160: c997 3abd 3c65 47bd b346 003c 31c8 1bbd
00000170: d8cf 813d 3737 99bd e4cb c03c 0f2a a9bc
00000180: 8c56 853c 52b5 febc f8c1 203d b0a5 493d
00000190: 91b7 6d3d 52dc 82bd d713 8fbd 272a b1bd
000001a0: 2ef5 103a 4351 db39 b803 f4bc c603 13bd
000001b0: fe56 003d 9d72 2cbd e00f 3cbb 5fb1 8f3d
000001c0: ec4b 903d 3d28 393d bddd d03c fae3 813c
000001d0: 9c66 8bbd aa61 83bc 5dc8 be3d 9a1f 6cbc
000001e0: 880b 76bc 0917 203d f349 00bc 41e5 d63b
000001f0: 5a70 3abd 3cb8 4ebd 0f58 b0bd c83d b93c
00000200: 9038 7d3d 4979 88bc 6664 a33d 3ffd 9dbd
00000210: 0eb5 3dbd 4ba6 103d 1900 28bd 5d96 41bd
00000220: cd87 14bd 3794 083d a69f a0bd 2919 80bd
00000230: 8630 9bbc c040 0cbd 418f 353b a0d6 e63c
00000240: e7fa 16bd b0c5 41bd 5b5e 4dbd df01 6fbd
00000250: 24e9 7d3d 426b d0bb f223 75bc 09b6 9d3d
00000260: 21e7 833c c126 d23b 1cbf 023c 9a9d 92bd
00000270: d4c7 a0bd 8f09 0b3c dcb2 393b 74c3 44bd
00000280: 30d9 4cbd 274a 88bd 27d4 1f3c 1d78 6f3d
00000290: b669 3f3c c286 823d 45c3 a0bc a97b 853c
000002a0: 7be8 8a3b 5d4a a9bd b60d c1bb 9917 b33d
000002b0: dd79 84bc 24df 133d cb3e 8c3d 3e18 383d
000002c0: 22da b8bd e4cc fc3c 9643 5bbd 7ab0 87bd
000002d0: a787 dcbc c1f6 f7bb c998 483d 07ed b33d
000002e0: 3048 5fbd a7c8 acbd 142f f43c d68f c13c
000002f0: 8814 8c3c 82d9 3d3d 7889 9fbd a59b 2ebc
00000300: b003 91bd 2f20 643d afd0 3f3d b400 a63c
00000310: 0000 38bd 42dc 71bd f398 b63d 5a2a 693b
00000320: 06c2 66bd dc39 4fbd 1eda 91bd aaf1 cd3b
00000330: 4db0 993c 35e9 ecbc 6afb dcbc b679 14bc
00000340: 4240 95bd 6a86 803d 0a6f 503d 156b 383d
00000350: 8b95 e2bc 19c2 9bbd 0226 edb9 c4d6 963d
00000360: 6c75 d5bc e19f bbbd ccf1 233d d208 abbc
00000370: 8ea6 fb3c 729b 25bd 07c9 8bbd 3118 aebc
00000380: b5d0 24bd 4d4d 913d 588c 87bc 6c7a 3ebd
00000390: 2540 823d bf02 c83c 01af 80bc 0dfc 27bc
000003a0: 18ac 203c ea37 99bd 0126 d5bc 7a31 393d
000003b0: 162a 36bc 4b68 183d 5ce6 58bd 0e84 9b3d
000003c0: ea80 dbbc 947f 853d c547 5abd 29c5 d63c
000003d0: 293c 7ebb b0fa 1a3b b9de 193c c18f 9abd
000003e0: cabf 1f3c 436f 9a3d 3ce9 433d 888e 2bbd
000003f0: 57fe 0dbd 629e 00bd 4c2f 18bd 8894 02bd
-0.028511599 0.056110106 -0.018238194 0.085473865 -0.00021700171 -0.020013614 0.01584383 -0.006600237
-0.06664597 0.047758125 0.07168227 0.04190343 0.019925505 0.08553496 0.04286867 0.03188867
0.042958207 0.04951525 0.06650967 -0.044807397 0.05502843 0.049904 -0.003748402 -0.079698995
-0.07945541 0.04055559 -0.039917283 -0.0362148 0.013839493 -0.07093433 -0.0062487824 -0.09146234
0.061045498 0.01751444 0.032538943 -0.05107788 0.02595068 0.05393002 0.039381403 -0.06843961
0.0137678115 0.049739696 0.046222314 0.040546775 -0.08129014 0.048200265 -0.087421395 -0.020606382
-0.06356973 -0.019461552 0.034032118 0.064010814 0.028555952 0.07693463 0.021579046 0.06470107
0.03301652 0.058793556 -0.06488517 -0.02622736 0.03452804 0.04168118 0.05218407 -0.00881107
0.07916739 0.072092794 -0.078722015 0.09012136 0.011964147 0.09056882 -0.08231571 -0.08363339
-0.0572399 0.07102353 -0.03628552 0.008892058 -0.0137173105 0.03400821 -0.062175985 -0.013357641
-0.05610492 0.08674128 0.03930693 0.011336558 0.03226091 -0.07133292 0.080954365 0.029085746
-0.04555491 -0.04868053 0.007829356 -0.038032714 0.06338471 -0.074812345 0.023534723 -0.020649938
0.01627662 -0.03109232 0.039247483 0.049230278 0.05803639 -0.06389679 -0.06986206 -0.08650618
0.00055296987 0.0004183148 -0.02978693 -0.03589227 0.031332962 -0.04210149 -0.0028695986 0.07016253
0.07045731 0.04520439 0.025496358 0.015855778 -0.068066806 -0.01603778 0.0931556 -0.014411831
-0.015017398 0.039084468 -0.007830131 0.006558091 -0.045517303 -0.05046867 -0.08610546 0.022612467
0.06182152 -0.016659396 0.07978134 -0.077143185 -0.046315245 0.03531484 -0.041015718 -0.04726254
-0.036262322 0.033344474 -0.078429505 -0.06254799 -0.018944036 -0.034241438 0.0027703794 0.028178513
-0.036860373 -0.04730767 -0.050138813 -0.058351394 0.06198992 -0.0063604424 -0.014962183 0.07700736
0.016101422 0.006413311 0.007980134 -0.07158966 -0.07850614 0.008486166 0.0028335368 -0.04803796
-0.050011814 -0.066547684 0.009755171 0.05846416 0.011682918 0.06373359 -0.019624362 0.016294317
0.0042391396 -0.08266137 -0.005891527 0.08744735 -0.01617139 0.036101475 0.06847914 0.044944994
-0.090259805 0.030859418 -0.05353125 -0.06625457 -0.026920153 -0.007567257 0.048973832 0.08785444
-0.054512203 -0.08436709 0.029807605 0.023628157 0.017099634 0.04635001 -0.07789892 -0.010657226
-0.070807815 0.055694755 0.046829876 0.020264007 -0.044921875 -0.059047945 0.089158915 0.0035578222
-0.05633738 -0.05059229 -0.07121681 0.006284912 0.018760825 -0.028919796 -0.026975352 -0.009062221
-0.07287647 0.062756374 0.050887145 0.045023996 -0.027659198 -0.076053806 -0.0004523248 0.07365182
-0.026056968 -0.09161354 0.040025517 -0.02087823 0.030719068 -0.040431447 -0.06825452 -0.02125177
-0.0402381 0.07094822 -0.016546413 -0.04650347 0.06359891 0.024415372 -0.015708448 -0.010252965
0.009806655 -0.07481368 -0.026019098 0.0452132 -0.0111184325 0.037208837 -0.052954063 0.07593547
-0.02679487 0.06518474 -0.0532911 0.02621706 -0.0038793182 0.0023647957 0.00939148 -0.0754695
0.009750316 0.07540753 0.04782985 -0.041883975 -0.034666386 -0.031401046 -0.03715448 -0.03187993

backbone.0.bias f4 [256]
00000000: e9c4 963c 32b6 3d3c 0afc 70bd 50bf fe3b
00000010: f522 623c 4a61 b8bc d5a9 8a3d 589d 013d
00000020: ccc6 9d3d a55d 94bd 0271 713d ebcf 12bb
00000030: 784d 4cbd de13 c1bd 6cea 8cbd 5da6 dd3c
00000040: a177 763d b232 ad3d 6225 383c c429 683d
00000050: 4170 253d ef5a 003d d904 4c3d 3abb b83c
00000060: f1c1 203d 2e74 993d 2271 95bc 43f0 dc3c
00000070: 36d3 dc3c afbf 18bd af1c ab3c c1b6 9cbd
00000080: 1155 37bc 9fb9 69bd 6b36 a43c 0d5c 8ebd
00000090: c1ac 4cbc 80a5 a6bd ff06 92bd 098c 5f3b
000000a0: abba 023d 8240 a63d 24d6 7fbd 3970 913d
000000b0: 0e95 1d3d 397d 3839 4998 7ebc 0f49 07bc
000000c0: abb7 7e3c c9ef 723d e088 943d c4fd 91bc
000000d0: e489 b23d e30f a73d cd41 b0bd a71c 19bd
000000e0: 80a0 183d 4d75 4dbd 72d7 9abd 65da 6c3c
000000f0: d88a b33c 3969 8ebd a4f8 0b3c 9817 8a3c
00000100: 6d3a bcbd 351a 493d c8d8 7abd 33dc 303d
00000110: a16a ae3d 0c71 983d 984b 583d a4ae bdbd
00000120: 5314 8abd 5bdd 893d 97b0 75bc ddbd 353d
00000130: da82 8d3c a77c 953d ecf5 9d3d adbf 953d
00000140: ae38 c23c 71f6 70bc 1843 12bd 03d2 b8bc
00000150: 8f30 54bd 2324 13bd 3b5e c33c 619e 213c
00000160: eac6 8bbd 2772 adbc d20f 4a3d 06f4 83bd
00000170: 35bb c2bc 2773 a63c 9134 e23c e39e 233d
00000180: cafa 19bc 1307 803d 324b e73c 5813 82bd
00000190: d763 a93d 6650 7fbd 986c d43c 69d4 28bd
000001a0: 0bf3 9abc 7b70 923d 4183 44bc 995c 6bbd
000001b0: c11f d3bb c92f 6ebb c6b8 62bd 8b81 92bb
000001c0: c4a7 fe3c 3cbe 91bd a31f fabc 841a 10bd
000001d0: 7a7a b13d b8ea 87bd de26 863d a8bc 093d
000001e0: 6601 ac3d c3ad 5dbd 78ab 8a3c 10d6 063d
000001f0: cfd2 51bd 1148 fa3b a2e2 7c3b 913c 89bd
00000200: c2de 5d3c 4342 033b 2766 d13c b51e 8f3c
00000210: 9da8 19ba 31dc 323d a217 b63a c191 92bd
00000220: 80ad 5e3d d31c 4dbd 2d27 873d c064 40bd
00000230: 0c59 bfbc aa4a 8ebd 92a4 dbbc 47b4 d4bc
00000240: 30e8 e23c 8df9 88bd ad76 b03d df5c 95bd
00000250: 0393 a7bc ad65 6abd d7a4 4c3c 74d7 17bc
00000260: 7f7f 93bd 67e3 babd f202 8f3c 5f79 06bd
00000270: c2e0 843d 92ca 3bbd e7cc 053d f0a0 673d
00000280: a8d0 9abd e906 9bbd 765e 3ebd a9f9 99bc
00000290: 5999 273d 4485 42bd d223 a93d cb66 1cbc
000002a0: 328e 3b3d 5f8b b2bc 2409 973d 050c 903d
000002b0: d7ed 413d 356c 12bd 4dda 513d 7161 25bd
000002c0: ba85 2dbc f280 b53c 224c 853d 4dd1 ab3d
000002d0: 19f9 523c ed10 f1bd 9cea 0dbd 1a70 873d
000002e0: bbfc 0ebd 68f9 7dbd 6eca afbc 9744 b03c
000002f0: 8df0 9cbd 6da6 0d3d d369 a33b 5d06 9c3d
00000300: a5da 8ebd f382 c33c 57f8 e5bc 3727 b03d
00000310: 595e f7bc a2b0 0abd 4ab8 44bb 9c46 ba3a
00000320: 01e2 a6bd a060 87bc 65f5 d9bc 1e66 f0bb
00000330: efe2 05bd 9c79 7e3d b36e 04bd 964a 123c
00000340: 9eba a83d d6f6 a6bd 68c6 f93c 2858 34bc
00000350: e873 193d 2542 473d f99a 643d 9f90 80bd
00000360: 1807 e4bb 6d30 a0bd 3419 dabd f332 aebd
00000370: 7383 993d 71e6 443d 7149 893d 4cb0 8dbd
00000380: c063 6bbd af1b 08bd dbd1 863d d1d1 cfbd
00000390: 06af b4bd daa7 9bbd c6bb c5bc 9e7d 51bd
000003a0: a63a cabc 6b63 e0bc db6e 5c3d 5df4 13bd
000003b0: 2088 843d bfe2 e4bc beae 643d d745 90bd
000003c0: 2bcd 983d 1cdd 963d 9ed4 453c 4e04 b6bd
000003d0: ea89 79bd f85d d7bb 4d84 d2bb ae36 043d
000003e0: d204 cabc a86a 5dbd 1b45 93bd 34b8 633c
000003f0: 4c7f 553d 3001 923c 03aa 3a3d 0ebf df3c
0.018404441 0.011579083 -0.058834113 0.007774271 0.01380228 -0.022507329 0.06770674 0.031644195
0.07703933 -0.07244424 0.058945663 -0.002240176 -0.049878567 -0.094276175 -0.0688065 0.027056867
0.06017268 0.08456935 0.0112393815 0.056680456 0.040390257 0.03133672 0.04980931 0.022550214
0.039247457 0.07492863 -0.018242422 0.026970034 0.026956182 -0.03729218 0.0208877 -0.07652045
-0.011189715 -0.057061788 0.02004548 -0.06951151 -0.01249236 -0.08137035 -0.07130241 0.0034110567
0.0319163 0.08117773 -0.06246008 0.07101483 0.038472228 0.00017594256 -0.015539237 -0.008257165
0.01554672 0.05931071 0.07252669 -0.0178212 0.08717707 0.08157327 -0.086063005 -0.03738084
0.03726244 -0.050160695 -0.07560624 0.014456366 0.021916792 -0.069536634 0.008543167 0.016856954
-0.09190831 0.04909726 -0.061241895 0.04317875 0.085164316 0.07443437 0.052806467 -0.09261826
-0.06742158 0.06731673 -0.014995716 0.04437052 0.017274309 0.07299166 0.077129215 0.0731195
0.023708668 -0.014707194 -0.035708517 -0.022561079 -0.05180412 -0.035923135 0.023848644 0.009864421
-0.06825049 -0.021172596 0.049331494 -0.06443028 -0.023770908 0.02031858 0.027612956 0.039946448
-0.009398172 0.06251349 0.028234098 -0.06351346 0.08270996 -0.062332533 0.025930688 -0.041218195
-0.01891472 0.0715036 -0.011994184 -0.057461355 -0.0064429943 -0.00363444 -0.055351995 -0.004471009
0.031085856 -0.071163625 -0.030532664 -0.035181537 0.08665939 -0.06636566 0.06550382 0.033627182
0.08398704 -0.05412079 0.016927466 0.03291899 -0.051226433 0.0076379855 0.0038587232 -0.06701005
0.013541879 0.0020028509 0.025561405 0.017470697 -0.0005861612 0.043667022 0.0013892541 -0.071567066
0.05436468 -0.050076317 0.06599269 -0.046971083 -0.02335789 -0.06947835 -0.026811872 -0.02596487
0.027698606 -0.06688223 0.086163856 -0.072931044 -0.020455843 -0.05722587 0.012490473 -0.009267677
-0.07202052 -0.09125405 0.01745746 -0.032830592 0.06488182 -0.045847483 0.032666113 0.056549966
-0.07559329 -0.075696774 -0.046476804 -0.018795805 0.040917728 -0.047490373 0.08258785 -0.009545992
0.045789905 -0.021794973 0.0737479 0.070335425 0.047345962 -0.035747726 0.05123358 -0.04037613
-0.010590965 0.022156212 0.06508662 0.0838953 0.012876772 -0.117708065 -0.03464757 0.066131786
-0.03490899 -0.06200543 -0.02145883 0.021517081 -0.07663069 0.034582544 0.0049869805 0.07618401
-0.06975297 0.023866152 -0.02807252 0.0860123 -0.030196356 -0.033859856 -0.0030017071 0.0014211717
-0.081485756 -0.016525567 -0.026606271 -0.007336392 -0.032687124 0.062127694 -0.032332134 0.0089289155
0.082387194 -0.08152549 0.030490115 -0.011007346 0.037464052 0.048647065 0.055811856 -0.06277584
-0.0069588535 -0.078217365 -0.10649338 -0.085058115 0.07495775 0.04807133 0.06703461 -0.069183916
-0.057468176 -0.033229526 0.065829955 -0.10147441 -0.088224456 -0.076003745 -0.024137389 -0.05114519
-0.024686169 -0.027391156 0.053816658 -0.036121715 0.06471276 -0.027940152 0.05583071 -0.07044571
0.07461008 0.07366392 0.012074618 -0.0888754 -0.06092254 -0.0065724812 -0.006424463 0.03227871
-0.024660502 -0.054056793 -0.07190915 0.013898898 0.052123353 0.017822832 0.045572292 0.027312782

backbone.2.weight f4 [256, 256]
00000000: f40e c6bc b876 c2bc 380c 653d c0b3 b53b
00000010: 4844 1bbd 2ca5 03bd f8ca 28bd c05b 6ebb
00000020: 6010 e4bb b00a 4e3d 2a70 12bd 4634 07bd
00000030: 5079 b73c 2042 eabb 5ca5 20bd a06c fa3c
00000040: 62d9 08bd 6ce1 75bd 8005 d9bb 0036 7eb9
00000050: f096 d8bc 48a2 5abd 40e1 b73c 0aba 1bbd
00000060: 00c8 42bb 3432 353d a071 16bd d878 043d
00000070: cac9 083d aeaa 55bd 80cc bdba 1c68 45bd
00000080: 0af0 06bd 3059 973b 40f4 383d 72e3 0dbd
00000090: 12d9 223d bc24 2abd 2c76 513d 406a a5bc
000000a0: f2fc 23bd 4865 24bc 6483 463d 2069 393d
000000b0: 8c67 bebc a4a1 12bd 888c 98bc 0c5f eb3c
000000c0: d037 a4bc 5c25 f63c a67e 0f3d 1ea0 47bd
000000d0: 34c9 f53c 2c99 ffbc 666b 77bd 0092 833a
000000e0: 50d6 10bd 488e 34bd d06c 28bd 526b 7d3d
000000f0: c07d b1bc 00f9 193c 24cf fc3c b877 f5bc
00000100: 00f1 efba 40dc b33b f201 6d3d 5cf1 da3c
00000110: 9c32 693d 7cc1 b6bc aa82 4f3d 66cb 44bd
00000120: 9c44 363d 8423 dcbc e084 5c3d e83b f43c
00000130: b8be 753c 3e9a 5d3d 4a6c 393d 60f9 a1bb
00000140: 8099 3bbb 3812 c9bc 9ea9 7abd c0cc a23b
00000150: a8d2 103c 4283 46bd 9c2a 7cbd a00f 56bc
00000160: e813 213d 5ee8 4d3d 528b 023d 4e5b 4e3d
00000170: 58bf 1bbd b810 29bd 7067 2ebc 8037 8c3c
00000180: 4803 723c 7cf4 ebbc b21a 2cbd 8c45 21bd
00000190: 0017 0bbb c8d3 1e3c 0c5f 933c 8086 e83b
000001a0: 5076 b2bb 4042 543c e0e8 c23b 9435 843c
000001b0: 7ee8 65bd e896 5a3c 50ef 95bb 70b1 543c
000001c0: 48d0 793c 20d1 ebbb a0fd 43bd 2c8d 053d
000001d0: 3a9d 04bd 4062 093d d06c acbb ec21 f4bc
000001e0: 6a6d 7b3d 408e 30bd 02bd 06bd b054 4ebc
000001f0: 3c54 bebc 1c79 f03c 3096 513c d60f 62bd
00000200: c0bb d93b fa8a 1a3d 7068 b8bb c08a a2ba
00000210: c0d9 773d 9826 a33c d222 25bd 60b0 50bb
00000220: d8b9 763c 444b 6f3d ac9d 25bd 66cd 55bd
00000230: f49a 87bc 641a e3bc 6a7e 21bd dc2b 973c
00000240: 680a 49bd 0042 95bb 788f 7d3c 4041 db3b
00000250: 7223 243d b0a8 823b 806f a3ba 3896 cabc
00000260: c8f4 0a3c ea48 4bbd 76d4 51bd a4d1 c63c
00000270: 5afb 773d 2024 363c ecdd 1e3d 3889 7cbd
00000280: 70ff a33c 6049 3dbc da69 03bd 2ea6 583d
00000290: c032 8e3a e8e2 493c 6892 dd3c fe1f 48bd
000002a0: b4ad c63c 5080 07bd 74c3 443d 485c a63c
000002b0: c866 b6bc 623d 293d 7278 09bd aec8 123d
000002c0: a0e0 7ebb 3226 343d a465 283d ec7a 603d
000002d0: ec91 083d 307a 7abd 4c26 7dbd b0b8 293c
000002e0: dc8b d8bc a21b 493d 169e 70bd f498 fbbc
000002f0: a6ac 333d 30b3 5bbd d06d b9bc 48ab e8bc
00000300: 9287 37bd 2414 3bbd c6f2 013d dceb 46bd
00000310: 3810 6abd 346c 10bd 247e e13c e813 98bc
00000320: e08b 683c 5c40 573d 8490 143d bc4a 4f3d
00000330: a86c 4bbc 32f1 10bd 56ae 513d f0a7 2d3c
00000340: e238 13bd 9c25 f13c cec1 29bd b0a0 653d
00000350: 483d 7a3c ee5f 66bd 4a4b 7ebd 0001 5dbc
00000360: ba5f 60bd b889 acbc 007b 643d d03c b43c
00000370: 3890 06bd c40c 29bd 3e06 22bd c243 0cbd
00000380: 9cbd ac3c 2893 4abd 9025 dfbc a0c9 e03b
00000390: 20bb b1bc 7042 3ebc 6c2e fe3c 9c15 c83c
000003a0: 0cb2 0e3d 006c e838 9e90 2abd 4a76 0bbd
000003b0: 3cc9 2f3d 22f3 263d 80f8 c03a 183d f4bc
000003c0: acac 573d a098 0abc b4bf b9bc 90c6 f4bc
000003d0: 08bf 1c3c 3a41 24bd 32c2 133d 00af d9bb
000003e0: 8072 df3a e4e8 53bd e8ef 75bd da42 2b3d
000003f0: b088 e2bb 60c7 4fbb 8a1e 7d3d fc9d 453d
-0.024177052 -0.02373825 0.055919856 0.0055451095 -0.037906915 -0.032139942 -0.04120919 -0.0036370605
-0.00695996 0.05030316 -0.0357515 -0.033008836 0.022396713 -0.007148996 -0.0392202 0.030569375
-0.033410437 -0.060029432 -0.00662297 -0.00024243444 -0.02643916 -0.05337742 0.022446275 -0.038019218
-0.002972126 0.04423733 -0.036729455 0.032341808 0.033395566 -0.052164726 -0.0014480501 -0.04819499
-0.032943763 0.0046187863 0.04515481 -0.034640737 0.039757796 -0.04153894 0.051138088 -0.020192266
-0.04003615 -0.010033913 0.048465148 0.04526627 -0.023242734 -0.035798684 -0.018621698 0.028731845
-0.020046145 0.030047111 0.03503289 -0.048736684 0.030003168 -0.031200968 -0.060405158 0.0010038018
-0.035360634 -0.044081002 -0.041119397 0.061869927 -0.021666408 0.009397745 0.030860491 -0.029964313
-0.0018306077 0.0054889023 0.057863183 0.026726417 0.05693303 -0.022309057 0.05066172 -0.04804554
0.044499025 -0.026872404 0.053837657 0.029813722 0.014999084 0.054102175 0.045269288 -0.004943058
-0.0028625429 -0.02454482 -0.061196916 0.0049682558 0.008839287 -0.04846502 -0.061564073 -0.013065249
0.039325625 0.05027043 0.031871147 0.050380044 -0.038024276 -0.04127571 -0.010644779 0.017116308
0.01477129 -0.028803103 -0.042017646 -0.039372966 -0.0021223426 0.009694047 0.017989658 0.007096112
-0.005446233 0.012955248 0.005948171 0.01613883 -0.056129925 0.013341643 -0.0045756474 0.0129817575
0.015247412 -0.0071965605 -0.047849298 0.032605335 -0.032376505 0.033540964 -0.005261995 -0.029801331
0.061383642 -0.04310441 -0.032895096 -0.012593433 -0.023233525 0.029354624 0.012792155 -0.055190884
0.006644696 0.037730195 -0.0056276843 -0.001240097 0.060510397 0.019915864 -0.04031641 -0.003184341
0.015058957 0.05842139 -0.04043357 -0.052197836 -0.01655338 -0.027722545 -0.0394272 0.018453531
-0.04908219 -0.004554987 0.0154761 0.006691128 0.040072866 0.0039873943 -0.0012469143 -0.024729833
0.008481212 -0.049630083 -0.05122801 0.024269886 0.060542442 0.011117011 0.03878586 -0.0616543
0.020019263 -0.0115531385 -0.03208337 0.052892856 0.0010848865 0.012322165 0.027047351 -0.048858635
0.02425275 -0.033081353 0.04803796 0.020307675 -0.022265807 0.041318305 -0.03356213 0.035835914
-0.003889121 0.04398174 0.041112557 0.054804727 0.033342287 -0.061151683 -0.0618041 0.010358974
-0.026433878 0.04909862 -0.058744512 -0.030712582 0.043865822 -0.053637683 -0.02263537 -0.028401986
-0.044807024 -0.045673504 0.031725667 -0.048564777 -0.057144374 -0.03525944 0.027525969 -0.01856418
0.014193505 0.052551612 0.036270633 0.05060838 -0.012416042 -0.03538627 0.05119165 0.010599121
-0.03594292 0.029436879 -0.041444592 0.056061447 0.0152734 -0.05624383 -0.06208352 -0.013489008
-0.054778792 -0.021061763 0.055781364 0.022001654 -0.03285238 -0.04127194 -0.039556734 -0.034244306
0.021086507 -0.049456745 -0.02723959 0.006859973 -0.021695673 -0.01161252 0.031027995 0.024424367
0.034837767 0.00011082739 -0.041641824 -0.034048356 0.04291652 0.040759213 0.0014722496 -0.029814288
0.052654907 -0.00845924 -0.022674419 -0.029879838 0.00956703 -0.040101267 0.03607387 -0.006643176
0.0017047673 -0.051735774 -0.060043246 0.0418118 -0.006913267 -0.003170453 0.061796702 0.04824637

backbone.2.bias f4 [256]
00000000: cc9c bfbc d3c6 e73c 1c9b debc 6bde 883c
00000010: 36d2 423c 3049 c3bc d32c 24bc 186c cb3c
00000020: 2b95 bdbd 3749 e2bc efe0 123d ca51 81bd
00000030: 5619 223d 2403 413d 36df ecbc 8a1f d1bc
00000040: c44f 2dbd d692 e7bc e5a4 6b3d da0c abbd
00000050: 5b67 51bd 6427 4bbd 7dd3 1a3a b1be 4dbb
00000060: 99cc 2cbd 0fe6 d93d dd32 303c c05b a8bd
00000070: 5f1b 8c3c 9dd2 863c de13 b03c 2420 89bd
00000080: 572a 293c de57 1a3d f436 8fbc b29f 12bd
00000090: f62e debb f9e1 5d3c b74b c7bb 916d a53d
000000a0: 60ba 723c b77b 0b3d e4cb d63c ffd4 34bd
000000b0: 1306 d7bc 8705 90bd bafb 913b a068 81bd
000000c0: 72a4 babc 6651 733d 00e8 32bd d84a cebc
000000d0: ca4a 573d 3e26 45bd eafc 4e3d 8c74 26bc
000000e0: 3ef5 00bd 4ae5 63bd 73f7 943d 595d 8f3b
000000f0: 4aa3 4cbd 1a61 503d de3f 88bd 8980 bf3c
00000100: cb32 403c 8807 ca3c 262d 5b3d 4c0b a63c
00000110: f2a5 6bbd 6672 993c 7b9e 1e3c dd5d fc3b
00000120: 2a42 a5bc 7ccc c43d a0b8 d13c bc47 58bb
00000130: 946e b6bc 80e7 7bbd 689f 2c3c b817 5f3c
00000140: 20a3 2abd 533e 453d 36d5 8a3c 6b8c 4f3d
00000150: f7e3 c6bc e4e9 563d 9178 6bbc a4b0 393c
00000160: edf1 b73c 6ee1 293d 2e8e c3bd 0ec0 6fbd
00000170: 7411 0ebd c2bf b93c 95d5 7a3d e877 5b3c
00000180: 5d5d 31bd 381e c83c 9e76 88bd 82fd 91bd
00000190: 00b2 363b 5f6e 91bd ec4d ca3c 4a15 dcbc
000001a0: acee ce3c 623d 643c c299 25bd de1c e03c
000001b0: d8a1 14bc 4294 a1bd 7f7c 2e3c e6b5 753b
000001c0: 4e20 c4bc cdcd a53c 38ed c83b 3ee5 72bd
000001d0: a003 7dbc 3078 a7bc 9730 8bbc 7477 f53c
000001e0: 7b9d 363d b0f3 c9bc 901d efbc fe3e 58bd
000001f0: 26c6 83bc 8b65 b83d 9441 543c 4e8d 4cbd
00000200: 3bc2 7dbd fe93 343a d164 dc3c 607c 4dbb
00000210: 5f97 06bd b4fd 233d bc38 203c dcbd c1bc
00000220: e0b2 a1bd f3fe 1b3d 3fa9 ffbc 481c 4cbd
00000230: c79f 1d3d fe07 113d da9a 86bd 098c 57bd
00000240: 5b1f c9bd 811a 96bd 40db 5cbd ecf0 6d3d
00000250: 87ea f1ba 4ef8 32bd 7264 473d b153 f2bd
00000260: 00f8 4239 8369 6cbd ea64 153c e64f c1bd
00000270: 7886 293c 3bd2 97bd b194 793d 6b67 a6bb
00000280: c2e6 ee3d 5e22 5cbc e223 75bd e081 0a3d
00000290: fb5d 11bd 1289 0b3d e13b 073d 1aaa 1f3c
000002a0: 5c69 003b 280c 0ebd dbda 4b3d 70d5 6c3d
000002b0: 622e 90bd 39e8 953d f3c2 81bd 2266 033d
000002c0: b77b 7b3c 9578 f73c 80e4 193c 9892 f23b
000002d0: 5c0e c6bc dcaa 35bd a1c8 febb cc59 d4bb
000002e0: 70f0 e6bb 138b 9d3c 1d31 9dbc 9bf3 5ebc
000002f0: b04b 93bd ab57 1fbd 4439 a23d fffb 8fbc
00000300: 3791 80bd 7890 b23c aab8 fb3c f066 01bd
00000310: 0a2d 32bd 8e9b 30bd 5fea 3d3c 219b aebb
00000320: 7940 2d3d 3990 d2bc 60f2 0dbc ff0d 873c
00000330: 7853 5cbd c361 6fbd 9d1d c9bb 6f99 bebb
00000340: 6e28 36bd 8c24 89bd 6435 fb3c c457 843d
00000350: c482 9fbc 226f 88bd 88e9 3abc db6b 50bd
00000360: 111b 4e3d 64ad c23b b91c 85bd eb77 b03d
00000370: b3ce 65bd ac9b 2c3d 4acd 36bc d397 89bc
00000380: 4ee5 5c3d d293 983c d4ca c53c 53b0 92bb
00000390: a83c 2abd dcd3 cb3c 3ea7 fe3c cc9e 533c
000003a0: 8791 80bc 22b6 b4bd ceea 3cbc 6576 19bd
000003b0: 43e3 69bd 888c dcbc f075 2ebd 552a 9d3d
000003c0: 372b f43c 9e33 d23c bf3a 7bbd 7a48 53bc
000003d0: 7c04 49bd 4814 333b 3480 95bc 9ed1 3a3d
000003e0: c91a f03c 265d 87bd 8eb6 74bd a715 47bd
000003f0: 18dd 91bd 6bb1 b0bc 735b 16bb d90a ae3d
-0.023390196 0.028293049 -0.027173571 0.01670762 0.0118909385 -0.02383861 -0.010020453 0.024831817
-0.09256967 -0.027622802 0.035859045 -0.06314428 0.039574943 0.047122136 -0.028915029 -0.025527734
-0.0423124 -0.028268259 0.057530303 -0.083520606 -0.051123958 -0.049598113 0.0005906148 -0.0031394179
-0.042187307 0.10639583 0.010754314 -0.08220625 0.017102895 0.01645785 0.021493848 -0.066955835
0.010325036 0.037681453 -0.017482258 -0.03579683 -0.0067805005 0.013542646 -0.006082024 0.08077539
0.014814943 0.03405353 0.02622027 -0.04414844 -0.026248014 -0.07032304 0.004455057 -0.06318784
-0.022783492 0.0594038 -0.043678284 -0.025182173 0.05256156 -0.048132174 0.050534166 -0.010159623
-0.03148388 -0.05563859 0.0727376 0.0043751416 -0.049960412 0.050873853 -0.06652807 0.02337672
0.01173086 0.024661794 0.053509854 0.020269059 -0.057531305 0.018731307 0.009681339 0.007701619
-0.020173151 0.09609315 0.025600731 -0.0033001741 -0.022269525 -0.061500072 0.010536052 0.013616495
-0.041659474 0.04815514 0.01694737 0.050671022 -0.024278624 0.05246915 -0.014372007 0.011333618
0.022454226 0.041474752 -0.09548603 -0.058532767 -0.034684613 0.022674445 0.061238844 0.013395287
-0.04330193 0.024428472 -0.066632494 -0.07128431 0.0027877092 -0.0710113 0.02469536 -0.02686562
0.025260292 0.01393065 -0.040429838 0.027357515 -0.00907179 -0.07889606 0.010649799 0.0037492453
-0.023941185 0.020239735 0.0061317943 -0.059300654 -0.015442759 -0.020443052 -0.016990943 0.029964186
0.04458378 -0.024652332 -0.029188901 -0.05279445 -0.016085695 0.09003743 0.012955088 -0.049939446
-0.06195281 0.00068885076 0.026903542 -0.003135465 -0.032859202 0.040036872 0.0097791515 -0.023650102
-0.07895446 0.038084935 -0.031208633 -0.04983166 0.038482454 0.035408013 -0.06572504 -0.052623782
-0.09820434 -0.07329274 -0.05392003 0.05809109 -0.0018456735 -0.043693833 0.048679776 -0.11832369
0.00018593669 -0.05771781 0.009118298 -0.094390675 0.010347001 -0.07413145 0.06093282 -0.0050782464
0.11665107 -0.013435928 -0.059848674 0.033815265 -0.035490017 0.034066267 0.03301609 0.009745145
0.001959405 -0.03467956 0.049769264 0.057820737 -0.07040097 0.073196836 -0.06336012 0.032079823
0.01534932 0.030208865 0.009392858 0.0074027292 -0.024176769 -0.044352397 -0.0077753817 -0.006480431
-0.0070477054 0.019231355 -0.019188458 -0.013607885 -0.071921706 -0.038901966 0.07921079 -0.017576216
-0.062776975 0.021797404 0.030727703 -0.03159231 -0.043499984 -0.0431171 0.011591523 -0.0053285514
0.042297814 -0.025703536 -0.008663744 0.016486166 -0.05379054 -0.058442842 -0.0061375634 -0.0058166306
-0.04447215 -0.06696424 0.030665107 0.064620525 -0.019471534 -0.06661822 -0.011408217 -0.05088411
0.05031878 0.00594108 -0.06499619 0.086166225 -0.056105327 0.042140648 -0.011157343 -0.016796028
0.05392962 0.018625174 0.024144568 -0.004476586 -0.041561753 0.024881296 0.031085607 0.012916278
-0.015694393 -0.088238016 -0.011530591 -0.037466425 -0.0571015 -0.02692248 -0.042592943 0.0767409
0.029805763 0.025659379 -0.06133532 -0.012895698 -0.049076542 0.002732532 -0.018249609 0.045610063
0.029309647 -0.066095635 -0.05974441 -0.048604634 -0.071222484 -0.021568974 -0.0022942692 0.08498163

out_n.0.weight f4 [130, 256]
00000000: ecba 38bd eb47 b0bc 65c4 8ebd 05d7 02be
00000010: 227b 60be 482e dabc 8f14 9fbd 7af5 64bd
00000020: 44e1 a1bd 83e5 acbd 95c0 233d d0cf 3fbb
00000030: 2891 80be d611 093d 1e9c 093d 1916 80bd
00000040: f4e9 9d3c f258 48bc 5d01 54bc 149c 0bbd
00000050: 6ef2 b3bd d6f3 afba 95a9 49bd cdad 2cbd
00000060: 4859 d83c 1370 8dbe 67d3 12be a0c4 11be
00000070: af7d b2bb 11a4 33bd a8d3 20be 7b42 a2bd
00000080: f23b f7bd d40a a93c 00fe 4fb9 249e 66bd
00000090: 0e2d cd3c 831d 6cbd dc5a 493c ca9f dbbd
000000a0: 7a3b a8bd 6f64 363c 5c51 02be cb91 2a3b
000000b0: b3ba 0ebb dae9 30bc c754 32be b27d 673d
000000c0: 4154 debc ab26 e2bd 7107 b93a 8620 59bd
000000d0: b6ab 09bd 0c0f 5ebd 40ac e83a ae9c 48bc
000000e0: 8483 13bd 578d e0bd 733f a5bb 2229 e4be
000000f0: 2538 c2bd de61 82bc ac6f 84bd 0734 cbbc
00000100: fda7 5fbd 247e bdbd a342 7abd 9c94 c0bc
00000110: a18c b8bd 79c1 5b3d 0c23 7cbd dee7 55bb
00000120: 0508 223c 182a 5bbe 54f9 f13c 945f 67bc
00000130: ae35 9c3c 039a bcbd 3600 e1bd 3dfa e6bd
00000140: ff2b cbbd abac 603d cade 093d 00b7 f7bd
00000150: b042 ccbc a5fc ccbd 03bc 8ebc ab75 893d
00000160: 7498 10bd 61e2 71bc 380a 583d 6eea 3cbd
00000170: 9ea3 c9bd 9d92 4ebd da9e 0bbd f413 053d
00000180: 8dea c33c 5e9f 513d 4ba0 11be 2006 94bc
00000190: a6a7 31be 8e6f 4cbe f8a7 6fbe 3624 23be
000001a0: b8a5 a5bd 059c 3abe 4106 cc3c 219e 86bd
000001b0: bcbc e33c 9573 3c3d 0cb0 cabd e355 08bd
000001c0: 3675 c9bc 851f ec3c af24 d7bd 5404 3c3c
000001d0: 2641 563d 421b 6cbd 15d9 4d3b 4b5a d1bd
000001e0: 97f5 c2bd 14e2 c23c 4aee 213d 72c2 5bbd
000001f0: 75c2 83bc e08b f0be 9cbb 49bd f5e3 19bd
00000200: c42b 02bd 4b40 87be 9877 a8bd f4a3 c93c
00000210: 5833 93bd 4063 7abd 97e5 83bd 07a9 33be
00000220: f576 723d 06f5 d33d 75bf 883d 80b6 35ba
00000230: 274d 03bc 678a 543d cfb9 08bc a470 67bc
00000240: 9ba6 393b d5f7 cabe 287f 01be 609f 41bc
00000250: f8df 3d3c 004a b439 26ca 3fbd ff2c 15be
00000260: 80d7 e63a e014 c7be 6127 7b3c b7cc a73d
00000270: a4d9 993c 5585 15bd 875c 55be 5e8b 80bd
00000280: fbbf 03bd 1ca0 803c 6839 3c3d b9c6 93bd
00000290: 57b6 0fbd 0f1b 6bbd 3dbc 45be fa0b 62bd
000002a0: 670d 723d 8c50 f9bc 5435 43bd c869 4ebd
000002b0: 9b13 a2bd 110e 11be 11be f43b 1777 c03c
000002c0: 4247 d7bd c26d 78bd 00d3 80b9 0f2d 87bd
000002d0: 64be dd3c 37f0 203d 9827 40bc 4498 bdbc
000002e0: 7888 b8bd 5fc6 60be aa10 41bd b3e3 4fbe
000002f0: c613 0b3d ec5b 26bd 00fd 14be 95bb 343d
00000300: 1601 843c 4476 83bc 1fff 0bbd 83e7 eabd
00000310: a2ee 36bd ee46 46bd 823f 613c a5fc 8b3c
00000320: 541f a5bd 2178 96bd da3e 4d3d 9bbd ab3c
00000330: 51b2 a1bd 08d0 66bd 5bd0 233d f9b1 73be
00000340: 4c21 a63c 78a9 30be 7067 cd3b d9f1 bebd
00000350: 3c60 573d d818 8abd f226 0a3d 984b 7cbc
00000360: 4920 26bd ff52 b9bd 4594 c2bc 6721 47bd
00000370: 37f2 e0bd cb4a 8cbd a10e 17bd a1ed 96bd
00000380: f6bc 76bd 020e 8ebd aa1b cfbd 0f2c 8cbd
00000390: 36b4 3f3d 7d04 863c 7ba6 fb38 d646 d0bc
000003a0: 7c92 09bd f351 ab3d c099 54be 6677 103d
000003b0: 41a6 73bd f6e1 3dbd 189e 06bc 8d2b 41be
000003c0: 687a 1abd a91e a1bd f862 4abc dc15 8bbc
000003d0: f520 cbbb 342d d3bc 6010 d13b a12b 4fbd
000003e0: b1a6 d5bd f273 f5bc 88cd 3ebc 12e1 3dbd
000003f0: 9ac1 49be a7b6 ddbe 948c 57bd c1c2 0bbe
-0.045100138 -0.021518668 -0.06971053 -0.12777336 -0.21921971 -0.026633397 -0.07767593 -0.055898167
-0.07904294 -0.084422134 0.039978582 -0.0029268153 -0.25110745 0.033464275 0.03359615 -0.06254215
0.019276597 -0.012228237 -0.012939778 -0.034084395 -0.08786474 -0.0013424109 -0.04923399 -0.042157937
0.02640976 -0.27624568 -0.14338456 -0.14235163 -0.0054471116 -0.043857638 -0.1570574 -0.079228364
-0.120719805 0.020635046 -0.0001983568 -0.05630316 0.025045898 -0.057645332 0.012289729 -0.10723837
-0.08214469 0.011132344 -0.12726349 0.002602684 -0.0021778762 -0.010797942 -0.17415152 0.056516357
-0.027139785 -0.110425316 0.0014116598 -0.053009532 -0.033611022 -0.05421357 0.001775153 -0.012244387
-0.036014095 -0.109644584 -0.005042964 -0.44562632 -0.09483365 -0.015915807 -0.06466612 -0.024805082
-0.054603565 -0.09252575 -0.061098706 -0.023508362 -0.09011198 0.053651307 -0.06155686 -0.0032639424
0.009889607 -0.21402776 0.029537834 -0.014121909 0.019068565 -0.09209063 -0.10986368 -0.11278198
-0.09920501 0.05485217 0.033659734 -0.12095451 -0.024934143 -0.100091256 -0.017423635 0.067118965
-0.03530164 -0.014763446 0.05274412 -0.046122007 -0.098456606 -0.05043279 -0.03408704 0.032489732
0.023915553 0.051177375 -0.14221303 -0.018069327 -0.17349109 -0.1996443 -0.23403919 -0.15931782
-0.08088249 -0.18223579 0.024905326 -0.065731294 0.027799957 0.046008665 -0.098968595 -0.033285033
-0.024592023 0.028823623 -0.10505044 0.011475641 0.052308224 -0.057643183 0.0031409909 -0.102223
-0.09519499 0.023789443 0.03953389 -0.053652234 -0.016083935 -0.46981716 -0.049251184 -0.037570912
-0.03178002 -0.2641624 -0.08225936 0.024614312 -0.071875274 -0.06112981 -0.06440275 -0.17544948
0.059195478 0.10349469 0.066771425 -0.00069317967 -0.008014 0.051889803 -0.0083450815 -0.014125977
0.0028328064 -0.39642206 -0.12646163 -0.011817783 0.011589043 0.0003438741 -0.046823643 -0.14567946
0.0017611831 -0.38883114 0.015329213 0.08193343 0.018780537 -0.03650411 -0.20836078 -0.06276582
-0.03216551 0.015701346 0.045953184 -0.07215638 -0.035086002 -0.057398852 -0.19310088 -0.055187203
0.059094813 -0.030433916 -0.04765828 -0.05039385 -0.07913896 -0.14165522 0.0074689467 0.023494286
-0.10511638 -0.06065155 -0.0002457127 -0.06600391 0.027068324 0.039291587 -0.01172819 -0.023143895
-0.09010404 -0.21950673 -0.047135033 -0.20301704 0.033954404 -0.040615007 -0.14549637 0.044124205
0.016113799 -0.016047604 -0.03417885 -0.114699386 -0.04466117 -0.048407488 0.013748052 0.017088244
-0.08062616 -0.073471315 0.050108768 0.020964434 -0.07895339 -0.056350738 0.039993625 -0.2379836
0.020279549 -0.17252147 0.006268434 -0.093234725 0.05258201 -0.0674302 0.033728547 -0.015398882
-0.040558133 -0.090490334 -0.023752341 -0.04861584 -0.10983699 -0.06850203 -0.036879186 -0.07369543
-0.0602388 -0.069362655 -0.101126984 -0.06844341 0.046802722 0.016359562 0.00011999622 -0.025424402
-0.033586964 0.0836524 -0.20761776 0.035270117 -0.059484724 -0.04635807 -0.008216403 -0.1886427
-0.037714392 -0.07867176 -0.012352698 -0.016978197 -0.006198997 -0.02577839 0.006380126 -0.050578717
-0.104321845 -0.029962514 -0.011645682 -0.046357222 -0.1970276 -0.43303415 -0.0526243 -0.13648511

out_n.0.bias f4 [130]
00000000: 191d 41be bc24 b73e 556c ebbd c151 95be
00000010: 9e2b 8e3e c35f 48be ab44 ef3d 56a0 2238
00000020: fcd3 2bbe 7f5b e8bc 3f4a 33bd 68ea ee3d
00000030: 3727 a9bd d2d4 f53c 5090 1a3d 5231 95bd
00000040: f575 bcbb a44a 23be 52e6 373d 2846 0fbe
00000050: 5929 0e3e 3232 bf3d 1688 efbd 8b82 c53d
00000060: b09c 22be 3c44 b13c da03 02be c97e 643d
00000070: 1cda e6bb d7f6 f63c 0390 b4bc a994 9fbd
00000080: d450 3d3d f4ad 8abd e3c8 c7bc 1f72 4f3c
00000090: 19fe 78bd 0134 07bd 58cc 40bd e55d 8a3d
000000a0: c016 83bd ab7b bfbd 860e 4bbd 8425 6ebd
000000b0: 234e 87bd f93c ddbd 8397 ce3c 0fc7 afbb
000000c0: fae6 c2bd 5121 7bbc b810 94bb 90aa cdbd
000000d0: a062 5cbd 21dd 7abc de69 a9bc 0357 50bc
000000e0: bd82 65bd c5d3 4d3c 83e6 8fbd a022 babd
000000f0: b7fa 6c3d f8f2 4dbd ee1c f03c 313a 3cbd
00000100: cb78 27bc 1549 5f3c 6fa4 24bc ff8b dabc
00000110: 1ef2 36bd 898d 84bd 2007 2cbc 0cb5 c43c
00000120: afd3 c8bd 0f84 ec3c 3030 ba3c 83f5 a43c
00000130: 236f a3bc 5f29 3539 d94b b1bd 42f6 19be
00000140: 1361 1fbd ab40 6ebd 70af 9abd e86a c5bd
00000150: b637 60bb 0ea5 41bd fc51 89bd be36 a8bd
00000160: 229c 603d 8dd8 89bd 8596 8f3d e336 90bb
00000170: 68a7 d4bd 8665 5f3d 8142 d5bd 49fc 623a
00000180: ba35 64bd bde3 773c 2b36 d0bd 6774 1fbd
00000190: d48a 753d 66c3 e8bd c350 18bd 5f4f 2cbe
000001a0: cdf7 c3bd 8565 74bd 733a 63bd 36a0 b03d
000001b0: 4d41 0dbe 6bc3 c83c a928 65bd 3409 85bd
000001c0: 2bf6 31bd 6a04 d3bd bbff 773d c44f 33be
000001d0: 47a0 d63d 35d0 2f3b ec5d d3bd dc20 5dbd
000001e0: fdd0 ebbd 6a1e b7bd 9cb9 23be 33fb 843d
000001f0: 6a37 afbc 171b 753d b3b2 39be 1cb9 48be
00000200: f176 bd3e 53c6 b43c
-0.18858756 0.35770214 -0.11495272 -0.29163936 0.27767652 -0.1956778 0.11683019 3.8773134e-05
-0.16780084 -0.028363941 -0.04377198 0.11665803 -0.08259433 0.030008707 0.037735283 -0.07284798
-0.0057513663 -0.15946442 0.044897385 -0.13991606 0.1388296 0.09335746 -0.11695878 0.0964404
-0.15880084 0.021638982 -0.12696782 0.055784974 -0.0070450436 0.030147 -0.022041326 -0.077920265
0.04621966 -0.0677146 -0.024387782 0.012661486 -0.0607892 -0.03300858 -0.047069877 0.0675619
-0.064008236 -0.0934976 -0.049574398 -0.058141246 -0.066067 -0.10802645 0.02521873 -0.005364306
-0.095167115 -0.0153277675 -0.0045185946 -0.10042298 -0.053804994 -0.01531151 -0.020680364 -0.012716058
-0.056032885 0.012562697 -0.070263885 -0.090886354 0.057856288 -0.05028054 0.02931067 -0.045953933
-0.01022167 0.013628264 -0.01004897 -0.026678083 -0.044664495 -0.06472308 -0.010499746 0.024012111
-0.098060004 0.028871564 0.022728056 0.0201366 -0.019950455 0.00017276917 -0.08657045 -0.15035346
-0.038910937 -0.05816714 -0.07552993 -0.096395314 -0.0034212894 -0.04727655 -0.067050904 -0.08213566
0.0548364 -0.06730757 0.07011131 -0.0044010743 -0.10383493 0.05454018 -0.10413075 0.0008658809
-0.0557153 0.015129981 -0.10166582 -0.03892937 0.05994685 -0.11365394 -0.037186395 -0.16827153
-0.095687486 -0.05966713 -0.055475663 0.08624308 -0.13794442 0.024507245 -0.05594698 -0.06495896
-0.043447655 -0.10303576 0.060546618 -0.17510897 0.10479789 0.0026826982 -0.103206486 -0.053986415
-0.11514471 -0.08941348 -0.15988773 0.06493225 -0.021388728 0.059840288 -0.18134575 -0.19601864
0.37004808 0.022067225

out_d.0.weight f4 [130, 256]
00000000: 5e01 01bd 7ab0 72bd fb9a 37bd 8ef1 0cbd
00000010: c081 00be 307b 583d 4a8b 3cbd c074 fabc
00000020: b473 9fbc cce6 29bd 704e 0fbd ed77 c5bb
00000030: b27a afbd f65f 67bd 4da6 0b3c b34a f4bc
00000040: 4ce1 dbbc 1820 6d3d 9df0 1cbc 777e 43bd
00000050: d517 173d 6005 763d df76 243d aab5 3bbd
00000060: 706c abbd 608a 89bb a068 0ebd 9b72 d6bc
00000070: 0af8 2dbd 15cd 113d 66b8 0fbd 42dd 35bd
00000080: e2a1 06bd c0e8 3e3c 4838 2f3d 9a7a 70bd
00000090: b4b0 91bb a2a2 8b3c 95c3 56bc 6e5b 863c
000000a0: 2c39 e5bc db83 73bd 14d7 a9bd 2939 3fbd
000000b0: ed6e ed3c 788d 2fbd 33fd 4fbd 6110 20bd
000000c0: c14d 5b3d ad51 64bc 4527 3dbd 8484 8abc
000000d0: 7c8a 663d c386 0cbd f04c 5dbd 4208 1fbd
000000e0: 4fa0 d53c 6d75 223d 0fdd 143d 0c42 b9bc
000000f0: 554c 12bd 0122 64bc ea0b 433d 5a31 613d
00000100: 96e7 3a3d fe0f 76bd 5c8a 643d 23e5 a23c
00000110: 8602 e8bd a996 6fbc 1cb6 2e3d 9fe9 533d
00000120: 1507 143d bbcd f1bd 7616 22bd bc29 85bb
00000130: 499b 07bd 5430 cf3a 0b86 043d c664 d4bc
00000140: 0f13 cebd 296c 28bd b7a2 353b 2c61 53bb
00000150: b898 653d ac38 533d 83fc f33c 2f6c 0cbd
00000160: 5e89 87bd 95af c73c 9761 e13c f0dc c03b
00000170: 8ad3 4a3d 9775 6abc 1b3f 373d 3a71 83bd
00000180: 191c 48bd f48b e0bc 7c84 f6bd 86cb 2d3c
00000190: 760e 2e3d 9f50 debd fc4a 87bd a023 293d
000001a0: 656c 47bd 24ba efbd 9181 a4bb f633 273d
000001b0: ee5d 3c3d db66 5e3d c0fc 94bd 505e f9b7
000001c0: 084d 66bc 5cfb 9cbc ee8d 13bc 4333 253c
000001d0: ecff f53c b4df 68bd 0cf8 0e3c af44 9cbd
000001e0: fd41 963d 089c 5a3d aaf9 6f3d 2755 e3bc
000001f0: 79ab 5f3c 19c3 063d cc62 f5bc c9ac 753c
00000200: fb36 0cbc 4358 11bd b3d3 ccbc 605c 4cbd
00000210: d129 613d c851 753d 2da9 aebb 39e9 0cbd
00000220: ff51 283d 211b 0f3d 39df 9bbb d03b 0e3d
00000230: bbd2 42bd e862 84bd 8abf 843c 7eca e13c
00000240: 3a5c 123d f0a6 d4bd c800 e73b 78db 283d
00000250: 2237 24bd fec4 4e3d bc24 413c c3a6 b5bd
00000260: 1c20 093d 49a8 dabc 38dd 5b3c 8145 0dbc
00000270: 7694 663d 4da1 b23c 7742 96bd bd3a 23bc
00000280: 577d 61bd 8b06 9c3c f5f8 9f3d c56d 11bc
00000290: 805f 3dbc 3436 41bc 149d 0fbe 1945 13bd
000002a0: 36a2 343b f016 843b 39c1 873c 00d3 0cbc
000002b0: cfe2 98bd fac7 a9bd 6e16 bbbc 9be7 653c
000002c0: 2836 0dbd d294 53bc 40ab daba 15fe 453c
000002d0: 0052 323c 7ccd 603d 02b9 7fbd 3621 bfbb
000002e0: cd86 e3bb 310d 66bd c903 28bd 5ee2 49bc
000002f0: e001 743d d50b 4cbc f145 f8bc 8d9e 603d
00000300: 0743 0bbd 705e e73b 2581 88bd f75f 5abc
00000310: 864e 533d 99ee a7bd ee72 5ebd ab5f 87bd
00000320: 476b c6bd 89da ddbb 4688 253d 50f9 4b3d
00000330: 8ef4 00bd 06e5 32bd ce88 b5bc c04a 95bd
00000340: bc1a a8bd eda7 4abd 44b3 87bc b8d9 a23c
00000350: 145d 433d 5125 8cbc 0071 91ba d094 9dbd
00000360: 92c8 663c 8f5f 33bd 5fe8 533c f4fb 133a
00000370: e193 adbd 0082 383d 6b33 35bd be10 7ebd
00000380: 7472 aabc b119 d038 41c6 503d 7f14 e7bc
00000390: 88b2 983c b5d6 cfbc a8c2 5a3d 460e 1fbd
000003a0: 6000 7cbd c7dd 113d 2a18 6dbd 6520 0bbc
000003b0: 8234 0fbc 22d2 683d 8082 c1bc d65a fd3c
000003c0: fc39 4a3d 578b d93d 651a b7bc 9489 33bc
000003d0: 2e40 3ebd 3423 8bbd 0097 2bba 0f7d 073c
000003e0: 3527 733d 5cba afb9 e4ae d0bc c622 dc3c
000003f0: a096 b3bc 1459 b6bb ecd3 f8bc a4ce 56bd
-0.031495444 -0.059250332 -0.044825535 -0.034410052 -0.12549496 0.052851856 -0.046031274 -0.030573249
-0.019464351 -0.04147987 -0.034986913 -0.006026259 -0.08568324 -0.056488 0.008523536 -0.029820776
-0.026840828 0.057891935 -0.009578851 -0.04772803 0.036887962 0.06006372 0.040152427 -0.045827545
-0.08370292 -0.004197404 -0.034767747 -0.026177695 -0.042472877 0.035595972 -0.035087965 -0.04440046
-0.032869227 0.011652172 0.042778283 -0.058710672 -0.0044461135 0.017045323 -0.013108154 0.016401019
-0.027981363 -0.05945192 -0.08292976 -0.04668537 0.028983558 -0.042859524 -0.05077858 -0.03907812
0.05354095 -0.013935489 -0.04618003 -0.016908891 0.056284413 -0.034308206 -0.05402845 -0.038826235
0.026077418 0.039662767 0.03634363 -0.022614501 -0.035717327 -0.013924123 0.047618784 0.054978706
0.045631014 -0.060073845 0.055796012 0.019884652 -0.11328606 -0.0146233225 0.04265414 0.05173647
0.036139566 -0.11806818 -0.0395722 -0.004063813 -0.033107076 0.001580725 0.032354396 -0.025926959
-0.10062229 -0.041118775 0.0027715394 -0.0032253964 0.056053847 0.05156772 0.029783493 -0.03428286
-0.066179976 0.024375716 0.027512355 0.005885713 0.049518146 -0.014310262 0.044737916 -0.06418081
-0.04885492 -0.027410485 -0.12036988 0.010607606 0.04249426 -0.10855221 -0.06606099 0.04129374
-0.048687357 -0.117054254 -0.0050203283 0.04082104 0.045988016 0.05429731 -0.07274771 -2.972703e-05
-0.014056452 -0.019162826 -0.009006007 0.0100830225 0.03002926 -0.056853965 0.008726131 -0.07630288
0.07336805 0.05337146 0.058587708 -0.027750565 0.013651722 0.032900903 -0.029954337 0.0149948085
-0.00855803 -0.035484564 -0.02500329 -0.049892783 0.05497152 0.059892446 -0.005330226 -0.034402106
0.041093823 0.03493798 -0.004756835 0.03472501 -0.04756425 -0.06464177 0.016204614 0.027562376
0.035732485 -0.10383403 0.0070496537 0.041224927 -0.04009164 0.050480835 0.011788543 -0.08869698
0.033477888 -0.026691573 0.013419442 -0.008622528 0.056293927 0.02180543 -0.07336896 -0.009962735
-0.055051174 0.019046089 0.07811157 -0.008876269 -0.0115584135 -0.011792708 -0.14024764 -0.03595457
0.0027562506 0.0040310547 0.016571628 -0.008595228 -0.07465135 -0.082900956 -0.022837844 0.01403227
-0.034475476 -0.0129138995 -0.0016683117 0.012084504 0.010883808 0.054883465 -0.062432297 -0.0058328165
-0.0069435597 -0.056164924 -0.041019235 -0.012322037 0.0595721 -0.012453993 -0.030306788 0.054838706
-0.03399947 0.0070608184 -0.06665257 -0.013328544 0.051588558 -0.08199806 -0.054308824 -0.06610044
-0.0968843 -0.006770436 0.040413164 0.04979831 -0.031483226 -0.043675445 -0.02215996 -0.07289648
-0.08208224 -0.049476553 -0.016564973 0.019879207 0.047696188 -0.017107638 -0.0011096299 -0.07694399
0.014085906 -0.043792304 0.01293382 0.0005645149 -0.08475471 0.045045853 -0.04423849 -0.062027685
-0.020806529 9.922998e-05 0.05097032 -0.028208015 0.018639818 -0.025370935 0.053408295 -0.03883197
-0.061523795 0.035611894 -0.057884373 -0.00849161 -0.008740546 0.056841023 -0.023621798 0.030927103
0.049371704 0.1062228 -0.022351453 -0.010958094 -0.046447925 -0.06793824 -0.0006545633 0.008269562
0.059363563 -0.0003351745 -0.02547402 0.02687205 -0.02192241 -0.005564818 -0.03037449 -0.05244316

out_d.0.bias f4 [130]
00000000: 09ca d1bd 7c52 25be cd2b 70bd 2683 c83b
00000010: 90b7 ecbb ddfb 603d a856 aebc e769 83bd
00000020: ded4 eb3c a4d7 dbbd fec2 7b3d 77b0 f2bc
00000030: 7c30 5b3d 1451 8c3d 21b5 353d c897 133c
00000040: b9af 34bc ea50 54bd 262a 683c 18b0 0f3d
00000050: 448c 163d b0ab 1d3b a8b8 3bbc 0571 013d
00000060: c0f7 2c3c a705 50bd aa76 8ebc b0f0 71bd
00000070: c2fa 24bc bd44 673b be33 e9bb a5e5 1cbd
00000080: f56a 883a 2de7 053d 03bd 9abd 9621 27bd
00000090: 731e 97bd 55cb febc d320 fbbc 39eb 39bd
000000a0: f681 71bd e201 3d3c 51c0 6c37 4f4b afbd
000000b0: 386a 083d b0f8 153b 5f08 bbbc 6255 b8bd
000000c0: e11c b6bc 8539 97bd f0d9 22bd 34b0 acbd
000000d0: 36f0 3cbd 4c2e 46bd 0e94 023d 9deb 8cbd
000000e0: 3de6 a3bd 48a1 0c3d c55d eb3c ba0e ad3b
000000f0: 7cf5 37bc c814 603c 7348 0cbd d6d1 5c3c
00000100: e2c4 95bd d04c b5bc 8894 8c3c c9c2 67bb
00000110: b828 c3bd ee30 eebc b331 87bd d5cb 97bc
00000120: 5e79 c7bd 54cc 50bd 655e 3abd d443 b5bd
00000130: e759 c73a 1298 e33b c9e5 8039 10ad debc
00000140: 1a28 c5bd f193 14bd 36f7 a3bc e622 97bc
00000150: b41d a5bc 4d57 57bc 0caa 83bc e778 a4bd
00000160: af27 6b3c c1ad 53bd 2622 9cbd db42 06bc
00000170: ca59 59bc 7e44 9cbd f100 c3bc c404 5abb
00000180: 3169 54bd ef7b afbc 021d 7fbc f289 fd3b
00000190: 3192 de3a ff96 6ebd e638 5ebb 6bc9 fbbc
000001a0: 5fa2 6abd 0dcb 5bbd d155 fcbc f288 063d
000001b0: b816 9db9 162b 99bd 0fd1 8dbd 81ef e23c
000001c0: 45a4 09bd ab54 81bd 4b2b 05bd 3933 27bd
000001d0: c894 41bd 4ed3 953d ee4b 96bc e86e 9cbd
000001e0: 0fc9 5dbd 08b9 cebd afc8 ffbc 3218 3b3c
000001f0: f4bf e03d 85ac adbc 195d 2fbd f701 03be
00000200: 7ee9 7abd df2b 20be
-0.10243613 -0.16144747 -0.05863552 0.0061191497 -0.007224031 0.054927696 -0.021281555 -0.06416684
0.028788026 -0.107344896 0.061465256 -0.02962516 0.053513035 0.06851402 0.04436219 0.009008355
-0.011028224 -0.05183498 0.014170205 0.035080045 0.03675486 0.0024058633 -0.0114576 0.031601924
0.010557115 -0.05078664 -0.017390568 -0.059067428 -0.010069551 0.0035288774 -0.007116764 -0.038304944
0.0010407852 0.03269117 -0.075555824 -0.040803514 -0.073788546 -0.031102816 -0.0306553 -0.04539034
-0.05896183 0.011536093 1.4111473e-05 -0.08559286 0.033304423 0.0022883825 -0.02283114 -0.090006605
-0.022230567 -0.07384018 -0.039758623 -0.084320456 -0.04612752 -0.048383996 0.031879477 -0.06880877
-0.08002899 0.034333497 0.028731236 0.0052812966 -0.011227962 0.01367683 -0.03424878 0.013477763
-0.07312943 -0.022131354 0.017160669 -0.0035363904 -0.09529251 -0.029076066 -0.06601276 -0.018529812
-0.09739946 -0.050976112 -0.045500178 -0.08850828 0.0015209288 0.0069456184 0.00024585266 -0.027182132
-0.096267894 -0.0362739 -0.02001534 -0.018449258 -0.020155765 -0.013143373 -0.016072296 -0.08030873
0.014352723 -0.051679377 -0.07623701 -0.0081946505 -0.013266036 -0.07630251 -0.02380416 -0.0033267
-0.05185813 -0.0214214 -0.015570881 0.0077373916 0.0016980824 -0.05824947 -0.0033908426 -0.030735692
-0.057283755 -0.05366044 -0.03080264 0.032845445 -0.000299623 -0.07478921 -0.069246404 0.027702095
-0.033603925 -0.06314977 -0.03251199 -0.040820334 -0.04726103 0.07315694 -0.018346753 -0.07638341
-0.054146823 -0.10093886 -0.031223623 0.011419343 0.10974112 -0.021200428 -0.042813394 -0.12793718
-0.06125783 -0.15641735
