ch3_figures_output_tuned_corrected/model_100L_linear.pth (torch, 576153 bytes, 8 tensors)

backbone.0.weight f4 [256, 100]
000000 f3 76 8a 3d 02 80 9a bd 60 4c fb bc 17 37 3b 3d
       0.06760969 -0.07543947 -0.030676067 0.045706835
000010 27 d7 3c 3c 85 7a 93 bd 3a 31 40 bd c0 60 6c 3c
       0.011525906 -0.07201103 -0.046921946 0.014427364
000020 43 94 2f 3d 05 5c bc 3d 85 bc a5 3d d8 19 8b bd
       0.042866003 0.09197239 0.08092598 -0.06792039
000030 4d 8e 34 bd 40 0a 05 3c 47 a8 c5 bc 2d a9 2e bd
       -0.04408102 0.00812012 -0.024128092 -0.042641807
000040 da 22 b8 bd 7a a7 c2 bd f0 b4 7f bd 80 b9 f6 bc
       -0.089910224 -0.095046 -0.062428415 -0.03011775
000050 1a 79 70 bc 07 03 7a 3d 43 7f 67 3d 03 92 1b 3d
       -0.01467731 0.061038043 0.05651785 0.037981045
000060 1d e4 92 bd 8f f1 9b 3d 97 6e 52 bd 9a 44 a2 3b
       -0.071724154 0.07614433 -0.051374998 0.0049520256
000070 30 f1 28 3d e3 f5 92 3d 25 4e a0 3d 93 b0 45 bd
       0.04124564 0.071758054 0.07827405 -0.048264097
000080 1a 48 75 3d 7d f9 0d 3d bf 34 8d 3d 67 f3 21 bc
       0.059883215 0.03466176 0.06894826 -0.009884692
000090 00 a7 91 3d aa 10 47 bd 4d 15 a0 3c da c4 9e 3c
       0.07111931 -0.048599876 0.019541407 0.019380976
0000a0 00 10 83 bd fa 5a 02 bd 0d 8a 1d bc 07 c1 e6 3c
       -0.06399536 -0.031825043 -0.009615433 0.028168214
0000b0 c0 49 98 3c 1a fc 0c 3c 5d 9a 79 bd cd 87 25 3d
       0.018589854 0.008605028 -0.060938228 0.040412713
0000c0 c0 99 aa bc 90 47 49 3d c3 f5 81 bd 5f 7a b8 3d
       -0.020825267 0.049140513 -0.063457035 0.090077154
0000d0 b3 34 eb bc 7a 09 fc bc b3 d8 c7 3d 8f 0e 88 3d
       -0.028711652 -0.030766238 0.09758129 0.06643402
0000e0 a0 73 69 bd 8d 70 a2 3c aa db 7c bd f3 13 49 3d
       -0.056995034 0.019829059 -0.061732925 0.04909129
0000f0 33 65 63 bd cd f0 8c 3b 73 9b 45 bc 5d 08 59 bd
       -0.055516433 0.0043011666 -0.012060988 -0.05298649
000100 67 71 aa 3b 67 2b 22 3c 67 35 47 bd 00 1a a9 3a
       0.005201507 0.009898043 -0.048634913 0.0012901425
000110 73 4f 8a bd 33 6e 95 bb b3 ad e3 3b 27 b5 66 3d
       -0.06753435 -0.004560256 0.006948197 0.056325104
000120 75 98 a9 3d 53 8c c8 bc 00 b0 2f bb 30 05 a2 3d
       0.08281032 -0.024480974 -0.0026807785 0.07911146
000130 e7 f5 8d bc f3 05 94 3d 22 c9 b0 bd f7 fc 92 3d
       -0.01732917 0.07227697 -0.08632113 0.071771555
000140 7a f7 86 3c 4d 93 3b 3c a3 43 b5 3d 5d 59 b3 bd
       0.016475428 0.011448693 0.08850791 -0.08757279
000150 33 56 13 bb 4d 93 91 3b 27 bb 90 bd 5d 81 12 3d
       -0.0022481799 0.0044426084 -0.070669465 0.0357679
000160 33 0c 4d bd 03 b8 52 bd 67 9d 6f 3b 8a a9 be 3d
       -0.050060462 -0.05144502 0.0036562325 0.09309681
000170 40 11 8c 3c ad 6a 9d 3c 50 a4 2e bd 0d bf 54 3c
       0.01709807 0.019215906 -0.04263717 0.012985003
000180 40 da 1d bc 2d 6a 06 bd 7d 6a 48 bd fa f1 be 3d
       -0.009634554 -0.0328161 -0.04892968 0.09323497
000190 1b 7e 96 3d fe a4 1b 3c 23 be 5f bd 8e 95 ef 3d
       0.073482715 0.009499786 -0.054624688 0.11698447
0001a0 38 d7 e4 bd cc b2 cc 3d 6a 6c ea bd ce b2 2b bd
       -0.11173862 0.0999504 -0.114464596 -0.04191857
0001b0 4a 34 90 bc 6b 59 91 3d 60 c5 84 3c c4 e5 42 bd
       -0.017603058 0.07097133 0.016207397 -0.047582403
0001c0 3e b1 be bd 0a 7a 4f 3d bc c3 fb 3c eb 16 89 3d
       -0.0931115 0.050653495 0.030732982 0.066938244
0001d0 5e 2b c8 3d 44 cd 64 3d b7 73 e5 bd a8 80 68 bd
       0.09773897 0.05585982 -0.112037115 -0.05676332
0001e0 a0 2e a6 bd 75 7f 99 bd 14 11 81 bd a0 d5 dc 3c
       -0.08114362 -0.074950136 -0.063020855 0.026957333
0001f0 f7 06 d4 3d 47 7f 84 bd 6f 4d 83 bd 8d ca 28 3d
       0.10352891 -0.06469589 -0.06411254 0.041208792
000200 39 04 b1 bd 96 81 2c 3d 83 9d 88 bd 60 7f 38 bd
       -0.086433835 0.04211577 -0.06670668 -0.04504335
000210 96 42 8f 3d 61 40 c3 bd e4 12 82 3d 43 94 86 3d
       0.06995122 -0.09533764 0.06351259 0.065712474
000220 ae a6 71 3d 03 b2 0d bd d1 80 00 bd 4f 80 6e 3d
       0.05899685 -0.034593593 -0.03137285 0.058227833
000230 e7 17 03 bc f2 b0 2e bd a4 ce f6 3d dc 5a d2 3c
       -0.008001304 -0.042649217 0.12051132 0.02567809
000240 8a 99 00 3c b3 ac 91 bc ba 4b 8c 3d fc 28 64 3d
       0.007849107 -0.017782545 0.06850381 0.05570315
000250 a5 1f 8a 3d 5f a8 93 bd 6d 73 e4 bc a2 d3 8e bb
       0.06744317 -0.072098486 -0.02788707 -0.0043587247
000260 88 44 82 3c df 3e 2f 3d a7 b2 88 3c 15 9e 9b bd
       0.015901819 0.042784568 0.01668675 -0.07598511
000270 69 ff a7 bc ac 70 44 3d 4a 37 cc bc 40 67 a7 3c
       -0.020507531 0.047959015 -0.024928708 0.020434976
000280 6a 87 99 bd a3 4b 63 3d 60 d2 c8 bd 6c d4 f9 bc
       -0.07496531 0.055492055 -0.09805751 -0.030496798
000290 8e ea b4 3d a5 b8 5f 3d 26 ef 9a 3d a5 08 94 3d
       0.088338 0.05461945 0.07565145 0.07228211
0002a0 d7 09 d6 3d 30 5a 8b 3c f3 ee 3a bd 68 92 ef bb
       0.104510956 0.017010778 -0.045638036 -0.007311154
0002b0 09 03 f5 3c 7e 08 92 bd b7 fe fb 3b 02 02 59 3d
       0.029908674 -0.07130526 0.0076902765 0.05298043
0002c0 4d af 6e 3c 05 2e 9a bd db 21 0d bc 22 87 7f 3d
       0.014568162 -0.07528309 -0.008614029 0.062384732
0002d0 78 ab be 3c a7 ca 60 3c 84 e1 da 3d 85 1d 90 bb
       0.023275122 0.013720191 0.10687545 -0.0043980503
0002e0 06 c0 22 3d e4 8c 9e 3d 11 6a 7d bd 98 59 2a bd
       0.03973391 0.077417165 -0.06186873 -0.04158935
0002f0 f5 fa 81 bd 01 f1 3e bd 60 9a 4b bd e8 58 f5 3c
       -0.063466944 -0.046616558 -0.04970777 0.02994962
000300 f3 3b 9b bd b7 30 07 3d b0 5f 93 bd f3 3a cf 3c
       -0.07579794 0.033005442 -0.07195985 0.025296664
000310 0b 06 74 bc 4a ee a1 3c f3 c3 1c 3d f3 64 de bc
       -0.014894019 0.019766945 0.03827281 -0.027147746
000320 c3 82 b4 bc 7a 02 17 bd 61 0f e4 bc a5 b8 38 3d
       -0.022035008 -0.036867596 -0.027839364 0.045097966
000330 ea 46 fe bd d4 a1 45 3d 96 bd a1 bd 1b b1 9b bd
       -0.124158695 0.048250034 -0.07897489 -0.076021396
000340 14 e8 33 3c f4 6d 81 3d 2a ac 40 bc 50 55 68 bc
       0.010980625 0.063198 -0.011759797 -0.014180496
000350 71 8f 50 3c b4 08 eb bd 38 25 be bc 2b 95 04 3c
       0.012729512 -0.11476269 -0.023211107 0.008092205
000360 a5 98 bf 3d f2 16 22 3d 32 e1 c6 bd 90 72 f9 bd
       0.093552865 0.039572664 -0.09710921 -0.12180054
000370 0f 4a 96 3c 15 6e ff 3d 49 02 b1 3d 6f 53 d5 3d
       0.01834586 0.12472168 0.08643014 0.10416304
000380 eb c8 e4 3d f2 77 18 3c f2 7f a0 3d 53 59 d0 3c
       0.111711346 0.009305941 0.07836904 0.025433218
000390 af 07 43 bd bb c6 cd 3c 6c e7 3f bd d6 06 cc bd
       -0.04761475 0.025119176 -0.04685156 -0.09962241
0003a0 0d 4c f9 bc a0 c9 0b bc 7c 01 8d 3c c5 fe da bd
       -0.030431772 -0.008531958 0.017212622 -0.10693125
0003b0 0e 3d 4e bd 11 49 8e 3d 12 87 27 3d 39 90 51 3b
       -0.050351195 0.0694753 0.040900297 0.0031976833
0003c0 5c f6 ee 3c f7 39 d6 bc 70 a7 5f 3d 96 4e 04 be
       0.029170208 -0.026150687 0.05460304 -0.12920603
0003d0 e5 c9 08 3b 11 bd ce 3b 54 b6 3d bd 1a 2c 71 3d
       0.0020872292 0.0063091596 -0.04631646 0.05887995
0003e0 b7 ca cf bc e5 32 8a 3d 8b 8f 68 bd 74 45 18 3a
       -0.025365217 0.067479886 -0.05677752 0.0005808689
0003f0 d2 20 ac 3d 40 25 17 bd 9b 85 41 bd d9 97 1c 3d
       0.084046975 -0.03690076 -0.047246557 0.03823075

backbone.0.bias f4 [256]
000000 37 67 34 bd 54 bf fb 3c cc 0d 4e bd e3 0d b0 bd
       -0.044043746 0.03073088 -0.050306126 -0.08596399
000010 e7 80 b0 bb 62 83 c5 bd e7 66 04 bd 50 89 5e bd
       -0.00538646 -0.096442 -0.032324698 -0.05433017
000020 26 28 7b 3d dd ed da bd 1a 03 a9 3c 14 8d 8d 3d
       0.061317585 -0.106899 0.020631362 0.06911674
000030 21 eb 03 be 4d 60 be bc 73 1e e1 bc 7c 27 0d be
       -0.12882663 -0.02323928 -0.02748034 -0.13784593
000040 b3 3e eb ba 3f 41 2c bd c6 39 1a 3d 6f a6 92 3d
       -0.0017947763 -0.04205441 0.037652753 0.07160651
000050 52 83 3d bd 8a 5a 24 bd 3a 9a 85 bd 2b 9e 3f 3d
       -0.046267815 -0.040125407 -0.06523557 0.0467817
000060 bc 7e de 3c 7d 2c b1 3c 92 c3 a3 3d fa d1 56 3d
       0.027160041 0.021627659 0.079962865 0.052446343
000070 20 b7 a0 bc e7 31 49 bd 78 95 a1 bd e5 d6 ef 3b
       -0.01961857 -0.049119856 -0.07889837 0.0073193186
000080 4d 3a 81 3c e0 12 62 3d c3 d0 8c bb 15 e1 76 bd
       0.01577487 0.05519378 -0.0042973473 -0.06027325
000090 3d 35 0e 3d f3 d1 49 3d 65 cf a8 bd 33 b1 a9 bb
       0.03471874 0.04927249 -0.08242682 -0.0051785945
0000a0 ab 5c 90 bd 63 7a b3 3d 90 61 95 bd d0 a1 7e 3d
       -0.07048925 0.08763578 -0.07293999 0.062166035
0000b0 4c 5f a6 bc 29 80 b3 3c 6e 6c 67 3d ca 46 b9 3d
       -0.020309113 0.021911697 0.05649989 0.09046705
0000c0 7a 07 8e bd 8a a1 a1 3d 6a a7 7a bd 73 88 8c 3d
       -0.0693502 0.07892139 -0.061194815 0.06861963
0000d0 03 57 4a bd 33 fc 2c 3d 65 1a 99 3d 1a ca cc bd
       -0.049399387 0.042232703 0.074757375 -0.09999485
0000e0 df 1a 4b bc 00 6c a7 3c e2 2e 9b 3d 6a d5 71 3d
       -0.012396543 0.02043724 0.075773016 0.059041418
0000f0 ca b2 35 3d 90 a2 04 3d 95 db 5c 3d 68 2d 94 3c
       0.04435996 0.032381594 0.053920347 0.018088058
000100 d3 4d 4c bd c3 d1 84 3d af 46 9c bd a9 4e da bd
       -0.049878906 0.064853214 -0.07630669 -0.106595345
000110 32 62 8b 3d d0 e8 f7 bd 47 f6 41 bd 83 fe 96 bc
       0.06805839 -0.12104952 -0.04735401 -0.018431908
000120 e9 a9 71 bd 00 89 83 bc 5a 9e a6 3d dd 4a b5 bd
       -0.05899993 -0.016056538 0.08135672 -0.0885217
000130 00 c2 92 3b 00 02 40 3b 87 6c e8 bd 4b 3c 39 3d
       0.004478693 0.0029298067 -0.11348825 0.045223515
000140 90 54 28 bd 7b 93 84 bc 2a cc 91 bd 8a 1d 11 3d
       -0.04109627 -0.016183605 -0.07119019 0.03542856
000150 f3 b0 a6 3d 78 a8 87 bd cd cb 8f 3c 5f 4d 8d 3d
       0.08139219 -0.0662393 0.017553234 0.06899523
000160 00 8d 57 bb f6 7d 90 bd 97 2e b5 3d ea 79 6a 3d
       -0.003289044 -0.07055275 0.08846777 0.057245173
000170 1d e7 50 3d d0 e4 9b bc c8 b7 be bd 3b 93 8e bd
       0.051001657 -0.019030005 -0.09312397 -0.06961676
000180 17 9a 7f 3d 4d 78 ef bd 6d 6c a5 bc 48 c3 b2 bd
       0.06240281 -0.116928674 -0.020193303 -0.08728653
000190 f2 f8 46 3d 9c 05 33 3d f7 8f 44 3d 5e d7 16 bc
       0.048577257 0.04370652 0.047988858 -0.009206621
0001a0 52 1e d7 bd b8 05 63 bd 53 95 8d bd 13 2e c3 3c
       -0.1050383 -0.055425376 -0.06913247 0.02382568
0001b0 47 d1 98 3d 13 ba 9d 3d ab 7c 8e bd e9 70 4e bc
       0.074617915 0.077015065 -0.06957372 -0.012600162
0001c0 87 cb 7d 3d 92 4d 80 3d 7b 4b a8 bb 67 ce 98 bd
       0.061961677 0.06264795 -0.005135951 -0.07461243
0001d0 fb 0a 9e 3c 6a 32 37 bd 7a a9 9c 3c 8a 3f c6 bd
       0.019292345 -0.044725813 0.019123781 -0.09680088
0001e0 d2 6e dd bd 9d 5d 94 bd 23 cb 3b 3d e2 df 55 bd
       -0.10812153 -0.07244418 0.045848023 -0.052215464
0001f0 73 08 61 3d da 73 25 bc 2d 47 c4 3c f3 66 da bc
       0.0549397 -0.010098422 0.02395972 -0.026660418
000200 b0 e3 82 3d 76 9f 86 bc 33 66 b1 bb e7 86 10 3d
       0.06391084 -0.016433459 -0.0054137944 0.035284903
000210 59 3b d6 3c 55 2b 51 bd 08 09 8a 3d e9 e3 c6 3b
       0.026151346 -0.051066715 0.06740004 0.0060696495
000220 ea fa 73 3d 8b 89 59 3d 40 e0 8c 3c 30 68 97 3c
       0.059565462 0.053109687 0.017196774 0.018482298
000230 72 e1 60 bd 80 32 d6 bd 1a cf 93 bc d1 f0 3b bd
       -0.0549025 -0.10458851 -0.01804309 -0.045883957
000240 30 ed 4c 3d 7a 92 60 bd d0 13 58 3d 88 b5 fc bc
       0.050030887 -0.05482719 0.05275327 -0.03084828
000250 31 d6 04 be 14 30 9b 3c 53 16 f4 bc 28 6b c9 bd
       -0.12972333 0.018943824 -0.029795801 -0.098348916
000260 60 da d5 3c 08 a5 70 bd ca a7 d4 bd 33 62 77 bb
       0.026105106 -0.058751136 -0.10383566 -0.003774774
000270 97 3b ed bd ed 16 21 bd 3b 06 08 be 53 d7 a9 bc
       -0.115836315 -0.039328504 -0.13283627 -0.020732557
000280 37 8d ad bd c8 bf 9d bd ba e7 8c bc 87 d9 32 bd
       -0.084742 -0.07702595 -0.01720034 -0.04366448
000290 70 40 c5 bc db c3 cc bd ad 77 24 3d f3 55 97 3c
       -0.024078578 -0.09998294 0.040153194 0.018473601
0002a0 b3 38 52 bc 5d 2a 14 bd 9e 16 4b bd 4d 7e 5a bc
       -0.012830901 -0.036173213 -0.049582116 -0.0133357765
0002b0 5a 66 ad bd e3 83 6a bd a3 56 c8 bd a5 fb 4f bc
       -0.08466788 -0.057254683 -0.0978215 -0.012694274
0002c0 3f 91 00 3d d1 17 c0 bd ad 17 8e bc 1d 75 49 3d
       0.031388517 -0.093795426 -0.017345274 0.049183954
0002d0 bd 76 13 3d 3d 5d a8 bd fa 15 be 3c 73 ba 91 bc
       0.03600191 -0.08220909 0.023203839 -0.017789101
0002e0 d2 fb 51 bd 3a fb 85 3c b4 1f 4a bd 87 70 c2 bc
       -0.051265545 0.016355146 -0.04934664 -0.023735298
0002f0 40 ef 53 3c 8d 0e 4e 3d b6 bf 51 3d 74 c8 67 3c
       0.01293546 0.050306845 0.05120822 0.014146913
000300 38 05 04 be bd 8d 83 bd 77 b8 47 bd ff 19 0b 3d
       -0.12892616 -0.06423519 -0.048759904 0.03396034
000310 33 b0 71 bd b5 c0 87 bd 18 d0 b7 3d 63 ed 30 3d
       -0.059005927 -0.06628553 0.089752376 0.04319514
000320 e9 c5 0f bd 58 5f df 3c 1a 17 9d 3c 8d 3b b0 bd
       -0.03510085 0.027267143 0.019176055 -0.086051084
000330 52 c4 01 be b3 2a 10 bc 27 ad 2d bd 28 97 2e 3d
       -0.12672547 -0.008799243 -0.04240146 0.042624623
000340 c2 de 9b bd e6 00 2e 3c 5d 56 4e bd c7 bf e0 3c
       -0.07610847 0.010620331 -0.05037533 0.027435197
000350 3e 6f ed 3b e0 ae 86 3d 93 32 a0 bd 80 bd 0b 3d
       0.007245927 0.065763235 -0.07822146 0.03411627
000360 93 0e 45 bd ed b5 e4 bc e5 84 38 3c ec bc 01 3d
       -0.048109602 -0.02791878 0.011262153 0.03167431
000370 33 ef 7b 3b c0 4d d1 bc 8d 43 38 3d 5a 35 8a 3c
       0.0038442134 -0.02554977 0.044986296 0.016871143
000380 27 60 1e 3d 9d ac 58 bd 49 fb 79 3d 4c 57 3b 3c
       0.038665917 -0.05289899 0.06103066 0.011434387
000390 c7 e6 a1 bd 5a 78 40 3c 75 e0 06 bb 74 4f 45 3d
       -0.079053454 0.011747444 -0.0020580564 0.048171476
0003a0 57 c1 7d bd 7b eb 6b 3d b6 8f 77 bd 3a 92 e3 bc
       -0.06195196 0.05759762 -0.060439788 -0.027779687
0003b0 9a b8 72 bb 7d 96 2c 3d c2 db c0 bd 45 00 f4 bd
       -0.00370363 0.042135704 -0.094169155 -0.11914114
0003c0 94 ae 95 3d 0d ec 61 3c ee e5 d5 bd a5 33 62 3d
       0.07308689 0.013789189 -0.10444246 0.055225033
0003d0 40 55 60 3d d7 39 55 3d 7a 5e a7 3d bf 3b 21 bc
       0.0547688 0.052057113 0.08172317 -0.009840905
0003e0 cd 77 00 bb 96 f3 a6 3d d0 30 9f 3d 33 c4 e9 bd
       -0.0019602657 0.08151929 0.07772982 -0.11414375
0003f0 ba 79 60 3d e9 40 3b bd 3f 3e a4 bc d9 f0 ab 3d
       0.054803587 -0.0457162 -0.020049213 0.083955474

backbone.2.weight f4 [256, 256]
000000 4e 42 39 bd 95 6d 56 bb db 9f 01 3d 25 a3 f8 bc
       -0.04522925 -0.0032719125 0.03164659 -0.03035123
000010 78 e1 0f bc a0 d9 d2 3c b8 c8 00 3c b0 ff ac bc
       -0.008781783 0.025738537 0.007860355 -0.021118015
000020 5d 6a 3b bd d6 b2 7d bc 74 6d f1 3c 3f e2 06 3d
       -0.045755733 -0.015484532 0.029471137 0.03293061
000030 7e 26 9a 3c 5c 46 e0 3c 3c 20 01 3d 4c 6a 53 bd
       0.018817183 0.0273773 0.03152488 -0.051615044
000040 e4 69 79 3c 84 ad e6 3c c4 81 be bc 2a 49 24 3d
       0.015223 0.02815891 -0.023255236 0.040108837
000050 3c 0f 38 3d 9b f1 51 3d 79 09 66 bd 07 72 05 bd
       0.044936404 0.051255804 -0.056161378 -0.032579448
000060 7d 0f 3d bc cf 53 d1 3c 00 70 ff 39 6e e1 1d 3d
       -0.011539337 0.025552658 0.00048720837 0.038545065
000070 40 d3 03 bb 92 c4 28 3d be 88 33 bd 8c 60 cf 3c
       -0.0020114928 0.04120309 -0.04383158 0.025314592
000080 f8 a2 6e 3d 1a b9 7f 3d 6e 64 7d bb f7 9d 5a 3d
       0.058260888 0.062432386 -0.0038664597 0.053373303
000090 98 7b 71 bc 80 4d 23 3b bc 72 6a 3d 9c 34 dd 3c
       -0.01473894 0.002491802 0.057238325 0.027002625
0000a0 ba dc 0d bd 02 4e a8 bc d0 28 2b bd 38 4b df bc
       -0.03463433 -0.02054501 -0.04178697 -0.027257547
0000b0 b8 e2 20 bd 6b 7d 67 bd ce 73 7f bc ba 31 5d 3d
       -0.039278716 -0.056516092 -0.015591575 0.0540025
0000c0 f2 a8 28 bd 56 a0 4a bc b8 f3 19 bc f4 aa 1a bd
       -0.041176744 -0.012367329 -0.009396486 -0.03776069
0000d0 78 2e 61 bc 5e ea 1f bd 8e 30 6b 3d 00 b7 1d 3c
       -0.013743989 -0.03904187 0.057419352 0.00962615
0000e0 78 02 86 3c 3c ee c9 3c 4f cd b2 39 44 4a 4e 3d
       0.016358599 0.024649732 0.00034103772 0.050363794
0000f0 75 f4 97 3c 0c 1a 57 3d 38 da 54 3d b9 a1 1e bd
       0.018549183 0.052515075 0.051965922 -0.03872845
000100 00 a6 33 3b 3a 43 13 3d a0 14 bb 3b 1a 68 b1 bb
       0.0027412176 0.035952784 0.005709246 -0.005414021
000110 68 c6 49 3d 93 6b 99 bc 44 c0 75 bd 32 b5 2e bd
       0.04926148 -0.018728053 -0.059997812 -0.04265327
000120 32 d4 f4 3c 60 4b 06 bc ad 37 f8 3c d0 2c b0 bc
       0.029886339 -0.008196682 0.030299986 -0.021505743
000130 10 5e ab 3b f8 38 5a bc 23 a5 af bc 8c 15 2e bd
       0.005229719 -0.0133192465 -0.021441048 -0.042501017
000140 60 9e 3e 3d a1 da 82 bd e8 3f 8f 3c 68 26 9c bc
       0.046537757 -0.063893564 0.017486528 -0.019061282
000150 90 ac 0f bd aa 0a e2 3b 2c d0 cd bc 70 1b c3 bc
       -0.035076678 0.006898244 -0.025123678 -0.023816794
000160 5e 72 66 bd c1 b0 00 bc ce 3f 3f 3d 6c 53 1b bd
       -0.056261413 -0.007854641 0.04669171 -0.037921354
000170 68 95 d4 bc 06 0a 30 3d f8 11 96 3c fc 65 7c bd
       -0.025950149 0.04297831 0.018319115 -0.061620697
000180 fb 1b 09 3d 34 df a4 bc 7c b3 e0 3c f0 20 c7 bc
       0.03347395 -0.020125963 0.027429335 -0.024307698
000190 d4 ed 49 bc af c3 3e 3d 78 eb 39 3c b8 37 49 bc
       -0.012324769 0.046573337 0.011347644 -0.012281351
0001a0 51 f1 42 bc 9a 13 bc 3c 04 8e 49 bd 96 8f 76 3d
       -0.011898355 0.022958566 -0.049207702 0.060195528
0001b0 60 cd 87 3c 2f 1d d3 3b be 38 4e bd 25 ba 66 bd
       0.016577423 0.006442688 -0.050347082 -0.056329865
0001c0 00 89 b4 3c 82 7d 59 3d 87 32 cb 3c 4a 83 10 3d
       0.022037983 0.05309821 0.024804367 0.035281457
0001d0 4e 1f 59 bc 04 f9 4f bd c0 83 eb 3b d4 e1 5c 3d
       -0.0132520925 -0.05077459 0.0071873367 0.053926304
0001e0 55 7d da bb de 53 5d bd 8e ed 91 bc 95 a7 fc bb
       -0.006667773 -0.05403506 -0.01781347 -0.007710407
0001f0 ec f3 14 3d 60 c6 04 bb 00 93 5c bb 02 dd 18 3d
       0.036365435 -0.0020259842 -0.0033656955 0.037320144
000200 ac f1 bf bc f8 0e 73 bc e4 0e a6 bc 4c 3d db bc
       -0.023430668 -0.014835112 -0.020270772 -0.026762627
000210 c0 40 7f 3c 38 3d e0 bc bc 18 ba 3c 01 d4 59 bd
       0.015579402 -0.027372941 0.022716872 -0.0531807
000220 30 a5 15 bc 33 09 c5 bc d8 d5 09 bd e0 76 86 3b
       -0.009133622 -0.024052238 -0.033651203 0.0041035265
000230 2c c5 fe 3c ed 6a 3f 3d 02 56 1c 3d b0 2e 88 bd
       0.031099878 0.04673283 0.03816796 -0.0664953
000240 58 73 ad bc 78 ca 46 bd 94 62 3a bd 62 c2 1f 3d
       -0.021173164 -0.048532933 -0.045504168 0.039003737
000250 9f 7e 32 3d 1f 44 87 bd 2b 5f 79 bd da d6 10 bd
       0.043577787 -0.0660479 -0.060881775 -0.03536115
000260 40 a3 4c bd d2 3e c2 bc e3 dc 65 3d c0 61 97 bc
       -0.049960375 -0.023711596 0.056118857 -0.018479228
000270 ab 8f 41 3d 4c d4 b7 bb 52 1b 53 bd a4 6e ba bc
       0.047256153 -0.0056100246 -0.051539727 -0.022757836
000280 44 6c 6c 3d 3a 84 75 3d c8 f1 84 bc e8 65 7c bd
       0.057720438 0.059940554 -0.016228572 -0.061620623
000290 e1 7f 8a 3c dc 71 ae bc c0 ec d5 3a 31 11 10 bd
       0.01690668 -0.021294527 0.0016321167 -0.035172645
0002a0 c8 d7 5f bc 01 1c 08 bd 6d af 2a 3d 90 e6 dc bc
       -0.013662286 -0.03322983 0.041671205 -0.02696541
0002b0 46 c9 2f bd 90 2c f4 3c 60 58 42 bd dc c6 1f bd
       -0.04291656 0.029806405 -0.047447562 -0.039008006
0002c0 df 6e 5d bc 98 ba 73 bb 6a 3f 32 3d 80 ac c0 bc
       -0.013515203 -0.0037190076 0.043517508 -0.023519754
0002d0 c0 50 3b bb 74 44 d8 bc 62 da 4a bd d4 e0 8f bc
       -0.0028582066 -0.026399828 -0.049524672 -0.017563261
0002e0 3b b0 15 3d 75 25 8c 3c 59 73 92 ba d0 94 88 bb
       0.03654502 0.017107705 -0.0011173292 -0.0041681305
0002f0 bc a9 5e 3d d3 cb bd 3c 4f 25 52 bc 13 8b 00 bc
       0.05436109 0.02316848 -0.012826278 -0.007845658
000300 84 62 ba 3b d0 eb 69 3c 0c 45 e8 3c 18 d4 2e 3d
       0.0056880135 0.0142774135 0.028353237 0.042682737
000310 b2 e7 8d bd 5d ca 84 bc 76 87 00 bd c0 64 25 3c
       -0.06928958 -0.016209776 -0.031379186 0.010094821
000320 2f 14 a8 3c b0 c2 03 3d da c6 75 3d f3 64 61 3c
       0.020517437 0.03216809 0.060004093 0.013756978
000330 43 c6 0f bc c6 90 75 3d 20 f9 d2 3c d8 1d 5c bd
       -0.008775297 0.05995252 0.025753558 -0.0537394
000340 be 7c 41 bd a6 03 e5 bc 74 64 10 bd 10 f0 0e 3c
       -0.047238104 -0.027955841 -0.03525205 0.008724228
000350 6e 96 b4 3c 22 3c cf 3b 61 d9 63 ba 00 2d 54 3b
       0.022044387 0.006324307 -0.0008691755 0.0032375455
000360 60 6d 76 3d f0 b3 b8 bc 77 fd 08 bc fd 43 8c bd
       0.060162902 -0.022546738 -0.008361212 -0.06848905
000370 e8 79 48 bd cc 39 48 3d 46 86 15 bd 60 47 b3 3b
       -0.048944384 0.048883244 -0.036505006 0.005471155
000380 36 41 44 3d 80 52 e3 bc 36 e6 c7 bc 01 4a 64 bc
       0.047913752 -0.0277493 -0.024401765 -0.0139336595
000390 80 85 d9 3a 00 30 16 ba ed 11 5d b9 10 94 d5 bc
       0.0016595572 -0.00057291985 -0.0002108288 -0.026071578
0003a0 c0 df a4 ba a2 f5 ff 37 4a 2e 25 bd 76 5e 53 bd
       -0.001257889 3.051275e-05 -0.040327348 -0.051603757
0003b0 fc d8 15 3d 7e 90 d5 3b eb 49 73 3b d6 62 b7 bc
       0.036583886 0.006517469 0.0037122916 -0.022385996
0003c0 cc 9c 25 3d 34 f4 67 bd fc df 30 bc f3 50 7a bd
       0.040432736 -0.056629375 -0.01079559 -0.061112355
0003d0 71 37 82 bd 24 cd 96 bc 97 be 97 3c f8 a9 1e bd
       -0.06358231 -0.018408366 0.018523498 -0.038736314
0003e0 de 3f 28 3d e7 dd 85 bd 00 0d 78 bd 9e 65 07 3d
       0.041076533 -0.06536465 -0.060559273 0.033055894
0003f0 d4 e7 d4 3c cc 99 87 bd 1b 90 36 bd 1c 82 56 bc
       0.02598945 -0.06621131 -0.044571023 -0.013092544

backbone.2.bias f4 [256]
000000 94 76 90 3c 80 ed 89 3b 58 0d 8c bd 7d 7e 52 bd
       0.017634667 0.0042092204 -0.068384826 -0.05139016
000010 45 a0 bc bd b6 e1 60 3b 80 2c 64 3b c7 13 cc bd
       -0.092102565 0.0034314222 0.0034816563 -0.0996471
000020 86 7e f8 3c 30 c3 70 3c b4 ac 32 bd 76 81 11 b9
       0.030333769 0.014694974 -0.043621734 -0.00013876506
000030 ef d7 2c 3d d8 0e 77 bc bd f4 8c bd e8 98 07 bd
       0.042198118 -0.015079223 -0.068826176 -0.033104807
000040 0f 1c 9a bd 2d bd 6e bd d8 c4 b9 3c 28 d6 d8 bd
       -0.07524883 -0.05828588 0.02267687 -0.10587722
000050 20 50 46 3b 57 0f f4 3d 1b c1 7b 3d 00 cb e4 3d
       0.003026016 0.11916988 0.061463457 0.11171532
000060 50 70 52 3d 1b ea 63 bd 64 21 da 3a 01 eb 3c 3d
       0.05137664 -0.055643182 0.0016642031 0.046122555
000070 1b 28 48 3d ef 33 2d bd 1d 94 1d bd de bf 5b bd
       0.048866373 -0.042285856 -0.03847133 -0.053649776
000080 6e be 8c bd ef 7e 83 bd 00 1a 36 bc 13 a8 a8 bd
       -0.06872259 -0.06420695 -0.011114597 -0.082351826
000090 6c 1c 34 bd 11 e5 53 3a c0 36 d7 3b 56 7b 47 bd
       -0.043972418 0.0008083145 0.006567806 -0.048701607
0000a0 21 69 8a bd 5c 67 0f 3c 40 c0 3b bb c0 4b 6a 3d
       -0.06758333 0.00875267 -0.0028648525 0.057201147
0000b0 13 c1 4c 3d 58 1f b8 bc d8 d4 9d bd 63 4c e7 bc
       0.049988817 -0.022475883 -0.07706612 -0.028234666
0000c0 7a 8a e1 bc c8 13 53 3d c1 38 cf bb 28 e2 b2 3b
       -0.027531851 0.051532537 -0.0063239043 0.005459089
0000d0 af ea 0c 3d 29 a4 af bb f0 e2 61 bd 06 9e 0d bc
       0.0344035 -0.0053601456 -0.055148065 -0.008643633
0000e0 ab 21 bf bb 10 40 bb 3c ff 82 a4 3d 29 27 06 3d
       -0.005832871 0.022857696 0.08032798 0.03275219
0000f0 6e 0c 78 bd 64 2f e0 3c 08 47 9d bd 26 38 33 bd
       -0.06055873 0.027366348 -0.07679564 -0.04375472
000100 77 7f 60 bd 91 de dd 3c f4 8e f5 bc 34 67 c4 bc
       -0.05480906 0.027083667 -0.029975392 -0.023974992
000110 6f ba 96 3c 7c 4a 0f 3e d2 8f 8d 3d 64 20 38 3d
       0.018399445 0.13993257 0.06912197 0.044952765
000120 6e 04 aa bd c7 c0 dd 3a ac 58 d6 3c d7 c2 9d bd
       -0.08301626 0.0016918414 0.026165329 -0.077031784
000130 6a 57 8c bd 50 48 5c 3d e7 0a 1e bd b2 4b 39 3c
       -0.068526104 0.0537799 -0.038584616 0.011309551
000140 18 69 2d 3d b2 4c 1c bd 41 34 44 3d ce e7 bd 3c
       0.042336553 -0.03815908 0.047901396 0.023181822
000150 12 99 98 bd 4c 81 11 3d 3c ff 4b bd 8c b8 8e bc
       -0.07451071 0.035523698 -0.049803957 -0.017421983
000160 69 ce b1 bd 4e f3 7d bc 5c c3 8a bd 34 45 4c bb
       -0.08681948 -0.015499903 -0.06775543 -0.0031169178
000170 ef 1c 54 bd 4d 87 37 bd dc 23 bf 3c 04 c3 70 bc
       -0.051785406 -0.044806767 0.023332529 -0.014694933
000180 50 c9 46 bd 3d 32 a9 ba a7 4b 95 3d c0 d1 1b 3c
       -0.04853183 -0.0012908649 0.0728982 0.0095104575
000190 38 91 ca 3d b9 91 a2 bd 66 5a 6f 3d 91 09 1e bd
       0.098909795 -0.07937951 0.05843582 -0.038583342
0001a0 03 2d 8a bc 62 27 cc 3d 78 53 8c bd 54 85 e2 bc
       -0.016867166 0.09968449 -0.06851858 -0.027651466
0001b0 91 28 1d 3e c2 55 3a 3a 6f f3 df 3c ce 29 e6 bd
       0.15347506 0.0007108116 0.027337758 -0.11238442
0001c0 ca 65 35 bd d0 f6 98 3b a5 b6 e4 bd f4 9f ca bc
       -0.044286527 0.004668094 -0.11167649 -0.024734475
0001d0 87 c6 b4 3d 38 e5 09 bd d3 f9 6b 3d ab f7 27 3c
       0.088269286 -0.033665866 0.057611298 0.01025192
0001e0 28 92 88 3d 42 dc 09 bd 89 04 e0 3c a7 7a b6 3d
       0.06668502 -0.03365732 0.027345913 0.08910113
0001f0 95 9f f0 3d 64 cf 89 3b d3 ce b4 3c 11 78 92 bd
       0.11749188 0.004205631 0.022071278 -0.07151807
000200 3d c4 f0 3c f2 29 08 bd f7 2e b4 3d 04 75 d7 bc
       0.029390449 -0.033243127 0.0879802 -0.026300915
000210 80 13 88 ba 1f 64 a0 3c fb 15 64 3a 69 41 d9 3c
       -0.0010381788 0.019578991 0.0008700785 0.026520448
000220 cc 2b 68 3d 29 70 ef 3a b2 b4 56 3d 9d 88 84 bd
       0.056682393 0.0018267679 0.05241842 -0.064713694
000230 06 65 85 3d 41 50 94 bb 8b a7 bc 3c 95 7b 9e 3c
       0.06513409 -0.0045261686 0.02302911 0.019346038
000240 8b d0 2f 3d 44 57 7e bd 9f 47 a6 bd 60 cb 71 bc
       0.04292349 -0.06209494 -0.081191294 -0.014757961
000250 b8 29 6a bd f9 51 0d bd 2f f9 04 bd 5f 4f 0f bd
       -0.057168692 -0.034502003 -0.032464202 -0.034987804
000260 f9 1b 28 bd 71 1d 6d bd 82 77 e5 bb 9a e7 32 bd
       -0.0410423 -0.057889406 -0.007002772 -0.043677904
000270 9c c0 16 bb 58 e2 86 bc 1d a2 7e bd 46 a7 52 bd
       -0.0023002988 -0.016465351 -0.062166322 -0.051429056
000280 3c f4 e3 3d ee eb 5d 3d 90 5a fa bb e8 e2 46 bd
       0.111305684 0.05418008 -0.0076401904 -0.04855624
000290 2e c7 90 3d 2b 5d cd 3b 54 52 c8 ba 18 58 12 3e
       0.070692405 0.00626721 -0.0015283325 0.14291418
0002a0 82 79 ea 3c e9 b8 33 bb b9 87 43 3a 4d 52 c8 bc
       0.028622393 -0.0027423447 0.0007458884 -0.024453307
0002b0 cc d3 5d bd 9e ba 00 3e 6f c4 5b bd 47 c5 49 bd
       -0.054157063 0.12571189 -0.05365413 -0.049260404
0002c0 3f f1 f4 ba 00 be 52 bd e6 72 89 3d d2 27 2c bd
       -0.001868762 -0.05145073 0.06711368 -0.042030163
0002d0 9e 6b b7 bd be d8 b3 3d 88 da c8 3c 54 7c b3 3d
       -0.08956073 0.08781575 0.024518266 0.08763948
0002e0 63 fc 8a bd ab 20 2c 3d da 9d b4 3d cc 07 d9 bc
       -0.0678642 0.042023342 0.0881917 -0.026492976
0002f0 31 c2 0f bd cb 4d 50 bd ef 64 0e 3d 3d 17 93 bd
       -0.035097305 -0.05085544 0.034764227 -0.07182167
000300 dd 37 6a bd 22 cb 1c bc 70 af e0 3c 8f ab 2f ba
       -0.05718218 -0.009569915 0.027427405 -0.00067012844
000310 90 c5 49 bd 57 5e 6b bc 59 3e 6c 3d 0e 62 8c bd
       -0.049260676 -0.014365754 0.057676647 -0.0685464
000320 a0 e0 76 bb 3e 62 d6 3d b4 a6 4d bd 2c 1e 66 bd
       -0.0037670508 0.10467957 -0.05020781 -0.056181118
000330 28 fb 08 3c c5 99 37 3b f8 fd 12 bc c8 3a f6 3d
       0.008360662 0.0028015238 -0.008971684 0.120229304
000340 5f be c1 3c db 12 a5 3d be ed 55 bd 18 d8 b8 3d
       0.023650346 0.08060237 -0.05222868 0.090255916
000350 c0 95 79 bc a4 1b 03 bd 8b a4 38 bc 7e d7 0a bd
       -0.015233457 -0.032008782 -0.011269699 -0.033896916
000360 a9 11 0a bd cd 15 ea bc 17 72 1f bd 88 12 36 bd
       -0.03370825 -0.028574849 -0.038927164 -0.044451267
000370 30 5f 40 3c 7e 5f 84 3d 46 5d be bd ac 34 dc 3d
       0.0117414445 0.06463526 -0.09295134 0.10752234
000380 7b df f3 3b bf 27 da 3b 6d fe 4f 3d 12 28 55 bc
       0.0074424124 0.00665757 0.05077975 -0.013010042
000390 b1 85 1c bc c5 f2 b2 bc 2a 88 83 3d 13 a3 65 bd
       -0.009553359 -0.021844277 0.064224556 -0.056063723
0003a0 58 6f 50 bd 1e 79 82 bc 33 96 80 bd 47 f8 05 3d
       -0.050887436 -0.015926894 -0.06278648 0.03270748
0003b0 cf b3 81 bc c2 05 8a 38 73 93 22 bd 98 a5 25 bd
       -0.01583281 6.581425e-05 -0.0396914 -0.040441126
0003c0 07 5b 2c bd 6a 22 4f bd a5 56 45 3a a9 a8 42 bd
       -0.042078998 -0.05056993 0.00075278647 -0.047524128
0003d0 57 23 4b bd 8b a3 ae 3c 59 51 e1 bc 39 f1 4b bd
       -0.04959425 0.021318218 -0.02750461 -0.049790595
0003e0 24 8c a5 3c 92 f9 e5 3d d8 a7 aa 3b b1 71 c8 bc
       0.020208426 0.112292424 0.005207997 -0.024468275
0003f0 b6 b5 85 3d a6 e5 7a bd d2 53 66 bd 80 c6 2a 3a
       0.06528799 -0.061254166 -0.05623228 0.0006514564

out_n.0.weight f4 [100, 256]
000000 f2 24 1b be b0 ab 6b bd c1 1b 72 bd fc c0 64 be
       -0.15150812 -0.05753678 -0.0591085 -0.22339243
000010 a4 4b b1 bd 90 53 98 3c 38 ec 03 bb 8e 0e 40 bd
       -0.086570054 0.018594533 -0.002012981 -0.04688888
000020 8a 44 68 be 1b 41 7f bd 02 a6 41 bc fc 5d 9e be
       -0.22682396 -0.06231795 -0.0118193645 -0.3093108
000030 ed d7 f1 bc 24 38 00 bb 70 cd ce bd fa a0 dc 3b
       -0.029521907 -0.0019564712 -0.10097778 0.006733057
000040 84 38 5a be 37 3c ac 3b 22 a9 10 bd 5b b4 fb bd
       -0.21310622 0.0052562016 -0.035317548 -0.122902595
000050 80 5c 01 bb 2d cb b2 be cf ba 3a be 5a 12 c5 be
       -0.0019738972 -0.34920636 -0.18235324 -0.38490564
000060 9f d2 7e be 5e d1 bb bc 62 1e 13 3c fe 67 9a be
       -0.24885033 -0.022926982 0.008979412 -0.30157465
000070 3c db 07 be 8d d2 c1 bb 4c fe d7 3c 10 72 49 bc
       -0.13267225 -0.005914992 0.026366375 -0.012295261
000080 2d 02 25 bd d0 1a 9a 3b f2 12 73 be 48 1d 8d bd
       -0.040285278 0.0047029033 -0.23737696 -0.068903506
000090 c9 aa cf bd 6b f5 98 3c 00 44 c1 ba df 8d a1 3a
       -0.101399966 0.018671712 -0.0014744997 0.0012325606
0000a0 37 84 8d bc 70 2b 83 be 00 97 07 bc 95 a7 5a bd
       -0.017274959 -0.25619078 -0.008275747 -0.053382475
0000b0 bd 7a c0 be ca 62 55 bd c5 0f 14 bc 09 10 f9 bd
       -0.37593642 -0.052096166 -0.009036963 -0.121612616
0000c0 9e 31 73 bd 6d 49 c4 be 68 29 d4 bc 0f 36 88 be
       -0.05937349 -0.3833727 -0.02589865 -0.26603743
0000d0 39 d6 35 3d f4 0d 9a bc a2 ba 25 3d 0b 52 2b bc
       0.04439375 -0.018805481 0.04046119 -0.010456572
0000e0 13 72 88 be 12 e6 29 be 31 51 c4 be 57 87 75 be
       -0.26649532 -0.16591671 -0.38343194 -0.2397741
0000f0 1b a8 55 bd 3d 99 ab bd c2 d1 13 be b6 05 73 be
       -0.05216227 -0.08378837 -0.14435485 -0.23732647
000100 d7 45 a6 3c 23 4b 20 be 9a 3d 77 bd 98 69 04 bd
       0.020296974 -0.15653662 -0.060361482 -0.032327265
000110 fb 16 c9 bd 26 57 e2 be 92 3a a4 be 19 7d a2 bd
       -0.09818836 -0.44207114 -0.32075936 -0.07934017
000120 3d 6b 39 bc aa 1f 75 be b6 98 03 bd a6 92 04 be
       -0.0113170715 -0.2393786 -0.03212806 -0.12946567
000130 5f 12 23 bd a0 04 7a 3b bb ea 09 bd c8 e3 40 bd
       -0.039812442 0.003814973 -0.033671122 -0.04709223
000140 ad 09 a0 be 8c 4b f7 3c b4 b1 21 be 6e c2 83 be
       -0.31257382 0.03018739 -0.15790445 -0.25734276
000150 79 73 9a 3d 4a 12 45 bd ce cf b5 bd 48 bc 17 bd
       0.07541556 -0.048113145 -0.08877526 -0.037044793
000160 e8 1b 80 bd e0 41 09 3c 92 d7 f1 bc c1 2d a5 bc
       -0.06255323 0.008377522 -0.029521737 -0.020163419
000170 2f 1f de 3b 59 bf 23 3d d1 bd 0e bd f6 58 8f bd
       0.0067786197 0.039977405 -0.03484899 -0.0699939
000180 1a 70 25 be 00 0d ca bd af 82 9e 3c 40 0c 8f 3b
       -0.16156045 -0.09865761 0.019349424 0.004365474
000190 b4 7e d0 be cd fa b4 bd db b9 ad be 16 f6 38 be
       -0.40721667 -0.08836899 -0.3393086 -0.18062624
0001a0 21 75 32 3d 27 dd a8 be 40 6e 80 bc b2 d4 03 be
       0.043568734 -0.32981226 -0.015677571 -0.12874106
0001b0 6a 01 d9 be b9 80 05 bd 5d ad a8 be 8d 40 3a bd
       -0.4238389 -0.032593463 -0.32944766 -0.045471717
0001c0 34 69 fc 3c 50 49 17 bd c9 12 e2 bc e0 f8 cb 3b
       0.030811884 -0.03693515 -0.027596848 0.0062247366
0001d0 52 7e da be f0 c8 5f 3d 8a 60 93 be 4d f6 a1 bd
       -0.426745 0.05463499 -0.2878459 -0.07908306
0001e0 95 ea c4 be b0 8e c3 3c d0 93 84 bd 36 82 d8 be
       -0.38460222 0.02387175 -0.064735055 -0.42286843
0001f0 27 08 9a be 5a a6 1a bd 8d 8c 72 3c b8 1e 56 bc
       -0.30084345 -0.0377563 0.014804018 -0.013068847
000200 e4 ee 70 bd 60 20 4a bc 0e e2 e7 be 50 0a 70 3d
       -0.058821574 -0.01233682 -0.45289654 0.058603585
000210 98 53 33 3d d7 90 05 bd 37 24 6b 3c 67 85 b8 bd
       0.043780893 -0.032608833 0.014351896 -0.090098195
000220 c7 f5 e8 be d9 de 99 be df 95 76 be d9 15 04 3d
       -0.45500013 -0.30052832 -0.24080609 0.032247398
000230 d3 00 7b be 59 1d 19 3d 52 e3 54 be 3f 77 b4 be
       -0.24512033 0.037381504 -0.20789841 -0.35247228
000240 c3 e2 8d bd 75 36 26 bd b7 77 e1 bd 78 1e e1 3c
       -0.06928017 -0.040579278 -0.11009162 0.027480349
000250 56 73 48 bd e5 42 85 bd d6 0f c8 bc 96 5c 8b bd
       -0.048938118 -0.065069 -0.024421614 -0.06804769
000260 7f 41 8c bd d0 b2 c9 bd 24 e3 9c bc 1a 15 48 3d
       -0.0684843 -0.09848559 -0.019151278 0.04884825
000270 8e 4b b3 bc 96 c7 35 3c 81 c5 95 bc 52 53 01 bd
       -0.021886613 0.011094948 -0.018282654 -0.0315736
000280 c6 ea ce be fe 30 5f be 10 2b a6 bd 9c 29 61 3d
       -0.40413493 -0.21796033 -0.08113682 0.054971322
000290 15 3c d8 be 44 73 a7 bd 11 5d d2 bd 66 61 eb be
       -0.4223334 -0.08176282 -0.10271657 -0.45972747
0002a0 b8 39 92 be cc 4c 8f bd 66 40 4a bd 35 96 69 bd
       -0.2855966 -0.0699707 -0.04937782 -0.057028014
0002b0 56 41 dd 3c bf 2e f3 be db 53 1b be fe 1a b9 bd
       0.027008694 -0.47496602 -0.15168707 -0.090383515
0002c0 f0 be 3c bc b6 c0 25 bd 03 26 67 be 7a 28 2d bd
       -0.011520132 -0.040466987 -0.22573094 -0.04227493
0002d0 0a 1f bb bd da 74 2c be 10 77 7b be 9e ff e6 be
       -0.091367796 -0.1684145 -0.24557137 -0.45116895
0002e0 04 8b a2 bd 26 81 0f 3b e0 ac c8 be 26 55 36 3d
       -0.079366714 0.0021897047 -0.39194393 0.044514798
0002f0 4f e3 32 be 58 47 87 bd b8 b5 f7 bc bf 78 fc 3b
       -0.17469524 -0.066054046 -0.030238017 0.0077048237
000300 49 18 2c 3d e6 9b 2e bd c4 60 dc 3c 04 f4 34 bb
       0.042015348 -0.042629145 0.02690161 -0.0027611265
000310 02 b4 b0 bc cc 73 9a bb 61 8a d0 bd e7 a3 67 bd
       -0.02157021 -0.004713511 -0.10182644 -0.056552794
000320 60 b7 d3 3b 30 ae a0 be fa 25 6e 3c e6 2c fa bd
       0.006461069 -0.31382895 0.0145354215 -0.12215595
000330 91 85 46 bd 57 9b 29 be 76 7a 47 bd a1 c6 bb be
       -0.048467223 -0.16563164 -0.048700772 -0.3667498
000340 0a ba 3c bc bd 6b 99 be 75 4e 61 bd 69 3e a5 be
       -0.011518965 -0.2996501 -0.055006463 -0.32274178
000350 de c7 07 3d b3 bf 48 bc 08 f8 89 bd d6 c1 57 3c
       0.033149593 -0.012252736 -0.06736761 0.013168773
000360 a2 bb d5 bd 9e 4e ef bd 3f 33 90 bd 88 ee 58 bd
       -0.10436179 -0.11684917 -0.070410244 -0.052961856
000370 f4 6b af bc 5f b4 5a be b0 b7 0d bc 7e da d1 be
       -0.02141378 -0.21357869 -0.008649752 -0.4098701
000380 37 f3 56 be ad bd 02 bc 87 10 bb be 76 64 46 bb
       -0.20991217 -0.007979793 -0.36536047 -0.0030272282
000390 ed 18 28 be fc ac 9d bd 2a 38 9d be e5 09 68 bd
       -0.16415758 -0.0769901 -0.30706912 -0.05665006
0003a0 d6 c9 39 3d 59 1d 4b ba 94 47 c8 bd 72 ce 0c be
       0.0453585 -0.00077482086 -0.097792774 -0.13750628
0003b0 55 18 54 3a bf a5 a8 ba 4c ef d7 3c a0 9d ad bc
       0.0008090784 -0.0012866779 0.026359223 -0.021193326
0003c0 3e 46 93 3b ed f6 4d 3d 44 fa 35 be af e4 cf bd
       0.0044944575 0.050284315 -0.1777125 -0.1015104
0003d0 57 6b 9b 3a fc 0e a1 bd fe 26 ac 3c da 23 59 bc
       0.0011857551 -0.07864186 0.021014687 -0.013253177
0003e0 92 9c 3d bd 3a d7 c9 be f6 d9 8d bd 16 8f 83 be
       -0.046291895 -0.39422017 -0.069263384 -0.25695103
0003f0 55 d1 a1 be 02 e1 7d bd b2 66 fc bc 72 a6 2f 3d
       -0.3160502 -0.061982162 -0.030810688 0.042883344

out_n.0.bias f4 [100]
000000 70 d0 a7 be c3 90 72 3e ed 97 81 3a 1c 47 8f bd
       -0.32776213 0.23688035 0.0009887196 -0.06995985
000010 d2 45 7e 3c f7 fa f3 3b 7b 06 14 be 04 3f 84 3d
       0.015519576 0.007445689 -0.14455597 0.06457332
000020 47 62 9a bd d0 5e 3a 3d 68 24 cc 3d d3 19 c8 bd
       -0.07538276 0.045500576 0.099678814 -0.097705506
000030 58 79 7a 3d a9 33 07 be 99 d1 77 3c 7d dc 15 bc
       0.06115088 -0.132033 0.015125656 -0.009146807
000040 af 25 97 bd 8f 6f 26 3e 9b 73 18 be ca 5c aa 3d
       -0.073802345 0.16253494 -0.1488785 0.08318479
000050 bb 44 3c bd 44 7b 6a bd 9c 66 4a 3e e3 7e 98 bd
       -0.045963984 -0.05724646 0.19765705 -0.07446077
000060 6a 60 90 3d f1 39 e6 3c 7c fa ba bd 86 c1 01 3e
       0.070496395 0.0281038 -0.09129807 0.1267148
000070 70 45 30 be 20 7d 0b 3d b0 e2 d8 bd b1 6c dc 3d
       -0.17213988 0.034054875 -0.10590112 0.10762919
000080 ef cc 1c 3d 0a 73 7f bd c9 0d 47 3d 8d ca e4 bd
       0.038281377 -0.06236557 0.04859713 -0.11171446
000090 06 0d 26 bd 9d 6c eb bc 03 b5 6e bd 79 b3 c0 39
       -0.040539764 -0.028738314 -0.058278095 0.0003675481
0000a0 b7 17 87 bd a8 ef 6e 3d 62 2d e0 bd 0f ef 57 3d
       -0.0659632 0.058334023 -0.10946156 0.05271822
0000b0 6f e7 92 bc 94 c0 8b bb 69 9c de bc 2c 64 b0 bd
       -0.017932622 -0.0042649005 -0.027174192 -0.08612856
0000c0 4f b4 d4 bc 00 8d 29 3d cf 47 85 bd b5 f9 9d ba
       -0.025964884 0.041394234 -0.06507837 -0.0012052568
0000d0 08 0d 84 bd 1c 2c 79 3c 66 89 07 bc 4a ec f1 bc
       -0.06447798 0.01520827 -0.008272504 -0.029531617
0000e0 af b6 44 3d 00 8f 14 3d 0d 8d 88 3d 6c ba 59 bc
       0.048025783 0.036269188 0.06667528 -0.013289075
0000f0 63 86 a3 3d fb 56 52 3d 94 44 8c 3d 8d 33 c6 3d
       0.079846166 0.051352482 0.06849018 0.09677801
000100 c8 9a 6d 3c 64 00 cb 3d c3 3b e4 3d 47 42 ba bc
       0.014502235 0.09912184 0.11144211 -0.022736682
000110 38 78 90 3d ac 09 88 3d 6a 7d 56 3d ea 5b 20 3e
       0.0705418 0.0664247 0.052365698 0.15660062
000120 e7 8e 4a 3d 5d db 0c 3d 8e 11 a2 3d c1 2a 39 3d
       0.04945269 0.03438889 0.079135045 0.04520679
000130 d1 8e dc 3d 12 85 5a 3d 25 4d d3 3d f1 45 d1 3d
       0.107694276 0.053349562 0.103174485 0.102184184
000140 b8 dc 52 3d 43 24 6d 3d e7 2e 0b 3e ea 79 15 bc
       0.051480025 0.05789591 0.1359211 -0.009123305
000150 38 42 94 3d 4c 51 bf 3d 03 40 19 3d 4a 79 d9 3d
       0.07239193 0.09341678 0.037414562 0.10618837
000160 9b b8 36 3c 7b 64 59 3d af fe b6 3c 48 be bf 3d
       0.011152412 0.05307434 0.02233824 0.09362465
000170 a6 78 d5 3c 2a c4 8f 3d 92 9f 88 ba d7 d3 19 bc
       0.026058506 0.07019837 -0.0010423532 -0.009388885
000180 e2 76 60 3c 47 56 7d bd 8c 85 b8 3d 10 15 d9 be
       0.013700219 -0.06184986 0.09009847 -0.42398882

out_d.0.weight f4 [100, 256]
000000 b9 e6 76 bc 98 9a 02 bd 3b 26 8c bd 0c a6 b3 bc
       -0.015069657 -0.031885713 -0.068432294 -0.021929763
000010 8f 63 60 bd ef 26 46 3d 84 d7 43 bd 80 f1 84 bd
       -0.054782446 0.048376974 -0.047812954 -0.06491375
000020 e3 f0 dd bc 18 90 7b bd cb 19 ab 3c 71 24 7d bc
       -0.027092403 -0.061416715 0.020886322 -0.015450583
000030 3e 9f 91 bd 4d bd 2a bc dd 1f d9 3c d3 14 3b bc
       -0.07110451 -0.010421109 0.026504451 -0.011418539
000040 8f 37 88 3c ad 33 4b bd 18 9b 18 bd ee 55 19 3d
       0.016628055 -0.04960983 -0.037257284 0.037435465
000050 66 32 6a bd 69 68 36 bd e0 fc 85 3c e3 9e 41 bd
       -0.05717697 -0.044533167 0.016355932 -0.047270667
000060 91 64 92 bc 55 1f fc 3c ca d0 1a 3d 8a 69 07 bb
       -0.01787022 0.030776659 0.037796773 -0.0020662271
000070 be bc 2c 3c 18 98 ff 3c a2 15 5d 3d 08 6b 02 bc
       0.0105430465 0.031200454 0.05397571 -0.007960089
000080 82 91 4f 3d 50 f3 56 3d 03 d2 28 ba 67 cc 82 bc
       0.050675876 0.052478135 -0.00064399856 -0.015966607
000090 da 90 3a 3d 7b 2a 61 3d b0 7a 63 3d b8 a8 14 bd
       0.045548297 0.054972153 0.055536926 -0.036293715
0000a0 d4 09 07 bd ee 24 44 bd 20 dd b8 3b 45 57 98 bd
       -0.032968357 -0.04788678 0.0056415945 -0.0743852
0000b0 b8 11 d6 bc 62 2d fe 3c 6d 6b 8e bc 39 05 99 bd
       -0.026131496 0.0310275 -0.017385209 -0.07471699
0000c0 22 4c 39 bd ee 41 82 bc ad 7b f3 3b be 9f 4d bd
       -0.04523862 -0.015900578 0.007430515 -0.05020117
0000d0 ea 03 22 bc 15 ca 08 3d 35 97 42 bd b2 29 b1 bb
       -0.0098886285 0.033395845 -0.047507484 -0.005406582
0000e0 3f be 3e bb 81 f0 ba bb 82 cc 5f bd 2d 8d 9d 3b
       -0.0029105095 -0.00570494 -0.054638393 0.004808089
0000f0 76 5e 65 bd e4 d9 13 bd 5f 0c 87 bd 3b 24 b3 3c
       -0.055998288 -0.03609647 -0.065941565 0.021867862
000100 35 b7 a1 3c 54 9a 87 bc 60 79 73 bb 6a 2a 3d bd
       0.01974068 -0.016553082 -0.0037151203 -0.046183027
000110 e9 60 1f bc 29 2c 10 bd 32 1e 06 bd 81 a1 c5 bb
       -0.009727695 -0.035198364 -0.03274364 -0.0060312157
000120 94 dd b0 3a 40 40 41 bd 0d 94 fa bc 38 17 5d bd
       0.001349377 -0.047180414 -0.030588174 -0.05397722
000130 c9 a1 d0 3b 80 1c 07 ba ac bb 3e 3d 7d a1 83 bd
       0.0063669425 -0.0005154088 0.046565697 -0.06427286
000140 9f a6 1c bd 1e 03 0c 3d ef 70 33 bd c2 7f d0 3c
       -0.03824484 0.03418266 -0.043808874 0.025451545
000150 db ef 7a 3d c5 ee 41 bd 6f 8f 07 3d 08 34 a1 3c
       0.0612639 -0.04734685 0.033095773 0.01967813
000160 1f 41 8f bd aa 14 14 3d 4b cd 45 bd e9 c4 b3 3a
       -0.06994843 0.03615252 -0.048291486 0.00137153
000170 78 ba 08 3c 96 bf 1e 3c 4d 6c 40 bd 73 f1 8b bc
       0.008345239 0.009689232 -0.046978284 -0.017082905
000180 6f 10 20 bd 80 01 86 bb 0b d6 aa bd 0a 5e 6e 3d
       -0.039078172 -0.0040895343 -0.08341607 0.05819515
000190 58 01 d4 3c 59 be fe bc 4b ca f0 3a df b5 e2 bc
       0.025879547 -0.031096624 0.0018370835 -0.027674614
0001a0 63 19 65 3d eb fb c4 bc eb 71 6d 3c a1 44 bc bc
       0.055932414 -0.024045905 0.014492492 -0.022981944
0001b0 5d 0a 2f bd d5 41 71 bd e3 72 34 3c cd 5f d1 bc
       -0.042734493 -0.058900673 0.011013719 -0.025558377
0001c0 9c d3 58 3d 8a 41 79 bd 6d 87 7d bc da a2 57 3d
       0.05293618 -0.06085352 -0.015474183 0.05264554
0001d0 d9 74 04 bd c4 fd 02 bd 2f e6 6b bd 1f 21 3d 3d
       -0.032337997 -0.03198029 -0.057592567 0.046174165
0001e0 77 8b 2b bd 08 e3 da 3c 6e 4c f4 bc d2 db 71 bd
       -0.04188105 0.026719585 -0.0298216 -0.059047528
0001f0 2b 28 fb 3c 2f 3b 41 bd 6e 7a b6 3c a6 3b 6d ba
       0.030658802 -0.047175582 0.022275176 -0.0009049721
000200 47 3b 65 bd c4 49 bd bc 58 d2 8e 3c 00 64 c5 b8
       -0.055964734 -0.023106463 0.017434284 -9.4123185e-05
000210 1c a5 6e 3d 88 31 24 bd 89 1d 20 3d ba 25 70 bd
       0.05826293 -0.0400863 0.039090667 -0.05862973
000220 69 a8 2c 3d b8 01 fb bc dd 59 61 bd b5 a1 14 3d
       0.042152796 -0.030640468 -0.05501734 0.03628703
000230 c9 80 40 bd a2 32 37 3c b9 60 e6 bc 85 51 03 bd
       -0.04699782 0.011181505 -0.028122293 -0.032060165
000240 07 2b 3c 3d 19 53 96 3c 8f b4 21 bd 36 1a 69 3d
       0.04593947 0.01835017 -0.039478835 0.056909762
000250 d8 a7 ef bc 44 b2 86 3b 9b 50 ff bc 35 f3 7e 3c
       -0.029254839 0.0041106064 -0.031166365 0.015560915
000260 f3 c7 84 bd 74 f7 b2 bc 4f 11 29 bd 1a 78 2f 3d
       -0.0648345 -0.02184651 -0.041276272 0.042839147
000270 e2 0c 2f bd 10 5e bc 3c 4e 52 6c 3d 64 da 39 bc
       -0.042736895 0.022994071 0.05769568 -0.011343572
000280 43 3b 7e bd de 6a d4 3b 89 25 1a 3d 18 d0 4d 3d
       -0.062068235 0.006482466 0.037633453 0.05024728
000290 1b 96 81 bd 4b a3 4b bd 09 1e 1d bc 63 13 fc 3c
       -0.063274585 -0.049716275 -0.0095896805 0.030770963
0002a0 c7 c4 0d bd 57 06 de 3c df b9 76 bd d2 76 a1 bd
       -0.03461149 0.027102632 -0.060235854 -0.07883991
0002b0 c3 e6 a3 bc 7c 9c a4 3c ce a9 8b bd e3 c8 62 bd
       -0.020007497 0.020094149 -0.06819497 -0.05536736
0002c0 9d 49 e3 bc 02 c4 c9 bc 69 75 92 bd c0 b0 91 bb
       -0.027745062 -0.024629597 -0.071513005 -0.004446119
0002d0 7c b8 92 bd 06 7b 11 3c 0f 1c db 3c aa 94 4b 3c
       -0.07164094 0.008879429 0.026746778 0.012425581
0002e0 0d 5f 04 bd 74 43 a3 bd 98 5c d1 bc 80 3a f0 3c
       -0.03231721 -0.0797185 -0.025556847 0.02932477
0002f0 85 05 72 3c 86 be 78 bd 81 ba 09 bd 55 5a 92 3c
       0.014771824 -0.060728572 -0.03362513 0.01786534
000300 6d 03 20 bd a9 f6 40 3c 36 d4 3b bd 78 90 1b bc
       -0.039065767 0.011777558 -0.045856677 -0.009494893
000310 cd 41 d5 3c 84 0e 3f 3d c1 a8 f1 3a ef 3d b4 bc
       0.026032353 0.046644703 0.0018437133 -0.022002188
000320 7a 42 14 bd 73 cd 3a bd b2 4d 84 bd d3 24 bc bc
       -0.03619621 -0.045606088 -0.06460132 -0.022966778
000330 89 c9 4e bd 0f 1b cc 3c bc a1 bd 3c cd ea 90 bd
       -0.050485168 0.024915246 0.02314841 -0.07076035
000340 7e c7 10 3d c8 15 db 3c 47 f3 21 3d b4 83 1d 3c
       0.0353465 0.026743785 0.039538648 0.00961392
000350 94 45 d5 bc bd 34 19 bd 09 4c 56 3d 5c 60 a8 3b
       -0.026034154 -0.03740381 0.052318607 0.00513844
000360 28 06 07 3d 87 e0 03 3c 5a 35 10 bd 64 bf c1 3c
       0.032964855 0.008049137 -0.03520713 0.023650832
000370 2a 3c 4d 3d 6f 00 a8 3c ae 02 dc bc 22 e1 eb 3c
       0.050106205 0.02050802 -0.026856747 0.028793875
000380 a3 d4 47 bd 2f e1 ee bb b3 f0 9e bc 54 7f 44 ba
       -0.04878677 -0.0072900276 -0.019401884 -0.000749578
000390 43 0c 5b bd 57 a2 f4 3a 32 56 1d bd 71 b8 a8 3b
       -0.05347849 0.0018664104 -0.03841228 0.0051489403
0003a0 d8 80 38 bc 89 79 08 3d 51 28 08 bd 8d a6 a2 bd
       -0.0112611875 0.03331903 -0.033241574 -0.07941923
0003b0 08 61 4c 3d 5d 1f 74 3c ea c4 c3 3c ca 14 2d 3d
       0.049897224 0.014900056 0.023897607 0.042256154
0003c0 de d4 ea bc bd 16 94 bc 72 c9 4c 3c 74 ca 08 3c
       -0.028665956 -0.018077249 0.0124992 0.00834905
0003d0 f6 19 49 bd 9d 91 89 bd 55 50 5b 3d 12 be 8f bd
       -0.049097024 -0.06717227 0.053543407 -0.07018675
0003e0 c0 3a 4d 3d 2f 5d 6c bd 4c af b4 3c 0f 4b f2 bc
       0.050104856 -0.057706054 0.022056244 -0.029576806
0003f0 85 45 dc bc 46 37 99 3c 94 71 9c bc ba 17 75 3d
       -0.026888618 0.018703114 -0.019097127 0.05983708

out_d.0.bias f4 [100]
000000 12 4d 58 3c a4 08 e9 bd c0 91 d3 bd 3a b2 43 3d
       0.013201969 -0.11378601 -0.10330534 0.047777392
000010 28 68 c6 3d 87 1f 8e 3d cd 52 12 3d f0 4b a6 3c
       0.09687835 0.06939607 0.035723496 0.020299882
000020 93 22 8f 3d 52 3c 0e bd 54 8e d1 bb 2a 1f 1f bd
       0.069890164 -0.034725495 -0.0063951407 -0.03884808
000030 7f 3f 0b 3d 57 5a 8f bc 97 1e 51 3d 28 34 7a 3d
       0.0339961 -0.017499132 0.051054563 0.061084896
000040 56 66 6b 3d da 5d 3f 3d d4 83 e8 bc dc b0 0a 3d
       0.057470642 0.046720363 -0.028383173 0.033860072
000050 69 89 8a 3b 9f 36 53 bd 15 24 33 3d 30 55 2b bd
       0.0042278063 -0.051565763 0.043735582 -0.041829288
000060 bb 85 8a bb 1c 89 31 3d be f5 18 bd 96 6f de bc
       -0.0042273677 0.04334365 -0.037343733 -0.027152818
000070 9c f3 d6 bb d0 7d 82 3c 73 2a 75 bd 2e a9 83 bd
       -0.006559802 0.015929133 -0.059854936 -0.06428753
000080 89 6c 6f 3d 94 69 ab 3c e6 ff 86 bd 83 0f 9a 3b
       0.058453117 0.020924367 -0.065917775 0.004701556
000090 6e 7a 8b 3c 20 46 88 bd 63 3c 4d bd 31 91 8c bd
       0.017026152 -0.06654 -0.050106417 -0.068636306
0000a0 ce 7d 8d bb c2 14 be bd 3e 8c a3 bd 3a 24 9b bd
       -0.0043179756 -0.09281303 -0.079857334 -0.07575269
0000b0 bb ff 90 bd 88 87 33 3d ad ae 1f 3d fc e9 52 bc
       -0.07080027 0.043830425 0.038984943 -0.012873169
0000c0 22 de 23 bc 9a a8 09 bd b7 56 30 3c c7 af 2f bd
       -0.010001691 -0.033608057 0.010762862 -0.042892244
0000d0 dd 7d 6f bc a9 a5 06 bd 1b bf 03 bc 75 a6 b6 3c
       -0.0146174105 -0.03287283 -0.008041169 0.02229617
0000e0 af a1 90 bd c3 fb 93 bc f6 28 ab 3b ca d1 3b bd
       -0.07062089 -0.018064385 0.005223389 -0.045854367
0000f0 77 60 a5 bd b5 12 a0 bc 96 5e 09 3d 44 18 8b bd
       -0.0807504 -0.01954017 0.03353747 -0.06791738
000100 85 46 19 bd 17 25 18 bd 88 b9 ce bc 4f a8 c0 3c
       -0.03742077 -0.037144747 -0.025234953 0.023517756
000110 12 d1 4c bd 67 f3 6b 3d 6f d6 82 bb 6e 2f b7 bc
       -0.050004072 0.057605173 -0.0039928476 -0.022361483
000120 ed 54 92 3d fd f9 32 3c 35 8c 45 bd 58 62 06 3c
       0.071451046 0.01092386 -0.048229415 0.008202158
000130 f3 e0 09 3d a7 61 7c 3c b7 d5 a1 bc 1f 9c e0 3c
       0.033661794 0.0154041415 -0.019755227 0.027418194
000140 b3 08 13 bd db 01 ae 3a e6 e1 65 bc b5 4b 01 bd
       -0.035896968 0.00132757 -0.014030909 -0.03156634
000150 aa 99 04 bd 5e b5 8d bd 8b 93 e6 3c ff c7 72 bd
       -0.032373108 -0.06919359 0.028146526 -0.059272762
000160 82 d1 94 3b d9 f1 c1 bb e8 1a 91 bc 90 8a 81 bc
       0.004541577 -0.005918723 -0.017713025 -0.015813142
000170 3f 84 57 bd 6b 24 3a bd f3 e1 62 3c 10 aa 84 3d
       -0.052616354 -0.045444887 0.013847816 0.06477749
000180 58 44 a9 bc 4c a0 be 3d 63 4f 29 bd eb 56 fc bd
       -0.020662472 0.09307918 -0.041335475 -0.12321266
