Phase1/ch3_figures_output_tuned/model_200L_none.pth (torch, 884093 bytes, 8 tensors)

backbone.0.weight f4 [256, 200]
000000 cf 7d fe bb eb 64 01 bd 35 bb 17 3d 35 4e 3f 3d
       -0.0077664624 -0.031590383 0.03704377 0.046705443
000010 50 7e 43 3d c4 05 dd 3c 8a db 06 3c 72 c0 6a bd
       0.047727883 0.026980288 0.008231053 -0.057312436
000020 b5 6c 70 3b fd 57 44 bc 16 d0 a9 3d 30 5c 22 bd
       0.0036685888 -0.011983869 0.08291642 -0.039638698
000030 07 b7 78 3d cb e2 a9 bd 62 eb a3 3d 1b ed 60 bd
       0.060721423 -0.082952105 0.0800388 -0.05491362
000040 b8 98 51 bd f1 3c 20 3d b5 ec 5d 3d bb dd d6 3c
       -0.051171035 0.03912062 0.05418082 0.026228776
000050 d4 35 85 3d cf 0a 84 bd 41 a9 44 bd 73 de 2b 3d
       0.065044075 -0.06447374 -0.048012976 0.04196019
000060 48 53 a0 3a 3a b2 5d bd 89 70 92 bd 6e f2 ba 3c
       0.0012231851 -0.05412505 -0.07150371 0.022820678
000070 62 15 3e 3d d7 0d 0c bd be 8b 02 3d 96 18 62 bd
       0.04640711 -0.034192886 0.03187155 -0.05519923
000080 b7 98 43 bd 52 7a 8b 3c 1d c5 58 3d ad 9d 42 bd
       -0.047753062 0.0170261 0.052922357 -0.047513653
000090 c2 04 f4 3c 5f 48 50 bd 35 ca 3c bc d5 5f 51 bc
       0.029787425 -0.05085027 -0.011522819 -0.012779196
0000a0 00 d3 94 bc c9 fa 14 3d 07 23 f5 3b e8 98 a9 bd
       -0.018167019 0.03637198 0.007480982 -0.08281118
0000b0 33 3c 6d bc 3f 5d a4 3c a1 ac 99 bd 0f 04 2f 3d
       -0.014479685 0.020063994 -0.075036295 0.04272848
0000c0 ac e3 f4 3c 09 12 34 3c b8 79 5a 3d 78 f7 9c bd
       0.029893719 0.010990628 0.053338736 -0.076643884
0000d0 de 51 a1 3d ce 0c b0 3c ac b6 06 ba ca a8 87 bc
       0.07876943 0.02149048 -0.00051389146 -0.016559977
0000e0 5f 6a bd 3c b9 b2 9c 3c ff c5 98 bd 70 9c 3a 3d
       0.02312201 0.01912819 -0.0745964 0.045559347
0000f0 31 a8 04 bd 09 21 47 bd b5 05 2f 3c 61 43 31 3a
       -0.032386962 -0.04861549 0.010682513 0.00067620544
000100 b7 09 98 3c 9f 67 55 3d 9c 67 d2 3c 18 82 94 3d
       0.01855932 0.052100774 0.02568417 0.07251376
000110 57 c3 a1 bb 4e 6d 13 3d 77 9d 38 bd b0 33 d7 3c
       -0.0049366164 0.035992913 -0.045072045 0.026269764
000120 55 e6 3e bd a1 61 9f 3d 95 7c 47 bd f3 1b 54 bd
       -0.04660638 0.07782293 -0.048702795 -0.051784467
000130 ad 51 bf 3c f7 b6 44 bd fa 00 30 3c b1 3e f6 bc
       0.023354376 -0.04802605 0.01074242 -0.03005919
000140 4e 63 14 bd b1 27 8a bd d9 bb 9e bc 13 62 9e bb
       -0.036227517 -0.06745852 -0.019376682 -0.0048334687
000150 ba e9 0d bc a7 d0 87 bc aa ff 17 3d d4 e1 11 bd
       -0.008661682 -0.016578985 0.037109055 -0.035615757
000160 11 a3 c7 3b 43 40 80 bb d0 3f 6b 3d 2b 7d 4b 3d
       0.006092437 -0.0039139106 0.057433903 0.049679916
000170 d7 f0 39 3d ed 27 86 bc ff b5 c7 bb 16 45 05 3b
       0.0453957 -0.01637646 -0.0060946937 0.0020335368
000180 f6 b9 fb bc 1e a1 98 bc dc 6d 3a bc da 50 82 bc
       -0.030728322 -0.018631514 -0.011378732 -0.015907694
000190 ca 0d ae bc ee 61 62 bd 29 1f 34 3d 54 3a ff bc
       -0.02124681 -0.055269174 0.04397503 -0.031155743
0001a0 d5 b5 43 3d b1 7e a7 bd ac 57 a6 bb 61 bd 0c bc
       0.04778083 -0.08178461 -0.0050763693 -0.008590073
0001b0 a1 75 e8 3c f5 36 52 3d 77 0f a6 bd f9 92 ef 3c
       0.028376402 0.051321942 -0.081084184 0.029244887
0001c0 2e fb 0c bd ab 3b 08 bd 4c d8 45 3d d3 49 a0 bd
       -0.03441923 -0.03326003 0.04830198 -0.07826581
0001d0 a5 fe bf bc dd fd 5f 3b 29 32 8f 3d 45 75 95 3c
       -0.023436854 0.0034178414 0.06991989 0.018244395
0001e0 f2 da 50 3d 96 37 21 3d cd a1 e2 3b 19 2f dc bb
       0.050990053 0.03935965 0.006916261 -0.0067194817
0001f0 34 e7 f3 bc 2f cd 64 bd ea 99 06 3d c2 3b f7 3c
       -0.029773332 -0.05585974 0.032861628 0.030179862
000200 06 b4 5a bd ba 26 47 bc e2 90 ec 3b 58 06 ad bb
       -0.05339434 -0.012155229 0.00721942 -0.0052802972
000210 69 fb 37 bd 1b dc 63 3d 49 2f 2e bd bf 76 04 bc
       -0.044917498 0.05562983 -0.042525563 -0.008084952
000220 51 f1 a1 bb bf b7 85 3d f1 e9 03 38 d7 b0 7e bd
       -0.0049420972 0.065291874 3.145071e-05 -0.062180366
000230 b7 90 83 3d c5 d7 4b 3d f3 2b 1a bd 73 88 4a 3d
       0.064240865 0.04976632 -0.03763957 0.049446534
000240 8f ec ca bb 30 b8 36 bd be d7 3d bb 2d 18 88 3c
       -0.0061927508 -0.04460925 -0.0028967704 0.01661309
000250 69 0c 3f ba 39 12 eb 3c 4b 28 ad bc a4 21 49 3d
       -0.0007287921 0.028695213 -0.021137377 0.049104348
000260 45 b5 86 3d e4 9f ae 3c 80 50 57 3d 02 94 31 bd
       0.06577543 0.021316476 0.052567005 -0.043354042
000270 f5 34 00 3d 87 9d 2d 3b 96 b6 1b 3d 8a 18 75 bc
       0.031300504 0.0026491599 0.038015924 -0.014959464
000280 dc a1 a1 3b 8a 5c 85 3d b1 18 36 3d 8d b7 8d 3d
       0.004932625 0.06511791 0.04445714 0.06919775
000290 66 74 3e 3c 40 5f 6e bc c2 7c 89 3d a8 31 32 bd
       0.011624431 -0.014549077 0.06713249 -0.043504387
0002a0 12 e4 a0 3d 0b ff 19 3d 4a 3d 30 bd 48 66 78 bd
       0.07856001 0.037596744 -0.0430272 -0.060644418
0002b0 30 5d a9 3d 00 33 8a bb 83 7d 5d bc b5 9d 60 bd
       0.08269727 -0.0042175055 -0.013518694 -0.0548379
0002c0 c7 51 a4 bd 9d bd eb 3b 40 36 84 bd f9 8d 27 bd
       -0.0802341 0.0071942345 -0.0645566 -0.04090688
0002d0 43 a1 a3 bd 32 b3 75 bd 2e 8f 80 bd 01 8a a5 3b
       -0.079897426 -0.059985347 -0.06277309 0.0050518517
0002e0 be 3d 24 3d ba e9 99 bd c1 26 a7 bd 85 17 17 bd
       0.040097944 -0.07515283 -0.081616886 -0.036887664
0002f0 b6 35 e7 3b e4 74 71 bc 11 2f 85 bd 8e 7e 9f 3d
       0.0070559634 -0.014737342 -0.06503118 0.0778781
000300 19 44 40 3b e9 2f c8 3c e7 3f df bc d6 ce c3 3c
       0.0029337464 0.024436908 -0.02725215 0.023902338
000310 14 b1 c1 bc 1e d9 57 bd 04 21 83 3d 58 58 81 3d
       -0.023644008 -0.052697293 0.064027816 0.06315678
000320 4e c1 4e 3d 70 a7 9e 3c da b2 af bc 99 f9 dd bc
       0.05047732 0.01936695 -0.021447588 -0.027096556
000330 68 6a 33 bb 70 ac ed bc 48 53 00 3d bb 43 22 3d
       -0.0027376655 -0.029012889 0.031329423 0.039615374
000340 ef f2 59 bd e2 e7 52 bc b4 1c 09 bd 65 60 3b 3c
       -0.053210195 -0.012872668 -0.03347464 0.0114365565
000350 79 ca 4e bd d5 4b 35 3d 4f fb 13 bd 5e 96 cb 3c
       -0.05048606 0.044261772 -0.03612834 0.024851974
000360 38 7a d5 bc 81 15 6f bc 40 03 03 3d 96 55 2f bb
       -0.026059255 -0.014592529 0.03198552 -0.0026753894
000370 d8 b5 77 bd e6 e1 a9 39 db ea 5b bb 9e 0c 08 3c
       -0.060476154 0.000324025 -0.0033556733 0.008303789
000380 15 82 4e 3d d9 c6 62 3c aa a0 42 3d 38 32 51 bd
       0.050417025 0.013841354 0.047516502 -0.051073283
000390 a7 57 50 3d a8 ec 71 bb f1 f3 d0 3c 27 17 60 3c
       0.05086484 -0.003691474 0.025506945 0.013677395
0003a0 af 27 1c 3d 8b bd 20 3d 35 35 30 3c 75 01 43 3c
       0.038123783 0.039243262 0.010754873 0.011902203
0003b0 6d 19 5f 3d 5f c4 83 bc 00 a0 bb 3c 02 ad a9 3b
       0.054467607 -0.016084848 0.022903442 0.005178095
0003c0 01 99 34 3d 8b 59 85 bc 09 8c 2a bd f0 00 4f bd
       0.04409123 -0.016278049 -0.041637454 -0.050538003
0003d0 a0 56 55 bd e0 eb d6 3c 94 10 86 3d 36 1d 7c 3d
       -0.052084565 0.02623552 0.06546131 0.061551295
0003e0 9a 01 4c 3c c7 15 d1 bc 30 4d 1a 3d 15 12 7a bd
       0.012451554 -0.02552308 0.037671268 -0.0610524
0003f0 fc b0 9e 3c 7b 26 74 3d 91 83 ed bc ea f5 42 3d
       0.019371502 0.05960701 -0.0289934 0.047597803

backbone.0.bias f4 [256]
000000 01 39 43 3d e6 58 85 3d 4e d1 84 bd 9c c6 77 bd
       0.047661785 0.06511097 -0.06485234 -0.060492143
000010 0e e8 03 bd 8d 41 72 bd 13 fa 33 bd 1f da f4 3b
       -0.032203726 -0.059144545 -0.04393966 0.007472291
000020 8c c5 b5 bc d1 3a 80 3c 60 b6 8d 3d 30 1f f3 3b
       -0.022188924 0.015653046 0.06919551 0.0074194893
000030 27 28 7d 3d e1 16 11 3d 68 b3 f1 3c 71 d0 23 bd
       0.06180587 0.03542221 0.029504493 -0.039993707
000040 ec cb d2 bc 3f dc 71 3c d2 5c 3f 3d db 87 8d bc
       -0.025732003 0.014761983 0.04671938 -0.017276695
000050 98 c6 5e 3d 57 19 fc 3a 8e d2 46 bd 85 6f d9 3c
       0.054388613 0.0019233626 -0.048540644 0.026542434
000060 11 f3 34 bc f2 25 28 bd dc 1d 2a 3a 83 ab 9f bd
       -0.01104428 -0.041051812 0.0006489435 -0.07796385
000070 71 4a 83 bd 22 7b 1d 3d f3 5f 29 3d 9b b6 31 bd
       -0.06410683 0.038447507 0.04135127 -0.043387037
000080 ed 8b 3c bc a3 86 71 bd b7 2b 96 bd 74 f3 67 bd
       -0.01150797 -0.05896629 -0.07332557 -0.05662866
000090 5b 8a 66 bc 9b 4a c7 bc 81 41 15 bd 3d 80 b1 bb
       -0.014071072 -0.024327567 -0.036439423 -0.0054168985
0000a0 b3 cc 43 3b bd 7f 80 bd 22 72 46 3d c6 bb 9f bc
       0.002987665 -0.06274364 0.04844869 -0.019498717
0000b0 76 a4 33 3d b1 af b3 3c 2c 3e a9 3c 50 ad 75 3d
       0.043858014 0.021934362 0.020659529 0.059979737
0000c0 ba 63 87 bd 31 6d fb 3c a5 c2 12 bd ea 3e 2d 3d
       -0.06610818 0.030691715 -0.03583016 0.042296328
0000d0 95 e8 4f 3d 65 e5 a7 bc f1 ac 57 3c d6 5b 78 3d
       0.050758917 -0.020495126 0.013163791 0.060634457
0000e0 af c9 f9 3c de cd 8e bd 95 5d d1 3c 99 38 21 3d
       0.030491678 -0.0697286 0.025557319 0.039360616
0000f0 ff 23 ad 3b 3d 94 b8 bb 64 fb 31 bd 1c a6 88 bc
       0.005283832 -0.0056329058 -0.043452635 -0.01668077
000100 66 53 43 bd c8 3d b5 3c 21 ee 87 bd 1e c4 10 3d
       -0.047686957 0.022124186 -0.06637216 0.035343282
000110 c8 f1 1f bd e3 8e 39 3d 45 c1 60 3d a9 1f 82 bb
       -0.03904894 0.045302283 0.054871816 -0.0039710593
000120 73 cf 89 bd b0 3b 12 3c ed d7 97 bb 41 b8 0b 3d
       -0.06729021 0.008925363 -0.0046338947 0.034111265
000130 ac 73 53 bd 3d 86 25 bc 1c 88 15 bb b0 66 3b bc
       -0.051623985 -0.010102806 -0.0022816723 -0.011438057
000140 a4 1d f6 3c 06 66 a8 bc f0 80 5b bd ba e8 98 3c
       0.03004343 -0.020556461 -0.05358976 0.01866566
000150 99 34 80 3d 1d 86 a1 bd a9 20 44 3d 67 df 82 bd
       0.06260032 -0.07886908 0.04788271 -0.06390267
000160 66 4b 46 bd ce fa 5f bd 80 81 ff bc 4f ac b7 3c
       -0.04841175 -0.054682545 -0.03118968 0.02242103
000170 9c bb ce 3b 95 9f 20 bd a6 8b ab bb c0 5a 2b 3d
       0.006308986 -0.03921469 -0.0052351533 0.041834593
000180 f1 21 71 bd ce 3f 1d bc ff 10 7b bd fa 1a 2e 3d
       -0.05887026 -0.009597732 -0.061295506 0.042506196
000190 23 52 8b bd e4 6e 9c bd e8 42 8a 3d 9e 62 a0 3c
       -0.06802776 -0.07638338 0.067510426 0.019578274
0001a0 b6 81 f4 3a 1b fd 1b bd c8 a5 78 bd 1d 71 41 3c
       0.001865438 -0.038083177 -0.060704976 0.011806753
0001b0 23 4f 3e 3d 00 25 6e bd 9d a6 ee bb 4c 92 58 3d
       0.04646219 -0.058140755 -0.0072830454 0.052873895
0001c0 84 17 3e bd 81 ec 68 3d d6 f6 41 bd 63 f6 c7 bc
       -0.046409145 0.056866173 -0.04735454 -0.024409479
0001d0 2d d4 41 bd be cc 69 3d 86 a6 29 3d 60 a9 dd bc
       -0.047321487 0.057080023 0.041418575 -0.027058303
0001e0 c3 f0 18 3d b1 fb 9c 3c 64 3b 91 bd 14 cf e3 bc
       0.037338983 0.019162985 -0.07091406 -0.027808703
0001f0 b2 c6 ad bc cc c2 0f bd 76 5c 0d 3d 45 43 7b 3d
       -0.02121291 -0.035097882 0.034512006 0.06134345
000200 75 23 97 bd 0a f8 a8 bc 5a d3 fb bc a8 62 a5 bc
       -0.0737981 -0.020626087 -0.030740429 -0.020188645
000210 53 af 27 bd 06 a4 b1 bc 61 61 bd bd 36 34 39 bd
       -0.040938687 -0.021684658 -0.09247089 -0.045215808
000220 ab 86 2d bd 7f 8b 87 bd 38 00 bb bb d3 44 bc bc
       -0.042364758 -0.06618404 -0.005706813 -0.022982037
000230 07 53 7d ba 98 6b 43 bc 5a 12 16 bd 3a 89 32 bd
       -0.0009663556 -0.011927508 -0.036638595 -0.0435879
000240 07 93 29 3d e7 11 85 bd 7b 0a 65 3d 90 7e a0 3c
       0.04139998 -0.06497555 0.055918198 0.0195916
000250 4d c6 56 3c cb 50 3e 3d 5d 0d 3b bd ad 0a 25 3d
       0.013108802 0.04646377 -0.04566704 0.040293384
000260 d2 1b a9 bc 0a 2b e2 38 05 56 61 bc 9f aa 4a 3d
       -0.020643149 0.000107845364 -0.013753419 0.049479123
000270 17 7e 20 bd c3 f9 99 3c b2 d1 c0 bc 00 16 97 bc
       -0.03918275 0.018795853 -0.02353749 -0.018443108
000280 e5 ee 25 bd 55 ae 7e 3d de 5e 23 bd 65 d3 05 3c
       -0.04051103 0.062177975 -0.039885394 0.008168076
000290 bf 05 98 ba db 1b 91 3c 8d f6 86 3c 52 8b 10 bd
       -0.0011598392 0.017713478 0.016474986 -0.035289116
0002a0 ab 3b 79 bc 41 51 43 3d 00 0c 39 3d 99 87 aa bc
       -0.01521198 0.04768491 0.04517746 -0.020816611
0002b0 39 3c 6c 3c cb c5 7a 3d 2f dd 19 bd f2 6f 81 bd
       0.014418655 0.061223786 -0.037564453 -0.0632018
0002c0 3b f2 a1 bd 14 0f b7 bc 7c 91 30 3d d8 dc 31 3d
       -0.0790753 -0.022346057 0.043107495 0.043423504
0002d0 d4 61 90 3d b6 b7 dd bc 10 cc 90 38 20 6f aa bc
       0.07049909 -0.02706514 6.904465e-05 -0.020804942
0002e0 9c 2d 1f 3c c3 62 6c bd 3a 0e 72 bc e2 52 bc 3c
       0.009715464 -0.057711374 -0.0147739 0.02298874
0002f0 b6 d4 54 3d 8b c4 57 3d cc f8 a9 3c 28 2e 0f 39
       0.05196067 0.052677672 0.020748518 0.00013654737
000300 13 5e 61 3d 00 6e 6f 3c 03 65 99 bd 95 29 89 bd
       0.055021357 0.014613628 -0.074899696 -0.06697384
000310 7f 0d af 3c e7 4a 5f bd c8 e2 55 bd d0 07 6d 3c
       0.02136874 -0.05451479 -0.05221823 0.014467195
000320 85 5c 3d bd 4f 11 78 bd d2 29 00 bc 27 91 6b bd
       -0.04623081 -0.06056338 -0.007822471 -0.057511475
000330 f0 83 64 3c ca 1e 1f 3d f0 dc ee 3c ec 5c 91 bd
       0.013947472 0.038847722 0.029158086 -0.070978016
000340 0f 0a 16 3c 67 77 84 3c 7b c7 6f bd e6 d2 4a 3d
       0.009157672 0.016170217 -0.05853985 0.049517535
000350 c1 5d 6f bd 62 84 3d 3d c9 f6 06 3d d7 09 9e 3c
       -0.05843902 0.04626883 0.032950196 0.019291801
000360 2f 81 b2 bd 1c 3b b4 bc de 7c 92 bd 78 22 5e 3d
       -0.08716046 -0.022000842 -0.07152723 0.05423209
000370 0d a7 40 bd 7b c9 af bc d6 f1 84 bd 57 47 8a bd
       -0.047034312 -0.021458378 -0.06491439 -0.06751888
000380 f3 6a cf 3c 01 98 0a bd 3a 6a 8c bd 6d fd 94 bd
       0.025319552 -0.03383637 -0.068561986 -0.072749
000390 d5 9f 27 bd c0 ba 8b bd 24 95 36 3c 32 c0 9d bd
       -0.040923912 -0.06822729 0.011143956 -0.07702674
0003a0 70 f2 9d bc 44 5b 7c 3d 28 e0 83 bd c8 fa 70 3d
       -0.019280642 0.061610475 -0.06439239 0.058832914
0003b0 72 11 b0 3c 07 0d 90 3d c9 d5 72 bd d7 8e 10 3d
       0.021492694 0.07033735 -0.059285913 0.035292473
0003c0 a6 66 21 bc b3 70 a0 bd f4 f4 1f bd a1 7e 32 bd
       -0.009851133 -0.07833996 -0.039051965 -0.043577794
0003d0 61 3e 40 bd 7f 5e d2 ba 6f 5d 2d 3d 00 8e 31 3d
       -0.04693449 -0.001604989 0.042325433 0.043348312
0003e0 0a 34 dc bb 8b 2b 63 3d 29 cd 41 bb 8c 35 56 ba
       -0.0067200707 0.055461448 -0.0029571748 -0.0008171431
0003f0 a0 b1 4f 3c f4 ae c8 3c 9d 9b 8f 3b 4a 83 0f bb
       0.012676626 0.024497487 0.004382564 -0.0021898323

backbone.2.weight f4 [256, 256]
000000 f8 d5 11 3d 9e 67 28 bd b8 25 31 3d d0 f2 30 3d
       0.035604447 -0.041114442 0.043248862 0.043200314
000010 6a d2 77 3d cc 8e 36 b9 42 e5 5e 3d 20 6d 6f bd
       0.0605034 -0.00017410069 0.054417856 -0.05845368
000020 09 0a 56 bb 2d fa 12 3b f8 c4 4c bd 0e fa 45 bd
       -0.003265979 0.0022426948 -0.04999253 -0.048334174
000030 2d 8d af 3a 12 d4 00 bd 7f a6 18 bd 96 0d 1b bd
       0.0013393514 -0.031452246 -0.037268158 -0.037854753
000040 ae ad 78 bd 56 df 9f 39 60 2f 5b bd 3e be 5d bc
       -0.06071251 0.00030493242 -0.053511977 -0.013534127
000050 6e b7 56 bd 47 e2 87 3c 34 8c d9 bc 04 ce 22 bd
       -0.052421026 0.01658739 -0.026556112 -0.039747253
000060 6a 9e e0 bc 6d 6f a5 bc 60 52 b3 bb e6 92 21 bd
       -0.027419288 -0.020194734 -0.0054724663 -0.039446734
000070 2a 57 ce ba 51 99 3f 3d 25 c9 4b 3d 20 0d d7 bb
       -0.001574253 0.046777073 0.049752373 -0.006562844
000080 a2 76 48 3d 3c e1 c7 3c 25 ae 5d bd 58 2a 70 3c
       0.048941262 0.024399392 -0.054121155 0.014658533
000090 af 42 25 3d c0 db 68 3c ce e2 bc bb 87 70 38 3d
       0.040346798 0.014212549 -0.005764342 0.04502919
0000a0 37 18 31 3d e0 96 46 bd 3e 62 18 3d 22 d0 02 3d
       0.043235984 -0.04848373 0.037203066 0.031936772
0000b0 40 cf 44 3d aa 3f 26 3d e0 36 d2 3c d6 e6 cf bc
       0.04804921 0.04058806 0.025660932 -0.025378626
0000c0 21 cd 11 bd d8 cd c2 3c f0 80 df 3b b8 dd 30 3c
       -0.035596017 0.023779795 0.0068207905 0.010795049
0000d0 f4 a1 08 3d f8 88 d3 3c 5d 09 b8 bc 00 ac 78 b9
       0.033357576 0.025822148 -0.022465402 -0.00023715198
0000e0 d0 67 45 3c 28 51 f0 3c f4 e9 91 bb e8 83 af 3c
       0.012048677 0.029335573 -0.004452938 0.021425202
0000f0 36 6c 9d 3b f6 98 c2 bc ba 47 3a bd e6 3f e0 3c
       0.0048041595 -0.023754578 -0.04547856 0.02737422
000100 29 64 4b 3d 8d 2e dd 39 44 5a 0b bd bb 2b 34 3d
       0.049656067 0.00042187088 -0.03402163 0.043987017
000110 0a 6b 3a bd 14 b0 56 3d e3 43 83 bc 74 8d 96 3c
       -0.045512237 0.052414015 -0.016023582 0.018377997
000120 94 3a 1b bd 45 76 40 3d e8 22 0e bd 10 6a 47 bc
       -0.03789766 0.04698779 -0.034701258 -0.012171283
000130 26 60 55 3c 92 f1 1e bc fc 0a 62 bd b3 92 94 bc
       0.013023412 -0.00970115 -0.055186257 -0.018136358
000140 00 52 66 3d c0 7d e0 3c 54 16 c7 bc b2 27 c1 bc
       0.056230545 0.027403712 -0.024302639 -0.023578499
000150 ed e3 80 3b fc b2 1b bd 00 a8 84 b9 50 f9 92 3c
       0.003933421 -0.03801249 -0.00025302172 0.017941147
000160 77 35 31 3d 8e 8f c0 3b 5e 19 77 bd 25 fa 3c 3c
       0.04326388 0.005876488 -0.060326926 0.0115342485
000170 74 cb 27 bd 67 50 1b bd 90 fc 34 3d 8a 4f 92 3c
       -0.040965512 -0.037918475 0.044186175 0.017860193
000180 15 4b e2 bc 48 47 20 bd b0 d7 a8 bb d0 2b d2 3c
       -0.027623693 -0.03913048 -0.005152665 0.025655657
000190 20 db 71 bc 05 ab 42 bd 50 df 35 bd 9c 28 e9 bc
       -0.014761716 -0.04752638 -0.04440242 -0.028461747
0001a0 00 38 b5 bc c0 2f 54 bd 74 71 9a 3b 13 16 02 3d
       -0.02212143 -0.05180335 0.0047132317 0.031759333
0001b0 b2 2f 7b 3d 5e d6 39 bd e5 04 c5 3b 9c 84 4e 3d
       0.061324783 -0.045370452 0.0060125464 0.050419435
0001c0 58 e7 00 3c 84 c9 13 bd c0 22 c9 bc 0e 55 37 3c
       0.007867657 -0.036080852 -0.024552703 0.011189712
0001d0 c8 a1 1a 3d e2 e3 06 3c 92 b1 28 3d b0 0a e1 3b
       0.037751943 0.008233042 0.04118497 0.006867729
0001e0 10 34 e9 3b 78 a7 d5 bc 96 bd 68 bd 9c 88 63 bd
       0.007116802 -0.026080832 -0.05682143 -0.055550203
0001f0 70 4d 90 bd 08 75 51 bc 70 25 e8 3b 57 c2 42 3d
       -0.0704602 -0.01278425 0.007084541 0.04754862
000200 90 f5 de bc 30 98 c3 3c 58 e0 69 bd 38 f1 5c bc
       -0.027216703 0.02387628 -0.057098716 -0.013485245
000210 e8 08 5d 3d c1 5e 24 3b 1b bc 3c 3d cc cf 1d bd
       0.05396357 0.0025080892 0.04607783 -0.03852825
000220 00 fc a1 39 c0 bc e9 3b 08 8c 68 bd ca 2c 35 bd
       0.00030896068 0.0071330965 -0.05677417 -0.044232167
000230 cb 43 6c bc e4 d1 5a bd fe 01 10 3d 6c 40 ba 3c
       -0.01442046 -0.053422824 0.03515815 0.022735797
000240 72 25 54 bd fa fa 2b bd c0 81 10 3d fe 11 0b 3d
       -0.051793523 -0.041987397 0.03527999 0.033952706
000250 b4 44 02 bd d6 73 31 bd 68 92 0e 3c 00 2a b0 39
       -0.0318038 -0.04332336 0.008701898 0.00033600628
000260 0c e9 64 3b d0 47 71 3c c6 85 50 bd a2 e0 e6 3c
       0.0034928946 0.014726594 -0.050908826 0.028183285
000270 37 83 0d bc c8 a8 89 bc 68 5f 42 3d e6 9c 39 bd
       -0.008637241 -0.016804114 0.047454268 -0.045315646
000280 00 f6 c3 bb e4 6a cc 3c 88 5d 7a bd a0 3c d6 3b
       -0.005980253 0.024953313 -0.061124355 0.006537989
000290 b8 67 e7 bc 8c 13 0f 3d cc e4 16 bd 06 74 59 3d
       -0.0282477 0.03493075 -0.03683929 0.053089164
0002a0 24 5f 13 3c be 90 17 3c e7 e8 9d 3c 33 96 53 3d
       0.008994851 0.009250818 0.019276096 0.051656913
0002b0 85 50 b7 bc be 49 78 3d f2 42 03 bd b0 22 b6 3b
       -0.022377262 0.0606172 -0.032046266 0.0055583343
0002c0 f4 47 e9 bc 34 a0 b0 bc 98 a1 4a bd 3e 91 10 bc
       -0.028476693 -0.021560766 -0.049470514 -0.008823691
0002d0 28 7c 1b 3d c8 e1 49 3c 5e bd 73 bd 5c 5d 04 bd
       0.0379602 0.012321897 -0.059506766 -0.032315597
0002e0 7a cc 7d 3d af 25 a6 bc 19 02 41 3d c2 1e 43 3d
       0.061962582 -0.02028164 0.04712114 0.047636755
0002f0 9a b4 34 bd 2a bb 33 3d 53 c7 2f bc 18 8f a5 3c
       -0.044117548 0.043879665 -0.010728675 0.020209834
000300 88 a9 80 bc 2e ee 11 bd b3 65 17 bd a6 18 4b 3d
       -0.015705839 -0.035627536 -0.036962222 0.049584053
000310 40 4a 71 3d 74 c2 c7 bc b0 21 f8 3b 7f 94 85 bd
       0.0589087 -0.024384715 0.0075723752 -0.06522464
000320 28 8c 57 bd fa 11 06 3d b5 ac 37 bc 96 33 42 3c
       -0.052623898 0.032731988 -0.01121061 0.011853119
000330 80 94 b1 bb 6e 0e 1f 3c 57 1c 83 bb 2e 43 eb bc
       -0.005419314 0.00970803 -0.004001181 -0.028718557
000340 11 67 7d bd 51 61 59 3d 29 3a 3c 3d 08 4c 4d 3c
       -0.06186587 0.053071324 0.045953903 0.012530334
000350 4d 48 85 3b e0 d1 b8 bc 32 f5 42 3c 38 77 5e 3d
       0.004067457 -0.022561014 0.011899279 0.054312915
000360 dd 78 a1 bc a7 17 53 3c 09 d9 7b bd ac 49 8a bd
       -0.019710952 0.012884057 -0.061486278 -0.06752333
000370 54 a6 f7 3c c8 30 2f 3d 18 3d 9f bc 88 81 05 3d
       0.030230679 0.04277113 -0.019438311 0.032594234
000380 10 5d d6 bc 0a 06 5a 3d 50 36 4f 3c 4e 3d 19 3d
       -0.026167423 0.053228416 0.012647226 0.03741198
000390 9f 8a e8 bc 00 52 65 bd 2c 05 33 3d f0 11 bc 3c
       -0.028386412 -0.055986404 0.043706104 0.022957772
0003a0 70 fb 80 bb 06 da 3a bd c0 c4 68 bd 7a 9a b3 bc
       -0.0039362237 -0.04561808 -0.05682826 -0.021924246
0003b0 e0 33 04 3b 6e 94 52 bd 37 09 28 3c 4c 3f ce bc
       0.0020172521 -0.051411085 0.010256103 -0.025176667
0003c0 d0 27 b0 3c 7e 7e 54 3d 00 4a 15 3c c6 31 40 3d
       0.02150336 0.051878445 0.009111881 0.046922468
0003d0 08 92 5e bd 13 67 0f 3d b4 ff d8 bc 8a 04 35 3d
       -0.054338485 0.03501041 -0.026489116 0.044193782
0003e0 50 9f 1a bd e3 7c 4f bd 00 d7 00 bc 74 f8 4b bd
       -0.03774959 -0.05065621 -0.00786376 -0.04979749
0003f0 68 ab dd bc fa 4c 43 3d 60 de 4e bd c8 f9 d2 bc
       -0.027059272 0.047680832 -0.050505042 -0.02575387

backbone.2.bias f4 [256]
000000 56 7f 8a bc 6b fe 37 bd 8b a3 fa 37 2f d6 30 bd
       -0.016906422 -0.044920366 2.9878478e-05 -0.04317301
000010 2a 18 97 bb 67 11 8d bc f2 2e dd 3c 6f 10 4e bd
       -0.004611035 -0.017220212 0.026999924 -0.05030864
000020 21 f7 a5 bc 4d e8 ae 3c 78 1d 23 3d e9 e1 51 3d
       -0.020259442 0.021351004 0.039823025 0.051240835
000030 85 df 59 3d 89 7d cc 3c b2 22 38 bd 1f 74 6f bd
       0.05319168 0.024962204 -0.044954963 -0.05846035
000040 8b ba 40 3d fa 18 68 3b 4e 12 dd 3b c1 ec 43 bd
       0.0470529 0.0035415278 0.006746567 -0.047833208
000050 94 1b 7b 3d 10 c9 4c 3d 6c fd 0a 3d e6 20 71 bd
       0.061305597 0.049996436 0.03393309 -0.058869265
000060 cf f8 95 bd a5 d4 6a bd 2d 9f 96 bc 13 4b 1a bd
       -0.07322847 -0.0573317 -0.018386448 -0.037669253
000070 7a a1 fd 3b 10 39 dc bb 55 a2 52 3d 2e 21 42 3c
       0.007740197 -0.0067206696 0.051424343 0.011848731
000080 ce 87 65 bd 3b fb de bc f0 5b a8 bb 4e 93 19 3d
       -0.056037717 -0.027219405 -0.005137913 0.037493996
000090 72 f8 9c bd 61 0a 02 3d 9f a8 0b bd 3e e4 a3 3c
       -0.07664575 0.03174818 -0.034096356 0.020006295
0000a0 a8 75 e3 bc b7 69 b0 3c a0 e4 45 3b 98 3c 38 3d
       -0.027766064 0.021534784 0.0030196086 0.04497966
0000b0 b9 80 fa 3c e7 ed f7 bc 1f 19 2a 3d c9 e0 9e bd
       0.030578958 -0.030264808 0.041527864 -0.07757718
0000c0 ff 97 02 bd 83 15 ab bd e5 14 10 3d 9a bc 69 bd
       -0.031883236 -0.083537124 0.035176177 -0.05706463
0000d0 4b 50 ce bb ca d5 c2 3c ba cd fd bb 02 ee 03 3d
       -0.0062961928 0.023783583 -0.007745472 0.032209404
0000e0 83 e4 08 39 6b 86 e0 bc 2a 4e 35 bd 66 83 c9 3c
       0.00013055098 -0.027407845 -0.044263996 0.024598788
0000f0 04 95 a4 bc 05 1a 83 bc 45 45 1e bd 32 44 ed bc
       -0.020090587 -0.016003618 -0.03864028 -0.028963182
000100 ba fc 07 3d 68 37 69 3d 2e 86 65 bd f1 7e 6a bd
       0.033200003 0.056937605 -0.056036167 -0.057249967
000110 65 74 09 bc be bd de ba 72 49 6c bd 06 d5 0e 3d
       -0.008389567 -0.0016993803 -0.05768723 0.034871124
000120 1d b0 88 3c 0e 00 03 3d bc 3b e1 3c 2b fd 96 3c
       0.01668554 0.031982474 0.027494304 0.018431267
000130 f9 a5 9e bc ba f5 f5 3c c0 c5 f7 bc 0e eb 8f 3b
       -0.019366251 0.030024398 -0.030245662 0.0043920344
000140 02 2c 6b 3d 43 f5 45 3d 7b 86 54 3d 2c eb a3 bc
       0.057415016 0.048329603 0.051886063 -0.0200096
000150 09 ce 78 3d f5 38 69 3d 3d 5b ab 3b 11 00 04 3d
       0.060743365 0.056939084 0.0052293823 0.032226626
000160 12 73 7e bc 84 82 12 bd d9 d1 8b bd 95 2a 9d 3d
       -0.015530365 -0.035769 -0.06827135 0.076741375
000170 9b 01 84 bd a2 8e 8e b9 be 41 9c 3c 00 58 9c bc
       -0.06445619 -0.0002719062 0.019074317 -0.01908493
000180 29 3b 22 bd d0 19 48 bd 5d 0d 7b 3c 54 71 ee bc
       -0.0396072 -0.04885274 0.01532301 -0.029106773
000190 8c a6 df 3c 4e 03 b4 3d ea 04 e7 3c 12 4c 96 bb
       0.027301095 0.08789693 0.028200585 -0.004586705
0001a0 9f c1 8d 3a 71 7d a8 bd ee cb 13 3d 58 16 35 ba
       0.001081515 -0.08227051 0.036083154 -0.00069079315
0001b0 f2 66 6e bd b5 55 60 bd fe 68 8a 3d 88 ef b3 bb
       -0.058203645 -0.054769237 0.06758307 -0.005491201
0001c0 5f f9 15 3c ce b1 8c 3c b9 39 86 3b 45 34 33 3d
       0.009153693 0.017174628 0.0040962365 0.04375102
0001d0 76 50 d1 3c f2 27 0a 3b f5 47 19 3d 8d dd da 3b
       0.025551062 0.0021080938 0.03742214 0.006679243
0001e0 c1 df 8e bc 19 16 0c 3d 53 90 bf 3c 53 bf 9a bb
       -0.017440679 0.03420076 0.023384249 -0.0047225147
0001f0 01 94 67 bd c4 36 52 3d 20 28 49 3d 58 55 a1 bd
       -0.056537632 0.05132176 0.04911053 -0.07877606
000200 7d c1 07 3d 68 29 80 bc 9b 38 8e bc 2c a2 1e 3d
       0.03314351 -0.015644744 -0.017360976 0.038728878
000210 eb 1e 3a bc 6e 21 1e 3d 87 8b 5a 3d 22 d8 fe 3c
       -0.0113599105 0.0386061 0.05335572 0.03110892
000220 77 c7 f5 bc da 09 db bc a2 17 21 bd 4e f0 7b 3c
       -0.030002339 -0.026738096 -0.03932918 0.015377117
000230 7d d1 e5 3d cf a8 90 bc b4 46 64 bd 8a 65 57 bd
       0.11221597 -0.01765862 -0.05573149 -0.05258707
000240 86 fc 11 3c 03 5a 8e bb 01 7b 96 3b 6c 25 91 3c
       0.008910304 -0.0043442263 0.0045923 0.01771804
000250 1e 8d 26 3d 58 37 f4 bc 14 a5 d9 3c f7 67 24 bd
       0.040661924 -0.029811546 0.026567973 -0.04013821
000260 f0 b5 5f bd 62 66 26 bd a3 89 09 bc 84 e5 e5 bc
       -0.05461687 -0.040624984 -0.008394632 -0.028063543
000270 0f 1d 47 3d 88 60 ca 3b 70 96 77 bc d5 22 ff bc
       0.048611697 0.006176058 -0.015111551 -0.031144539
000280 0c fa e5 bc 42 b8 57 bd 47 2d a3 3b ba 59 64 bd
       -0.028073333 -0.052665956 0.0049797627 -0.055749632
000290 6e 94 3c bd 81 ab 93 3c ef d3 66 bd 99 5b 1c 3d
       -0.04603999 0.018026115 -0.05635446 0.03817329
0002a0 1f 07 c1 3c aa 7f 8e bc 8e e7 2c bd b4 8e 6c bd
       0.023562966 -0.01739486 -0.042213015 -0.05775328
0002b0 20 df 8c 3d 14 41 37 3d 84 90 52 bd d3 88 07 bc
       0.06878495 0.044739798 -0.051407352 -0.0082723675
0002c0 84 16 d6 3c bc 5e 4b 3c 7c d5 cc bc 77 64 fe 3c
       0.026133783 0.012412723 -0.025004141 0.031053765
0002d0 ed a8 29 bd d6 63 58 3d 42 f8 1f bd 4e df c2 bc
       -0.041420866 0.052829586 -0.039055116 -0.02378812
0002e0 34 ae da bd 35 e6 bf bd 80 07 c6 3a 0b a2 71 bb
       -0.10677758 -0.093700804 0.0015108436 -0.0036870267
0002f0 02 d5 1a 3c c1 2a 80 3d 85 2c 84 bc 00 28 8b 3c
       0.009450199 0.06258155 -0.01613451 0.016986847
000300 96 ff d0 bc 33 de 62 3c 6a d4 78 3d da c4 31 3d
       -0.025512498 0.013846922 0.06074945 0.043400623
000310 cd fd 8b 3c d0 ce 00 3d 3f b0 58 3c 8f d3 a2 bc
       0.017088795 0.03144723 0.013225614 -0.01987627
000320 40 e6 39 3d 03 ee 25 3d 02 6d 79 3c 4b 74 2c bd
       0.0453856 0.04051019 0.015223743 -0.042103093
000330 2a c7 a8 bc 85 85 1b bd 46 63 7e bc da 9d b0 bd
       -0.020602781 -0.03796913 -0.015526598 -0.08623858
000340 f3 a3 b8 bd 38 f4 07 3d f3 c6 8b 3c a3 58 89 3c
       -0.09015646 0.03319189 0.01706264 0.016765898
000350 d4 6c 7b bd 18 c2 0c bc 09 24 21 bc 6b 96 97 39
       -0.061383083 -0.008591197 -0.009835252 0.00028913034
000360 f2 c1 0c 3d 40 31 ef bb 80 3b cc bb 94 79 c7 3c
       0.03436465 -0.007299572 -0.006232679 0.024349965
000370 d8 53 28 bc f2 fb d2 bc 59 71 91 bc 5b f8 00 bd
       -0.010273896 -0.025754903 -0.017754244 -0.03148685
000380 3e 3c d8 3c b6 a7 5a bd b3 ea 09 bd 6f dc d7 bc
       0.026395913 -0.053382598 -0.033671092 -0.026350228
000390 04 22 7b 3d 8c b8 2d bd 35 91 a0 bd 88 7d 9e bc
       0.061311737 -0.042412326 -0.07840196 -0.019346967
0003a0 de 6a 26 bd cb 17 82 bd fa e4 c1 bc 15 06 84 bc
       -0.04062926 -0.063521944 -0.023668755 -0.016116181
0003b0 c0 ea 04 bd d0 5b 9e bc 14 73 70 bc c9 7b 89 3c
       -0.032450438 -0.019330889 -0.014675874 0.016782658
0003c0 0c 18 2e bc 66 26 91 bd 38 0a a4 3c bd 0e 69 bc
       -0.01062585 -0.07087402 0.020024404 -0.014224705
0003d0 7a 8e c6 bc e1 25 52 bd 1e ef 4b 3d 6e 28 1a bd
       -0.02423786 -0.051305655 0.049788587 -0.037636213
0003e0 7e 93 4d bd 7d 96 64 bc f7 41 92 bc 89 4b 32 3c
       -0.050189488 -0.013951895 -0.01785372 0.010882267
0003f0 68 39 49 bd 0a 16 3d bd 15 82 d4 bc 1c 96 e3 bc
       -0.049127012 -0.046163596 -0.025940934 -0.027781539

out_n.0.weight f4 [200, 256]
000000 95 e1 90 3c 8e 26 51 bc 3b a9 71 be 95 51 ec 3c
       0.01768569 -0.01276554 -0.23599713 0.028847495
000010 f8 fc 3d bd bf a6 92 bc 38 16 21 3c c5 03 87 bc
       -0.046383828 -0.017901776 0.0098319575 -0.01648129
000020 18 24 18 bd e9 09 9b bd 30 f3 33 bd b9 cb 06 3d
       -0.037143797 -0.075702496 -0.043933094 0.03290913
000030 69 86 20 be 81 58 3c 3d 2f a8 f3 3c c7 98 f7 bc
       -0.15676273 0.04598284 0.029743282 -0.030224217
000040 54 72 e1 bd 9a 78 06 3d e2 38 06 3d ce 95 88 3b
       -0.110081345 0.03282986 0.03276909 0.0041682487
000050 59 53 85 bd 94 d7 5a 3c 1d 0d 09 be fc 1e 14 3d
       -0.06510038 0.013357062 -0.13383909 0.03616236
000060 e1 a7 7d 3d a7 ba 85 bc 64 fb 9d bc 3c 50 13 ba
       0.06192768 -0.016324354 -0.019284911 -0.0005619561
000070 78 37 a8 3c c4 ca 8e bc c5 f8 8d 3c d3 5d 93 bd
       0.020534262 -0.01743067 0.017330537 -0.0719563
000080 ee f6 48 bd 13 cf 70 bd 8f 6c 63 bc 70 f7 15 be
       -0.049063616 -0.05879123 -0.013880863 -0.14645171
000090 f5 d1 2f bd 2c e3 5c 3d 81 28 4b bd 28 fd d3 3c
       -0.04292484 0.053927585 -0.049599174 0.02587755
0000a0 bd 3d 36 bc 19 a3 9b bc 68 da a9 3d 92 58 9c bd
       -0.011123118 -0.01899867 0.08293611 -0.07634081
0000b0 22 56 49 bc 9f cb 57 3d 5d 2f aa bd 5c c3 7f 3c
       -0.012288602 0.052684423 -0.08309815 0.015610542
0000c0 68 d7 1e 3c 2b 78 18 bd cf 6f 4a 3d 8c ac c4 3c
       0.009694912 -0.037223976 0.049423035 0.024008058
0000d0 8f d9 02 bd d6 24 a3 3b 96 c6 58 3c b0 cd 02 bd
       -0.03194576 0.0049787564 0.01323094 -0.03193444
0000e0 f6 e4 6b 3d a6 b7 66 3d 20 ca d6 3b 3a a2 74 3d
       0.0575914 0.056327485 0.006554857 0.059725024
0000f0 70 ff 45 bc ed 91 5a bd 80 83 17 be 33 72 4b bd
       -0.012084827 -0.053361822 -0.14796257 -0.049669456
000100 70 1a 53 bc a3 7a 71 bd 97 d5 14 3d 5b 04 7c 3d
       -0.012884721 -0.058954846 0.036336508 0.06152759
000110 67 ea 05 bc 3b dd 55 be 83 ca ce bb 8f 4d b3 3d
       -0.008173562 -0.20885174 -0.0063107624 0.087550275
000120 ae 84 fa bd 24 b5 ab bd eb 91 f7 3c bf 58 85 3b
       -0.12232338 -0.08384159 0.030220946 0.0040694172
000130 4c 53 45 bc a6 69 d0 bd c4 d9 e2 bc de b9 9b bd
       -0.012043785 -0.10176401 -0.02769173 -0.07603811
000140 a4 57 3b bd 73 99 cb 3c 50 33 4f bd a4 e2 67 bd
       -0.045737877 0.024853444 -0.050586045 -0.056612626
000150 fb 9f 5e bd 37 ee 6a bd 98 c9 4b ba d4 65 e3 3a
       -0.054351788 -0.057356086 -0.0007773875 0.0017349073
000160 04 05 5f 3c 76 f0 49 3d 71 6a 1d 3d dd 31 34 be
       0.013612036 0.049301587 0.03843159 -0.17597146
000170 8a 6b 50 bd 0b 27 9d 3d c6 60 f8 3c 50 00 fe bc
       -0.050883807 0.076734625 0.030319583 -0.031006008
000180 3a 5f ba bc 7a f4 65 bd 31 e2 31 bd d4 c0 29 bd
       -0.022750486 -0.056141354 -0.043428604 -0.04144366
000190 4c 0e 9b 3c cc 8c 2d be 4d b6 45 3d a2 8a 91 bc
       0.018927716 -0.16948241 0.04826956 -0.0177663
0001a0 ed 50 44 3a 1b 69 8e bd 45 ef 35 3d 2c 12 a4 bd
       0.00074888655 -0.06953641 0.04441764 -0.080112785
0001b0 a7 c2 8c bb 4a 4e 0b 3d 4a df 25 be d2 31 27 bd
       -0.0042956653 0.03401021 -0.1619846 -0.040818997
0001c0 ea c0 17 3c ef b6 e5 bc 12 be 74 3d c3 9c 7c 3d
       0.009262303 -0.028041331 0.059751578 0.061672937
0001d0 09 30 ab bc e9 21 9f bd ca ea 24 bd e2 48 6c 3c
       -0.020896928 -0.0777014 -0.040262975 0.0144216735
0001e0 08 b0 64 bd 34 73 1c 3d 86 b8 32 be ec 5c ba 3c
       -0.05583194 0.038195804 -0.17453203 0.022749387
0001f0 5a 22 1f bd f3 9e 31 be 94 9f 39 bd 48 6d a3 3d
       -0.03885112 -0.1734579 -0.0453182 0.07979828
000200 0a 32 3b 3d 99 52 8d bd 11 a9 04 b9 e7 fb 11 be
       0.045702018 -0.0690052 -0.00012651483 -0.1425625
000210 60 97 23 3d 50 4a 0f 3d 5a d8 84 be d4 66 57 bd
       0.039939284 0.03498298 -0.25946313 -0.0525883
000220 96 ab 00 3d b6 cd 46 3d 82 3b b4 bc 9c eb 4a bd
       0.031413637 0.048536025 -0.022001032 -0.0495411
000230 c2 a6 05 be 79 a8 d8 bc ec fb 2c 3d 8a 34 b9 bc
       -0.13051894 -0.026447522 0.04223244 -0.02260806
000240 50 4b a8 bc 1c 21 6e bd 53 2a 43 bd 1e 0f db 3c
       -0.020543724 -0.058137044 -0.047647785 0.026740607
000250 ed f2 f4 3c b6 da 6c bd 70 9f d3 3b 3c 63 82 bd
       0.029900992 -0.057825767 0.0064582154 -0.06366584
000260 90 a9 16 3d 00 b4 46 bb 15 d4 20 bd 07 ae a6 bc
       0.0367828 -0.003031969 -0.039264757 -0.020346655
000270 c8 c2 74 3d b8 5c a7 bd 76 29 84 3c c5 62 31 bd
       0.05975607 -0.081719816 0.016133051 -0.043307085
000280 e0 5a 21 3b c8 ff a9 bc 26 27 bb 3c 16 2a 94 bc
       0.0024620816 -0.020751849 0.022845816 -0.018086474
000290 9c c6 67 bb a2 c2 85 3d ca 45 2d bc 4b 58 7c 3c
       -0.0035366183 0.06531264 -0.010575721 0.01540191
0002a0 7f 6a 96 3c ba 9b 04 bd 20 58 48 bc 9e b0 0b bd
       0.018361328 -0.032375075 -0.012228042 -0.034103982
0002b0 f7 67 25 be 91 8f b8 bc be 29 59 bd ab bd 34 be
       -0.1615294 -0.022529395 -0.053018324 -0.17650478
0002c0 d8 61 10 3d c1 33 44 3d 24 7c f0 3c 76 3c 85 bd
       0.03524956 0.04790092 0.02935607 -0.06505673
0002d0 60 37 ac bc 41 35 4b bd 6c 79 06 bd 3c 59 86 be
       -0.021022499 -0.049611334 -0.03283064 -0.26239955
0002e0 a5 2b 3a bd e0 76 87 3c 14 a1 a2 bc f0 44 79 be
       -0.04545178 0.016536176 -0.019852199 -0.24342704
0002f0 e8 75 9d bc 95 35 97 bd 06 3a e8 bc 81 c7 b3 3d
       -0.019221261 -0.07383267 -0.02834798 0.08778287
000300 7e f9 ae bb b0 90 af bc 9a a0 31 bd cd fc b0 bd
       -0.0053398004 -0.021431297 -0.043366052 -0.08641968
000310 ad c6 3b bd 71 a3 45 bc 94 84 2a be ad f6 23 3c
       -0.04584377 -0.012062893 -0.16652137 0.010007543
000320 74 02 cd bc 28 82 ae bd 87 7d 08 bc ce ea 54 bc
       -0.025025584 -0.08520919 -0.008330709 -0.012995435
000330 57 d2 19 3d 5f ec 1e bd d8 61 31 bd 17 06 d4 bd
       0.03755411 -0.03879964 -0.0433062 -0.10352724
000340 35 65 d7 bc b2 c5 22 bd 4b 1c de 3b 96 4e 0a bd
       -0.026293376 -0.03973932 0.006778275 -0.03376635
000350 5e e1 25 bd 44 24 8b bc 31 b9 af 3c 84 73 84 bd
       -0.04049813 -0.016985066 0.02145061 -0.06467345
000360 5f fa d5 bc 24 da 70 3d 34 9d 05 3d 48 b9 73 3d
       -0.026120363 0.058801785 0.032620624 0.05950287
000370 bf 54 26 bd fe 0d 60 bd 3b ff 35 be c4 2e 29 bb
       -0.040608164 -0.054700844 -0.17773144 -0.0025815228
000380 47 25 45 be 90 54 d6 bb 61 1e 5b bd df 6d d4 bc
       -0.19252501 -0.0065408424 -0.05349577 -0.025931297
000390 00 b4 3d bb 90 3f 47 bd bc 74 3b bd 8e 04 0f bd
       -0.00289464 -0.048644602 -0.045765623 -0.034916453
0003a0 a6 a9 32 bd 3d 4d a8 3b 2c a6 fe bb 65 c3 51 3d
       -0.04361882 0.0051361606 -0.007771274 0.051211733
0003b0 7f a7 14 bc 7a d2 50 3c 30 62 53 ba be aa d7 3b
       -0.009073137 0.012745494 -0.00080636423 0.0065816334
0003c0 c5 64 97 bc 72 62 9e bc 34 fa 24 bd 8b a3 02 bc
       -0.018480668 -0.019334052 -0.040277675 -0.007973562
0003d0 b5 3f 4f 3d 40 46 b3 bc 38 80 03 bc d8 33 ee bc
       0.050597865 -0.021884084 -0.008026175 -0.029077455
0003e0 18 77 b4 bd d0 f2 52 bc eb db 1a be 29 d9 47 bd
       -0.08811778 -0.012875274 -0.15122955 -0.048791084
0003f0 54 5e 21 bd 16 ec 0b 3d 3b b0 8c 3c e9 28 c9 bd
       -0.0393966 0.034160696 0.017173877 -0.09822256

out_n.0.bias f4 [200]
000000 5a a0 d6 bd 8f 12 f1 3d 3b f5 77 bc fb d7 6a 3c
       -0.104798034 0.11771118 -0.015134151 0.01433372
000010 2d 26 3b 3c ee 04 d9 3d 4d df bc bc 90 1b 7c 3d
       0.011422676 0.105966434 -0.023055697 0.061549723
000020 a0 ec 50 3d 76 00 fb bd d9 ba c4 bc be ad 84 3d
       0.051006913 -0.12255947 -0.024014877 0.06478451
000030 6c bd 7f bd 97 0c 17 3c 39 3b bd 3d 23 6f 54 3c
       -0.062436506 0.00921931 0.092398115 0.01296595
000040 cd b7 92 bd 83 a8 44 bd 82 b3 00 3d e8 47 84 bd
       -0.071639635 -0.048012268 0.031421192 -0.064590275
000050 c2 de ab bd aa 45 ac 3c 52 fa bf 3d c0 8b 3e bd
       -0.08392097 0.021029312 0.09373917 -0.046519995
000060 84 f1 c6 bd 60 e8 f2 3b eb ea 82 3d 01 28 1c bd
       -0.09714034 0.007412955 0.06392463 -0.03812409
000070 b6 df a2 3c df 6e 45 3d bf 18 2f bd 9f 34 50 3d
       0.019882064 0.048201438 -0.04274821 0.050831433
000080 bc 5a 48 bb 42 ca a6 bd 67 df 2b bd 1e 18 e7 3b
       -0.003057166 -0.08144046 -0.0419611 0.0070524355
000090 cc a0 1c 3d 0c 06 50 3d 4f 67 92 3c a5 fa 1b 3c
       0.038239285 0.050787017 0.017871527 0.0095202075
0000a0 78 28 35 3c 4f 63 da bb c7 5d 4e bd 60 35 2e 3c
       0.011057012 -0.0066646705 -0.0503824 0.010632843
0000b0 49 28 f9 3c 76 06 a6 bd 28 75 4f 3d 94 bc a6 3b
       0.030414717 -0.08106701 0.05064884 0.0050883982
0000c0 30 eb 21 3d 04 7e 15 3d 6b 89 85 3d 6b 13 ee bd
       0.039530933 0.03649713 0.06520351 -0.116247974
0000d0 e5 5b 19 3d cb 7d db bb 28 5f 7e bd a9 a3 49 bb
       0.037441153 -0.0066983453 -0.062102467 -0.0030767715
0000e0 97 d2 88 3c de 1c a8 3d f2 7a 0f 3d 08 45 83 bd
       0.01670198 0.08208631 0.03502936 -0.06409651
0000f0 ff d4 43 3d 32 15 00 bd 24 d5 19 bd c8 44 ab bd
       0.04781055 -0.031270213 -0.037556782 -0.08362728
000100 77 e6 71 3d 3e 34 94 bc 5e a9 00 bd db 04 84 3d
       0.05905768 -0.018091317 -0.03141152 0.064462386
000110 87 8b 31 bd bc 7a cf bd e4 d8 76 3d 6d 45 be 3c
       -0.043345954 -0.101308316 0.060265437 0.023226464
000120 36 c3 3a bd 2f d8 21 3c 5d bd 51 b9 32 b9 81 bd
       -0.045596324 0.009878202 -0.00020002337 -0.06334151
000130 65 fd 41 3d 9b 26 4d bc 0e c0 c4 bc e2 fe 97 3c
       0.047360796 -0.012521411 -0.02401736 0.018554155
000140 17 07 a4 3c 86 ef 6b 3d c6 2e ff 3c fb e8 ff bb
       0.020022912 0.057601474 0.031150233 -0.007809756
000150 2e c2 6d bd 4a 98 46 bd cc bf c0 bc f5 ca 8f bd
       -0.058046512 -0.048485078 -0.023528956 -0.07021133
000160 53 6e 2f 3c 90 9a 41 bd 64 cf 66 bc 4f 12 7c bd
       0.010707456 -0.047266543 -0.014087532 -0.061540898
000170 10 a3 0d 3c bb dc 19 3c 5f 41 76 bd 96 81 d1 3c
       0.008644834 0.009391005 -0.060120936 0.025574487
000180 fd 9c 85 bd 9e a0 11 bd 99 9f 22 3c e0 52 17 3d
       -0.06524084 -0.035553567 0.009925746 0.03694427
000190 fa d2 31 bd 7d 07 5b bd b5 69 ac 3d ed 51 5e 3c
       -0.043414094 -0.05347394 0.084185995 0.013569337
0001a0 d8 42 89 3d 3d 5e 0c 3d 1c 99 c8 bd 73 c2 bc 3d
       0.067022026 0.03426956 -0.09794828 0.09216776
0001b0 bf 18 80 bc 9c d2 cd bc 7e 75 17 3b af 71 8f bc
       -0.0156368 -0.02512484 0.0023110802 -0.017510263
0001c0 5c 07 33 3d a3 71 aa bd a3 78 8e ba f0 9f 71 bd
       0.04370819 -0.08322456 -0.0010869693 -0.05899042
0001d0 da aa 9f 3b 91 8d 08 bd 61 dc 9b 3d 1c 77 16 bc
       0.004872662 -0.033338133 0.07610393 -0.009183671
0001e0 51 a0 53 bd d5 9d 1e 3d 4c ab 65 bd 65 ba 4b 3d
       -0.05166656 0.03872474 -0.056071565 0.049738307
0001f0 f5 cb d5 3b 58 5e 42 3d 09 b5 d9 bc c3 2b 87 3d
       0.0065245577 0.047453254 -0.026575582 0.06600144
000200 c4 f2 fc bc 57 a5 83 3d 6a 37 bf 3d 62 f8 ba bb
       -0.030877478 0.064280204 0.09336741 -0.005705879
000210 88 fe 86 bd 3b 4b 4d 3d 87 85 4f 3d 2d 78 3f bd
       -0.06591517 0.050120573 0.05066445 -0.046745468
000220 41 2e 0c be da ba 37 3d 0c 7f ad bd 4f fd 2e 3c
       -0.1368952 0.04485593 -0.08471498 0.010680511
000230 bb b2 2c 3d 4d a5 c3 3d 7a e7 88 bd 3f e1 64 3c
       0.04216264 0.09553013 -0.06684776 0.0139697185
000240 4d 6b 09 bc e9 09 bd 3d 74 d6 01 be 77 e6 25 3d
       -0.008387399 0.09230406 -0.12679464 0.04050299
000250 75 bf b7 bc a5 a4 af bc 7f 82 8c 3d 0d f3 2f 3d
       -0.022430161 -0.021440813 0.06860828 0.0429564
000260 ac a8 86 bd ea de 74 3d 4c 6c 9b bd 63 f7 e0 3c
       -0.0657514 0.0597829 -0.07589015 0.027461713
000270 8f e4 34 bd 86 ac 2c bd 24 18 e1 bd 30 c4 8e 3d
       -0.044163283 -0.04215672 -0.109909326 0.069710135
000280 28 6b 4e bd 09 1e 88 bd 3a 42 47 3d 9a 55 7d bd
       -0.05039516 -0.06646354 0.048647143 -0.061849214
000290 6f 35 62 bc 54 c1 1a bd 9e ed 5c bc 3d 8b 33 bd
       -0.013806685 -0.03778203 -0.013484387 -0.04383396
0002a0 a6 40 98 3d 03 25 4a be a6 e1 9a b9 e1 27 c8 3d
       0.07434206 -0.19740681 -0.0002954129 0.09773231
0002b0 e6 36 8f bc 05 85 01 bc 7b d3 19 3d b8 05 94 3d
       -0.017482232 -0.0079052495 0.0375552 0.07227653
0002c0 df 0c 4b 3c 16 38 09 be a3 05 35 3e 0c 9e 8e bd
       0.012393205 -0.13400301 0.17677931 -0.06963739
0002d0 e9 41 8b bc 0d 94 42 bd 3b 28 c4 3d 8c 0b d0 bd
       -0.016999202 -0.047504473 0.09577986 -0.101584524
0002e0 0e 12 9e bd c1 72 07 3e 02 cf d1 3d a4 12 48 be
       -0.077182874 0.13227369 0.10244562 -0.19538361
0002f0 bb eb 2a bb 9f d4 f2 3c aa 1b 89 bc f9 f6 89 bd
       -0.0026080448 0.029642401 -0.016736824 -0.067365594
000300 b0 5b bb 3c c8 69 cb bb 1b b7 c6 3d fe 6e 9e 3c
       0.022870868 -0.0062076785 0.09702893 0.019340035
000310 46 e0 b4 bd ca e3 c2 3d cc 1f 0b 3e f2 45 d9 3c
       -0.08831839 0.095161036 0.13586348 0.02652261

out_d.0.weight f4 [200, 256]
000000 86 3c 53 bd 0d 6a 1e bc 74 a9 f7 3c 3d 45 0e bd
       -0.05157139 -0.009668839 0.030232169 -0.034734
000010 d3 ad 63 3c c7 51 5b 3d 6a 70 e6 3b c4 98 d7 3c
       0.013896423 0.053544786 0.007032444 0.026317962
000020 a0 37 1f bd 22 1f ee 3b d2 8e 41 bd 53 cb b7 bc
       -0.038871408 0.007266895 -0.047255345 -0.02243582
000030 67 a6 a5 3d 55 ae 14 3d 81 7d 56 bd b4 0d d2 bc
       0.08088379 0.03629907 -0.052365784 -0.0256413
000040 ca d0 e0 bc 0b 9c fd 3c c0 36 35 bc 90 ce 20 3d
       -0.027443308 0.030958196 -0.011060417 0.039259493
000050 3e 75 11 3c a6 0f a6 bc b8 29 18 3d 13 d6 2b bd
       0.00887805 -0.020271134 0.03714916 -0.041952204
000060 1d bf b2 3c 25 77 fc 3c de 28 01 3d 8f 3c dc 3c
       0.021819646 0.030818531 0.031533115 0.026884345
000070 2e f2 32 ba d8 62 84 bc e6 eb 1e bd d0 d9 4b 3d
       -0.0006826249 -0.016160414 -0.03879919 0.04976827
000080 04 02 4c bd b2 5e b4 3b cb 58 94 bd c4 e5 f3 3c
       -0.04980661 0.0055044526 -0.072434984 0.029772647
000090 95 90 63 bc 85 c9 24 bd 05 f1 cd ba 0f 99 b8 ba
       -0.0138894515 -0.040231247 -0.0015712088 -0.0014083701
0000a0 04 3f 66 bd c5 ac 0f bc b0 af ae bc 73 a6 31 bd
       -0.05621244 -0.008769219 -0.021324009 -0.04337163
0000b0 0b 92 33 3c bc 20 30 3d 82 16 69 3d 68 48 93 3d
       0.010960112 0.042999968 0.05690623 0.07191545
0000c0 0b a2 80 bd a0 36 5d bc a5 ec 66 bb 78 91 91 3c
       -0.06280907 -0.013501793 -0.0035236266 0.01776956
0000d0 04 21 4b bc c6 11 c3 3b 3f 1f b1 3c f4 b2 4b bd
       -0.012398008 0.0059530465 0.021621345 -0.04973121
0000e0 05 10 35 3d 52 fc 9f 39 6c 0b 0f 3d 73 be 2a 3d
       0.04420473 0.00030514837 0.034923002 0.041685533
0000f0 40 45 05 3b 33 cd 80 3b de c6 7b 3d 32 9c 5e bc
       0.0020335466 0.0039307117 0.06146895 -0.013587045
000100 18 53 a4 bc 86 bd 04 bd f4 f5 33 bb 54 52 36 3d
       -0.020059153 -0.032407306 -0.0027459832 0.044512108
000110 69 06 06 bc aa d1 45 bd a0 be b1 3c c6 30 3e bd
       -0.008180239 -0.048295654 0.021697342 -0.046433233
000120 76 7e f3 bc 46 8c 38 3c f9 75 1b 3d b8 26 39 bd
       -0.029723387 0.011263913 0.037954304 -0.04520294
000130 00 69 d2 3c 45 30 78 bd 92 aa 3b 3d 21 a1 62 3d
       0.025684834 -0.06059291 0.045816965 0.055329446
000140 dc 8a b5 bb 28 02 d9 bc d5 83 0f 3d a4 94 f4 3c
       -0.005540235 -0.026490286 0.035037834 0.029856034
000150 16 25 82 bc 4a 92 75 bd 4e 3d 0c bd e7 8f 0a bd
       -0.015886825 -0.059953965 -0.034238152 -0.033828642
000160 28 98 8f 3d aa 7b 1d 3d 31 b8 15 bd 5c d5 8d 3d
       0.070114434 0.038448013 -0.03655261 0.06925461
000170 d3 8b 0a 3c c5 bd a2 bb e0 5b 4f bd 10 4c 35 bc
       0.008456188 -0.00496647 -0.05062473 -0.011065498
000180 78 62 e4 bb fa af 55 bd 69 d0 89 bc 36 2d 16 bd
       -0.006969746 -0.052169777 -0.01682301 -0.03666421
000190 84 15 03 bd 47 6d 01 3d 4a 82 53 bc 2f b5 22 bb
       -0.03200294 0.031598356 -0.012909481 -0.0024827232
0001a0 76 56 78 3c 26 5c 18 3d 68 55 b7 3b eb 9c 54 bd
       0.015157333 0.037197255 0.005594898 -0.05190746
0001b0 46 74 85 bb 29 59 58 bd 6c e0 a3 3c d7 a6 1c 3d
       -0.0040726988 -0.052819405 0.020004474 0.03824505
0001c0 96 94 55 3d d2 9f 22 bd c4 78 f5 3c e7 58 9b 3c
       0.052143656 -0.039703198 0.029964812 0.01896329
0001d0 2b cf 7b 3c 86 1e 83 bd 5d 2a 59 bc 39 62 5c 3c
       0.015369217 -0.06402306 -0.013254729 0.0134511525
0001e0 f7 e2 92 bc 1a 64 08 bd 31 7a 1e bc d5 64 cb bc
       -0.01793049 -0.03329859 -0.009672687 -0.024828354
0001f0 ee 34 2a bd 96 18 70 bd c2 71 43 bd 2c ec 13 bd
       -0.041554384 -0.058617197 -0.04771591 -0.036113903
000200 dd a3 26 b9 f3 e3 f1 bc 07 4d 2e 39 f0 ac 70 bc
       -0.00015892037 -0.02952764 0.00016622628 -0.014689669
000210 97 75 df bc 9e 12 43 bd 3e 25 a7 3c 75 2d 48 3d
       -0.02727775 -0.047625177 0.0204035 0.048871476
000220 8f a7 60 3b 0b d3 3c bb 98 3f 94 3c 76 ca f5 bc
       0.003427956 -0.0028812315 0.01809673 -0.030003767
000230 a0 9d 4d bc b7 bd 3a 3c 7d fc 67 3c a4 30 ed bc
       -0.012549788 0.011397771 0.014159319 -0.028953858
000240 70 f6 30 bd 98 4c dd 3c 68 6b 3f 3d 20 3d 6a bd
       -0.04320377 0.027014062 0.04673329 -0.0571872
000250 34 02 0b 3d 28 ef af bc c0 1c d5 bb eb 50 d5 3c
       0.033937648 -0.021476343 -0.0065036714 0.026039561
000260 15 f2 e8 bc 9c 4c 3d bd 73 fb 65 bd f5 17 35 bd
       -0.028435746 -0.04621564 -0.056148004 -0.0442123
000270 58 73 30 bc c1 68 aa 3b a8 ec 10 3d 35 26 14 3d
       -0.010769688 0.005200476 0.035381943 0.03616925
000280 14 e1 60 bd 1c 88 d7 3c c0 ff 43 bd 00 79 79 3d
       -0.05490215 0.02631002 -0.047851324 0.06090641
000290 65 dc 37 bc bd 31 04 3d 09 18 48 3d c9 7e 36 3c
       -0.01122198 0.032273997 0.048851047 0.011138626
0002a0 da 01 9e bb a8 2a b4 bd b0 62 92 bc 64 d7 f0 bc
       -0.004821998 -0.087971985 -0.017869323 -0.029399581
0002b0 e5 33 f7 3c ea f0 49 bd 6b 75 44 bd b6 c3 25 bd
       0.030176112 -0.04930202 -0.04796354 -0.040469848
0002c0 90 76 cc 3c d7 fc 98 3c 0a 02 2f 3d 9b b4 42 bd
       0.024958879 0.018675251 0.042726554 -0.04753552
0002d0 0a 55 d2 3c 20 af 27 3d bd ab f2 3c 70 6a aa 3c
       0.025675315 0.040938497 0.029622907 0.020802706
0002e0 af a1 86 bd 19 2e 80 3d 78 51 74 3d 6c 08 08 3b
       -0.065738074 0.062587924 0.059648007 0.0020756973
0002f0 57 b8 88 3c 70 b7 f2 bc c8 65 96 3d 92 6a e5 3c
       0.016689463 -0.029628485 0.07343632 0.028004918
000300 2c 8b 9d 3c a0 25 c0 3c 3c 00 06 b9 3f 2c ca 3a
       0.019231401 0.023455441 -0.00012779323 0.0015424563
000310 3c 7c fe 3c 88 ac 8d bc ad f6 44 3a 2b e1 f2 bb
       0.031065099 -0.017294183 0.0007513564 -0.007412096
000320 e8 da bb 3c 93 5a 10 bd c8 51 c9 3c b2 ce a1 3d
       0.022931531 -0.03524263 0.02457513 0.07900752
000330 4c 0b 3b 3d 1a fe 0a 3d 4a dd 81 bd 2c e8 1f 3d
       0.04566507 0.033933736 -0.06341036 0.039039776
000340 79 b7 e7 3b 36 de 33 bd 0c 24 3c bd 5e 5e 04 bd
       0.007071432 -0.04391309 -0.045932814 -0.032316558
000350 98 d9 44 3c 28 50 7c 3c 02 7b c3 3c df 05 27 bd
       0.012014769 0.01539997 0.023862366 -0.040777083
000360 ef 7e fb 3b c0 4e e3 ba 0c 97 62 3d 40 7f 58 bc
       0.007675044 -0.0017342195 0.05531983 -0.0132139325
000370 cd ae 7d 3d aa 0d 06 3d 2c c9 42 bd 86 0c d8 3c
       0.06193428 0.032727875 -0.047555134 0.02637316
000380 5f 3e 96 3d d4 ab 49 3d 42 d2 6c bd 8f 20 11 bd
       0.07336115 0.049236134 -0.057817705 -0.03543144
000390 64 35 d5 3c 40 e6 7e bc ab 0e 2f 3c 70 08 d0 3c
       0.026026435 -0.015557826 0.010684649 0.025394648
0003a0 d0 0a 22 3c 76 0d 0e bc 93 d2 a2 bc 81 37 a0 3d
       0.009890273 -0.0086702015 -0.0198758 0.078230865
0003b0 91 3c 01 3d fd b1 1d bb 5d 9d 60 3d d5 85 58 3d
       0.0315519 -0.0024062388 0.054837573 0.052862007
0003c0 bb af 44 3d 9c 9b 6d bd 87 4a 75 3d b8 f5 52 bc
       0.048019152 -0.05800973 0.059885528 -0.012875967
0003d0 7d 31 30 bd 99 11 5a 3d e8 d8 14 bd dc a8 6b 3d
       -0.043015946 0.05323944 -0.03633967 0.057534084
0003e0 ab d7 de bc ce 35 7b bd 2e 89 8a 3b da 5e 45 bd
       -0.027202448 -0.06133061 0.004227779 -0.04818616
0003f0 b8 22 0f bc 70 51 73 3d 44 8d 11 bd e2 07 4b bc
       -0.008736305 0.059403837 -0.035535112 -0.012392016
