ch3_figures_output_tuned/model_100L_sine.pth (torch, 576125 bytes, 8 tensors)

backbone.0.weight f4 [256, 100]
00000000: 1d5f 04bd 884b b9bd 30d8 363d 60af 6d3d
00000010: 9abf 6c3c 6f07 9cbd 1ad8 0ebd 428d 94bd
00000020: 4a9c 1c3d 5742 a83d 9ab1 9bbb 070e ccbc
00000030: fad5 e73c 330b 8b3c da22 0b3d 102a 71bd
00000040: 5356 50bd 0d94 a53c aad7 303d 5a8a f7bc
00000050: ad21 5bbd 5791 3cbd 204c 1abd a01b b9bd
00000060: 186c 803d 9a86 913c bf95 a63d bd6f 623d
00000070: 773b 333d cd84 01bd 67dc 2fbc 9a80 ba3b
00000080: 53d1 a33d 7d68 99bd 27c9 073d 9ac5 bcba
00000090: baf5 e13c 6d54 c8bc ba3e e7bc 37f5 13bd
000000a0: da5d 8abc adad 983c b095 25bd 3b66 acbd
000000b0: 403a b13c 708d 3bbd 9a49 57bd 2d9e 3d3d
000000c0: 4a2a 2f3d 9d1f 8d3d cf97 9abd eb41 803d
000000d0: f312 d63c bae1 c7bc 336e 91bc fa84 03bd
000000e0: 3dbd 833d 2526 90bd 870f aebc c7e6 5d3d
000000f0: 7f5d 8d3d 12d5 8bbd d087 983d dae1 0e3c
00000100: eb54 a83d e7ce 18bd 4713 673d 274c 6abc
00000110: b8b3 bcbd bacc a03c ab87 af3d 27e3 b7bc
00000120: 1003 c2bd 175b b93d 00b7 1d3d ed96 b7bd
00000130: 87fe a9bc a786 6a3d 80a3 8b3c 9267 a7bd
00000140: 17e9 4bbd 9a39 7f3b baa4 f73c b0f3 003d
00000150: f75a 153d a02c ddbc 5ae0 eabc d0ad c3bd
00000160: 37f6 713d 7006 b6bd e071 a3bc 73ca 07bc
00000170: dfa7 a0bd ca2e 213d fa53 5abd e854 903d
00000180: adaf 803c a027 643d aa07 c63d b5d9 bd3d
00000190: 0ec0 7bbd ac39 2bbd e9f3 07bc da61 34bc
000001a0: bf88 823d faa2 0d3d 33d8 a4bb 1a46 ab3c
000001b0: 20d4 e73d 269d a23d 34f7 adbd a1bf 4d3d
000001c0: 749e d2bc 9211 d93c 9dbd 10bc 5254 18bd
000001d0: 764e 85ba afdf 5bbd dab3 183d 2426 4cbd
000001e0: 2692 193d ef7f 993d 45b6 153d b71c 7a3d
000001f0: a3c5 18bd 44fb 8a3c 0e69 87bd 9e3d 8ebc
00000200: 8596 93bd 880e 21bd 62f0 5f3d ad77 93bc
00000210: 8318 94bd 779d c0bb 06c9 52bc 00a6 a2bc
00000220: 0693 6ebd b153 bfbc 9125 01bc b6ef 30bc
00000230: 81a4 7f3d 7da5 5a3d d2f3 55bd 34e1 ba3c
00000240: 30c4 aabd 8127 e13a bb91 2e3c c901 30bd
00000250: 21c5 efbc 9049 da3c 24d2 68bd cfc7 a9bd
00000260: 6cc4 ab3c f0c2 8a3c 69e3 a0bd 5a06 4cbd
00000270: 6f8d 9e3d 73f8 543c e6a5 a6bd 8341 adbc
00000280: 6ac9 af3d 60d5 c03c 773f a7bc eb95 5f3c
00000290: c048 a83c 2379 353c 408a 7e3a da96 73bd
000002a0: 6950 a9bd 205d 55bd 642d 683b 6136 d9bd
000002b0: 4a5b 283d b44d 4e3d ed27 6abd 0435 d53b
000002c0: a69f 80bc eaea b039 085a eebc 92ff dd3d
000002d0: 81a3 9fbd 5128 15bd c597 14bc 9a49 993d
000002e0: 7c8f 6c3d f53a a13d 3625 e03c f1b8 11bd
000002f0: 55d0 453d c882 abbd 42b0 dfbd 2bb3 66bd
00000300: 5fef 11bd b8e5 a4bd 98cc b9bd 299b 0cbd
00000310: 0b57 a33d fe14 8cbd 8529 973d 79ee 0dbc
00000320: edc5 c13d f076 333d cd68 9c3c 47dc a33c
00000330: e513 c7bd 47c8 9a3c 8a4c 843d cdb2 cd3c
00000340: 5791 353d 9864 953d 0700 83bc d2e1 c43d
00000350: 8da4 453d 600f ab3d 7765 a33d 7acd 77bd
00000360: 7301 0a3d 67c4 813b db3c b5bd 5793 af3d
00000370: 53d0 b6bd 6042 d1bc ebe4 853d c0b4 ef3c
00000380: 4074 9f3d d562 92bd 1a4e a2bb 1046 ae3d
00000390: 2066 d8bc c06a 8b3c 4584 80bd d35b c83c
000003a0: 3344 383b 4def bcbc 874c abbc f3d3 31bd
000003b0: 7b66 9e3d c084 01bc 602d 19bd 8368 5dbd
000003c0: 87e3 cabd 7a2c 5dbd 8060 c03c 9aa9 b0bc
000003d0: 7378 bd3c 0086 38bb 9a73 47bb 0052 97bd
000003e0: 1a66 7ebd 00ab 99bb fa44 7f3d cb6c 8e3d
000003f0: 3728 7d3d 6786 7d3b fdca 4d3d d258 8e3d
-0.03231727 -0.090476096 0.044639766 0.05802858 0.014449978 -0.07618605 -0.03487406 -0.07253505
0.038234986 0.08215778 -0.0047513964 -0.024909033 0.028300274 0.016973114 0.033968784 -0.058878005
-0.050863575 0.020212198 0.043174423 -0.030217338 -0.053498913 -0.046037044 -0.037670255 -0.09038472
0.06270617 0.017764378 0.081340306 0.055282343 0.043757882 -0.03162079 -0.0107337 0.0056916
0.0799891 -0.07490633 0.03315082 -0.0014402152 0.027582992 -0.02445432 -0.028228153 -0.036122527
-0.016890455 0.018637503 -0.040425956 -0.084179364 0.021634221 -0.045789182 -0.052560426 0.046293426
0.04276494 0.068907954 -0.075484864 0.06262573 0.026132083 -0.024399627 -0.017752742 -0.03210924
0.06432579 -0.070385255 -0.021247638 0.054175165 0.069025986 -0.06827749 0.07447779 0.008720839
0.08219322 -0.037306692 0.05641487 -0.014300383 -0.09213966 0.019628871 0.085707985 -0.022447182
-0.094732404 0.09050577 0.0385046 -0.08964334 -0.02075125 0.05725732 0.017045736 -0.08174051
-0.04978284 0.0038944245 0.030229915 0.0314824 0.036463704 -0.026998818 -0.028671432 -0.095546365
0.0590727 -0.088879466 -0.01995176 -0.008288014 -0.07844519 0.039351262 -0.053302743 0.070474446
0.015708769 0.05570185 0.096694306 0.0927004 -0.061462454 -0.041803047 -0.008297899 -0.011009658
0.063737385 0.034579255 -0.005030656 0.02090745 0.113197565 0.0794013 -0.08494416 0.05023158
-0.025710322 0.026497636 -0.00883427 -0.03718979 -0.0010170478 -0.05368012 0.037280895 -0.04984106
0.037492894 0.074951045 0.03655078 0.06106254 -0.037297856 0.016965516 -0.066118345 -0.017363366
-0.07206444 -0.0393205 0.054672606 -0.018001402 -0.07231238 -0.0058781463 -0.012865311 -0.019854546
-0.05824568 -0.023355337 -0.007882492 -0.010799339 0.062412743 0.05338048 -0.05223448 0.022812463
-0.08338201 0.0017177911 0.010654862 -0.042970452 -0.029268803 0.026646405 -0.05684103 -0.082900636
0.020967685 0.016938657 -0.07855875 -0.049810745 0.0774182 0.012998688 -0.08137111 -0.021149402
0.085833386 0.023539245 -0.020416005 0.013646583 0.020542502 0.0110762445 0.0009709932 -0.059470035
-0.0826729 -0.052090764 0.0035427446 -0.10606075 0.041102685 0.050367072 -0.057166982 0.006506564
-0.015701126 0.0003374436 -0.029095665 0.10839762 -0.07794858 -0.0364154 -0.009069388 0.074847415
0.057754025 0.07872573 0.027361494 -0.035576764 0.048294384 -0.08374554 -0.109222904 -0.05632321
-0.035628673 -0.08051628 -0.09072226 -0.03432766 0.079755865 -0.068399414 0.07380966 -0.008662813
0.094615795 0.0438146 0.019092942 0.020002497 -0.097205915 0.018894328 0.06459911 0.025109673
0.04432806 0.07294577 -0.015991224 0.09613384 0.04825263 0.08352542 0.07978337 -0.060498692
0.03369279 0.0039601806 -0.08849498 0.08573025 -0.089264534 -0.025544345 0.06537803 0.029260993
0.07785845 -0.07147757 -0.004953158 0.08509457 -0.026415884 0.017018676 -0.062752284 0.024457848
0.0028116822 -0.023063326 -0.020910515 -0.04341502 0.0773439 -0.007905185 -0.03739679 -0.05405475
-0.09906679 -0.053997494 0.023483515 -0.021565247 0.023128724 -0.0028156042 -0.0030433894 -0.07388687
-0.06210909 -0.0046895742 0.06232164 0.06954344 0.06180593 0.0038684846 0.050242413 0.06950535

backbone.0.bias f4 [256]
00000000: 4ff4 9bbd fbcc bebb cdd1 e03b 1d6a 8a3d
00000010: 2d00 a93c 60ab 06bd 008f 933b dd8e 9a3d
00000020: 40bd fd3c 6af4 68bd 3569 cabd 70ca 7fbd
00000030: 73df 61bc 302a cabd a74f c1bc 5690 903d
00000040: 67d6 5cbb fdb2 143d e7b0 7abc fda7 febc
00000050: 2432 d7bd 333a a9bc 9614 443d 633a 643d
00000060: aa37 71bd 9ab7 873d 964a 823d 2fa8 6fbd
00000070: eacd 403d eaa5 973d 41ac 213d 7327 80bc
00000080: 8396 35bd 12f7 a8bd 6981 b33c 77fa eebc
00000090: 3edf 903d a1da 713d 3bea 4bbd 17c1 1dbd
000000a0: a78c 2b3c 8983 723b 5018 bbbd 7414 a8bb
000000b0: 407e db3b 1ee4 28bd cfc0 adbb da9b 54bd
000000c0: e012 313d 3d0e 233d 1392 b3bd dd7c 70bd
000000d0: 77ef a6bd 4dba a23b c7a2 8bbd 2b1e 1dbd
000000e0: 92d6 6fbd 6314 c93d 5d89 41bd 6778 e83c
000000f0: 90cf 42bd 81f1 a73d c3b0 0bbd b3b8 78bc
00000100: bea7 a2bd 3d41 513d 74e0 93bd 3b03 c7bd
00000110: 5dcd 693d 4711 093d ed39 efbc f083 e1bc
00000120: 16e3 ac3b 72d2 3c3c eb6c 68bc da0e 513c
00000130: dde0 273d 659e 633d 5a4b 103c 5339 853c
00000140: 6667 c0bd 909d 193d 7e53 bdbd 6297 8bbd
00000150: 43e3 753d 33df 6fbc 7a47 24bd 3a11 66bd
00000160: 147a 863d d0f9 923d 10c8 47bd e062 88bd
00000170: 4001 af3c a75d d53c b7d8 8e3d 4796 653d
00000180: cdee 83bb 75fb 903d 26f8 f0bd e142 9ebb
00000190: cb5a b8bd 0303 033d e08e adbc a8dc 46b9
000001a0: 6375 293d e15c 133b 71a8 70bd ff30 89bd
000001b0: 6f06 eebd 4882 453c 0d30 a13c 5550 b6bd
000001c0: dd57 3c3d 632f eebc 93b3 f0bc 675d 45bb
000001d0: d711 82bd fdf1 7cbd ccad c9bd 4154 6abd
000001e0: 67cb eb3b dd34 873c 7a4c dcbd 3385 edbb
000001f0: bdd0 cb3d fc3d 0dbd b31c 03bd 54dd 5a3d
00000200: 7759 30bd df52 a93c ba79 d83c fabf 99bb
00000210: 9f74 e9bc 5802 9bbd f4bc 13bd 7fbf 923d
00000220: 2316 593d a737 91bd fd77 1c3d 839f b2bd
00000230: 0043 163c 4d28 8d3b e0d0 b4bd 2c11 913d
00000240: ce92 05bc fa7f e83c 7020 4abd 008a 583d
00000250: 4849 c2bd 2911 8e3d ff4b bcbd 417d c6bd
00000260: c06d 00bc fcb8 bdbd 272e 943c c0e3 76bc
00000270: cc30 31bd 1dc5 ae3d c83c edbd 3c0e 8d3c
00000280: aa62 0fbd 6a23 efbd 13e1 e93c a889 c73d
00000290: 3761 6d3d 5b44 953d f08f 5fbc cdb7 7fbb
000002a0: a381 aa3d eaef 463d 3323 243b 6b1c 9b3d
000002b0: 2ac6 94bd 4d82 f43b cdfa f6bc 8f71 903c
000002c0: baf1 f53c 1fce b3bd 4d85 95bb 4fa0 af3d
000002d0: 0ccc ac3b 6cc6 873b 91c1 c0bd a3af c4bd
000002e0: 6702 193c c0f6 4b3c 1a46 90bc 33b8 8abd
000002f0: bd0b c5bd 1a21 f3bc 04b0 313d c51a 9a3d
00000300: 5ef9 ec3b e795 a8bd de8d 963a cfbd c43c
00000310: f1d2 8fbd 3aec a23d 73eb c2bd 9163 e3bd
00000320: 9a73 2f3d f518 373d 077f 2a3d c718 83bc
00000330: c51e c7bd 4d63 dabc b04f 45bd d490 813d
00000340: 457e aeba 6782 a23a cbb3 72bd 0d24 0f3c
00000350: ad1f 7f3d 7950 2ebd 1a40 f63b c47c 5a3d
00000360: 5a9d 433c 17dc 7d3d b34a 383d a570 c4bd
00000370: 72c9 9a3d 6755 233b 836d c1bd 95db 533c
00000380: 0bd5 e7bd b881 bdbd cada 73bc ef12 f3bd
00000390: 9713 363d bb54 a6bd 33f1 c03c 00e3 703d
000003a0: 30c7 0b3d cd12 a2ba 5db2 30bd c723 aabd
000003b0: bac6 093d 55bd 0d3d 8a7f 8c3d 1aa0 7bbd
000003c0: db29 ccbd 0d86 883c 9a5c 86bb 3a54 7ebd
000003d0: aa2f 873d 81a7 6c3c 6d56 ae3d 67ee d8b9
000003e0: 1070 c6bd 9756 a3bb bafb 773d 3316 6bbd
000003f0: 0d87 4f3d 5b41 b53d eb2d 45bc 3316 503c
-0.076149575 -0.0058227754 0.0068609477 0.06758521 0.020629967 -0.03287828 0.004503131 0.0754678
0.03097403 -0.056873716 -0.09883348 -0.06244892 -0.013786185 -0.09871328 -0.023597552 0.0705878
-0.003369713 0.03630351 -0.015300966 -0.031085962 -0.105076104 -0.020657634 0.047871195 0.055719744
-0.058890976 0.06626816 0.063618824 -0.05851 0.047071375 0.074046925 0.039470915 -0.01564381
-0.044332992 -0.0825025 0.021912294 -0.029172165 0.0707383 0.05904639 -0.049783926 -0.038514223
0.010470546 0.003700467 -0.091354966 -0.0051293913 0.0066984 -0.041233175 -0.0053025256 -0.051906444
0.04323089 0.0398085 -0.08768096 -0.05871283 -0.08151143 0.0049660564 -0.06818157 -0.03835885
-0.05855424 0.098183416 -0.04725014 0.028377725 -0.04756123 0.0820036 -0.03410412 -0.0151807545
-0.079421505 0.051087607 -0.072205454 -0.09717413 0.057080615 0.033463743 -0.029202426 -0.027528733
0.005276094 0.011524783 -0.014186124 0.012759889 0.04098593 0.05557098 0.008807028 0.016262686
-0.09394722 0.03750378 -0.092444405 -0.06815983 0.060031187 -0.014640617 -0.040107228 -0.056168772
0.06566253 0.07176554 -0.04877478 -0.06659484 0.0213629 0.026045633 0.06974929 0.05605152
-0.00402627 0.070792116 -0.117660806 -0.00482975 -0.090016924 0.031985294 -0.021186292 -0.00018964952
0.041371714 0.002248578 -0.05875439 -0.066987984 -0.11622321 0.012054987 0.019676233 -0.08902041
0.04598223 -0.02907533 -0.029382503 -0.0030115487 -0.06351059 -0.061754216 -0.09847602 -0.057209257
0.0071958783 0.0165047 -0.10756774 -0.0072485446 0.09951923 -0.03448294 -0.03200979 0.05343373
-0.04305407 0.020669399 0.026425231 -0.004692075 -0.028497992 -0.075688064 -0.03606887 0.07165431
0.052999627 -0.07090693 0.038200367 -0.08721831 0.0091712475 0.0043077827 -0.08828902 0.070833534
-0.008152677 0.028381336 -0.04934734 0.052865982 -0.094866335 0.06936867 -0.091941826 -0.09691859
-0.007838666 -0.092637986 0.018088413 -0.015068948 -0.043259427 0.0853369 -0.11583859 0.017218702
-0.035006203 -0.116766766 0.028549707 0.09743053 0.05795404 0.072884284 -0.013645157 -0.0039019466
0.083255075 0.048568644 0.0025045394 0.0757378 -0.07264359 0.007461822 -0.030148888 0.017632274
0.03002249 -0.08779549 -0.00456301 0.08575498 0.0052733477 0.004143527 -0.0941192 -0.096038125
0.009338952 0.0124489665 -0.017611552 -0.067734145 -0.096213795 -0.02967887 0.043380752 0.07524637
0.0072318753 -0.082317166 0.0011486372 0.024016289 -0.07022656 0.07955213 -0.095175646 -0.11102975
0.042834856 0.044701535 0.04162505 -0.016003026 -0.09722666 -0.026658678 -0.0481717 0.06326452
-0.0013312778 0.0012398482 -0.059253495 0.0087366225 0.062286068 -0.042557213 0.0075149657 0.053341642
0.011939371 0.061977472 0.044993114 -0.09591798 0.07557954 0.002492273 -0.09444716 0.01293077
-0.113199316 -0.092532575 -0.014883706 -0.11868846 0.044452276 -0.0812163 0.023552513 0.058810234
0.034125507 -0.0012365222 -0.04313885 -0.08307605 0.033636786 0.03460439 0.06860264 -0.06143198
-0.09968921 0.016665483 -0.0041003944 -0.062092043 0.06600888 0.014444233 0.08512578 -0.00041376354
-0.09689343 -0.0049846875 0.0605428 -0.057394218 0.050665904 0.08850356 -0.0120348735 0.012700605

backbone.2.weight f4 [256, 256]
00000000: 4a3e 083d c9de 4cbd f859 1f3c 1010 2e3d
00000010: 9b45 b13c a08c 37bc bef8 5f3d 0caa 3fbd
00000020: e0d2 193b e8b8 c8bc c0c5 c03a 50ca 823b
00000030: 8060 98ba c227 233d cae1 1abd 8fd8 dfbc
00000040: e0bd 11bc eeb3 51bd 4115 113d 7aec 2dbd
00000050: 7e21 68bd ea79 15bd e5d1 f73c bef0 7ebd
00000060: 0cf3 a13c 74fd ef3c 0004 783c 749e 0e3d
00000070: 41a5 42bb 7a65 60bd 353c a63c 6262 693d
00000080: aca5 fa3c 6089 d23b 4e99 8bbd 1ff8 173d
00000090: 0eb9 4a3c b63f 3dbd 1185 013d e858 29bc
000000a0: 4063 cd3b b9df 00bd 60ad 9bbb 1a64 1ebb
000000b0: 6fc9 da3c 1832 5c3d e8ef 15bd e6c7 063d
000000c0: c02a e1bc 8043 223b b0cb 52bd 6097 cfbb
000000d0: f08e e53b d6d8 763d 22d6 7abd f170 82bd
000000e0: 108f 683c 64cd a4bc 20b5 5dbb e014 c0bc
000000f0: 605d 8fbb 2478 333d 2ad9 66bd 980d a3bc
00000100: 9e03 85bb 7ca6 583d 60b1 32bd 9492 9dbc
00000110: b838 ffbc 38a9 32bc 6008 a33c 7d7c 3e3b
00000120: 3138 32bd 0c8a 78bc fe80 2dbd ba21 4b3d
00000130: 8e09 5fbd 9cec d3bc 3ac7 0dbd 0058 6dbc
00000140: f5a6 003d 784b e03c 02d4 5fbc 3c90 dabc
00000150: b006 c1bb 4810 6ebc 3acf 2fbd c869 313c
00000160: 57c1 64bd 29fe 7ebd 58dc 2bbc f088 e3bc
00000170: 915f 2bbd ca4a 7cbc dcd7 5bbd 7e16 45bd
00000180: 26fb 3cbd 3ea5 b9bc 0b46 533d 4d4d 10bd
00000190: dccc 323d a07c ffbc 9449 233d a29b 383d
000001a0: 5a1c 433d bf21 173d 1622 423d 1cac b1bc
000001b0: 4ed8 193c f0cc 8cbd 905c f5bc 5f57 4c3d
000001c0: 39b6 013b c450 8abd 805f 373d 2ce3 063d
000001d0: f6d1 4dbd 7cd4 1bbd f612 74bc d892 4fbd
000001e0: f01d 0bbd cb0a 2dbd 2ae4 3cbd e0dc 123c
000001f0: 0c05 8a3c f125 073b b8ee ec3c 15bc 33bd
00000200: 083e 773c e631 f4bb 600a 663d 96ed 953b
00000210: f171 a23b 6a70 083c cba4 05bd 4c73 e7bc
00000220: 8052 5e3d b0c5 743c 88d5 fd3c 9a71 5bbd
00000230: 3008 5abd d807 663c d153 1c3d 3a67 4f3c
00000240: b3d7 893c d0f8 b13c f018 293c 4080 fcba
00000250: 7c79 ff3c 2706 ca3c 9ccd 8b3c 911c 49bc
00000260: 486e 01bd e56b eb3c f03d 8f3c 72f1 16bd
00000270: fca0 32bc c454 ec3c 0e3d 3ebd b8d4 0bbd
00000280: d3df e0bb fe89 413d cbf5 c03b 200c 8cbc
00000290: 9cda 3cbd d9cd 3e3d 4596 0bbd 8831 1f3c
000002a0: fc8e 5cbd 34da 3ebd 4e71 4ebd e245 4d3d
000002b0: b040 82bc 204f 093c bc0f f73c dd40 463d
000002c0: e69f 563d b000 7ebc 0cbd 653d d0b4 223d
000002d0: 7540 003d e6c3 6c3c bb2d 713c 7445 003c
000002e0: d87b 8c3c 9e0a 79bd bcfe 47bd 4aec 613d
000002f0: 1f07 753c 50e1 89bb fd67 7bbd 7e30 273d
00000300: 31e8 ce3a 405f 5b3d 22c4 c9bc 71f2 7dbc
00000310: 8040 4d3d d4ba 40bd 5097 66bd 4546 2bbd
00000320: 6ca7 ddbc 4870 3d3d e030 12bc daa0 47bd
00000330: 008e ed39 d03a e33b b036 00bd 164a 54bd
00000340: 31b4 9bbc 1645 5dbd d33c 473d 38f1 8e3c
00000350: 66d3 333b a65c e1bc 38fa 2a3d f589 25bc
00000360: 3246 45bd 3486 0dbd 4000 43bc 9e58 ffbc
00000370: fc7b 83bc b20d 6a3d 8011 c93c 2eb3 c2bb
00000380: 94e0 863b e043 21bb 2239 023d 8deb 54bd
00000390: f655 26bd dc9a cebc b8f7 edbc 31ab 1dbd
000003a0: 10d0 d03b 8882 58bd 58ac 8f3c 701a a3bc
000003b0: 2a83 373d fcf0 0a3d f045 40bd 0885 76bd
000003c0: 8018 d93c 24c6 41bd cad0 69bd ec0b ddbc
000003d0: 6c86 723d 5da6 15bd ecca d2bc 2cb7 893c
000003e0: c010 c1bc 9568 16bd e05f b13c f09a a83b
000003f0: 5022 a43b e864 f43c 37fa e43c 6094 3abc
0.03326253 -0.050017152 0.00972604 0.042495787 0.021639636 -0.011202961 0.05468058 -0.04679303
0.0023471639 -0.024502233 0.0014707372 0.0039914027 -0.0011625439 0.039832838 -0.037812985 -0.027324943
-0.008895367 -0.051196985 0.03542066 -0.04246185 -0.056672566 -0.03649322 0.030251453 -0.06224131
0.019769214 0.02929566 0.015137672 0.03481908 -0.002970055 -0.054784276 0.02029238 0.05697859
0.030596577 0.006425068 -0.0681635 0.03710186 0.012373222 -0.046203338 0.031621043 -0.010336138
0.006267935 -0.03146336 -0.0047508925 -0.0024168552 0.02670738 0.05375871 -0.036605746 0.03290548
-0.027486205 0.0024759471 -0.051463783 -0.006335184 0.007005565 0.060265385 -0.06123937 -0.06369198
0.014194265 -0.02011747 -0.0033829883 -0.023447454 -0.004375145 0.043815747 -0.056359448 -0.019903943
-0.004059269 0.052893147 -0.04362619 -0.019234933 -0.031154975 -0.010904603 0.019901454 0.00290659
-0.04351062 -0.015169632 -0.042359345 0.04959271 -0.05445247 -0.02586966 -0.034613825 -0.014486313
0.031409223 0.027379736 -0.013661386 -0.026680104 -0.00589069 -0.014530249 -0.042922236 0.010828443
-0.055848446 -0.062254105 -0.010489546 -0.027775258 -0.041839186 -0.0153986905 -0.053672656 -0.048117153
-0.04613795 -0.022661801 0.05158047 -0.03522997 0.0436524 -0.031187356 0.03986509 0.045070298
0.04763446 0.036897417 0.047395788 -0.021688513 0.00938995 -0.06875026 -0.029951364 0.04988801
0.001979245 -0.06753686 0.04476881 0.03293149 -0.050249062 -0.038044438 -0.014897099 -0.05067715
-0.033964097 -0.04224662 -0.04611603 0.0089637935 0.01684811 0.002062198 0.028922424 -0.04388054
0.015090473 -0.0074522374 0.056162238 0.0045754416 0.0049574305 0.008327583 -0.032627862 -0.02825322
0.054277897 0.0149397105 0.030985609 -0.053575136 -0.053230464 0.014039956 0.03816587 0.0126588885
0.016826486 0.021725088 0.010320887 -0.0019264296 0.031185858 0.024661137 0.017065816 -0.012274877
-0.031599313 0.028737972 0.017485589 -0.036851354 -0.0109026395 0.028849013 -0.046444945 -0.03413841
-0.0068626194 0.04725074 0.005888676 -0.017095625 -0.04610692 0.04658303 -0.034078855 0.009716399
-0.053847298 -0.046594813 -0.050401025 0.050115474 -0.015899986 0.008380681 0.03015887 0.048401702
0.052398585 -0.015503094 0.056088492 0.039723217 0.03131147 0.014451003 0.014720376 0.007829059
0.017148897 -0.06080114 -0.048826918 0.055156983 0.014955311 -0.0042077675 -0.061378468 0.04081773
0.0015785751 0.053557634 -0.024629656 -0.015499697 0.05011034 -0.047053173 -0.056296647 -0.04181506
-0.027057372 0.046249658 -0.0089227855 -0.048737384 0.0004530996 0.006934501 -0.031302154 -0.051828466
-0.01900682 -0.054020964 0.04864199 0.017449006 0.0027439236 -0.027509999 0.041742533 -0.010103692
-0.048162647 -0.034551814 -0.011901915 -0.031170186 -0.016050331 0.057141967 0.024544477 -0.00594177
0.0041161273 -0.0024607107 0.031792767 -0.05198245 -0.040609322 -0.025220327 -0.029048786 -0.03849334
0.006372459 -0.05285886 0.017538235 -0.019910067 0.044802822 0.033921227 -0.046941698 -0.060185462
0.02650094 -0.047308102 -0.057083882 -0.026983224 0.059210226 -0.03653561 -0.025731526 0.016810976
-0.023567557 -0.03672083 0.021652162 0.005145423 0.005008973 0.029833272 0.027951343 -0.011387914

backbone.2.bias f4 [256]
00000000: 01b1 853b 7c24 be3c ad0d 45bd aebb 2cbd
00000010: 442f aabc d2e7 b33c d485 dfbc 6169 27bd
00000020: 6fea 5bba a0e9 493d ec8e 763d 1ecb 4d3c
00000030: 8501 a3bd 3a95 2fbd fde9 14bd bc33 8cbd
00000040: 6ba8 303d 8652 433d 2120 9cbb d225 d53c
00000050: 58ed 893d 1541 31bd d38b 1cbc f940 7bbd
00000060: 0a0c 013d 5211 75bd 9b0f 2a3d 40ef 603c
00000070: 907b 903c b285 76bd 2b2b 10bb b454 c6bc
00000080: 1cb7 93bc 78dc e33c 2606 cf3c e27f 53bd
00000090: 84f8 c93c d532 9d3d 94a4 02bd 09d7 58bc
000000a0: 9c06 ccbc dc4e ed3c 60e2 38bc 8b5c 143d
000000b0: 16d7 093c ddcb 12bd efd8 3abd 4655 88bd
000000c0: 2e35 373d 660a a53b f841 57bd 601d 903c
000000d0: eb68 70bd b3c3 0f3c 2e29 903c 1215 77bd
000000e0: 45c5 eb3b fef7 0cbc da07 9f3d 55d8 ac3c
000000f0: 6e92 09bd b48d 933c c91d ad3d 34b0 acbc
00000100: 5f24 043e f91e 55bd d58f 5abd 2430 26bd
00000110: a3c5 513c ba88 583c eb11 033e e6e6 b0bd
00000120: 105b 263d 17c2 e8bc 79bf d9bc 16a5 f0bc
00000130: 6b49 3cbc e842 223c 1fc0 8b3c 8c23 28bd
00000140: 92f9 14bd 40c1 babb 6596 45bd 9448 7bbd
00000150: 00cb f8bc a14f 023c 3b14 55bd 3a78 33bd
00000160: 3d9d 77bb 9201 ddbc e5ca 5abd f482 81bd
00000170: 4321 fc3c e997 7c3d 498e ef3c d154 64bd
00000180: b6a9 bdbb 8acb 8d3c dfc7 ffbc 9588 9fbc
00000190: 4e44 663d 9cc3 b43b 16dd 1cbc 3e53 46bd
000001a0: 0d8c 72bd dc99 3bbd 0574 07bd 99cf a53d
000001b0: 7369 bd3c 7f22 e33b 3f0b 58bc 01a5 ecbc
000001c0: 5404 2cbd 7bb8 fbbc 627a 0ebd 54a0 c4bb
000001d0: 4bc3 02bd a00a 16bd a8cb 5cbd 410f 5bbd
000001e0: 7508 373d a11f 9f3d 0d2c 803c 08ca 093c
000001f0: e019 393c de65 9dbd 04b3 d7bc 4925 81bd
00000200: cff0 7abd c652 1c3d 7f06 3dbd c005 1d3d
00000210: dce7 333d 9c99 eebc 9238 25bd 3c85 d23c
00000220: 1a54 f8bc 8e84 ac3d cc4c 7ebd 1bc6 1b3d
00000230: 9455 80bc 00f6 09bc 9696 a3bc 1000 ab3b
00000240: 1253 663d e806 3ebd 55c7 3d3d 1ccf 5fbd
00000250: 141d a0bd de12 9f3c 1d92 133c 6a93 51bd
00000260: 80bc 14bc c4bf 8cbd 18c5 8c3c c218 68bd
00000270: 24bf d2bc df1e 89bc a59b 063e 8c63 81bd
00000280: e0fe 5d3b 90e3 92bc ba8b 083c 508e 723d
00000290: dc54 29bd 4d89 533d 8fc2 003c b2cf fb3d
000002a0: 598f 08bd 1c56 de3c df26 903d b454 e83c
000002b0: 92a6 8ebc b5cf ce3d 5dd9 cb3c a816 1fbd
000002c0: 7187 ecbc 46df ce3c d021 8abd 5882 5a3d
000002d0: bcbf 92bd 79ac fd3c 418c 93bc aaa0 31bd
000002e0: 6c3d 6dbd 622b 173d 7c6e 76bd 1d29 debb
000002f0: ed44 6d3d 497e 083d 2453 873d f8cc 483d
00000300: 71af 3abd 6c71 d7bc 3c2b a63d 93d5 8b3d
00000310: e931 753c c444 1f3d c6f9 14bd 2049 b1bc
00000320: 7ee7 46bd 6ae2 3a3d 945c f43c 4c30 fdbc
00000330: 4c4a 4dbd 5f4e 073d 8c25 93bb 402a 11bc
00000340: 58be fe3c d81c 0b3c 2960 413d 730d df3c
00000350: 0085 ffbb 7053 173c f194 ab3d 6035 d63d
00000360: 56b7 da3b adcf b6bc c69d 68bd 3293 773b
00000370: bade 98bc 49da ab3b 8041 1d3d 84ac b7bc
00000380: 6744 e83c 4499 54bd fdb9 693d 76c3 c0bb
00000390: 51a5 993c 1e59 7bbd 8d09 4fbd 8ae8 873b
000003a0: 4443 c43c 7d64 da3c c216 44bc 1694 a03c
000003b0: 97a1 1bbd 2417 dfbc 8343 fb3c 3b37 483d
000003c0: e007 fcbb a055 ec3c 0ad3 88bd 0ff7 06bd
000003d0: d480 29b9 e673 60bd c571 123c 4af4 45bd
000003e0: 48bd 37bc beae 00bd 58d0 893d 7090 c0bc
000003f0: 373b 00bd d84c b7bc b1ac c63c fe34 183c
0.0040799384 0.023210756 -0.048108745 -0.042171173 -0.020774491 0.021961126 -0.027285494 -0.04087198
-0.00083891203 0.049295068 0.060194895 0.012560634 -0.07959274 -0.042866923 -0.03635596 -0.06845805
0.043129366 0.047686122 -0.0047645723 0.02601901 0.06734723 -0.043274958 -0.009554821 -0.06134126
0.031505622 -0.05983097 0.04151879 0.013728917 0.017637044 -0.060186096 -0.0021998386 -0.024210311
-0.01803165 0.027815089 0.025271486 -0.05163563 0.024654634 0.07675711 -0.031895235 -0.013234862
-0.024905495 0.028968267 -0.011284441 0.03622107 0.008413097 -0.03583895 -0.04561704 -0.066568896
0.04472845 0.00503664 -0.052553147 0.017592132 -0.058693808 0.008774686 0.017597761 -0.06032283
0.007195147 -0.008604048 0.077651694 0.021099249 -0.03358691 0.018011905 0.08452947 -0.021080114
0.129045 -0.05203149 -0.053359825 -0.040573254 0.012803468 0.013216192 0.12799804 -0.086377904
0.040614188 -0.028412862 -0.02658056 -0.029375594 -0.011492114 0.009903647 0.017059384 -0.041049525
-0.03637082 -0.0056993067 -0.04823913 -0.061348513 -0.030370235 0.007953555 -0.052021246 -0.04381583
-0.003778293 -0.026978288 -0.05341615 -0.063238055 0.03077758 0.06166831 0.029242652 -0.05574495
-0.0057880534 0.017308969 -0.031223236 -0.019474307 0.056217484 0.0055164825 -0.009574195 -0.04841923
-0.059215594 -0.04580103 -0.03306963 0.08096237 0.023121571 0.0069316025 -0.013186275 -0.028887274
-0.041996315 -0.030727616 -0.034784682 -0.006000558 -0.031924527 -0.036631227 -0.05390516 -0.053481344
0.0446858 0.077697046 0.015646005 0.008409984 0.011297673 -0.07685445 -0.026330478 -0.0630594
-0.06126481 0.038164876 -0.046148773 0.03833556 0.04392229 -0.029125981 -0.040337153 0.025698297
-0.03031354 0.0842372 -0.062084958 0.038030725 -0.015665807 -0.008420467 -0.019969266 0.0052185133
0.056231566 -0.046393305 0.046332676 -0.054640874 -0.07818046 0.019418176 0.009007004 -0.051165976
-0.009078145 -0.06872514 0.017183825 -0.056664236 -0.025725909 -0.016738353 0.13145311 -0.06317815
0.0033873841 -0.017930776 0.008334095 0.05921775 -0.041340694 0.051644612 0.007858886 0.12295474
-0.033339832 0.02714067 0.07038664 0.028360702 -0.017413411 0.10098211 0.02488392 -0.038839966
-0.028873177 0.02525295 -0.067447305 0.05334696 -0.07165477 0.03096603 -0.018011214 -0.04336611
-0.057919905 0.036906607 -0.06016396 -0.0067798034 0.05792706 0.03332356 0.06607655 0.0490236
-0.04557747 -0.026299201 0.08113715 0.068278454 0.014965513 0.03888394 -0.036371015 -0.021641314
-0.048560612 0.04562608 0.029829301 -0.030906819 -0.050119683 0.033033725 -0.00449056 -0.008860171
0.031096622 0.008490764 0.047210846 0.027228093 -0.0077978373 0.009236202 0.08378018 0.10459399
0.0066746874 -0.022315824 -0.05679109 0.0037776944 -0.018660892 0.0052445275 0.038392544 -0.022421129
0.02835293 -0.051903978 0.057062138 -0.0058826758 0.018755587 -0.061364286 -0.050546218 0.004147594
0.023957856 0.026659245 -0.0119683165 0.019601863 -0.0379959 -0.027232714 0.03067184 0.048880797
-0.0076913685 0.028849423 -0.066808775 -0.032950457 -0.00016165088 -0.05479803 0.008938258 -0.048328675
-0.011214562 -0.031416647 0.067291915 -0.023506373 -0.03130647 -0.02237551 0.024252268 0.009289978

out_n.0.weight f4 [100, 256]
00000000: e086 84bd 3090 52be 2757 e5bd cce3 e4bc
00000010: e850 6d3d 7a64 d8bd 345b 803c c887 0abc
00000020: 5cce 203d e6ee 4c3d 889b b5bc 076d dc3c
00000030: 50ea aabd 4279 73bd 05ff 9a3c cfa4 483d
00000040: 198f 7d3c c772 32be 660b b7ba a4fe 2bbc
00000050: 1e79 c0be 99c6 8dbd 1670 4bbc 3c66 2cbd
00000060: b4d4 1ebd a9ad 69bd 4b5e 7bbe 88da 59bc
00000070: 4c4f bcbc a4b5 1ebd 8e15 f7bd 384e 00bd
00000080: 202b 63be 9feb c7bc 0aaf e2be c62c 58bd
00000090: 4733 e0bd 395c 9cbe 6a0b 4ebe 83be 983c
000000a0: 8043 f3bb 5f0d 56bd 9caf 993c 68f0 94bd
000000b0: 3aa9 07be 4b6e 2abd 7df6 d2bd a921 8f3a
000000c0: 24fc ae3c 8456 a4bc 9f64 d9bd ef96 03bd
000000d0: 6eaa 83bd c112 d13c 5cbf 7f3c a18e e3bb
000000e0: 8b7f 80bd cc7e e6bc fdf4 05bf c765 8bbd
000000f0: 1f8e 88bd a4ce 23bd 99fa 0bbf b017 f8bb
00000100: 51e8 dcbe b51e 0fbd bb53 4ebd 5411 cd3c
00000110: d0d7 2cbf dc37 afbd 74d5 11bf 049f c7bc
00000120: fb5e 7fbc a18a a8bd 97b5 84bc 8e98 b2bc
00000130: 6adb 49bd d6e3 0ebd 9a1d bbbe f61b 8ebd
00000140: 1efb 103d 1c81 7f3d 1606 8fbc 1847 7e3b
00000150: ec79 143d d143 2dbc b345 abbd 44ca 92bc
00000160: 67b8 853c 074c d3bc e549 7e3c 3d1c 8bbe
00000170: 827c d23c b55e 76be fdb4 25bd 729d 88bc
00000180: 0da7 debe b995 77bd 3e89 a03c 43b6 bdbb
00000190: 371c b6be c158 97bc 870d 92bd 84b9 25bc
000001a0: d160 a5bd 9b77 f3bb 59b7 99bc 39d4 f6be
000001b0: b6d8 c53c 551d c0be a0f2 193d b88c 8bbd
000001c0: e88b 663d 3251 0e3d 7daa 573d 4d6e 583d
000001d0: a75a 68bd 84b0 82bd 04ac 94bb 695a a2bb
000001e0: e807 c33b b96d 1bbe e5c9 c5bd b240 083d
000001f0: c093 51bc 358c b53c 34c2 a1bc 5721 503d
00000200: a984 24bd e7be f0bc 9e64 8cbd ba13 043d
00000210: 4fc7 42be 7d01 87bd b105 efbd 9afd 3d3d
00000220: 7cce 603c 08de 9abe 25a9 473d d0b2 ecbc
00000230: 1847 ff3b 7cd0 083c 1962 00bd f15c 5bbd
00000240: 6fad 8bbe 65fd ebbc afe3 bcbe 4afe acbd
00000250: 2324 cfbc 2133 a6be ce87 ecbc 8720 e5bd
00000260: e039 213b e007 17be 4584 48bb 4e95 1bbd
00000270: a646 4f3d 2fc6 2a3b 57c1 cbbe 595a 593d
00000280: 0823 23bd b4a7 1bbd 1d8d 6f3c 2523 c0be
00000290: 8cbf 503d 9c12 bebd 9115 303c 459e 8bbe
000002a0: 9905 fabc b6e5 92bb 56e4 d0bd 927d 793d
000002b0: 8385 c4bd 45b8 3bbe a1c6 44bd deee 03bd
000002c0: dc3b 593c c69f d33c 4e02 e23c deb5 a4be
000002d0: ba96 f0bc 7ca1 4dbd 235e 40bd 3421 113d
000002e0: 7338 d8bc 10f4 d23c 38a5 263c c819 30bd
000002f0: 6755 fe3c 5f3f 67bc e760 8cbe ee2d 29bc
00000300: d887 ab3c 5034 d0bd 2187 c3be 3d84 76be
00000310: 2ea9 01bb b9fa 03bf 86e7 153d 3c2e a9bd
00000320: 085d 20bd e219 57bc 3664 8639 6c11 21bd
00000330: 7cc2 4f3d bc59 53bc 558b cabe 1a98 243d
00000340: efda 3ebc e815 adbc afcb 3ebe af11 cfbe
00000350: 0829 a6bd d3da 0abe e80a bcbe b7ec cfbe
00000360: 4025 8ebd 388f c43c df5e 82bc 8b4c 9cbd
00000370: 56b5 95bc 7b77 adbe 3eb9 2e3d 107f 153c
00000380: 8d95 e2bc c4bc f3bc b547 b9be 5a38 173d
00000390: fe1a 0dbc 6423 c6bc 4fe1 13bd 9ed2 133c
000003a0: 7219 103d 12eb 033d ef43 4dbd d36d 11bd
000003b0: 4d60 2fbc 96a0 133d 34e4 3a3d 8054 f43c
000003c0: 0af6 58bd 22c2 293d 3e00 9abc c0ec 403c
000003d0: 7dee 0f3d 4cb5 093d 29b0 543d 8299 0fbd
000003e0: 357d c2bc 3db5 0dbe 12fc 9fbd 208d 10bd
000003f0: 373c 27bc e4eb 03bd a22e ec3c 09dc 073d
-0.06471038 -0.20562816 -0.111982636 -0.027940653 0.057938486 -0.105660394 0.015668489 -0.008455224
0.0392593 0.05003252 -0.02216889 0.026907457 -0.08345473 -0.059441812 0.01892043 0.0489853
0.015476012 -0.17426597 -0.0013965189 -0.010497723 -0.37592405 -0.06922645 -0.01241686 -0.042089686
-0.03877707 -0.05705038 -0.24547689 -0.013296731 -0.02298703 -0.038747445 -0.12064658 -0.031324595
-0.2218442 -0.024404345 -0.4427417 -0.052777074 -0.109472804 -0.3053911 -0.20121542 0.01864553
-0.007423818 -0.052258845 0.018760495 -0.07272416 -0.13248149 -0.04160909 -0.1030092 0.0010920066
0.021360464 -0.020060785 -0.10614895 -0.032126363 -0.06428991 0.025521638 0.0156095885 -0.006944493
-0.06274327 -0.028136633 -0.5232695 -0.06806522 -0.066677324 -0.03999199 -0.54679257 -0.007571183
-0.43145993 -0.034941394 -0.05037282 0.025032677 -0.67516804 -0.08555576 -0.5696633 -0.024367817
-0.01558661 -0.08229566 -0.01619987 -0.02180126 -0.049281515 -0.03488525 -0.36546022 -0.06938927
0.035395734 0.062378988 -0.017458957 0.00387997 0.036249086 -0.010575251 -0.083629034 -0.017918713
0.016323281 -0.025793089 0.0155205475 -0.27169982 0.025694136 -0.24059565 -0.040455807 -0.016676638
-0.43486825 -0.06044552 0.019596692 -0.0057895496 -0.355684 -0.018474938 -0.071314864 -0.010115031
-0.08075107 -0.0074300296 -0.018764185 -0.48208788 0.024151187 -0.3752238 0.0375849 -0.06813949
0.05628577 0.034745403 0.052652825 0.052839566 -0.056727078 -0.06381324 -0.0045371074 -0.0049546254
0.00595187 -0.15178575 -0.09657649 0.033264823 -0.012791574 0.022161582 -0.019745924 0.050813045
-0.040165577 -0.029387904 -0.06855129 0.032245375 -0.19021343 -0.06592081 -0.116710074 0.04638443
0.013721105 -0.3024752 0.048745293 -0.028893858 0.0077904575 0.008350488 -0.031343553 -0.053555433
-0.27280757 -0.028807351 -0.3689246 -0.08446939 -0.025285786 -0.32460883 -0.02887335 -0.11187845
0.0024601147 -0.14749098 -0.0030596417 -0.037984185 0.050604485 0.0026058068 -0.39795944 0.053064678
-0.03982833 -0.03800173 0.014621046 -0.37526813 0.050963923 -0.09280893 0.010747329 -0.27269188
-0.030520247 -0.00448295 -0.101998016 0.06091077 -0.09595778 -0.18332012 -0.04804099 -0.032210223
0.0132589005 0.025833022 0.02758899 -0.32170004 -0.029368747 -0.05020283 -0.046964776 0.035432056
-0.026394105 0.025751144 0.010171227 -0.042993337 0.031046582 -0.01411423 -0.2741768 -0.010325892
0.020938799 -0.10166228 -0.38189033 -0.24073882 -0.0019784677 -0.5155445 0.03659775 -0.08260772
-0.03915122 -0.01312873 0.00025633135 -0.039323255 0.050722584 -0.012899812 -0.39559427 0.040184118
-0.0116488775 -0.02112861 -0.18632387 -0.4044318 -0.08113295 -0.13560037 -0.3672707 -0.40610287
-0.069406986 0.023994073 -0.015914379 -0.07631787 -0.018274944 -0.3388022 0.04265713 0.009124532
-0.027659202 -0.029753096 -0.3618752 0.036918975 -0.0086123925 -0.024186797 -0.036103543 0.009022383
0.035180517 0.032206602 -0.050113615 -0.035505127 -0.010704112 0.03604182 0.045627788 0.029825449
-0.052969016 0.041444905 -0.018798944 0.011775196 0.03513955 0.033620164 0.051925812 -0.035058506
-0.023741344 -0.13838668 -0.078117505 -0.035290837 -0.010207227 -0.032207385 0.02883083 0.033168826

out_n.0.bias f4 [100]
00000000: bb8d 9fbe 768d 863e a731 413c 3dc1 ddbd
00000010: 840e 793d d625 f3bd 320d 16bc 96f6 e9bc
00000020: ee65 9fbd 80e4 10bc a2e8 f03c f8c8 95bc
00000030: 81c2 05bd 284c ecbc 12a5 abbb d101 953c
00000040: b66f 9b3c c961 4fbc 87d7 943c 86fc a7bd
00000050: 95d5 c53c 326e d13b 6a06 263d b77e f5bc
00000060: 26d9 cb3c ad3f 1a3d 8906 95bb 973c 42bd
00000070: c632 bc3c 9bb5 103c e60f 27bd 39ed 88bd
00000080: 485b 20bc fd99 953c 9e72 27bd 60ce ce3c
00000090: 0350 d5bd a3f1 de3d e670 acbd 8b68 70bd
000000a0: e125 3b3e c6bf 8bbd 80a6 4b3e 5fa2 5cbc
000000b0: b0ee 3cbc 81e7 283e 0ab8 f6bd 4f68 6a3e
000000c0: dbbf 15bd 39ed b2bc e59d f23d 8063 cdbd
000000d0: 3683 1f3c d776 ecbd 0ba0 d03c 3ac1 c7bd
000000e0: 5ba9 833d 5545 39be dd1a a53b 55f7 eebd
000000f0: 601f c23c e91a e0bd f705 f8b9 6f86 b4bc
00000100: dc8c 28bd 3b46 82bd 94d1 ed3d 5656 72bd
00000110: 936b 5ebd f26e 253e e9f9 20bd 9367 3a3d
00000120: 5877 9c3d 1895 d6bc aad5 1e3e f35c 1b3e
00000130: 9159 67bd 7dd1 e2bb 9179 35ba e128 123c
00000140: ce6d 373d 68c6 5cbc 27a5 b9bd 539f 893c
00000150: 84b9 8abc 797b 9d3c 8261 573d aec1 a63c
00000160: 9c8b 313d 709e 363c b4ed 553d eb74 0dbd
00000170: 689b fabc a3e1 bd3b 9e8b 293d a9c5 b9bc
00000180: 1703 473b c1b4 cb3c f37f 5e3d f072 17be
-0.3116282 0.262798 0.011791623 -0.10827873 0.06080486 -0.11872451 -0.009158419 -0.028559964
-0.077831134 -0.008843541 0.029407803 -0.018284306 -0.032656197 -0.028844908 -0.005238184 0.018189343
0.018974166 -0.012657591 0.018169178 -0.08202462 0.024149695 0.00639131 0.04053346 -0.029967649
0.024883818 0.037658382 -0.004547898 -0.047421064 0.02297343 0.008832361 -0.040786646 -0.06685872
-0.009787388 0.018261904 -0.04088079 0.025244892 -0.10415652 0.10885932 -0.08419971 -0.05869345
0.18276168 -0.06823687 0.19887733 -0.013466447 -0.011531517 0.16494562 -0.120468214 0.22891353
-0.03655992 -0.021841632 0.11846522 -0.10028744 0.009735873 -0.115461044 0.02546694 -0.09753652
0.06428786 -0.18092854 0.0050386027 -0.116682686 0.023696601 -0.10942633 -0.0004730669 -0.02203676
-0.04114996 -0.06361052 0.116122395 -0.059164368 -0.05430181 0.16155604 -0.039300833 0.045508932
0.076399505 -0.02619414 0.15511194 0.15172176 -0.0564819 -0.0069219456 -0.0006922717 0.008920879
0.044782452 -0.013475038 -0.090647034 0.016799605 -0.016934164 0.019223915 0.052583225 0.020356026
0.043346033 0.011146173 0.052228644 -0.03453533 -0.030591682 0.0057947203 0.041392915 -0.02267726
0.0030366832 0.024866464 0.05432124 -0.14789939

out_d.0.weight f4 [100, 256]
00000000: 8753 1f3d 3ea4 9d3b 494a c53c 0873 a0bc
00000010: 7a5a 5d3d 1c37 bdbb 840a b3bc a811 2c3b
00000020: 6865 edbc 9246 3d3d d6fb 773d 11f8 5f3d
00000030: c4f8 333c d0b4 fdbb 48df 33bc aba8 6ebd
00000040: 4c23 cbbb c748 8b3d 2682 d13c f2b9 13bd
00000050: 4d3d 1dbd e22e 813c 9f59 533c ee03 223d
00000060: 7041 0abc a4b9 fabc bfe2 f33c 3cc6 863d
00000070: d094 383d 2aba 0d3d c7d8 e4bc 452c 213d
00000080: f72f 713c 552d f5b7 b04c acbc 0218 aebd
00000090: cdde 593d a5fb 953c 97e1 843c 3ded 973d
000000a0: 2c8e d8bc a190 3f3d 2e58 193d aba5 0b3d
000000b0: d6db 85bd 3141 243d e041 dd3d a5b2 9c3c
000000c0: 0002 7fbd d2b5 1a3d a9a5 a63d 2cf0 a3bb
000000d0: 7154 293d 6843 b33c f767 6fbd 654c 90bc
000000e0: 1cc6 2dbc b627 69bd bb74 27bd beb7 78bd
000000f0: 06d9 5bbd 4af7 073d a578 87bc a04b 7dbd
00000100: ef12 b6bc c61b 18bc 0e57 a1bc b606 7abd
00000110: f75c c0bc 5da8 773c ddb4 923c 9af8 513c
00000120: 187f d8bc e6b0 963c edb1 62bd 41f4 a93c
00000130: 1bad c03d f87a 4d3d f5c0 3cbc debb b6bc
00000140: c9ec 033d 04a4 22bd 4bc9 c43c bdc4 70bc
00000150: b4fa 8c3c 3a63 3cbd 1627 f2ba a35e 25bd
00000160: 83a2 573c 677a a93c 369b 81bd 39b0 7d3c
00000170: aec2 51bd 3ee3 94bc a168 143d b852 d8bc
00000180: b2bf d43c 0192 923d 5bc8 b0bc 5f03 00bd
00000190: 45cd 1dbc d6a7 1a3d 7a22 743d 0645 d7bc
000001a0: 68d2 33bd ff0d 503d 8e29 26bd ca83 88bd
000001b0: 89a4 ee3c 21ad 6cbc 061e a7bd b1e5 3ebd
000001c0: e086 ed3b 9d63 8d3c 15e7 51bd 540f eb3b
000001d0: 4938 133d 8743 913c 5343 8bbd 92a4 8ebd
000001e0: 2575 f53c 8345 1ebd b0b9 aabd b04e d1bb
000001f0: b80f 433c 0304 0c3d 80e8 473a 1b90 d7bc
00000200: 363a 69bd 892b e7bc ff0d e3bc 68a2 39bd
00000210: 9aeb 05bd d3f7 acb9 422a 87bc a0ea c7bc
00000220: e2a5 a5bc b44f 1e3c 6cf7 893d d324 89bd
00000230: 7bdf be3a 0de8 bebd 93fe 043d 47b5 68bc
00000240: e6e6 37bc 4466 593d 290a 993d c70a 55bd
00000250: 2f4b 153b 30b4 b33a ee40 4fbd 8578 84bd
00000260: 0028 c439 543a 7a3d 71bf 2a3d d2eb 3f3d
00000270: 323f 29bd 7562 0c3d 35b9 22bd 5b4c 8b3d
00000280: 0016 45bd 1ce9 d73c 0715 263d 7055 023d
00000290: fe36 3dbd d16f 1fbd ffbf 1dbd e15a 6b3d
000002a0: 36b9 afbb 3dae 4cbd 89e0 55bd 20eb a7bb
000002b0: adad 91bc 51e7 4cbd 52c9 313d 30c7 0abd
000002c0: 608f 143d ac2f 80bd 4dba 02bb e0dc 3f3d
000002d0: 9511 973c 8700 0c3d 03e3 32bd 00c1 8abb
000002e0: 1858 87b9 c29d 6fbd 94b1 35bc 64a9 c9bd
000002f0: e984 da3c e733 803d 699f 0cbd 038f ef3c
00000300: 56e2 373d 4d28 84bc 555f 1d3b d231 093d
00000310: 5d3c 23bd 5794 c13b 3034 213d c220 3fbd
00000320: f07b 8ebc 4816 a4bc e019 e7bc 7070 8ebb
00000330: 209e 0dbb afb3 1b3d f03f 87bc c052 54bb
00000340: bf39 cabc 8ef4 8a3c c979 0f3c c24a 473a
00000350: 3e52 a3bd 4bc8 06bd fd08 e7bb d7d3 01bb
00000360: ec9b 3cbd bbc0 803d 33d9 06bd 962d 903d
00000370: 0ced e93c 4ca9 773c 4a7f 1a3d 5c5f 6fbd
00000380: de5a cebd dc99 59bd 9781 0bbd 74aa 9bbc
00000390: 4f9c 25ba e0af 3dbc 21e6 4d3d fdb0 6abd
000003a0: b96d 06bd 1b11 5dbd 279f 553d cc39 32bb
000003b0: 7239 94bc c0c0 ac3c 2f32 7dbc 6ce6 88bd
000003c0: 947b 5ebd ac1b 563d 4a88 7cbd 0dc5 4b3b
000003d0: 588b 043d cc66 823c 5b5f 973d 7c8b d63c
000003e0: 0752 403c 2acf 98bd 40df 97bd 4c14 20bd
000003f0: 5410 d4bc bedc 17bd dec1 dd3b e54d 63bd
0.038898017 0.004810839 0.024083273 -0.019586101 0.054041363 -0.005774392 -0.0218556 0.002625564
-0.028979018 0.04620988 0.060542904 0.054679934 0.010984603 -0.007742502 -0.010978527 -0.058266323
-0.006199276 0.068009906 0.025574755 -0.036066003 -0.03838854 0.015769426 0.012899785 0.03955453
-0.008438453 -0.030606098 0.029771207 0.06580779 0.045063794 0.034601368 -0.027935399 0.03934886
0.014720908 -2.9227385e-05 -0.021032661 -0.08500673 0.053190995 0.01830847 0.01622085 0.074182965
-0.02643498 0.04676879 0.03743761 0.03409354 -0.06536071 0.040101234 0.1080358 0.019128153
-0.062257767 0.037771054 0.08137066 -0.005002996 0.041340295 0.021882728 -0.058448758 -0.017614553
-0.010606315 -0.056922637 -0.040882807 -0.060722105 -0.053673767 0.033194818 -0.01653702 -0.0618397
-0.022225825 -0.009283965 -0.019694831 -0.061041556 -0.02348183 0.0151158245 0.017908508 0.012815619
-0.02642779 0.018394899 -0.055345464 0.020746352 0.09408017 0.0501661 -0.011520614 -0.022306379
0.032208238 -0.0397072 0.024021765 -0.014695344 0.017209388 -0.045993067 -0.0018474783 -0.040373456
0.013161304 0.020688249 -0.06328432 0.015483909 -0.05121105 -0.018174764 0.036232594 -0.02640663
0.025970314 0.07156754 -0.021579912 -0.031253215 -0.00963146 0.037757717 0.059603192 -0.02627803
-0.04390183 0.050794598 -0.040566973 -0.06665762 0.02913119 -0.014445574 -0.081600234 -0.04660577
0.0072487444 0.017259413 -0.051245768 0.007173458 0.03594235 0.017732395 -0.067999505 -0.06964983
0.029963085 -0.03864051 -0.08336198 -0.006387554 0.011905603 0.034183513 0.0007625893 -0.026313832
-0.05694028 -0.028219001 -0.027716635 -0.0453209 -0.03269539 -0.0003299104 -0.016499642 -0.02440387
-0.0202207 0.009662557 0.06736645 -0.06696477 0.0014562452 -0.09321604 0.032469343 -0.014203376
-0.011224484 0.053076044 0.07472641 -0.05201223 0.0022780409 0.0013710316 -0.05059903 -0.064683
0.00037413836 0.061090782 0.04168648 0.046855755 -0.041320033 0.034273583 -0.03972741 0.06801673
-0.048116684 0.026356272 0.040547397 0.03181976 -0.046195023 -0.038924996 -0.03851318 0.057459716
-0.005362655 -0.049970854 -0.052216087 -0.0051244646 -0.01778301 -0.050025288 0.043404885 -0.033881366
0.036269546 -0.06259093 -0.001994747 0.046841502 0.018441001 0.03418019 -0.043673526 -0.004234433
-0.00025814842 -0.05850006 -0.011089701 -0.09846762 0.026674705 0.062598996 -0.034331713 0.029242998
0.044893585 -0.016132498 0.002401312 0.033494778 -0.03985249 0.005907576 0.03935641 -0.0466621
-0.017393082 -0.020030156 -0.02821058 -0.0043468997 -0.0021609142 0.038013157 -0.01650998 -0.0032397956
-0.024685739 0.016962316 0.008757063 0.00076023873 -0.07974671 -0.032905858 -0.007050632 -0.0019810104
-0.046047136 0.062867604 -0.03292198 0.07039945 0.028555416 0.015116047 0.03771905 -0.05844055
-0.10075925 -0.053125247 -0.034059133 -0.019002177 -0.0006317542 -0.011577576 0.050268296 -0.057297695
-0.032819483 -0.05397139 0.052153733 -0.0027195094 -0.018093798 0.021088004 -0.015453859 -0.066845745
-0.054317072 0.052272484 -0.061653413 0.0031092793 0.03235945 0.015918158 0.073912345 0.026189558
0.011738307 -0.074613884 -0.074156284 -0.039081857 -0.025886692 -0.03707575 0.0067674955 -0.055494208

out_d.0.bias f4 [100]
00000000: 78c2 ccbd 0434 7ebc 5443 febd 804b 8fbd
00000010: 6d63 3a3b b5ee cbbc d0c5 973a 7b3a 06be
00000020: 67cb e5bb af77 123d 9413 5f39 790c 03bd
00000030: 421d e0bd 5fe2 21bd 01eb 123b 7eeb 4c3c
00000040: 6024 593b a112 223b 9ef4 24bd 8ce9 243d
00000050: 95df 99bc 5e59 f3bc b4ab 96bd b017 553c
00000060: 80b5 763c 2ade 2a3d e2ce 043d 1f3a 8fbd
00000070: 342a 21bc bab8 c5bc df32 7ebd 9764 bdbb
00000080: c65a 7a3d 60d5 d23c 2f1f 89bc 56b4 39bd
00000090: ba62 7b3d 1772 11bc 318a 823c 114e bd3c
000000a0: 1580 233d b38b 68bd 805a 573c a7db ccbc
000000b0: de1a 983c cbd2 95bd adbf 30bd 61e2 85bb
000000c0: 0323 dd3c 862a 1dbc 5b13 18bd dd7c c03c
000000d0: 8550 08bd 5efc 0c3c a083 3fbd bf8c 57bd
000000e0: 48de 1dbb 807d 4fbd 72f1 a63c a925 ae3c
000000f0: 9c16 89bd 20a3 50bd 18b2 a1bd 2b55 68bb
00000100: 17b0 45bd 45aa 81bd 3919 1c3d 01cd c53c
00000110: ffaf 7abc bce7 313b 5ff0 c9bc fdf2 71bc
00000120: f36c b9ba 924a 913c 1008 3d3d b60d 0b3d
00000130: 8859 5d3b 879d 7e3d cbcc 533c 0af0 ea3c
00000140: b5db 15bd f203 c53d 4d1f 4abd 5ed9 303d
00000150: 4ac9 893c b054 c13c 79f3 433d 84f9 533d
00000160: 3cea b83c 0d83 8f3d 1818 8c3d 1258 773d
00000170: 3b3d 3b3d 3769 523d 8a89 a13d 39ad 093e
00000180: a622 573d 3e78 89bd 2dd0 d03c 5e4e 8cbc
-0.099980295 -0.015515331 -0.124151856 -0.06996822 0.002844061 -0.024894098 0.0011579338 -0.13108246
-0.007012773 0.03575867 0.0002127423 -0.031994317 -0.109430805 -0.039522525 0.0022417905 0.012507318
0.0033133253 0.0024730342 -0.040272348 0.04026179 -0.01878337 -0.0297057 -0.073569685 0.013006136
0.015057921 0.04171578 0.03242386 -0.069935076 -0.009836722 -0.024135936 -0.062060233 -0.0057798135
0.061121725 0.02573651 -0.016738502 -0.045337997 0.06137345 -0.008877299 0.015935035 0.023108514
0.03991707 -0.056773853 0.0131441355 -0.025007082 0.018567499 -0.07315596 -0.043151546 -0.0040858244
0.026994234 -0.009592658 -0.037127834 0.02349704 -0.033279914 0.008605091 -0.046756387 -0.05262446
-0.0024088789 -0.050656796 0.020378802 0.021258192 -0.066937655 -0.050936818 -0.07895297 -0.0035451155
-0.048263635 -0.063313045 0.03810999 0.024145605 -0.01530075 0.002714618 -0.02465075 -0.014767406
-0.0014146849 0.017735753 0.046150267 0.033948623 0.0033775289 0.06216195 0.012927244 0.028678913
-0.036586482 0.09619893 -0.049346257 0.043176048 0.016819615 0.023599952 0.047839615 0.05175163
0.02257263 0.07007418 0.06840533 0.060386725 0.04571269 0.051369872 0.078875616 0.13444985
0.052523278 -0.067123875 0.025489891 -0.017127212
