ch3_figures_output_tuned/model_130L_none.pth (torch, 668541 bytes, 8 tensors)

backbone.0.weight f4 [256, 130]
0	0x3d099605	0.033590335
1	0x3dce60fb	0.10077091
2	0xbd6e8e09	-0.058240924
3	0xbd0895db	-0.03334604
4	0xbd1b230c	-0.03787522
5	0xbd985564	-0.07438162
6	0xbccf6bd6	-0.025319975
7	0xbd16beea	-0.036803164
8	0x3e00c872	0.12576464
9	0x3d591605	0.052999515
10	0xbd1600b1	-0.036621753
11	0xbd5694d0	-0.052388012
12	0x3d7ea9ac	0.06217353
13	0x3cad6fb4	0.021171428
14	0x3de7b957	0.11314648
15	0x3de5d594	0.112223774
16	0xbda29ff7	-0.07940667
17	0xbd1a8e65	-0.037733454
18	0xbd806111	-0.06268514
19	0xbdcb7c3f	-0.099358074
20	0xbd8756d5	-0.06608359
21	0x3cab1463	0.020883745
22	0x3daf6b8b	0.08565434
23	0x3bcb087e	0.0061960807
24	0xbd077bca	-0.03307704
25	0x3d1f4057	0.03887972
26	0x3c7c9564	0.015416477
27	0xbdc4437c	-0.09583184
28	0x3decc96c	0.11561856
29	0xbc9312fb	-0.017953387
30	0x3dade291	0.0849048
31	0xbdca452c	-0.09876475
32	0x3d230fb3	0.039809894
33	0xbdeb146f	-0.11478507
34	0xbc923527	-0.01784761
35	0x3d355958	0.044274658
36	0x3d915801	0.070968635
37	0xbd819630	-0.06327474
38	0xbd1d6130	-0.038422763
39	0x3d04398d	0.032281447
40	0xbd0ed05d	-0.03486668
41	0x3bba58ee	0.005686871
42	0x3dcbe9d0	0.099567056
43	0xbb8228c8	-0.0039721467
44	0x3c1f1ada	0.009710992
45	0x3cc2d645	0.023783812
46	0xbd881e9a	-0.06646462
47	0x3d034739	0.032050345
48	0xbc2e4e63	-0.010638806
49	0x3d3c0207	0.04590037
50	0x3b54c393	0.0032465204
51	0x3d19deb2	0.037565894
52	0xbd3ab5b7	-0.045583453
53	0x3c660179	0.014038437
54	0xbd27481c	-0.040840253
55	0x3c40833b	0.011750038
56	0xbd43cb7c	-0.04780148
57	0x3cc5ae88	0.024131075
58	0x3dc50625	0.096203126
59	0xbda4a030	-0.08038366
60	0xbd15553a	-0.03645823
61	0x3dbf5b8e	0.093436345
62	0xbd52091a	-0.05127821
63	0x3d18b622	0.03728307
64	0xbdaa1489	-0.08304698
65	0x3df59dfc	0.11993024
66	0x3d71e160	0.059052825
67	0x3dbf11f6	0.09329598
68	0xbddca927	-0.10774451
69	0x3cc3cb57	0.02390067
70	0x3cd22133	0.025650596
71	0xbd0ba766	-0.03409519
72	0x3c8a5510	0.016886264
73	0x3ca40597	0.020022197
74	0x3d107b03	0.035273563
75	0xbdfa97a7	-0.12235957
76	0xbd03b40c	-0.032154128
77	0xbde8d5c7	-0.113689
78	0xbdc75627	-0.09733229
79	0xbcd7e7e3	-0.02635569
80	0x3d1a0287	0.037600067
81	0xbd0d653c	-0.034520373
82	0x3d17dac1	0.037073854
83	0x3d21ab30	0.039469898
84	0x3d1fa851	0.03897888
85	0xbd92097d	-0.07130716
86	0x3ba8ff73	0.005157405
87	0xbc8c1066	-0.017097663
88	0x3d0148a3	0.031563412
89	0xbdc6be68	-0.09704286
90	0xbcd9e088	-0.026596323
91	0xbd31472b	-0.04328076
92	0x3d649d2f	0.055813964
93	0xbde3eb81	-0.11128903
94	0x3d24cb7c	0.04023312
95	0x3c90a37d	0.017656082
96	0xbc9544ca	-0.018221278
97	0x3cd70932	0.026249502
98	0x3d05613d	0.032563437
99	0xbda4f7e1	-0.08055092
100	0xbdcf3380	-0.10117245
101	0xbc1c3a7a	-0.009535426
102	0xba634d74	-0.0008670904
103	0x3de1b428	0.1102069
104	0x3e01e93b	0.12686627
105	0xbda14df2	-0.07876195
106	0xbcf80e48	-0.030280247
107	0xbd27d5dd	-0.04097544
108	0xbdf03ccf	-0.11730348
109	0x3da21758	0.07914609
110	0xbdff8852	-0.12477173
111	0x3cbe7a6d	0.023251737
112	0x3cfb8e31	0.03070745
113	0x3dffcc9f	0.124902
114	0xbcd6760a	-0.026179332
115	0xbd0c2aab	-0.03422038
116	0xbd66786b	-0.056267183
117	0xbd446da6	-0.04795613
118	0x3d17a597	0.037023153
119	0xbd676f9e	-0.05650293
120	0xbcc49d6a	-0.024000842
121	0xbd62be5e	-0.05535733
122	0xbd7a6dbc	-0.061139807
123	0xbd005ed3	-0.03134043
124	0xbd2faa43	-0.042886984
125	0xbde5c34e	-0.11218892
126	0xbd1e607e	-0.03866624
127	0x3cdcd85d	0.026958639
128	0xbd8122a7	-0.063054375
129	0x3c5ca233	0.013466406
130	0x3d48e943	0.04905058
131	0x3d118dd2	0.03553564
132	0xbd38bc9e	-0.045101754
133	0x3ca6d5fe	0.020365711
134	0xbd4432a9	-0.047899876
135	0x3c6820f2	0.014168011
136	0xbda934e4	-0.08262041
137	0x3d62fbb4	0.055415824
138	0xbd3adc3f	-0.0456202
139	0x3d6002c2	0.05469013
140	0xbcf044e9	-0.029329734
141	0x3ceac573	0.028658604
142	0xbd5a2d5c	-0.053265914
143	0x3d9c874f	0.076429956
144	0x3dae2b07	0.085043006
145	0xbd86717b	-0.065646134
146	0xbdb2fb83	-0.08739378
147	0x3cede5d9	0.029040264
148	0x3d652df8	0.055952042
149	0x3d3c2890	0.04593712
150	0x3c81babe	0.015836116
151	0x3b99d333	0.0046943664
152	0xbcb04d08	-0.021521106
153	0x3a92d77c	0.0011203135
154	0xbbe939b8	-0.0071174763
155	0xbdaf5dcd	-0.08562813
156	0xbc8278cd	-0.015926743
157	0x3d1ec52d	0.03876226
158	0x3cae268e	0.021258619
159	0x3d75601d	0.059906114
160	0xbccdfda4	-0.02514536
161	0xbcf7caab	-0.030248007
162	0xbd2244be	-0.03961634
163	0xbc364d5b	-0.011126841
164	0xbd85c73d	-0.06532142
165	0x3d6d1c7d	0.057888497
166	0x3c5150e1	0.012775631
167	0x3d2fd581	0.042928223
168	0xbc5f836e	-0.013642175
169	0xbd44672c	-0.047949955
170	0xbd879b3b	-0.06621405
171	0xbbcd22bf	-0.0062602456
172	0x3c3db97c	0.011579867
173	0xbd91ecfe	-0.07125281
174	0xbc0b9583	-0.008519533
175	0x3d72eeea	0.059309877
176	0xbdbd4a81	-0.09242726
177	0x3b0d7ef7	0.002159057
178	0xbb8827e5	-0.0041551464
179	0x3dc43386	0.0958014
180	0xbc237400	-0.009976387
181	0xbc300a11	-0.0107445875
182	0xbd375303	-0.0447569
183	0xbc92cf44	-0.017921098
184	0x3d7f91e9	0.06239501
185	0xbc7281f1	-0.014801488
186	0x3cc58a5f	0.024113832
187	0x3d2d13e8	0.042255312
188	0xbca63ee4	-0.02029366
189	0xbcf7e601	-0.030261042
190	0x3dc0ce45	0.09414343
191	0x3ced077a	0.02893423
192	0x3d8c7108	0.068574965
193	0xbd678fa9	-0.05653349
194	0xbbb815aa	-0.005617817
195	0xbd78a391	-0.060702864
196	0x3dbe9dc4	0.09307435
197	0x3d6921b5	0.05691691
198	0x3bf7795d	0.0075523094
199	0x3d7c360f	0.06157499
200	0xbc5bb767	-0.013410426
201	0xbce4693e	-0.027882215
202	0x3d28a5d5	0.041173775
203	0xbda24c80	-0.079247475
204	0xbd8d19d1	-0.0688969
205	0xbd18f205	-0.037340183
206	0x3d74a067	0.059723284
207	0xbdbd426e	-0.09241186
208	0x3c9f258a	0.01942708
209	0x3d8f8aae	0.07008873
210	0x3cf4a7c5	0.029865155
211	0xbd4cb681	-0.049978737
212	0x3d21c50f	0.03949457
213	0xbd0835f4	-0.03325458
214	0xbcc1222f	-0.02357587
215	0x3d846920	0.064653635
216	0x3c392e2f	0.011302515
217	0x3d87f9c2	0.066394344
218	0xbb4a0a43	-0.003082887
219	0xbbb33cdc	-0.0054699015
220	0x3c0e3a58	0.008680902
221	0x3d5908df	0.052986976
222	0xbb1d1d16	-0.0023973635
223	0x3d9b56f8	0.07584947
224	0xbc379442	-0.011204781
225	0xbd1cc4f2	-0.03827376
226	0x3d786883	0.060646545
227	0x3d834f28	0.06411582
228	0x3d93a16b	0.072085224
229	0xbb2665bb	-0.0025390226
230	0x3d9b5213	0.07584014
231	0x3bea964c	0.00715903
232	0x3daf5121	0.08560396
233	0x3d8bc8cc	0.06825408
234	0x3d813d22	0.06310488
235	0xbcef356c	-0.029200278
236	0x3d6d8c79	0.057995293
237	0xbd7e4596	-0.06207808
238	0x3cef7115	0.029228726
239	0xbd6619a9	-0.056176815
240	0xbcd0eb57	-0.025502844
241	0xbd05f3e2	-0.032703288
242	0xbc24bf76	-0.0100554135
243	0x3c963e42	0.018340234
244	0x3d581657	0.05275568
245	0xbccd110f	-0.025032548
246	0x3d0601b1	0.032716457
247	0x3d5353de	0.051593654
248	0x3cdc2a84	0.026875742
249	0x3d30853c	0.043095812
250	0x3d03a67c	0.032141194
251	0x3b85032a	0.004059215
252	0xbc7672f0	-0.015042052
253	0xbd08384d	-0.033256818
254	0xbc87af88	-0.016563192
255	0xbcd3f9ba	-0.025875915

backbone.0.bias f4 [256]
0	0xbccb8af5	-0.024846533
1	0xbd2f6545	-0.042821188
2	0xbda30e17	-0.07961672
3	0x3ce12ae9	0.027486281
4	0xbd9644ea	-0.07337363
5	0x3ce51401	0.02796364
6	0x3d266d4c	0.040631577
7	0xbdb8fa9b	-0.09032174
8	0xbd8e2257	-0.069401436
9	0xbcedae40	-0.029013753
10	0x3cf0ace3	0.029379314
11	0xbd152b01	-0.036417965
12	0xb9d7622e	-0.00041081145
13	0xbbf08bba	-0.0073408755
14	0xbd35b62e	-0.044363193
15	0xbda09639	-0.07841153
16	0x3c94a91a	0.01814704
17	0xbdd4c345	-0.10388807
18	0x3d8e2143	0.06939938
19	0xbdafcefb	-0.085844
20	0xbbf1a518	-0.007374417
21	0xbd8464a7	-0.064645104
22	0xbdbb3815	-0.09141556
23	0xbd6ac7a5	-0.057319302
24	0xbceea9bf	-0.029133676
25	0xbc876bff	-0.016530989
26	0x3cf34ddf	0.029700218
27	0x3d46cb66	0.04853382
28	0x3d8954d2	0.06705631
29	0x3d7277ca	0.05919627
30	0xbd835848	-0.06413323
31	0xbc5d2854	-0.0134983845
32	0x3d9360f6	0.07196228
33	0xbd68a5a4	-0.056798592
34	0x3cd8e326	0.0264755
35	0xbdbbd3d9	-0.09171266
36	0xbd1715eb	-0.036886137
37	0xbd24fb9b	-0.040279012
38	0x3ceb07bd	0.028690213
39	0xbd78093c	-0.06055568
40	0xbdb87055	-0.09005801
41	0x3d3262a6	0.04355111
42	0xbcdc4e9f	-0.026892958
43	0xbdb75bae	-0.089530334
44	0x3d12a565	0.035802264
45	0xbc4c671f	-0.012475758
46	0x3d81d029	0.063385315
47	0x3d9db75a	0.07700987
48	0xbda109f8	-0.078632295
49	0xbd78d919	-0.060753915
50	0x3d2ead56	0.042645775
51	0xbdaca510	-0.08429921
52	0x3d02d746	0.031943582
53	0xbcd135fc	-0.025538437
54	0x3d8ba382	0.06818296
55	0xbdb8b6f2	-0.09019269
56	0x3d87feab	0.06640371
57	0xbd8f87c5	-0.07008318
58	0xbd13ccd7	-0.036084022
59	0xbd466781	-0.048438553
60	0x3d71c494	0.059025362
61	0x3d94a65b	0.07258292
62	0xbcfbd1cd	-0.03073969
63	0xbd8e8e08	-0.06960684
64	0xbda7273d	-0.08161781
65	0xbd839831	-0.064255126
66	0x3c9d2464	0.019182391
67	0x3d118638	0.03552839
68	0x3d303d8d	0.04302745
69	0xbda36035	-0.079773344
70	0x3d9aff0a	0.07568176
71	0xbdd41b37	-0.10356753
72	0x3af37632	0.0018574654
73	0x3cb7d8de	0.022442278
74	0x3d9ffb00	0.07811546
75	0xbdb00b74	-0.085959345
76	0xbd4e08e6	-0.050301455
77	0xbd9c1c21	-0.07622553
78	0x3d8d1155	0.068880714
79	0xbd49a251	-0.049227063
80	0xbce63cb1	-0.028105112
81	0xbcbeda23	-0.023297375
82	0x3bb7cbec	0.005609026
83	0x3d7c8e21	0.061658982
84	0xbd091023	-0.033462655
85	0xbce4172a	-0.027843077
86	0xbc3688dc	-0.011141028
87	0xbd7cc26d	-0.061708856
88	0xbd7f6b35	-0.0623581
89	0xbcaf810a	-0.021423835
90	0xbd5ebd92	-0.054380007
91	0x3d886b4b	0.066610895
92	0x3cbc2857	0.022968454
93	0xbd1da2f4	-0.038485482
94	0x3dae06fc	0.08497426
95	0xbd3cf707	-0.04613402
96	0xbbfcde55	-0.0077169337
97	0x3d8cd838	0.06877178
98	0xbda82356	-0.08209865
99	0xbdcb0de7	-0.09914761
100	0xbc173623	-0.009229216
101	0xbcae18ab	-0.021251997
102	0xbdb27418	-0.087135494
103	0xbd75e525	-0.060032982
104	0x3d9bc0bc	0.076051205
105	0xbd90811b	-0.07055875
106	0xbbaf8744	-0.005356701
107	0xbdb2c889	-0.08729655
108	0x3d4fb8ba	0.05071328
109	0xbdc2f2ce	-0.095189676
110	0xbd81eeca	-0.063443735
111	0xbd65c295	-0.05609377
112	0xbd1db362	-0.03850115
113	0x3cd6f8ab	0.026241621
114	0x3d632557	0.055455532
115	0x3d4a77a1	0.049430493
116	0x3cfb96ff	0.030711649
117	0xbb312ea2	-0.0027035852
118	0xbccb764f	-0.024836687
119	0xbcf14c36	-0.029455286
120	0xbdb1245d	-0.08649514
121	0xbd1217d9	-0.035667274
122	0x3c01f96e	0.007933004
123	0x3d226cf2	0.03965468
124	0xbbecc983	-0.0072261705
125	0xbc7743fe	-0.015091894
126	0xbd45d952	-0.048302956
127	0x3da0cc19	0.078514285
128	0xbdb5b22a	-0.08871873
129	0xbd4dfd16	-0.05029019
130	0xbd892015	-0.06695572
131	0xbd9c2d45	-0.07625822
132	0x3d9ec8dc	0.07753155
133	0x3c73317b	0.01484334
134	0xba6b15a7	-0.0008967765
135	0xbc882f25	-0.016624043
136	0x3c461665	0.0120903
137	0x3d9f5eb2	0.077817336
138	0xbd37a89d	-0.044838537
139	0x3d818348	0.06323868
140	0x3b77cc6a	0.003781105
141	0xbd5f3701	-0.054495815
142	0x3d960e9f	0.073270075
143	0xbdc418fe	-0.095750794
144	0xbca0d96f	-0.01963493
145	0xbdb3b770	-0.08775222
146	0xbdb8acda	-0.09017344
147	0xbd26839e	-0.040652864
148	0x3d246e15	0.040144045
149	0xbd375957	-0.044762935
150	0x3d274a3a	0.040842272
151	0x3d266d58	0.040631622
152	0x3d172c62	0.03690756
153	0xbd220088	-0.039551288
154	0xbc331dc7	-0.010932392
155	0xbd98ea86	-0.07466607
156	0xbc29b43c	-0.010357913
157	0x3bea07f4	0.0071420614
158	0xbd74c496	-0.05975779
159	0xbd1a6e55	-0.037702877
160	0x3d113c62	0.035457976
161	0xbc7c229a	-0.015389109
162	0xbbd43160	-0.0064756125
163	0x3d9b6e1a	0.075893596
164	0xbda1cc91	-0.07900346
165	0xbd58158a	-0.052754916
166	0xbdbc3094	-0.09188953
167	0xbd2c9630	-0.042135417
168	0x3d85a9d5	0.065265335
169	0x3c133d54	0.00898679
170	0xbd94b961	-0.07261921
171	0xbcacc18a	-0.02108838
172	0xbcc9f35f	-0.024652181
173	0xbd74618a	-0.059663333
174	0x3b9e452f	0.0048300247
175	0xbd004c64	-0.03132285
176	0xbd2f262d	-0.042761017
177	0xbd83fc84	-0.06444648
178	0x3cf10798	0.029422566
179	0xbd14ba43	-0.036310446
180	0xbcbcfc57	-0.023069544
181	0xbd3399c8	-0.04384783
182	0xbc18842b	-0.009308855
183	0x3cf11517	0.029429002
184	0x3d77ca83	0.060495865
185	0xbd6cdf6b	-0.057830255
186	0xbc94bb26	-0.018155646
187	0xbca306f0	-0.019900769
188	0xbd9a5985	-0.07536606
189	0xbd4a0da8	-0.04932943
190	0x3c80dcc3	0.015730267
191	0x3b9735a9	0.004614551
192	0x3d64b877	0.055839982
193	0xbccdd1ae	-0.025124397
194	0x3d9e39a4	0.07725838
195	0x3da4da0a	0.080494
196	0xbd48a5db	-0.048986297
197	0xbb87a614	-0.004139671
198	0xbb1c2445	-0.002382533
199	0xbd1a2a1c	-0.037637815
200	0xbd1c7b35	-0.038203437
201	0xbda72e98	-0.08163184
202	0x39a04765	0.0003057077
203	0x3cca19b2	0.024670456
204	0x3d158646	0.036505006
205	0xbc861b56	-0.016370457
206	0x3caeec7a	0.021352995
207	0x3d75924e	0.05995398
208	0xbd51a73c	-0.051184878
209	0x3d72acb9	0.059246752
210	0x3cae00eb	0.021240672
211	0x3d75befe	0.059996597
212	0x3db07a64	0.08617094
213	0x3d7a9da6	0.0611855
214	0x3da56191	0.0807525
215	0xbc7f64de	-0.015588013
216	0x3d49245f	0.04910695
217	0x3c2e9e75	0.010657896
218	0x3c9d46c7	0.019198788
219	0xbc5a62a8	-0.013329186
220	0xbd167a6f	-0.036737856
221	0xbd457ee0	-0.0482167
222	0x3d6742c9	0.056460176
223	0xbdb96571	-0.090525515
224	0xbd8560a7	-0.065125756
225	0x3d3abd70	0.045590818
226	0x3c000a06	0.00781489
227	0xbd8b270c	-0.06794557
228	0xbd80fb08	-0.062978804
229	0xbce178bb	-0.02752339
230	0xbcca94a8	-0.024729088
231	0xbd9609a7	-0.0732606
232	0xbd515a8f	-0.051111754
233	0x3aabe95e	0.0013115813
234	0x3d8a2b77	0.067465715
235	0xbda64ffc	-0.081207246
236	0x3d630cfd	0.05543231
237	0xbc6029c6	-0.013681835
238	0xbc278ba6	-0.010226166
239	0xbd98e5ee	-0.074657306
240	0xbd353428	-0.044239193
241	0xbd1d01f5	-0.038331944
242	0x3c91140d	0.017709756
243	0xbd7080e8	-0.058716685
244	0xbd8be183	-0.06830122
245	0xbcc0e907	-0.023548616
246	0x3d295111	0.041337077
247	0xbc356dbf	-0.011073529
248	0x3c8e2b9b	0.017354777
249	0xbce0b35c	-0.027429275
250	0xbdaf1bf2	-0.08550252
251	0xbd9a4903	-0.07533457
252	0x3c81d5b1	0.015848966
253	0xbd0267b0	-0.031837165
254	0xbd56bbbc	-0.05242513
255	0x3d2bc221	0.041933183

backbone.2.weight f4 [256, 256]
0	0xbcedd0fb	-0.029030314
1	0x3bc345e6	0.0059592603
2	0xbc96c17c	-0.018402807
3	0x3be09d25	0.0068546706
4	0xbd559a9e	-0.052149408
5	0xbd3b587d	-0.045738686
6	0xbcd53fa4	-0.026031323
7	0x3d1642d9	0.036684845
8	0x3d5c6974	0.053811505
9	0x3cdf741c	0.027277045
10	0x3d360ccc	0.044445798
11	0xbcd5a9eb	-0.026082
12	0xbd2155ea	-0.039388575
13	0xbd1e1c47	-0.038601186
14	0xbcd92acc	-0.026509665
15	0x3d1c8f1e	0.038222425
16	0x3bf10b80	0.0073561072
17	0xbd6db26f	-0.058031496
18	0xbd7a7aa3	-0.06115211
19	0xbce2cc30	-0.027685255
20	0xbd5d420a	-0.054018058
21	0xbcad9a58	-0.02119176
22	0xbc075dc2	-0.0082621
23	0x3c0844c0	0.0083171725
24	0xbd2f99c6	-0.04287126
25	0x3c2b3ae8	0.010451056
26	0xbc722fb3	-0.01478188
27	0xbd1266a8	-0.035742432
28	0xbd1b85b0	-0.03796929
29	0xbd845837	-0.06462138
30	0xbca28550	-0.019838959
31	0x3c43fd80	0.011962295
32	0xbd0767bd	-0.033057917
33	0x3ce2d6cc	0.027690314
34	0xbd407b82	-0.046992786
35	0x3d29084b	0.041267674
36	0x3d193628	0.037405163
37	0xbd0fc64c	-0.03510122
38	0xbd399da4	-0.045316353
39	0x3b8db620	0.0043246895
40	0x3d01696e	0.031594686
41	0x3d22fad9	0.03979001
42	0x3aea5780	0.001787886
43	0x3cc0aa84	0.023518808
44	0x3d517f46	0.051146768
45	0xbd01bdf8	-0.03167531
46	0x3cfb802a	0.030700762
47	0xbc927806	-0.017879497
48	0x3c91701c	0.017753653
49	0xbc8726b8	-0.016497955
50	0xbcea51e2	-0.028603498
51	0x3bd91150	0.0066243783
52	0x3cacc500	0.02109003
53	0xbb110520	-0.00221283
54	0xbc7c29e5	-0.015390848
55	0xbd83cbf4	-0.06435385
56	0x3cf9027c	0.030396692
57	0x3c42b240	0.011883318
58	0x3bd042dc	0.0063556265
59	0x3d20b8be	0.039238684
60	0xbcaeaf4c	-0.021323822
61	0x3bfaab40	0.007649809
62	0x3d37fe48	0.044920236
63	0xbd5aa4fd	-0.05338
64	0xbd6f1a28	-0.058374554
65	0xbb8fafd0	-0.004384972
66	0xbc9151b4	-0.017739154
67	0xbb1c7ae0	-0.002387695
68	0xbcec9fcc	-0.02888479
69	0x3c34e7af	0.011041566
70	0xbb9cd0a0	-0.004785612
71	0xbd2d960c	-0.042379424
72	0x3c07f450	0.008297995
73	0xbd14e4f9	-0.036351178
74	0xbcaecff4	-0.021339394
75	0x3a2a994b	0.0006507828
76	0xbb647e80	-0.003486544
77	0xbd24341a	-0.04008875
78	0x3d4d601a	0.050140478
79	0xbce4a2d8	-0.027909681
80	0xbc85b5df	-0.016322074
81	0xbb198ea0	-0.0023430958
82	0xbd142e8e	-0.03617721
83	0x3d719cae	0.058987312
84	0xbc1100f0	-0.008850321
85	0x3c919e1c	0.017775588
86	0xbc9298f4	-0.0178952
87	0xbd448542	-0.047978647
88	0x3d1f919c	0.038957223
89	0xbcb0989c	-0.021557145
90	0xbc7dede2	-0.01549861
91	0xbcae9494	-0.021311082
92	0xbd9f5f3e	-0.07781838
93	0xbd472920	-0.048623204
94	0x3d6b3ec6	0.057432912
95	0xbd62d7dc	-0.05538164
96	0x3d518a73	0.051157426
97	0xbc7e7a9d	-0.015532163
98	0x3c164f78	0.00917422
99	0xbd8f7c76	-0.07006161
100	0x3d44854e	0.04797869
101	0xbc6857c0	-0.0141810775
102	0xbbb6c4b0	-0.005577646
103	0xbcec8854	-0.0288736
104	0xbd575794	-0.052573755
105	0x3bafcc67	0.005364943
106	0xbc609cbb	-0.013709242
107	0xbc470130	-0.012146279
108	0xbd47c9c4	-0.048776403
109	0x3d27fead	0.041014362
110	0xbb911f71	-0.004428797
111	0x3c4c69e4	0.012476418
112	0xbcfb6e28	-0.030692175
113	0x3d34ac70	0.04410976
114	0xbc631ff8	-0.013862602
115	0xbd7fbe7c	-0.06243752
116	0xbc656c9d	-0.014002946
117	0xbd66c896	-0.056343637
118	0x3d2e2ab0	0.04252118
119	0xbd8cdb80	-0.06877804
120	0xbd00c840	-0.031440973
121	0xbd6843f8	-0.056705445
122	0x3d7eb200	0.062181473
123	0xbc8a6a48	-0.016896382
124	0x3d12794e	0.035760216
125	0xbd4f0360	-0.050540328
126	0xbaf87680	-0.0018956214
127	0x3c3c41c2	0.011490287
128	0x3d3c5da6	0.045987748
129	0xbc91b72e	-0.017787542
130	0x3cd9f0f8	0.02660416
131	0x3ba9d0e5	0.005182373
132	0x3c3e74c6	0.011624521
133	0x3c94089c	0.018070512
134	0x3d52c975	0.051461656
135	0xbd56843e	-0.05237221
136	0xbb981bc0	-0.00464198
137	0xbcd4aa88	-0.025960222
138	0xbcc4677c	-0.023975126
139	0x3b80dde5	0.003932702
140	0xbd59b5d8	-0.053151935
141	0xbc5fb04d	-0.013652873
142	0xbc5f8ed2	-0.013644891
143	0xbc90e032	-0.01768503
144	0x3d7e5c98	0.062100023
145	0x3d4aea95	0.04954012
146	0xbd8000b9	-0.06250138
147	0x3cb66f34	0.022269823
148	0xbd30d05e	-0.043167464
149	0xbc0a4a3f	-0.008440553
150	0x3d4be69c	0.049780473
151	0x3b8c64f8	0.0042844974
152	0xbd31ebc6	-0.04343774
153	0x3d690e84	0.05689861
154	0x3cfb7ecc	0.03070011
155	0xbcaf6154	-0.021408714
156	0xbd635f38	-0.05551073
157	0xbc8e59d5	-0.01737682
158	0xba8e9fc0	-0.001088135
159	0x3d0d3a1e	0.034479253
160	0x3d289a58	0.04116282
161	0x3b6e7940	0.0036388189
162	0x3d19ac5c	0.03751789
163	0x3cfc3e37	0.030791385
164	0xbd16faa0	-0.03686011
165	0xbd16497c	-0.036691174
166	0xbb2f98aa	-0.0026793876
167	0xbd451c78	-0.048122853
168	0x3d3eaba9	0.046550427
169	0xbd4242c8	-0.04742697
170	0x3cacafb8	0.021079883
171	0xbd33c458	-0.04388842
172	0x3d317823	0.043327462
173	0xbd63858a	-0.055547275
174	0x3d0b8bee	0.034068994
175	0x3d185543	0.037190687
176	0x3beedd40	0.0072895586
177	0xbbc9c010	-0.006156929
178	0x3d60acd4	0.05485232
179	0x3abdba80	0.0014475137
180	0x3d573818	0.05254373
181	0x3bac2830	0.005253814
182	0x3d4de1f0	0.0502643
183	0x3b3e2b19	0.0029017387
184	0x3cffdc15	0.031232873
185	0x3d21541c	0.039386854
186	0xbca207bc	-0.019779079
187	0x3bd76fe0	0.006574616
188	0xbcb9f3f6	-0.022699337
189	0xbd5205ba	-0.051274993
190	0x3cb70670	0.022341937
191	0x3b402882	0.002932102
192	0x3c93ce94	0.01804284
193	0xbd90e211	-0.07074369
194	0x3d000a68	0.031259924
195	0x3d432bf2	0.04764933
196	0xbd10cda4	-0.035352364
197	0x3d44cda2	0.04804767
198	0xbcaac6a4	-0.020846672
199	0x3d4beaa1	0.049784306
200	0x3cfad730	0.030620188
201	0x3d37362c	0.044729397
202	0x3c3813ed	0.011235219
203	0x3cb8cc84	0.022558458
204	0x3c2f9e88	0.010718949
205	0x3ac2dbf9	0.0014866582
206	0x3c90f0c0	0.017692924
207	0xbbe9b8af	-0.0071326117
208	0xbc140738	-0.009034924
209	0x3cee3059	0.029075788
210	0xbce5328c	-0.027978204
211	0x3c659a76	0.014013877
212	0xbd1d5f8a	-0.03842119
213	0xbb6ae0a2	-0.0035839458
214	0x3c873118	0.016502902
215	0x3bb54226	0.005531567
216	0x3d06c80b	0.03290562
217	0x3d37ed1f	0.04490387
218	0xbdb29430	-0.08719671
219	0xbc190298	-0.009338997
220	0x3d256281	0.040377144
221	0x3d055a42	0.03255678
222	0xbd3affe9	-0.04565421
223	0x3ce117d7	0.027477188
224	0x3cbaa1e8	0.022782281
225	0x3d332576	0.043736897
226	0x3cc12d38	0.023581132
227	0x3bb26ce8	0.0054451115
228	0x3d2463ee	0.040134363
229	0xbd5adad8	-0.053431362
230	0xbd14eec2	-0.03636051
231	0x3d04ee06	0.03245356
232	0x3d4fed95	0.050763685
233	0xbca93ae8	-0.020657972
234	0xbb2d0aa0	-0.0026404038
235	0xbc025ab8	-0.007956199
236	0x3cb3af28	0.021934107
237	0x3d0c91f8	0.034318894
238	0xbbb53b1f	-0.0055307294
239	0x3d59666a	0.053076185
240	0x3d0327a5	0.03202023
241	0xbd3e9538	-0.046529025
242	0xbd4f4a6c	-0.050608084
243	0xbc8e9501	-0.017405035
244	0x3b575e80	0.0032862723
245	0xbc82d657	-0.015971346
246	0xbd84986d	-0.064743854
247	0x3d4c738a	0.049914874
248	0x3c9510bc	0.018196456
249	0x3c42a920	0.011881143
250	0x3ce96b50	0.028493553
251	0xbc3a7aa4	-0.011381779
252	0x3d7674b8	0.060169905
253	0xbcbb2d70	-0.022848815
254	0x3d407921	0.046990518
255	0x3d1f7e46	0.038938783

backbone.2.bias f4 [256]
0	0xbdb47f67	-0.088133626
1	0x3cf2713d	0.029595012
2	0x3cdc2e2e	0.026877489
3	0xbd2f942e	-0.042865925
4	0x3c1c193c	0.009527501
5	0xbd5ce4c1	-0.053929094
6	0x3d66d5ec	0.056356356
7	0xbc082774	-0.008310188
8	0xbd86004b	-0.06543025
9	0x3d02171e	0.031760328
10	0xbca6d24c	-0.02036395
11	0x3ceee89c	0.029163651
12	0xbdbb53e8	-0.09146863
13	0xbbeeb1b4	-0.0072843675
14	0x3d4e8d9c	0.050428018
15	0xbc232726	-0.009958064
16	0x3dc4c913	0.09608664
17	0xbd25dd90	-0.0404945
18	0xbcc6d75c	-0.024272613
19	0x3d796d81	0.060895447
20	0x3c40d24b	0.011768888
21	0x3d323244	0.04350497
22	0xbc721421	-0.014775307
23	0xbd713423	-0.058887612
24	0x3d33f529	0.043934975
25	0xbd1237eb	-0.03569786
26	0x3cf2e045	0.029647956
27	0x3c807110	0.015678912
28	0xbdb28e39	-0.08718533
29	0x3c1c952b	0.009557049
30	0xbdaacf2e	-0.08340298
31	0xbd13e47c	-0.03610657
32	0x3d025dd4	0.031827763
33	0xbca4568f	-0.020060806
34	0xbd01198f	-0.031518515
35	0x3c9a3673	0.018824792
36	0xbdcf1c9a	-0.10112877
37	0xbd872e94	-0.06600681
38	0x3cd85bde	0.026410993
39	0xbd05b2a0	-0.032641053
40	0xbd72e52c	-0.059300587
41	0xbd4a31fc	-0.049364075
42	0x3d03eea6	0.032210015
43	0xbca63457	-0.02028863
44	0xbd2dd05e	-0.042435043
45	0xbd1e99a1	-0.03872073
46	0x3cb50836	0.022098642
47	0xbbac8fc9	-0.005266164
48	0xbd7b3394	-0.061328486
49	0x3caf5d46	0.02140678
50	0xbbeebc09	-0.007285599
51	0x3da7b021	0.08187891
52	0xbc226f61	-0.00991425
53	0x3cac4df2	0.021033261
54	0x3cf3df10	0.02976945
55	0xbd8b888b	-0.06813153
56	0xbcc96a00	-0.024586678
57	0x3cc37038	0.023857221
58	0xbd837027	-0.06417876
59	0xbd046eef	-0.032332357
60	0xbd21371e	-0.039359204
61	0xbd702a76	-0.058634244
62	0xbc5639a0	-0.013075262
63	0xbce4b04a	-0.027916092
64	0x3d7eba87	0.062189605
65	0xbb6377d2	-0.003470887
66	0x3d77bb68	0.06048146
67	0x3d2000c2	0.039063223
68	0x3d11667a	0.03549812
69	0xbcc1b2a4	-0.023644753
70	0xbc5e487d	-0.013567087
71	0x3cc2ee61	0.023795309
72	0xbdb280d2	-0.08715977
73	0xbd4af17e	-0.04954671
74	0x3ce9d1c2	0.028542403
75	0x3c809870	0.015697688
76	0x3dad6d0b	0.08468064
77	0xbd901d00	-0.07036781
78	0x3c99cadd	0.01877349
79	0xbb7a7fe8	-0.003822321
80	0xbb994963	-0.004677938
81	0x3d83555c	0.064127654
82	0xbcadc677	-0.0212128
83	0xbd555d9c	-0.052091226
84	0xbc889338	-0.016671762
85	0xbc6f208a	-0.01459516
86	0x3cc1cd74	0.023657538
87	0x3c13bcc0	0.0090171695
88	0x3cb8322d	0.022484863
89	0xbd773306	-0.060351394
90	0xbb491dc9	-0.003068792
91	0xbd020105	-0.031739254
92	0x3cc026c2	0.023455981
93	0xbd8a78d7	-0.067613296
94	0xbd04ec54	-0.032451943
95	0xbd4aaab4	-0.0494792
96	0x3cda36fb	0.026637545
97	0xbd1e1b84	-0.03860046
98	0x3d813399	0.063086696
99	0xbc4a537a	-0.012349004
100	0xbd09ead6	-0.033671223
101	0xbd777d5c	-0.060422286
102	0x3d3ce99c	0.046121225
103	0x3d02fd3d	0.031979788
104	0x3d2a63fb	0.041599255
105	0xbd20dde4	-0.03927411
106	0x3b380759	0.0028080551
107	0x3cd61689	0.026133792
108	0xbd6844d0	-0.05670625
109	0xbcb2d41c	-0.021829657
110	0xbd40f0c4	-0.047104612
111	0x3d240616	0.040044867
112	0x3c227f04	0.009917978
113	0xbc8d62d7	-0.017259045
114	0xbcd475f4	-0.02593515
115	0xbd4c9174	-0.049943402
116	0xbd80deb4	-0.06292477
117	0xbdafcaa7	-0.08583575
118	0xbd0c1b56	-0.034205757
119	0xbda2944d	-0.079384424
120	0xbccd040d	-0.025026346
121	0x3d5471b7	0.05186626
122	0x3c8ea916	0.01741461
123	0x3d8b2700	0.06794548
124	0xbd489e22	-0.048978932
125	0x3cdc0a7b	0.026860466
126	0xbd189e6e	-0.037260465
127	0xbd49a1ab	-0.049226444
128	0x3afd1540	0.0019308701
129	0x3cec1ae6	0.02882142
130	0xbd9555d2	-0.072917596
131	0x3d43e84a	0.04782895
132	0xbd7221c7	-0.059114244
133	0xbd8cc854	-0.06874147
134	0xbd9dfa68	-0.07713777
135	0xbd60bbe4	-0.054866686
136	0x3d54bb5e	0.0519365
137	0xbd6452af	-0.055742916
138	0x3c1bf5f7	0.009519092
139	0xbccbf774	-0.024898268
140	0x3d752f9e	0.059859864
141	0xbd551497	-0.05202159
142	0xbcd04e7e	-0.025428053
143	0xbdb10702	-0.08643915
144	0xbdb280fa	-0.087160066
145	0xbd7a05b0	-0.06104058
146	0x3c38637b	0.011254187
147	0xbc39228d	-0.011299741
148	0x3ce9c080	0.028534174
149	0x3c044554	0.00807317
150	0xbc39f4d4	-0.0113498755
151	0xbd23e3f3	-0.04001231
152	0xbd4a4db1	-0.0493905
153	0xbdc2f11d	-0.09518645
154	0x3d25442a	0.04034821
155	0xbcca8955	-0.024723688
156	0xbcd2e1fb	-0.025742522
157	0x3d4b059b	0.049565893
158	0xbd8abe78	-0.0677461
159	0x3cdc8744	0.026919968
160	0xbd47c031	-0.048767272
161	0xbd0fba9e	-0.03509008
162	0xbcf361dc	-0.029709749
163	0xbca2e014	-0.01988224
164	0x3d2b27d0	0.041786015
165	0xbd27e870	-0.040993154
166	0xbdb9ee38	-0.0907864
167	0x3c04a9b3	0.0080971
168	0x3d8d7677	0.06907361
169	0xbd3720ba	-0.044708945
170	0xbd5b16ae	-0.053488426
171	0xbd911597	-0.07084196
172	0xbd352385	-0.044223327
173	0xbcc1946a	-0.02363034
174	0x3cde32c8	0.027123824
175	0x3d50309d	0.05082761
176	0xbcf029d9	-0.02931683
177	0x3c947f04	0.018126972
178	0xbcf73120	-0.030174792
179	0xbbcbab04	-0.006215455
180	0xbd780385	-0.06055023
181	0x3cf0736b	0.02935191
182	0xbd4d2522	-0.05008424
183	0x3c8e0a37	0.017338855
184	0xbd53e347	-0.05173042
185	0x3ca6202c	0.020279013
186	0x3c46b3ba	0.012127811
187	0xbd774bee	-0.060375147
188	0xbd18be63	-0.037290942
189	0xbd10c3c0	-0.03534293
190	0xbbd1eed4	-0.0064066444
191	0xbb92c31c	-0.0044788253
192	0xbd96a4e9	-0.07355673
193	0x3e3f6c86	0.18693742
194	0xbd565118	-0.05232343
195	0x3bceb210	0.006307848
196	0x3ce1748d	0.027521396
197	0xba96792f	-0.0011480207
198	0x3c082165	0.008308743
199	0xbc9eaf34	-0.019370653
200	0xbcdc0ff7	-0.026863081
201	0x3d6dbbe8	0.05804053
202	0xbbc4eeb4	-0.006009901
203	0x3cb87a40	0.02251923
204	0xbbec8460	-0.007217929
205	0xbd7331c2	-0.059373625
206	0xbd0e0cd3	-0.0346802
207	0xbd6699f8	-0.05629918
208	0xbc061695	-0.008184095
209	0x3c345f88	0.011009105
210	0x3cf168ab	0.029468855
211	0x3cfa0682	0.030520681
212	0xbd5b2e30	-0.053510845
213	0x3c03ccbf	0.008044421
214	0x3c40bb84	0.011763457
215	0x3d272050	0.0408023
216	0xbc3bf524	-0.01147202
217	0x39623f4b	0.00021576618
218	0xbcd75887	-0.02628733
219	0xbcae4b40	-0.021276116
220	0x3d22c59e	0.039739244
221	0xb9264400	-0.00015856326
222	0x39acb616	0.0003294206
223	0xbd2e305b	-0.042526584
224	0xbc6334f7	-0.013867608
225	0xbd1f65f4	-0.03891559
226	0xbd399a04	-0.045312896
227	0xbd8ac4ba	-0.06775804
228	0xbc515dbd	-0.012778697
229	0x3a596e49	0.0008294327
230	0xbd323a35	-0.04351254
231	0x3c894390	0.01675585
232	0xbbb7bf95	-0.005607555
233	0xbd4b5340	-0.04963994
234	0xbd014165	-0.031556506
235	0x3cf1b41a	0.029504824
236	0xbb662ece	-0.0035123113
237	0x3d2fd081	0.042923454
238	0x3c9fb1cc	0.01949396
239	0xb9b60495	-0.0003471716
240	0x3d6f892c	0.058480427
241	0x3cc64c83	0.024206406
242	0x3d4bf3c2	0.049793012
243	0x3b5edbbf	0.003400549
244	0xbcf9865b	-0.030459573
245	0xbc9ce432	-0.01915178
246	0xbd6ae67c	-0.057348713
247	0x3c2ea041	0.010658325
248	0xbd69a3a8	-0.05704084
249	0xbd509029	-0.05091873
250	0xbc0386d7	-0.008027754
251	0xbd158a18	-0.03650865
252	0xbd1d7884	-0.03844501
253	0xbd05a8dd	-0.032631744
254	0x3d38d272	0.04512257
255	0xbd2eb676	-0.042654477

out_n.0.weight f4 [130, 256]
0	0xbd91e7d2	-0.07124294
1	0x3cd826ba	0.026385654
2	0xbe35ecc9	-0.17766108
3	0x3c5ea3ec	0.013588887
4	0x3c6ad68c	0.0143333785
5	0xbd8ad3a7	-0.06778651
6	0xbbfcb198	-0.0077116005
7	0x3d264c16	0.040599905
8	0xbdf9b209	-0.12192161
9	0x3cc94b6c	0.024572097
10	0xbd7278b2	-0.059197135
11	0xbdb38e18	-0.087673366
12	0xbbccd774	-0.00625127
13	0xbdffe193	-0.12494197
14	0xbcdd927a	-0.027047385
15	0xbe4e194d	-0.20126839
16	0xbdf1ea02	-0.118122116
17	0x3c887c94	0.016660966
18	0xbd2750b6	-0.040848456
19	0xbe69009f	-0.22754143
20	0xbcb82a8d	-0.022481227
21	0xbdb11f50	-0.086485505
22	0xbc90a8a1	-0.017658534
23	0x3c822c86	0.015890371
24	0xbda97bf1	-0.08275593
25	0xbdb0bdc1	-0.08629943
26	0xbe18feaa	-0.14940897
27	0xbd34028a	-0.043947734
28	0xbd2a585c	-0.041588172
29	0xbd82e3e8	-0.06391126
30	0xbd290f74	-0.041274503
31	0xbdda926a	-0.106724575
32	0xbe0fc682	-0.14040568
33	0xbdbffadb	-0.09374019
34	0xbe1f089a	-0.15530625
35	0xbda93565	-0.08262137
36	0xbdbf7126	-0.09347753
37	0x3c8d6986	0.017262232
38	0x3cb80cfe	0.022467133
39	0xbd0e3ed8	-0.0347279
40	0xbd2e8464	-0.042606726
41	0xbc33e84e	-0.010980679
42	0xb99fcd00	-0.0003047958
43	0xbe28abe6	-0.16471824
44	0xbd8c9321	-0.06864
45	0xbb910b91	-0.0044264277
46	0xbd2b8942	-0.041878946
47	0xbd7f50e5	-0.062333006
48	0x3d118af2	0.0355329
49	0xbc9a3c26	-0.01882751
50	0xbe0af530	-0.13570094
51	0xbe6a7f40	-0.22900105
52	0xbc205985	-0.009786968
53	0x3d1aeae3	0.03782166
54	0xbd9a6619	-0.07539005
55	0xbd9b00a5	-0.07568482
56	0xbe26e54d	-0.16298409
57	0x3d0fff56	0.035155617
58	0xbdfe2456	-0.12409274
59	0xbdbfb97f	-0.093615524
60	0xbd8ca352	-0.068670884
61	0xbda0d884	-0.07853797
62	0xbd880282	-0.06641103
63	0xbd1c4f2d	-0.038161445
64	0xbdee56d7	-0.11637657
65	0xbe3cc2ee	-0.18433735
66	0xbdbccc3a	-0.092186406
67	0xbd2006a5	-0.039068837
68	0xbc9b35fc	-0.01894664
69	0xbd2a538b	-0.04158358
70	0xbe26b0ed	-0.1627843
71	0x3cf2772a	0.029597837
72	0xbc59304c	-0.013256144
73	0xbcece2d7	-0.02891676
74	0x3cbe5464	0.0232336
75	0xbe1c6656	-0.15273413
76	0xbe388138	-0.18018043
77	0xbd0ae775	-0.03391214
78	0xbbd0e87c	-0.0063753705
79	0xbcace3b3	-0.02110467
80	0x3cca7327	0.024713112
81	0xbdd1a958	-0.10237378
82	0xbe348109	-0.17627348
83	0xbde7f5be	-0.113261685
84	0xbc8ad7cc	-0.016948603
85	0x3cb53f22	0.02212483
86	0x3d6c83d2	0.0577429
87	0xbd082ab6	-0.033243857
88	0xbe01bf51	-0.12670638
89	0x3bf7722c	0.007551452
90	0xbd2b4a57	-0.041818943
91	0x3ccdea7f	0.02513623
92	0xbcf36128	-0.029709414
93	0xbdeb1111	-0.114778645
94	0xbd434742	-0.04767538
95	0xbc6be778	-0.014398448
96	0xbd5c055b	-0.053716045
97	0xbcbe0aab	-0.023198446
98	0xbe26363a	-0.16231623
99	0xbd01fb20	-0.031733632
100	0x3cf438b4	0.029812194
101	0xbc4122b0	-0.011788055
102	0xbe502501	-0.20326616
103	0x3d3c65bb	0.045995455
104	0xbd460f74	-0.04835458
105	0x3c48f780	0.01226604
106	0xbdb2033b	-0.086920224
107	0xbe34b46b	-0.17646949
108	0x3d2b0e7c	0.04176186
109	0x3a2d9a00	0.0006622374
110	0xbc9ecbe9	-0.019384341
111	0xbe1ad52a	-0.15120378
112	0xbd834a9f	-0.06410717
113	0xbe80d3cb	-0.25161585
114	0xbd7d4528	-0.06183353
115	0xbd1a2d12	-0.03764064
116	0xbd9c9872	-0.07646264
117	0x3b20d49c	0.0024540788
118	0xbe097528	-0.13423598
119	0xbe0b8211	-0.13623835
120	0xbda06d1b	-0.0783331
121	0xbdd08047	-0.10180717
122	0xbd8e6a57	-0.069538765
123	0xbed7c137	-0.421396
124	0xba0fa900	-0.00054802
125	0xbe2962d3	-0.16541605
126	0x3cb064d2	0.02153245
127	0xbd56d293	-0.052446913
128	0xbcc34b68	-0.023839667
129	0xbc70c9f2	-0.014696585
130	0xbe1c957a	-0.15291396
131	0x3cd622d8	0.026139662
132	0xbd17df3e	-0.037078135
133	0xbdc8d76d	-0.09806714
134	0xbdc0308c	-0.093842596
135	0xbcf2daa7	-0.029645277
136	0xbdb14db9	-0.086574025
137	0xbda67fac	-0.0812982
138	0xbcfd3b21	-0.030911984
139	0xbd04ea19	-0.032449815
140	0x3cc4ade8	0.024008706
141	0xbd2592e4	-0.04042329
142	0xbd84e110	-0.0648824
143	0xbdd78dd7	-0.10525101
144	0xbd952b2a	-0.072836235
145	0x3d7179ae	0.058953933
146	0xbdd40247	-0.10351997
147	0x3c3d6853	0.011560517
148	0xbd4fb029	-0.05070511
149	0xbdbf593d	-0.09343193
150	0xbd26a877	-0.040688004
151	0xbbbce532	-0.005764627
152	0xbccb3298	-0.024804398
153	0x3d8b000c	0.06787118
154	0x3c225bb8	0.009909563
155	0x3ce4089d	0.027836138
156	0xbc6374c7	-0.013882822
157	0xbe06c2df	-0.13160275
158	0xbd29346f	-0.04130977
159	0xbd0143b8	-0.031558722
160	0xbd9669b0	-0.07344377
161	0x3c8797aa	0.016551811
162	0xbd1bd5e4	-0.03804578
163	0x3d5684f2	0.05237288
164	0x3b010fa2	0.0019693156
165	0xbcb0b4c0	-0.021570563
166	0xbd5f8dc5	-0.05457856
167	0xbe0d9d04	-0.13829428
168	0xbea3a94d	-0.31965104
169	0xbd7d9974	-0.061913922
170	0x3c045d1d	0.008078841
171	0x3c8c61cc	0.017136477
172	0xbd7c282e	-0.061561756
173	0xbbacd03f	-0.0052738483
174	0xbc0874d0	-0.0083286315
175	0xbe3ae25f	-0.18250416
176	0xbe28f98d	-0.16501446
177	0xbcda38b7	-0.026638372
178	0xbd16fd48	-0.03686264
179	0xbe1e4727	-0.1545683
180	0xbd57711f	-0.052598115
181	0x3d2c1040	0.042007685
182	0x3d4e55e4	0.05037488
183	0xbdd7d7a2	-0.105391756
184	0xbe125c51	-0.14293028
185	0xbd6bed26	-0.05759921
186	0xbe03e54e	-0.12880442
187	0x3cf9bdd8	0.030486032
188	0xbc70b869	-0.014692404
189	0x3d4a48d4	0.04938586
190	0xbd96e6e8	-0.073682606
191	0x3cae6e5b	0.021292856
192	0xbc9cf2a6	-0.019158673
193	0xbf6b6202	-0.91946423
194	0xbcb245e4	-0.021761842
195	0xbda53c22	-0.0806811
196	0xbdb67feb	-0.08911117
197	0x3c8e888e	0.017399099
198	0xbd1acbe2	-0.037792094
199	0xbd04b390	-0.032397807
200	0xbdb12c3a	-0.08651014
201	0xbe597fc9	-0.21240152
202	0xbe3c3e9a	-0.18383256
203	0xbe49e582	-0.19716457
204	0x3d53f540	0.05174756
205	0xbbed1fdc	-0.007236464
206	0xbcc30b2e	-0.023809042
207	0x3d53ac0a	0.05167774
208	0xbe73dfda	-0.23815861
209	0x3cd263d1	0.025682362
210	0xbd8feee0	-0.07027984
211	0x3d0d063a	0.034429766
212	0x3cf291a0	0.029610455
213	0xbde6ab76	-0.11263172
214	0xbbe439c3	-0.0069648935
215	0xbdb0b2a9	-0.08627827
216	0xbd269377	-0.040667977
217	0xbde08970	-0.10963714
218	0x3cc625e1	0.024187984
219	0xbd8e71f5	-0.06955329
220	0xbd025c90	-0.031826556
221	0x3b431700	0.0029768348
222	0xbe24d318	-0.16096151
223	0xbddec48d	-0.10877333
224	0xbdc410f8	-0.09573549
225	0x3d465e86	0.04842999
226	0x3bd0add4	0.006368378
227	0x3ce6fcf7	0.028196795
228	0xbe1a52e8	-0.15070689
229	0xbc85c5ce	-0.016329672
230	0xbca785ec	-0.020449601
231	0x3d129166	0.035783194
232	0xbd8cde49	-0.06878335
233	0xbd7d5410	-0.061847746
234	0x3c2f15da	0.010686362
235	0xbd9e2bfc	-0.07723233
236	0xbdc6199a	-0.09672852
237	0xbd84c6da	-0.064832404
238	0xbdfd3975	-0.12364475
239	0xbe352547	-0.17690001
240	0xbcdc7260	-0.026910007
241	0xbe01fb0b	-0.12693422
242	0x3c86a7db	0.016437462
243	0xbdb5fbad	-0.08885894
244	0xbd86ac4d	-0.065758325
245	0xbc33c563	-0.010972354
246	0xbe1439f4	-0.14475232
247	0xbdd7c51e	-0.10535644
248	0x3d48270e	0.04886537
249	0xbd80ed5a	-0.06295271
250	0xbe6e1511	-0.23250224
251	0x3d05a470	0.032627523
252	0x3d5eb033	0.054367255
253	0xbcb053d9	-0.021524357
254	0xbd0a30ad	-0.033737827
255	0xbda51da0	-0.08062291

out_n.0.bias f4 [130]
0	0xbe62046b	-0.22071998
1	0x3d822808	0.063552916
2	0x3d860349	0.06543595
3	0xbd8dc75e	-0.06922792
4	0x3dec1784	0.11527923
5	0xba9e1f38	-0.0012063747
6	0xbbff5b24	-0.007792847
7	0x3d72756f	0.059194025
8	0x3c1158ab	0.008871238
9	0x3d572e7a	0.052534558
10	0xbd3747c1	-0.044746164
11	0x3abe3e4a	0.0014514413
12	0xbcfc3bb0	-0.03079018
13	0x3bd873f5	0.00660562
14	0x3d0903ee	0.033451013
15	0xbc391dd0	-0.011298612
16	0x3d088925	0.033333916
17	0xb9fa3334	-0.00047721865
18	0x3d976d99	0.07393951
19	0xbd38226e	-0.04495471
20	0x3c4ca83c	0.012491282
21	0xbd859f85	-0.065245666
22	0xbd4838c8	-0.048882276
23	0x3d1eed9b	0.038800817
24	0xbcba1633	-0.022715664
25	0x3d6af3e5	0.057361502
26	0xbd968733	-0.07350006
27	0x3c2716cb	0.010198305
28	0xbce9af44	-0.028525956
29	0xbc97c250	-0.018525273
30	0xbcd6be27	-0.026213719
31	0xbd3ca762	-0.046058066
32	0x3d9368e3	0.0719774
33	0x3c71c7f8	0.014757149
34	0xbd238e09	-0.039930377
35	0xbcf71f6c	-0.03016635
36	0xbd36dac7	-0.044642236
37	0xbd341bab	-0.0439717
38	0x3d8a115c	0.06741592
39	0xbd7e60c2	-0.062103994
40	0x3cc5d06e	0.024147239
41	0xbc19207e	-0.009346126
42	0x3ba9dfe9	0.005184163
43	0x3c5e594e	0.013571097
44	0x3ce0dcac	0.027448975
45	0x3d7ab4f1	0.061207715
46	0xbc8b5a91	-0.017010959
47	0xbc2c0491	-0.010499136
48	0xbc029258	-0.007969461
49	0x3d72846b	0.059208315
50	0xbbf69ec0	-0.0075262487
51	0x3d14b564	0.0363058
52	0x3c6ceb8e	0.0144604575
53	0x3d00d48f	0.03145271
54	0x3cf82944	0.030293114
55	0xbce8bd38	-0.028410539
56	0xbd02fb52	-0.03197796
57	0x3c2fcfbf	0.010730683
58	0x3ccccc42	0.024999741
59	0xbc30571d	-0.010762957
60	0x3d56745c	0.052357063
61	0xbcc71f1a	-0.024306823
62	0xbcc97dac	-0.024596058
63	0xbd2d97a4	-0.042380944
64	0x3d0475af	0.032338794
65	0x3d274368	0.040835768
66	0x3d0da93e	0.03458523
67	0x3d6158a4	0.055016175
68	0xbd870eec	-0.06594643
69	0x3d1a686e	0.03769725
70	0x3cf099dd	0.029370243
71	0x3c8324b4	0.016008712
72	0xbc59411a	-0.01326015
73	0x3d24d944	0.040246263
74	0x3bae177c	0.005312858
75	0xbcbfb433	-0.023401355
76	0xbcc17d79	-0.0236194
77	0xbcea2265	-0.028580854
78	0xbd730c6f	-0.05933803
79	0x3d868285	0.065678634
80	0xbd6027d8	-0.054725498
81	0xbc0664ab	-0.008202712
82	0xbd01bb57	-0.0316728
83	0x3bf1b249	0.0073759896
84	0x3c872aa7	0.01649983
85	0xbda53faf	-0.08068787
86	0x3d436b2a	0.04770962
87	0x3bd1dfbd	0.0064048455
88	0xbd737318	-0.059435934
89	0x3d9cc019	0.07653827
90	0xbdde561b	-0.10856267
91	0x3c8f7372	0.017511103
92	0xbda02303	-0.07819178
93	0x3c478229	0.012177029
94	0x3d6d73b8	0.057971686
95	0xbcb862d4	-0.022508062
96	0x3d870863	0.065933965
97	0xbdcde45a	-0.1005332
98	0x3beab247	0.0071623656
99	0x3de66421	0.11249567
100	0xbc9aefb0	-0.01891312
101	0x3ddea88e	0.10871993
102	0xbc6573e9	-0.014004686
103	0x3d4d0a47	0.05005863
104	0xbc91054b	-0.01770272
105	0xbdd1e92f	-0.10249554
106	0x3d6a8285	0.05725338
107	0xbe058817	-0.13040195
108	0x3d6e7dbf	0.05822539
109	0xbda6f393	-0.08151927
110	0x3da7224d	0.08160839
111	0x3d0a00be	0.033692114
112	0xbcff6a26	-0.031178545
113	0x3d800cba	0.062524274
114	0xbdc7397d	-0.09727762
115	0x3b73cc32	0.0037200567
116	0xbd2c1490	-0.042011797
117	0x3ca30a75	0.019902447
118	0x3ddfef41	0.10934306
119	0xbdc956c7	-0.098310046
120	0x3d78efed	0.060775686
121	0xbc0be363	-0.0085381
122	0x3dc05152	0.093905106
123	0x3d585870	0.052818716
124	0xbdc669f1	-0.096881755
125	0x3c8d738f	0.017267017
126	0xbdc0eb8f	-0.09419929
127	0x3d599dbb	0.05312894
128	0x3d481e22	0.048856862
129	0xbd44e1fe	-0.048067085

out_d.0.weight f4 [130, 256]
0	0xbd17d59b	-0.037068944
1	0xbd8d4a6d	-0.06898961
2	0xbc414ddd	-0.011798349
3	0xbc886c03	-0.016653067
4	0xbd70b37f	-0.05876493
5	0xbd00755c	-0.031361923
6	0xbd85d72d	-0.06535182
7	0x3d6cab20	0.057780385
8	0x3db0eb75	0.0863866
9	0x3d168876	0.036751233
10	0xbd1a827b	-0.037722092
11	0xbac983fd	-0.0015374419
12	0x3a2f92e9	0.00066976115
13	0xb9c69eab	-0.0003788372
14	0xbc6d294f	-0.014475181
15	0xbc452bc5	-0.012034361
16	0xbd83dd9a	-0.064387515
17	0xbc3b1548	-0.011418648
18	0x3cf0e1e4	0.029404588
19	0xbdbeae57	-0.093105964
20	0x3d1a9a49	0.037744794
21	0xbbaf2363	-0.0053447946
22	0xbd9c94bb	-0.076455556
23	0xbd294b67	-0.041331675
24	0xbd285ebf	-0.041105982
25	0xbdc461f6	-0.09588997
26	0xbbbb9698	-0.0057247393
27	0xba9d6540	-0.0012008324
28	0x3cdb76f6	0.026790123
29	0xbca52022	-0.020156924
30	0x3d28671f	0.04111397
31	0xbd9bf459	-0.07614965
32	0x3ba5f7a7	0.005064923
33	0xbdc59a04	-0.09648517
34	0xbc647a6e	-0.013945205
35	0x3cd61842	0.026134614
36	0xbd4b8651	-0.04968864
37	0xbd498af7	-0.049204793
38	0xbc33b194	-0.010967631
39	0xbd30e249	-0.043184552
40	0xbd245baf	-0.0401265
41	0x3be0840d	0.006851679
42	0xbd5958d2	-0.05306322
43	0x3d40322d	0.04692285
44	0xbd46320e	-0.04838758
45	0xbcab547d	-0.02091431
46	0xbba85e77	-0.005138214
47	0xbc58fd70	-0.013244018
48	0xbb3103c0	-0.0027010292
49	0xbdcb03bd	-0.099128224
50	0xbd6914a7	-0.05690446
51	0xbda5cf4a	-0.08096178
52	0x3ce7ec73	0.02831099
53	0x3c04b49a	0.008099699
54	0x3d561a7f	0.052271362
55	0xbd2f524e	-0.0428031
56	0x3c994b5c	0.018712692
57	0x3bf56b10	0.0074895695
58	0xbc212f9a	-0.009838009
59	0x3cd474f7	0.02593468
60	0x3b9ed710	0.004847415
61	0xbcc6ac3e	-0.024252053
62	0xbd13a806	-0.03604891
63	0xbca962f2	-0.020677064
64	0x3ac18d2e	0.0014766806
65	0x3d85bacb	0.065297686
66	0xbd422cee	-0.04740613
67	0xbc7eb1f4	-0.015545357
68	0x3d047cd0	0.032345593
69	0xbc0cebec	-0.00860117
70	0xbdc4f37e	-0.09616755
71	0xbd2db8a4	-0.042412415
72	0x3c90a5ab	0.017657122
73	0xbd80764a	-0.06272562
74	0xbc90e914	-0.017689265
75	0xbd4d6628	-0.050146252
76	0xbd6afa2e	-0.057367496
77	0xbc81e2b1	-0.015855165
78	0xbd40c500	-0.047062874
79	0xbd7657a8	-0.06014219
80	0x3c43ba5f	0.01194629
81	0x3d6e0060	0.058105826
82	0x3b90fcb1	0.0044246544
83	0xbd1addea	-0.03780929
84	0xbd4e92ce	-0.050432973
85	0x3c153a81	0.009108187
86	0x3b6ed6e0	0.0036443993
87	0x3cb27e08	0.021788612
88	0x3d85c881	0.06532384
89	0xbd83dde1	-0.064388044
90	0x3c0087d8	0.007844888
91	0x3a3e595c	0.00072612404
92	0x3d13e404	0.036106125
93	0xbc93459b	-0.017977526
94	0x3afc3e80	0.0019244701
95	0x3d6b2c76	0.057415448
96	0xba0dfc58	-0.00054163253
97	0xbd8efe86	-0.0698214
98	0x3aa43769	0.001252872
99	0xbd6ec1b6	-0.058290206
100	0xbc563420	-0.013073951
101	0x3b2ba69d	0.0026191839
102	0xbc5366ba	-0.01290291
103	0xbbf3b956	-0.0074378652
104	0xbd0309bf	-0.031991716
105	0x3b6108a0	0.0034337416
106	0x3c97cfdd	0.018531734
107	0x3bd563db	0.006512148
108	0xbd0ca7ea	-0.034339823
109	0x3b6da980	0.003626436
110	0xbca92df5	-0.020651797
111	0xbcd07469	-0.025446134
112	0xbb253d3f	-0.0025213507
113	0xbd1f5606	-0.038900398
114	0x3d71cdb2	0.059034057
115	0xbd3621ca	-0.044465818
116	0x3b301471	0.0026867653
117	0x39a1e546	0.00030879135
118	0x3c789971	0.015173302
119	0xbcf24b82	-0.02957702
120	0x3da34039	0.07971234
121	0xbcb089df	-0.021550117
122	0xbd2dc578	-0.04242465
123	0xbc075115	-0.008259078
124	0xbc11fec0	-0.008910835
125	0x3bb61117	0.0055562365
126	0xbc7122fd	-0.0147178145
127	0xbd17b9cb	-0.03704242
128	0xbd738faa	-0.05946318
129	0xbd84bf97	-0.06481855
130	0xbc0a2a6e	-0.008432968
131	0x3cd342a4	0.025788613
132	0x3d002b14	0.031291083
133	0xbdd1c711	-0.10243047
134	0x3c786a18	0.0151620135
135	0x3d2c4b7b	0.04206417
136	0xbd870451	-0.0659262
137	0x3cb6b072	0.022300933
138	0x3cfac4d2	0.03061143
139	0xbd01cc7f	-0.031689163
140	0x3d65d41a	0.05611048
141	0x3d8176dd	0.063214995
142	0xbd3e0251	-0.046388928
143	0xbd046707	-0.032324817
144	0xbcbcef8b	-0.023063442
145	0xbba991f0	-0.005174868
146	0xbd8f7a7e	-0.070057854
147	0xbc9d226e	-0.019181456
148	0x3d41bdd9	0.047300193
149	0xbca62f49	-0.02028622
150	0xbd75fe5e	-0.060057037
151	0xbd095bee	-0.033534937
152	0x3c0bb6fb	0.008527513
153	0xbdc0a0aa	-0.09405644
154	0xbca57fec	-0.0202026
155	0x3d4647d6	0.04840835
156	0xbd6e15dc	-0.058126315
157	0x3a987147	0.0011630439
158	0xbd4089f0	-0.047006547
159	0xbd794bba	-0.060863234
160	0xbca5eda6	-0.020254921
161	0x3ce56586	0.028002512
162	0xbd2c4d92	-0.042066164
163	0xbd50779a	-0.05089531
164	0xbc6486f6	-0.013948193
165	0xbbca4000	-0.00617218
166	0x3b2e3c12	0.0026586098
167	0xbdc134c6	-0.09433894
168	0xbc920d0f	-0.017828492
169	0xbd748e18	-0.059705824
170	0x3cbee105	0.023300657
171	0x3cf76979	0.03020166
172	0x3d037d79	0.032102082
173	0xbcb1e622	-0.021716181
174	0x3d2bf5c2	0.04198242
175	0xbd66eb13	-0.056376528
176	0xbd7b4c4a	-0.06135205
177	0x3c33a46c	0.010964494
178	0x3d1b8934	0.037972644
179	0xbd8dcba7	-0.06923609
180	0xbc0b3830	-0.008497283
181	0xbd64f896	-0.055901133
182	0xbd454564	-0.04816188
183	0xbd833cdc	-0.064080924
184	0xbd767b79	-0.060176346
185	0x3d270c2a	0.040783085
186	0xbc39d285	-0.011341696
187	0x3aa46ac0	0.0012544021
188	0xbbeee457	-0.007290404
189	0xbd2408b0	-0.040047348
190	0xbc7e7fd6	-0.015533408
191	0x3c41ed5e	0.011836378
192	0x3c445b0c	0.011984598
193	0x3e05fbe7	0.13084374
194	0x3d358c51	0.04432327
195	0xbbc9daba	-0.0061601074
196	0x3ca313ce	0.019906905
197	0xbd1e971c	-0.038718328
198	0xbc1e626e	-0.009667022
199	0x3c6856a8	0.014180817
200	0xbd576d52	-0.05259449
201	0xbdb36d30	-0.0876106
202	0xbd2ce5c1	-0.042211298
203	0xbb2634f8	-0.0025361162
204	0x3d0a1e7c	0.03372048
205	0x3bfb7f0a	0.0076750563
206	0xbd081c64	-0.0332302
207	0x3cd6f200	0.026238441
208	0xbd8237c8	-0.06358296
209	0x3d72683e	0.059181444
210	0xbd3027cb	-0.0430067
211	0xbc0871b3	-0.008327889
212	0x3d539ad2	0.05166132
213	0x3d7136d9	0.058890197
214	0x3d3dd908	0.046349555
215	0xbb66cad7	-0.0035216117
216	0xbb743a29	-0.0037266111
217	0x3c20bd8c	0.0098108165
218	0xbd3016c5	-0.042990465
219	0xbc8a0144	-0.016846307
220	0x3cebfbb8	0.028806552
221	0x3d2bda38	0.041956156
222	0x3cbd78af	0.023128835
223	0x3d9c08a1	0.07618833
224	0xbdb56624	-0.088573724
225	0x3d47cdd0	0.048780262
226	0xbd5d13d0	-0.053973973
227	0xbcfeedfa	-0.031119335
228	0x3d63b11f	0.055588838
229	0xbcb19dc7	-0.02168168
230	0x3ce78b34	0.02826462
231	0x3cc19954	0.023632683
232	0x3c997274	0.018731333
233	0xbcadb45b	-0.021204164
234	0x3c13b119	0.009014391
235	0xbd194363	-0.03741778
236	0xbcb9c67c	-0.022677653
237	0xbc9c1b09	-0.01905586
238	0x3d0cad73	0.0343451
239	0xbd245892	-0.04012353
240	0x3cedb4f8	0.029016957
241	0x3d9a3b8e	0.075308904
242	0xbdbbc505	-0.09168438
243	0xbdbba065	-0.09161452
244	0xbcc9ec99	-0.024648951
245	0xbc71039b	-0.014710332
246	0xbb33152e	-0.0027325856
247	0x3d63d854	0.05562623
248	0x3d3bf5d8	0.04588875
249	0xbd151610	-0.036397994
250	0x3bbaa605	0.0056960606
251	0x3c5473e0	0.01296708
252	0xbd0152c8	-0.031573087
253	0x3d6988e7	0.057015326
254	0xbc171612	-0.009221571
255	0x3c5f0edd	0.0136143835

out_d.0.bias f4 [130]
0	0xbdbb9dbd	-0.091609456
1	0xbd698596	-0.057012163
2	0xbdca2ff3	-0.09872427
3	0xbd8979a6	-0.06712656
4	0x3d95f893	0.073228024
5	0xbc5b9f7a	-0.013404721
6	0xbc9480fe	-0.018127915
7	0xbca7be53	-0.020476496
8	0x3d57ceb8	0.052687377
9	0x3b58aa27	0.0033060403
10	0x3d6a9dfb	0.05727957
11	0xbcc0d965	-0.023541162
12	0x3cacff1e	0.021117743
13	0x3d511099	0.05104122
14	0x3d66b9ed	0.056329656
15	0xbd0ae2dc	-0.033907756
16	0xbcd7e64d	-0.026354933
17	0xbcfb9255	-0.030709425
18	0x3d381f83	0.044951927
19	0xbd6c5a3b	-0.057703238
20	0x3d280e71	0.041029397
21	0xbc477a57	-0.012175164
22	0x3c826765	0.015918443
23	0x3c85dbc4	0.016340144
24	0xbcb6fd3d	-0.02233755
25	0x3d091cd3	0.033474755
26	0x3cf436c2	0.029811267
27	0xbc8b49af	-0.017002909
28	0x3d22aaf7	0.039713826
29	0xbd11d787	-0.035605934
30	0xbd46e1f7	-0.04855534
31	0xbd2e720f	-0.042589244
32	0xbc65a5ad	-0.014016551
33	0xbc72c7dd	-0.014818159
34	0xbc6e6052	-0.014549332
35	0xbd34062c	-0.0439512
36	0xbd09d3ea	-0.033649363
37	0xbcc23fe9	-0.023712115
38	0xbcd21ac7	-0.025647534
39	0xbce2aefe	-0.027671333
40	0x3d64b76b	0.055838984
41	0xbcc6a2d4	-0.024247564
42	0xbd080af3	-0.033213567
43	0xbc8e4f7b	-0.017371884
44	0x3cebe0e6	0.028793763
45	0x3cfec160	0.031098068
46	0xbcb681e9	-0.022278743
47	0x3ae10c7a	0.0017169856
48	0x3c9ad060	0.018898189
49	0x3c2cac61	0.010539145
50	0x3c10fea4	0.008849774
51	0x3d6a408e	0.05719047
52	0x3cbd7fb6	0.023132186
53	0xbc01c59b	-0.007920648
54	0x3d321c8f	0.043484267
55	0x3d533bfe	0.051570885
56	0x3d49358b	0.04912333
57	0x3cec2e66	0.028830718
58	0x3c160054	0.009155352
59	0x3d7c077b	0.06153057
60	0xbc67c6ba	-0.014146501
61	0xbc9a4946	-0.018833768
62	0x3ca9f06a	0.020744521
63	0xbd2d709d	-0.042343725
64	0x3d3873e5	0.0450324
65	0xbb4e2f4b	-0.0031461294
66	0x3d24d2cc	0.040240094
67	0x3cdc5de6	0.026900243
68	0xbd04b7f2	-0.032401986
69	0xbd0e0ad3	-0.03467829
70	0x3d13c040	0.036072016
71	0x3c9bb8c3	0.019009
72	0x3d0fd71e	0.03511726
73	0x3d1af96b	0.03783552
74	0xbd343f9f	-0.044005986
75	0x3d164a63	0.036692034
76	0xbd930b93	-0.07179942
77	0x3bdbf66a	0.0067127245
78	0x3d16042d	0.036625076
79	0xbce4bc06	-0.027921688
80	0xbd24cb7e	-0.040233128
81	0x3d01801f	0.031616326
82	0x3d80db3e	0.06291817
83	0x3d6ce579	0.05783603
84	0x3d073730	0.033011615
85	0xbbbd6b15	-0.0057805874
86	0x3c5fd1a8	0.013660826
87	0xbc408d9e	-0.011752514
88	0x3b70ebcd	0.0036761642
89	0x3c2d07c8	0.010560937
90	0xbcb54b8a	-0.022130746
91	0x3afd08d5	0.0019305
92	0x3ceace3f	0.028662799
93	0x3cb36c38	0.021902189
94	0x3c8dedd5	0.017325321
95	0xbc8db978	-0.017300352
96	0xbd0f6f79	-0.035018418
97	0xbd1c0d72	-0.03809876
98	0x3b0f87a9	0.0021900928
99	0xbcea4e47	-0.028601779
100	0xbd35880b	-0.044319194
101	0xbd3abab9	-0.04558823
102	0xbc797f18	-0.015228055
103	0x3c87676b	0.016528806
104	0x3d7b90b8	0.06141731
105	0x3cf76ebf	0.030204175
106	0xbbfb4dfb	-0.007669208
107	0x3c8b71b2	0.017021988
108	0xbd3182d0	-0.043337643
109	0x3c69d3e4	0.01427171
110	0xbc8d1842	-0.017223481
111	0xbc974f65	-0.018470475
112	0xbb1bbeba	-0.0023764805
113	0x3cf79d2c	0.030226313
114	0xbd500162	-0.05078257
115	0x3ba824ce	0.0051313406
116	0xbc85151c	-0.016245417
117	0xbcbb5b3b	-0.02287065
118	0xbc9da8c6	-0.019245517
119	0x3d996e46	0.07491736
120	0x3b619e24	0.0034426535
121	0xbcca635b	-0.02470558
122	0x3d963b84	0.073355705
123	0xbd052b51	-0.032512013
124	0x3d1ee6ca	0.038794316
125	0xbd89c7bd	-0.0672755
126	0xbcc89480	-0.024484873
127	0xbd3eeadc	-0.046610698
128	0xbd23a7fe	-0.03995513
129	0xbd259d0f	-0.040432986
