ch3_figures_output_tuned/model_50L_none.pth (torch, 422127 bytes, 8 tensors)

backbone.0.weight f4 [256, 50]
00000000: fcee 08be f4b3 debd fbd1 7cbd bfc1 30bb
00000010: 9e01 993c 8e15 873d 59ae 2bbd 6e9e 21bd
00000020: 23f2 2f3c a206 0c3e d025 ccbd 1eba 0d3e
00000030: 376f b0bd d020 9ebd dd42 31bc 8a0f d93d
00000040: 008e f2bd 4659 1fbc 9b7d 003e 1070 b5bd
00000050: 977f adbd e13d a43c 2d41 c33d 7ecd 7abd
00000060: 1e5f eabd 31c9 35bd 4fbd d03d ec6a aebd
00000070: 5551 a6bd c96d a63d 49e4 e0bc 415a 95bd
00000080: 1bd7 73bd 173c 92bd bc18 e83c 991a b5bd
00000090: 7d9a 613d 3189 d33d b1ac 7d3a e4da 9cbd
000000a0: 1adf fa3d 6d6b a5bd 860f 2cbc 5303 edbd
000000b0: d1c9 57bd 7a6d 04bd a4e0 4abc e118 713d
000000c0: 2d88 71bc 23d7 21bd aafc f8bd 0c55 f13d
000000d0: 169b 6c3d 9f8b 9b3d 410d fcbd 1021 bc3c
000000e0: 22de 243c d8fa 9abc fbf8 cbbd 1d7c dd3c
000000f0: 0a88 023e 4fe3 febc aaab 15bd 6c14 0abe
00000100: 64c1 d7bd 68cd 8dbd c14a c83d dc4b 17bd
00000110: 2bca fdbd fbff 243d 0e24 9ebd 877f 2bbd
00000120: ff55 eebd d935 bfbc 7496 0d3d 7fc0 6e3d
00000130: ffb6 03be 90ef 89bd a543 903d 2550 18bd
00000140: f1dd 023c a384 81bd de6f eb3c aec4 433c
00000150: 2bf9 e2bb 480e adbd b785 84bd 9610 6dbd
00000160: 4496 ccbd 24ee 1c3e d79e ab3b 210d f03d
00000170: ed5b 063e 20ad dfbd c7eb b1bd a8fe 213d
00000180: df52 c838 7985 03be 8caa 203d 52a5 a5bd
00000190: d178 8c3c 6935 01be 2490 0b3d 0b81 7ebd
000001a0: 0b63 e8bd e45e 5fbd e0e7 87bc 9af6 4bbd
000001b0: 5d23 dfbd 4cd1 6fbd 0d05 d3bd 7917 f0bd
000001c0: 7f9d da3d b43d 9fbd b42c e6bd 8e44 5abd
000001d0: 88dc acbd e750 c9bd 7ca1 99bd 85f2 9fbc
000001e0: b77f 49bd edc3 8b3d f840 68bd aa24 d83d
000001f0: 329a 52bd 820d 6e3d 8770 f4bd 64af f03d
00000200: aa08 afbd 6d46 87bc 4f25 9c3d e32d d9bd
00000210: 62b0 9bbd 5005 edbd 522f 9ebd e2e3 ab3c
00000220: f2a3 e3bc 649d 9f3d 9174 f53d 936b dcbd
00000230: a015 7c3d a1a9 ec3d 61b1 99bd eb3f 06be
00000240: 9e1a bf3c baea 6abd 22b3 e63d a65a e5bd
00000250: dea0 ee3c 3a1c 2abd f975 f63c 51b2 943d
00000260: e652 2f3b 3321 2cbc 8d06 e2bb a23c c6bd
00000270: 5151 053e 5bec 05bd 03ec bb3d 6153 083e
00000280: 4b8a 97bd 8c2f 95bd a0cb f53d d659 043d
00000290: f4c9 f73d 2692 033e e807 dfbb 6305 e93d
000002a0: f501 48bc 7c67 8dbd d043 1fbd b2fa 8cbc
000002b0: e66d dc3d b21a 8bbd 9794 fa3d 1539 9f3d
000002c0: 55da 87bd 3dd2 51bc c1ac 81bd 681c 023b
000002d0: a0fc 97bc f3a3 b1bd f46d dbbd a426 dd3d
000002e0: 19fc 32bc d613 613d 443c 0fbe 6033 dfbd
000002f0: c26b 9c3d 2033 613d 9f33 0d3e dd03 6fbd
00000300: d811 a6bc 5d32 16bd 8dda a03d 6329 b33d
00000310: edbb abbd c4b7 5239 2afa 00be 0a48 5f3d
00000320: b6f7 69bd 987a 8fbd 5d89 033e 3063 06bd
00000330: e914 c6bd ef12 2ebd 33fd c23d 4269 66bd
00000340: a7a8 5bbd f1e7 09be ea0a 90bd 6970 efbd
00000350: d3c1 f1bd e1cc d3bc ed51 2f3d 36c2 28bd
00000360: c384 eabd 0676 85bc 2f7b 92bc 2487 32bb
00000370: 7a76 423d 3be3 0e3e 7753 cdbd 1720 683d
00000380: 0822 d4bd 4182 e6bd a088 ff3d ad71 d0bd
00000390: 3625 0dbd 8b2a 003e 25ee 013e c625 b4bd
000003a0: b180 a5bd 755e c93c f04b f63d 6fc9 a83d
000003b0: 40e1 e1bc 1e8c 35bd db5f cfbd 7236 b03c
000003c0: 60c2 6dbd 1c8c 9b3d aff0 88bd 1e6b afbc
000003d0: 69d4 f63d c551 a0bd 67ba 4e3d 31b1 57bd
000003e0: 41ab 4a3b c91c 0fbe e083 bebc 5826 0ebe
000003f0: 8115 173d 8b6a fb3d 4d9a febd db12 d53d
-0.13372415 -0.10874167 -0.06172369 -0.002697095 0.018677529 0.06595908 -0.041914318 -0.03945773
0.010738882 0.13674405 -0.0996815 0.1384053 -0.086149625 -0.07721102 -0.010819164 0.10598667
-0.118434906 -0.009725874 0.12547915 -0.08859265 -0.084716015 0.020049037 0.09533916 -0.06123113
-0.114439234 -0.044381324 0.10192358 -0.085164875 -0.081209816 0.081264086 -0.027452605 -0.07292605
-0.059531312 -0.071403675 0.028332107 -0.08842964 0.055078972 0.103289016 0.0009676917 -0.076589376
0.122495845 -0.080771305 -0.010501748 -0.115729 -0.0526827 -0.032330967 -0.01238266 0.058861617
-0.0147419395 -0.03951181 -0.12157567 0.117837995 0.05776509 0.0759499 -0.123072155 0.022964984
0.010062726 -0.01891844 -0.09959599 0.02703672 0.12747207 -0.031114249 -0.036540665 -0.13484353
-0.10534933 -0.06923944 0.09779883 -0.03693758 -0.12392076 0.040283184 -0.07721721 -0.041869666
-0.11637496 -0.023341106 0.03456731 0.058289047 -0.12862776 -0.06735146 0.07044152 -0.037185807
0.007987485 -0.063241266 0.028739866 0.011948748 -0.006926676 -0.084499896 -0.064708166 -0.057877146
-0.099895984 0.15325218 0.005237441 0.11721254 0.13121004 -0.10921693 -0.08687549 0.0395495
9.552179e-05 -0.12843885 0.039225146 -0.08088173 0.017147454 -0.1261803 0.03407301 -0.062134784
-0.11347016 -0.054533854 -0.016590059 -0.049795724 -0.10895417 -0.05854921 -0.10303698 -0.11723227
0.10674571 -0.07775441 -0.11238995 -0.053288035 -0.084405005 -0.09829884 -0.07501504 -0.019524822
-0.049194064 0.06824479 -0.056702584 0.10553868 -0.051416583 0.05811835 -0.119355254 0.11752203
-0.085465744 -0.016513074 0.076243035 -0.10604455 -0.07602002 -0.11573279 -0.077238694 0.020982686
-0.027788136 0.07793692 0.11985124 -0.10762706 0.06154406 0.11555792 -0.075045355 -0.1311032
0.023328122 -0.05735276 0.112646356 -0.111989304 0.029129442 -0.041530825 0.03008555 0.07260574
0.0026752292 -0.010505962 -0.0068977536 -0.096795335 0.13019301 -0.03269611 0.09175875 0.13313057
-0.07399424 -0.072844595 0.12001729 0.032312237 0.120990664 0.1284872 -0.0068063624 0.113779806
-0.012207498 -0.06904504 -0.03888303 -0.017209385 0.10763149 -0.06792201 0.122353725 0.077745594
-0.066334404 -0.012806472 -0.06331778 0.0019853357 -0.018553078 -0.08673849 -0.10714331 0.10798386
-0.010924363 0.054950558 -0.13987833 -0.10898471 0.07637741 0.054980397 0.13789223 -0.058353294
-0.02027218 -0.036669124 0.07854185 0.08748128 -0.083854534 0.00020095619 -0.1259543 0.05451206
-0.057121 -0.07005805 0.12845369 -0.032809436 -0.09671957 -0.042498525 0.0952095 -0.056252725
-0.053627636 -0.13467385 -0.07033332 -0.116913624 -0.11804547 -0.02585453 0.04280274 -0.04120084
-0.114511035 -0.01629163 -0.017881004 -0.0027241195 0.04747627 0.13953869 -0.10025685 0.05667123
-0.103580534 -0.11255313 0.12477231 -0.10177932 -0.034459315 0.12516229 0.12688501 -0.08796267
-0.080811866 0.024581173 0.12026203 0.082415454 -0.027573228 -0.04432308 -0.10125705 0.021510337
-0.0580467 0.07595083 -0.06686532 -0.021413382 0.12052233 -0.07828096 0.050470736 -0.052659217
0.003092483 -0.13975824 -0.023256242 -0.13881814 0.036885742 0.12276181 -0.12431774 0.10403987

backbone.0.bias f4 [256]
00000000: 3cad b4bd f0cb 043e 6e87 07bd 495b 04bd
00000010: 0036 f4bc 24fa 15be 40e7 a2bc 7555 f0bd
00000020: d3a8 f5bc b7ff a53d 97cf 693d d0cf 19be
00000030: 251d 79bd 85b4 91bc 0457 ef3c fc92 4a3d
00000040: a078 e0bc f675 943d dfd8 80bd 07c7 dabd
00000050: b53f e53d 38f5 933d 0691 113d 1a0d 05be
00000060: d04c dcbd 3fe9 aa3d 341d 63bd c1eb a6b9
00000070: 865a 923d e476 74bd 0278 ccb9 3320 ea3c
00000080: 2e45 fdbd 65c6 703d 00c6 28bd 51b5 c8bd
00000090: b863 c23d 174d 03be 5e62 fa3d 7e8b 183d
000000a0: f9c6 9ebd 49a0 753d 9fcd b33d cf10 bd3c
000000b0: 858d c3bd f403 a83d 3739 103e e17a c33d
000000c0: 3f3c c33d 947f f9bd d315 873c 9114 073e
000000d0: 283d 173c bd85 8dbd decc c4bd 6166 87bc
000000e0: 8aac 14bd 90b2 52bd 1ad3 ffbc 98ab fe3d
000000f0: 509a 803d c9d0 d6bd 988f 7b3d 0bf4 e23c
00000100: 90b2 37bd c36b c33d e007 8bbd 7147 b33c
00000110: 13c4 e93c af83 3fbd a84e db3d d660 01be
00000120: b3f4 7ebd 410f d73d 8f85 cfbc 92e5 c73d
00000130: 6d08 0abe d218 8bbd 0dcd e9bd 230b f0bd
00000140: 6488 7f3c 9f5f c2bb 03dc c33d c67b 3fbd
00000150: b07e 83bd c5ae 97bc 22be 66bd 1a7d 88bc
00000160: 7961 a7bc 39c8 043d c5eb e5bd a948 47bd
00000170: 25a1 dd3d 689a e63b d581 ba3d 3d81 93bd
00000180: 8d3d 0dbe f457 c33d ecc7 26bd cc30 cf3c
00000190: 8360 833d d968 3fbd 9698 07be d765 ab3d
000001a0: 51c7 823c 7721 f6bc b892 53bd af36 00be
000001b0: 4028 04be e7eb 00be ec3a ddbc 462d 0bbd
000001c0: 5b9f 34be bae6 fdbd 0a3b 9bbd 9bcc d53d
000001d0: ee29 6c3d 4901 7dbd 1b44 93bd 6b36 693d
000001e0: b873 77bc 2c29 a03c 3131 d4bd d7e4 543d
000001f0: 0d44 92bd 4126 8d3d bf25 1bbd 9695 273a
00000200: c996 3d3d 4c9a 613d ac5c 3e3c c26f 65bc
00000210: 1d0e f4bd cfd6 b5bd faa9 fbbd e1c1 f83d
00000220: 4d0c 083e f483 54bd e422 0ebe d15a 073e
00000230: c2ab eb3d ca81 8d3b 726c b5bd f1b8 bcbd
00000240: 6eed 023e f988 28bd 183a 12bc 6417 0abe
00000250: e080 87bd ee5c 84bd dc1f 153d 59b3 1f3c
00000260: 2b03 68bd 2972 a7bc 42b8 d93d b7ac b53d
00000270: 08ed f4bd d282 12bd 07c3 d93a 82db 333d
00000280: f5c0 babd 5edf 04be b166 d93c 97c0 14bd
00000290: 2492 c73d 6f70 24bd d122 fabd 65c2 a23d
000002a0: 8d79 5d3c 2bef 09be a63e 93bc ed56 a93d
000002b0: f1e7 acbc 64f4 b63d 4494 f73d 1900 153d
000002c0: 21d8 d8bc 82d0 503c 8d9e 83bd 2d48 303d
000002d0: 876c 673d 3e34 0c3d 2f49 ce3d 2257 be3c
000002e0: 6505 e93d 8fd9 0d3d fe69 b53d 115b 833c
000002f0: 3892 123c 0aa4 a1bd a63d 90bc c9b1 bd3d
00000300: 3729 f73c d60c 09be 1314 8b3d 8864 6ebd
00000310: f068 9cbb 7bdc 3ebd 6067 693d 3ab6 9b3d
00000320: d318 de3d 9578 0d3e 0b95 a13c d6ac a13d
00000330: 9dac 493d 0d94 173d f900 30bd a711 343c
00000340: a222 0d3e 1362 1abd 33af b5bc 2157 423b
00000350: 2ab7 923d 568e 0ebe 106a 04bc 9285 0fbe
00000360: 72aa 39bc c103 f03d af27 a0bc 1f21 30bd
00000370: b449 e6bd 1155 a4bd 6c9c 99bd c51b f1bd
00000380: 1da0 dbbc 3f2b 85bc 758e b1bc d52a 68bb
00000390: c6d8 083e c5d9 9bbd 587e 2a3d 167a fcbd
000003a0: 773c f0bd 0da2 0f3c dd1d f2bd bd82 c0bd
000003b0: edcd 0d3e 25a3 febd 334c 1fbd 7158 513d
000003c0: 4714 c13d d987 d53c 1717 ac3c 9731 d43d
000003d0: 582d debb a10c 03be 6e14 eabd 5bc0 9ebd
000003e0: b66d c0bd 901f c63d 0c84 a7bd 99df cc3c
000003f0: 3e24 0d3e 112e 79bd 2d08 eabd 442e 07be
-0.08822104 0.12968421 -0.03308814 -0.03231362 -0.029810905 -0.14646202 -0.01988566 -0.1173505
-0.029987728 0.08105414 0.05708274 -0.1502068 -0.06081881 -0.017786274 0.029216297 0.04945658
-0.027401268 0.07249062 -0.06291365 -0.10682493 0.11193792 0.07224506 0.035538696 -0.12993279
-0.10756838 0.083452694 -0.055447772 -0.00031837638 0.07146172 -0.059683695 -0.00038999325 0.028579807
-0.123667106 0.058782954 -0.041204453 -0.09800208 0.09491676 -0.12822376 0.12225793 0.037242405
-0.07752795 0.059967313 0.087794535 0.023079304 -0.09548477 0.08203879 0.14084326 0.09544922
0.095329754 -0.12182537 0.016489899 0.13191439 0.009230889 -0.06910274 -0.09609388 -0.01652831
-0.03629736 -0.05143982 -0.03122859 0.12435073 0.06279433 -0.10489041 0.06141624 0.02770426
-0.044848025 0.09542038 -0.067886114 0.021884652 0.028535878 -0.046756443 0.10708362 -0.12634596
-0.062245082 0.10500956 -0.02533224 0.09760584 -0.13479777 -0.067918435 -0.114160635 -0.11720874
0.015596483 -0.005931809 0.09563448 -0.0467489 -0.06420648 -0.018515954 -0.05633367 -0.016661216
-0.02043222 0.03241751 -0.1122661 -0.04865328 0.108217515 0.0070374496 0.09106795 -0.072023846
-0.13793011 0.0953826 -0.040718004 0.025291823 0.064148925 -0.04673085 -0.132418 0.08369034
0.015964182 -0.030045254 -0.051653594 -0.1252086 -0.12905979 -0.1258999 -0.027005635 -0.033978723
-0.17638914 -0.12397523 -0.0757962 0.10439416 0.057657175 -0.061768804 -0.071907245 0.056936663
-0.015103273 0.019550882 -0.10360945 0.05197605 -0.07141886 0.06892062 -0.037877794 0.00063928345
0.046286378 0.05507879 0.011618774 -0.014003696 -0.119167544 -0.08878862 -0.1228828 0.121463545
0.13285942 -0.051883653 -0.13880497 0.13218237 0.115073696 0.0043184506 -0.08858575 -0.09214962
0.12785885 -0.041146252 -0.008924983 -0.13485485 -0.06616378 -0.064630374 0.036407337 0.00974735
-0.056643646 -0.020440178 0.106308475 0.08870833 -0.119592726 -0.03576929 0.0016613909 0.04391051
-0.09118835 -0.12975833 0.026538225 -0.03631648 0.09744671 -0.040146288 -0.12213672 0.07947234
0.0135177495 -0.13470142 -0.017974209 0.08268533 -0.021106692 0.089333326 0.12088826 0.036377046
-0.026470246 0.012745025 -0.064267255 0.043037582 0.056499984 0.03422951 0.100725524 0.023234908
0.11377982 0.03463131 0.08858107 0.016034635 0.008945994 -0.07892616 -0.017607521 0.092624255
0.03017102 -0.13383803 0.06790938 -0.058201343 -0.0047732517 -0.046596985 0.05698335 0.07603116
0.108445786 0.1381553 0.01972439 0.07894294 0.049236882 0.037006427 -0.042969678 0.010990537
0.13782743 -0.037691187 -0.022178268 0.0029653984 0.07163842 -0.13921484 -0.008081928 -0.14015797
-0.011332141 0.11719466 -0.019550173 -0.043000337 -0.112445265 -0.08024038 -0.07500538 -0.11772875
-0.026809746 -0.016255973 -0.021674374 -0.003542592 0.13363943 -0.076098956 0.041624397 -0.123279735
-0.11730283 0.008766663 -0.11822102 -0.09399936 0.13848086 -0.12433461 -0.03889103 0.051109735
0.09427696 0.026065754 0.021007104 0.10361021 -0.0067803077 -0.12797786 -0.11429678 -0.07751533
-0.09395926 0.09673989 -0.08179483 0.025008963 0.13783357 -0.060834948 -0.11427341 -0.13201243

backbone.2.weight f4 [256, 256]
00000000: 6a1b 7cbd 94e4 443d 3057 b43b c455 05bd
00000010: 9ac4 71bd b41d a93c 444e 613d 803d 3e3b
00000020: 60ad cf3b 18eb 4ebd 8cca 26bd f831 3e3d
00000030: 8afc 6bbd 8840 cfbc a05e febb 40df fc3c
00000040: 0059 72ba 5865 b33c ec3a b5bc 42b8 5f3d
00000050: 54f6 59bd 2251 143d d8d8 18bd 7245 0abd
00000060: 164b 1a3d 14fc e7bc f444 9cbc 54a9 59bd
00000070: ea08 563d 84d8 993c ea50 583d e86a 6a3d
00000080: 9845 7d3d fa4a 6fbd b8a3 d73c 5640 0cbd
00000090: 2c90 df3c b613 063d 54cb 8fbc 90d0 5cbc
000000a0: 80f2 f53c 586a bbbc 00f0 2bba 5427 bc3c
000000b0: a02e 883c 40d2 bc3c 90c7 84bb 6cd0 f2bc
000000c0: f0fd 183c c26d 5b3d 4899 4ebc 1c8d 5fbd
000000d0: f6cc 303d 00a9 d43b 28b7 8a3c ae9b 6abd
000000e0: 0cc2 7abd d4fb 95bc c063 68bd d853 043d
000000f0: 54fb c83c 4245 4cbd 8856 a6bc 249b 383d
00000100: cc5a 57bd 2236 5ebd c65e 5cbd 0080 61b9
00000110: 40f4 603c ee39 76bd 70e8 9e3c 80f3 483d
00000120: 769c 1bbd 182d 4dbd 3c29 14bd ec03 3fbd
00000130: 7685 383d 54f4 3dbd a878 9dbc 3010 ff3c
00000140: 00f5 b1bc d07a e6bc 78ef 463d 22bf 363d
00000150: 903c 753c 00c0 5db8 0603 33bd c043 d73a
00000160: 58a0 63bd 6829 483c 98f2 033c 5af0 3c3d
00000170: b622 49bd b849 a1bc faee 1c3d 5091 9fbb
00000180: f083 613c e6ee 2bbd f419 e2bc a0ae b2bb
00000190: 2e43 573d 266b 013d 5006 5ebc c86d 353c
000001a0: 1428 9cbc 92e2 2ebd 603b 64bc 2866 4e3c
000001b0: 482b 4c3d f41a 8abc 1812 7cbc 980a 363d
000001c0: 78ed 0b3d 6059 55bd 844e 8f3c d82f fcbc
000001d0: b869 05bc 0084 003c 0868 debc d6e6 2a3d
000001e0: 8695 083d dc54 643d 0afb 223d 3cbd d5bc
000001f0: 0a4f 183d 6620 6f3d 7ae2 593d 4c77 403d
00000200: ec26 30bd 6e03 5abd 1465 05bd 80c9 09bd
00000210: 00b1 98ba 7e60 4bbd 2892 43bc 10d1 adbb
00000220: aa0c 4f3d 54a2 9abc d04c e5bb 68a7 74bd
00000230: 8675 683d 200c a33c 9c8a 833c 5603 02bd
00000240: 0043 003c f294 4a3d 52c5 29bd 2ec6 123d
00000250: e223 02bd 66ac 7d3d a24d 2ebd ee87 533d
00000260: 40e0 3dbd 5eee 463d 14ec 50bd 980e 113d
00000270: 62cd 453d 4820 0b3d 80f8 21ba 6860 f8bc
00000280: 8496 043d a8df 563d 3828 99bc dc4b 15bd
00000290: f473 aebc 8845 0fbc 00f1 fd39 766a 073d
000002a0: 8af8 783d d8b4 9d3c 2ceb b2bc 600e 3fbc
000002b0: fc26 373d 02e3 41bd c4b4 0e3d 443c 4ebd
000002c0: 808c 2dba 2e25 5b3d e4fa 77bd 041a ea3c
000002d0: 703b 843b a46c 203d 7475 dc3c f06e 483c
000002e0: 205f 49bc 962e 23bd ec17 f23c 40c3 933a
000002f0: 8e89 2ebd acca 183d 907b 793c 5883 61bc
00000300: 58eb 73bd f026 95bb c031 a2bb c27a 123d
00000310: 9e30 223d 104d 173c 9023 fbbb f697 783d
00000320: c4ad f1bc 30a6 3ebc 6067 bd3c 8ce0 44bd
00000330: b096 493d d09a 0ebd 807a 18ba 7809 253c
00000340: 00aa 923a 3cfd a43c 4023 313c 9cd3 213d
00000350: 0267 61bd 3ce1 d83c 66f3 603d ecec 06bd
00000360: 8271 3e3d 40ea 5ebb ec81 4fbd da64 523d
00000370: 9c4b db3c 9030 8b3b 74c0 563d 4ab2 29bd
00000380: 0000 02b8 f870 0d3d f67e 60bd 5433 85bc
00000390: f446 bd3c 282c 943c 0838 873c 6413 4dbd
000003a0: 6c45 a23c b403 e7bc dc02 41bd 24c0 c7bc
000003b0: a42b fdbc e89d 29bc 1c6c ed3c b636 003d
000003c0: 22b4 703d 30e7 65bc 2024 fe3c b66a 4a3d
000003d0: 2475 4ebd 4029 f13a 161e 2c3d aa52 263d
000003e0: 52b7 52bd 8e63 48bd 103e 6cbd 24b8 cbbc
000003f0: 00d2 1bbd f466 1c3d ccee 023d 20a1 9abc
-0.06154958 0.04806955 0.0055035576 -0.032552496 -0.059025384 0.020644046 0.05500628 0.0029028356
0.0063378066 -0.05051717 -0.040720508 0.046434373 -0.057613887 -0.025299326 -0.007762745 0.030868173
-0.00092448294 0.02189891 -0.022122823 0.05461908 -0.053213432 0.036210187 -0.037316173 -0.033757634
0.037669264 -0.028318442 -0.019075848 -0.05314 0.052254595 0.01878 0.05281154 0.05723086
0.061833948 -0.058421113 0.026323184 -0.034241043 0.027290426 0.03273364 -0.01755301 -0.01347746
0.03002286 -0.022877857 -0.0006558895 0.022967972 0.016623795 0.023049474 -0.00405211 -0.029640399
0.009337887 0.05357147 -0.012609787 -0.05457793 0.043164216 0.006489873 0.016933039 -0.057277374
-0.061220214 -0.018308558 -0.056735754 0.032306522 0.024533905 -0.049870737 -0.020304933 0.04506983
-0.052576825 -0.054250844 -0.05380132 -0.00021505356 0.013730109 -0.06011384 0.019397944 0.049060345
-0.03799101 -0.050091833 -0.036172137 -0.0466346 0.045049153 -0.046375588 -0.019222572 0.031135648
-0.02172327 -0.028134733 0.04856822 0.044615872 0.0149680525 -5.286932e-05 -0.043704055 0.0016423389
-0.055572838 0.012216903 0.008053444 0.046127655 -0.04910537 -0.019688472 0.038313843 -0.0048696175
0.0137643665 -0.04197588 -0.027600266 -0.005452946 0.052554302 0.031596325 -0.01355131 0.011073537
-0.01906208 -0.042696543 -0.013930172 0.012597598 0.049845964 -0.016858555 -0.015385173 0.044443697
0.034162015 -0.052087188 0.017493494 -0.030784532 -0.008142881 0.007843971 -0.027149215 0.04172405
0.03334572 0.05574499 0.03979019 -0.02609121 0.037184753 0.058380507 0.0531945 0.04698877
-0.04300587 -0.053225927 -0.0325671 -0.03363943 -0.001164943 -0.04965257 -0.011936702 -0.005304463
0.050549187 -0.018876232 -0.006997682 -0.059729964 0.056752704 0.019903243 0.016057305 -0.031741463
0.007828474 0.04945845 -0.041447945 0.03583353 -0.0317725 0.06193199 -0.042554505 0.051643305
-0.04635644 0.04856717 -0.05100639 0.03541431 0.04829157 0.033966333 -0.0006178692 -0.030319408
0.032370105 0.05245939 -0.018695936 -0.0364493 -0.021295525 -0.008744605 0.0004843548 0.033060513
0.0607839 0.019251272 -0.021840654 -0.011661142 0.044714913 -0.047335632 0.03484036 -0.050350443
-0.00066203624 0.053502254 -0.060542002 0.028576858 0.004035406 0.039166108 0.026911475 0.012233481
-0.012290746 -0.03983935 0.029552422 0.0011273399 -0.04261165 0.037302658 0.0152272135 -0.013764225
-0.059550613 -0.004551761 -0.0049497783 0.035761602 0.039597146 0.009234682 -0.0076641515 0.060691796
-0.029501803 -0.011636302 0.023120582 -0.048065707 0.049215972 -0.03481561 -0.0005816594 0.010073058
0.001118958 0.020140283 0.010811627 0.039508447 -0.055029877 0.026474588 0.054919623 -0.03294079
0.04649497 -0.0034014136 -0.050661013 0.05136571 0.026769452 0.0042477325 0.05242963 -0.041429795
-3.0994415e-05 0.034531564 -0.05480858 -0.016259827 0.023105122 0.018087462 0.01650621 -0.05006732
0.019808494 -0.028200008 -0.047121868 -0.024383612 -0.030904599 -0.010352589 0.028982215 0.031302176
0.058765538 -0.01403217 0.031023085 0.049418174 -0.050404683 0.0018399134 0.04202088 0.04060618
-0.05144436 -0.048923068 -0.057676375 -0.024868079 -0.03804207 0.03818412 0.031966016 -0.018875659

backbone.2.bias f4 [256]
00000000: bc53 c03c 8baa 153d b841 833c 82cc 48bd
00000010: d106 84bd bfc6 fd3c 4dc7 63bb ae17 a1bc
00000020: fe2c 743d 8fc9 393c 80d1 293b 66d7 4f3d
00000030: 460d f6bb 98b2 953c 5f19 483d 351e dcbb
00000040: aa48 e43c 9228 2c3d 28fb 7bbc 0aeb 3e3d
00000050: 0a15 233d b9a4 a3bc cf40 293d e9d8 85bb
00000060: 6056 60bd 50e3 c0bc e062 11bb a3b8 e73c
00000070: c8a4 233d 0098 2d3a 0e46 343c d8d2 163c
00000080: 528c 2c3c 819b d73b 3fe0 40ba ba23 283d
00000090: ad9e 4fbd beae 843d af82 0e3d b023 dfbb
000000a0: 9148 4f3d 309d 163c 5f21 edbc 0070 fdb7
000000b0: 63eb b03d 60d3 c53c 4b53 873c d5a9 cb3c
000000c0: b8f9 ce3c b4e0 453d b389 c8bc 584f 85bd
000000d0: 587c 183c 7cd7 88bd e4f0 43bd d090 edbc
000000e0: 3b9d 03bc a2ae ac3c caee 7abd 1814 863d
000000f0: 9e4b 56bd 8548 b0bd c4e2 593d 80bc 9bba
00000100: a1f4 803d 3864 d03c 7e8c b33b 2332 9b3c
00000110: ad1c 863c 893d 1bbc c7c5 12bb 0d0e 5a3d
00000120: 60a3 573d b0f4 5b3d c54f 3d3d 488b 433c
00000130: 065d 423b 54f0 0d3c 58c6 ecbc 0340 2abd
00000140: 0092 39b9 ae5b c4bb 4535 a1bd 553a a93d
00000150: e4c2 20bd 58bb 5bbd 1cd3 21bd bfb7 503d
00000160: 2d06 1b3d 30ad 28ba 1d8e 703a a98b 403d
00000170: 8624 913c 9838 69bd ebd4 89bc 4886 f5bc
00000180: 56c2 37bd d83c 94bd 3d3a 643d 70e7 62bd
00000190: d83e 52bd ec67 29bd 827d cebc 069d 663c
000001a0: 87d0 2d3d 84e0 81bc 202d 163d 007d 73bd
000001b0: 3c03 1bbd a8d1 02bd fa8a 0a3c d8eb 43bc
000001c0: 06d9 56bd 9efd 6fbd 0330 4c3c 27e6 873c
000001d0: ea7c 12bd 6f5e f2bb a86e 893c 8026 08bb
000001e0: 98bd e3bc e655 f23c 8c50 983b 8448 85bd
000001f0: 4da8 4c3d 8be1 e03b 878a 533d 31e2 b83c
00000200: 12bb b2bc fecc 883c f48d 293c 2f6f 423b
00000210: 603d 7bbb fab9 8ebd b9a4 4dbd d1c2 37bc
00000220: af18 723b ca53 86bc 42ef 6d3d d1cb 603d
00000230: d834 14bb 282f 483c e8d8 b6bc f8a5 7fbc
00000240: 1841 023d 74e6 09bd 69eb aabc d7f9 76ba
00000250: cd99 d13c f034 41bd 1f95 963b 40bd 67bc
00000260: 2a20 2a3d b896 cbbc 8af3 e63c 7184 9d3c
00000270: df22 8e3c 2b76 5cbd 4112 193d 2edf 80bc
00000280: 4c09 bf3c 6968 2bbd 9edb 2b3d 3556 873c
00000290: 5514 853c f841 4bbc d9c0 37bd d6ff ebbc
000002a0: 586d a43c c33d c7bc 6083 d23c d831 9fbc
000002b0: 0ec6 61bd 3c0c ef3c f8d2 363c 328d e83d
000002c0: 77e4 66bc f67e 8f3b 4363 84bd 0039 183a
000002d0: 1887 8dbc a2f5 8fbc 2647 e0bb 4e90 0abd
000002e0: 0aa3 deba d895 fa3c f240 08bd fc13 7a3d
000002f0: 2871 e4bc da9b 08bd 26f5 7dbd 5c3f 253b
00000300: 0477 633d 0d4f 6dbc 773f 8cbd d92e 37bd
00000310: 9486 f8bc 24cf 46bd 0e52 56bc 44d5 6b3c
00000320: 400f 75bb d64a 6b3d 710e e2bb dc45 1e3d
00000330: b6d5 16bd 0702 803c c460 76bd 0ec8 76bd
00000340: 0113 f33c 652a 623c 8ee5 693d 9643 3d3d
00000350: c6b5 623d 540b d8bb 107c 813c a4f7 3ebd
00000360: c83b a6bc edf5 2f3d c613 cb39 1894 603c
00000370: 711a 093d c678 26bd d435 e03c 5289 4abd
00000380: 130c 66bd a8c0 213d fb2f 903d 6211 0c3c
00000390: 7883 f7bc 6c7e 1d3d c2d3 84bd 1748 f83c
000003a0: 46ea 4ebd 25f0 243d 20ff 41bd 472b 643d
000003b0: 4cef 19bd 9638 3d3d 753a 333d 9a96 abbc
000003c0: 2d81 d03c c6c5 53bd 4cc4 3a3d 9683 723d
000003d0: 2ce9 41bd 20b5 70bd afc2 83bd f354 97bc
000003e0: f855 24bd d3b3 bc3d adec abbd 4c63 713d
000003f0: 38c8 12bc ab40 34bd 152f a5bc 926e 333d
0.023477428 0.036539596 0.016022548 -0.04902316 -0.064466126 0.030978559 -0.0034756244 -0.019664612
0.05961322 0.011339559 0.0025912225 0.05074253 -0.0075089065 0.018273637 0.04885232 -0.006717468
0.02786668 0.04203088 -0.015379705 0.04661087 0.039814986 -0.019976007 0.041321572 -0.0040846956
-0.054769874 -0.023545891 -0.0022184178 0.028286284 0.03995207 0.0006622076 0.01100303 0.0092055425
0.010531502 0.006579817 -0.0007357634 0.041049697 -0.050688434 0.06478642 0.0347926 -0.006809674
0.050606314 0.00919275 -0.028946577 -3.0212104e-05 0.086386465 0.024148643 0.01651921 0.024861256
0.02526556 0.048309997 -0.024479723 -0.06509274 0.00930699 -0.066817254 -0.047837153 -0.028999716
-0.008033092 0.021079365 -0.061262883 0.06546801 -0.052318208 -0.08607582 0.053194776 -0.0011881739
0.06296659 0.025438413 0.0054793945 0.018944805 0.016371096 -0.00947512 -0.0022395717 0.053236056
0.05264604 0.05370015 0.046218652 0.011935063 0.0029657497 0.008663256 -0.028903171 -0.041564953
-0.00017697364 -0.0059923744 -0.078714885 0.08263079 -0.039248362 -0.05364546 -0.03950797 0.050956484
0.037847687 -0.00064344984 0.000917645 0.04700819 0.017717611 -0.056938738 -0.01682516 -0.029971257
-0.044863068 -0.072381675 0.055719603 -0.055396497 -0.051329464 -0.041358873 -0.025206331 0.014075523
0.042435195 -0.015854128 0.03666413 -0.05944538 -0.03784488 -0.031938225 0.008455986 -0.011958085
-0.052453063 -0.058591478 0.012462619 0.016589237 -0.03576366 -0.0073965113 0.016776398 -0.00207749
-0.027800366 0.029581975 0.004648274 -0.06507972 0.04996519 0.0068628243 0.05164578 0.022568794
-0.021817718 0.01669931 0.010348786 0.0029668321 -0.0038336143 -0.06969066 -0.05020592 -0.011215881
0.0036940982 -0.016397376 0.058089502 0.054881874 -0.0022614505 0.012218274 -0.022320226 -0.015603535
0.03180036 -0.033667043 -0.020864205 -0.00094213843 0.025586033 -0.047169626 0.0045954133 -0.014144242
0.04153458 -0.024852142 0.0281923 0.019228192 0.017350612 -0.05382363 0.037370924 -0.01573142
0.023319863 -0.04184762 0.04195749 0.016520599 0.016245047 -0.012405865 -0.04486165 -0.028808516
0.02007167 -0.024321442 0.02569741 -0.019432947 -0.05512052 0.029180638 0.011158697 0.11355056
-0.014092556 0.0043791486 -0.06464245 0.00058068335 -0.017276332 -0.017573182 -0.006844419 -0.033829026
-0.0016985845 0.03058903 -0.03326506 0.061054215 -0.027885988 -0.033351757 -0.06200137 0.0025214767
0.055533424 -0.014484179 -0.068480425 -0.04472241 -0.03033761 -0.04853739 -0.013081087 0.014394108
-0.0037393123 0.057444416 -0.006898694 0.03864084 -0.036824904 0.015625967 -0.060150877 -0.06024938
0.029672148 0.013804053 0.057103686 0.046207033 0.055349134 -0.0065931473 0.015806228 -0.046622887
-0.020292178 0.042959142 0.0003873391 0.013707183 0.033472482 -0.040642522 0.027369417 -0.049447365
-0.05616386 0.039490372 0.070404015 0.008549066 -0.030214056 0.038450643 -0.06485702 0.030307813
-0.05051639 0.040268082 -0.047362447 0.055705335 -0.037581727 0.046196543 0.04375692 -0.020945836
0.02545222 -0.051702283 0.04559736 0.05920752 -0.04734151 -0.058766484 -0.06433617 -0.018473124
-0.04012105 0.09213986 -0.08394752 0.058932588 -0.008958869 -0.044006985 -0.020164052 0.04380662

out_n.0.weight f4 [50, 256]
00000000: 9e78 3d3d ebbf 783d 14d3 703d ee4e c5bb
00000010: 55ce bdbd 1849 613d 78f0 423d d0de 2e3c
00000020: bcd1 eb3c 2620 01bd 7855 28bc d95f 04bd
00000030: 06ec 93bb 8202 343d 0d14 b9ba 0bbc 39bd
00000040: 5e66 fcbc 0014 13bc e0b7 503d d4ac e6bc
00000050: e8d4 363d 3f7b 0b3d 467c 303d 7187 79bd
00000060: 7c33 91bc 5852 8f3c 5dbf 4fbc 1b6e ee3b
00000070: 9356 063c c60f 033d f12a 8cbc 828c 0c3d
00000080: 652c cb3c 2b6f afbb c72e efbd 3283 063d
00000090: 1251 873d 84a4 8cbd 091d 43bd c8f8 0b3d
000000a0: 91ee 87bc b0da 463c 8902 35bd 20b2 b93b
000000b0: 872f c93b a0a9 643d ada2 e23c de51 89bb
000000c0: dafe 553d 0417 8ebc 0bd9 9dbc de34 383c
000000d0: 1488 6bbd 050e 8a3c 83d8 6ebc b0ef f6bb
000000e0: ed05 2dbd 3430 2bbd fc91 8fbc 5582 55bc
000000f0: c186 0dbd 6815 24bd 6c1a 213d f8be 5a3d
00000100: f8d1 01bd 706a 1a3c bbee 023d 0185 07bd
00000110: 9eb4 6dbd 58f8 e43a 07d5 e9bd e2bb 4bbd
00000120: f2f5 103d 893e 713c d8eb 45bd 6820 523d
00000130: 75fd 033b acdb a8bb afc5 743d a9d6 b8bc
00000140: b066 cfbc 4006 4f3c 7149 093d 5431 1ebd
00000150: 54d5 96bc 7c62 11bc 48e8 7c3c 5772 15bc
00000160: 8b0c e5bc 9e28 283c c081 57bd 826c 33bd
00000170: 556c 8d3c 78fa 173d 1212 7c3d a985 dfbc
00000180: ca72 9f3c 3840 2f3d 77ae edbc 5449 b93c
00000190: abb7 003d 604e 5e3d 55a1 ca3c d8b0 81bc
000001a0: 2cbb ab3c 54d4 98bc f3a1 c0bc c8c9 153d
000001b0: d037 54bc be7c 18bd 9fdb 7fbd e09d 1dbc
000001c0: c836 e2bc a090 16bd 4172 523d 4511 12bb
000001d0: 9040 1c3d 82a9 0ebd 0034 c2b8 b82a 5cbd
000001e0: bf7f 12bd f9e1 4bbd 8ca7 113c 3f9e 303d
000001f0: 3daa d7bc a2de 3738 d597 9abd e531 1a3d
00000200: 1fcb 64bc 0a78 c23c b857 b0bc 4f7b 1b3c
00000210: c8be d6bc a92b 103d bc45 59bd 9e8a 493d
00000220: 5ca0 5fbc 75ac 21bd 0070 cebc 5e74 77bc
00000230: a6ae 05bd 24cb c63b 8190 193d 38b1 573c
00000240: 7ee9 1f3d 5095 d33c f072 3f3d 647c 0f3d
00000250: ec78 81bd 8b33 5dbd d214 063d 9ceb e1bc
00000260: 3e50 eebc a042 c0bc e13b 0ebd 6b4c 6cbd
00000270: 7efb 7dbc 44a0 793d 3a94 153d a900 9b3c
00000280: f831 a0bc 3ab6 f63c a358 8e3c 6136 3dbd
00000290: b421 483d 600d 31bc 4f23 15bb 0cdb 0b3d
000002a0: a662 403d 1a04 02bd ea08 463d e9f1 7ebd
000002b0: c879 f4bc a66f 28bd 8ce0 c93c b619 3fbd
000002c0: d787 bdbd 3f97 fb3c ed24 33bd 9a5b 68bd
000002d0: 3c1f 4b3d 697c 2d3d 6efc fc3c dc75 55bc
000002e0: 110d 83bd 34ca d1bc 988d bebc 4f0d 823d
000002f0: ad49 613d 49e5 49bd 0c63 2bbd 5cc8 65bd
00000300: e470 99bc 0925 84bc bede 893c bc7b 33bc
00000310: 3635 7e3d dc43 463d 415b 15bd 0986 c7bc
00000320: b08d e3bc a121 11be c1dd 25bb 289f 51bd
00000330: 7abc 65bd cfc0 65bd 7033 9a3c e252 37bd
00000340: 873e 9d3b c428 3d3d d485 7e3d 8e97 593d
00000350: 43cc 6d3c a595 293d 5282 66bd ee62 233d
00000360: 4bba 613d 55fe 09bc 53ca 02bc 1b49 6fbd
00000370: af16 8fbb 49ce 343d 22c8 c2bc ee57 35bd
00000380: aed1 09bc edf2 963b 6c60 8dbd 139b e03b
00000390: a04f 593d 739b 9cbc 9dc9 84bc ac68 d73c
000003a0: 6e65 6a3d e65a 5b3d c80f fd3c f0b4 a43c
000003b0: c6a4 24bc a0e4 f33b 4da3 6ebc a252 feba
000003c0: 31ec 7c3c dbc5 823d 52f8 4a3d 27e8 703d
000003d0: 2e87 723c e30b 13bd b1e7 aabc 10b0 35bd
000003e0: f57c f4bc 7a8a c3bd 4897 823d 54ef 7ebd
000003f0: 5013 10bc 0023 f4bc bbe1 c8bc 19cd 463d
0.046257608 0.060729902 0.05879505 -0.006021372 -0.0926787 0.05500135 0.04759261 0.01067324
0.028786533 -0.0315248 -0.010274284 -0.03231797 -0.00451422 0.043947704 -0.0014120355 -0.045345347
-0.030810531 -0.008976936 0.050956607 -0.028158583 0.044636637 0.034053084 0.043087266 -0.060920183
-0.017724745 0.01749532 -0.012679902 0.007276309 0.008199352 0.031997465 -0.01711032 0.034313686
0.024801442 -0.0053538284 -0.11678844 0.03283996 0.0660726 -0.06867316 -0.047635112 0.034172803
-0.01659325 0.0121371 -0.04419187 0.005666986 0.006139699 0.05582583 0.02766546 -0.0041906675
0.052245 -0.01734496 -0.019268533 0.011243073 -0.05750282 0.016852388 -0.014577988 -0.007535897
-0.04224198 -0.041794017 -0.017525665 -0.013031562 -0.03455234 -0.040059477 0.03933184 0.05340478
-0.031694382 0.009424791 0.031965952 -0.033085827 -0.058033578 0.0017469032 -0.11417585 -0.049739726
0.0353908 0.014724382 -0.04832062 0.051300436 0.0020140086 -0.00515314 0.05975884 -0.022563295
-0.02531752 0.012635767 0.033517305 -0.03862126 -0.01841227 -0.008873578 0.01543624 -0.009121499
-0.027960083 0.01026359 -0.052613974 -0.043804653 0.01726357 0.0371041 0.06154067 -0.027285414
0.019463915 0.042785853 -0.029013855 0.022617973 0.03142516 0.054273963 0.024735132 -0.015831396
0.020963274 -0.018655933 -0.023514723 0.036569387 -0.01295276 -0.03722834 -0.062465306 -0.00962016
-0.027614012 -0.03675902 0.051378492 -0.0022288125 0.03814751 -0.034829624 -9.2603266e-05 -0.053751677
-0.03576636 -0.04977605 0.008890044 0.043119665 -0.026326293 4.3837943e-05 -0.07548491 0.03764524
-0.0139644435 0.02373888 -0.021526203 0.009489848 -0.026214018 0.035197888 -0.05304502 0.04920446
-0.0136490725 -0.03947111 -0.02519989 -0.015103428 -0.03263726 0.0060666967 0.037491325 0.013164811
0.039041035 0.025828034 0.046740472 0.035030738 -0.06321892 -0.054004233 0.0327347 -0.027578168
-0.029090997 -0.02346927 -0.034725074 -0.057690065 -0.015501855 0.060943857 0.036518313 0.018921213
-0.019555077 0.03011619 0.01737625 -0.046194438 0.048860267 -0.0108064115 -0.0022756641 0.034144446
0.04696908 -0.031742193 0.048348345 -0.062242422 -0.029843226 -0.0411221 0.024643205 -0.04665538
-0.09254425 0.030711768 -0.043736387 -0.056727983 0.049590334 0.042354975 0.030882087 -0.013028588
-0.063989766 -0.025609113 -0.023260877 0.06350195 0.055001903 -0.04929093 -0.041842505 -0.05609928
-0.018730588 -0.016130941 0.016829845 -0.010954794 0.062062465 0.04840456 -0.03646398 -0.024355905
-0.027777523 -0.14172985 -0.0025309178 -0.051177174 -0.05608795 -0.05609208 0.018823355 -0.044756778
0.0047987136 0.046181455 0.062139347 0.05312305 0.014514032 0.041402478 -0.056276627 0.03988927
0.055109303 -0.008422454 -0.007982808 -0.05841933 -0.0043667178 0.04414204 -0.023777071 -0.04427331
-0.008411808 0.0046065957 -0.06903157 0.006854424 0.053054452 -0.019117093 -0.016209418 0.026295029
0.057225637 0.053553484 0.030891314 0.020105809 -0.010049051 0.0074430257 -0.014565301 -0.0019403289
0.015437172 0.06385394 0.049553223 0.058815148 0.014802737 -0.035900008 -0.020862432 -0.04435736
-0.02984474 -0.09547897 0.06376511 -0.06223996 -0.008793667 -0.029801846 -0.0245217 0.04853544

out_n.0.bias f4 [50]
00000000: b2ff 103d 5f18 903d f048 303d d592 693d
00000010: 8068 21bd 3aac 1b3d c356 9e3d cb7d 593d
00000020: 9127 30bd 13bf 0ebd c485 80bd a11c 0b3d
00000030: 6896 033d 66ed 61bd 044d 383d d643 923c
00000040: ead8 e33c 0dda 8fbd 99e3 de3c 84e5 3d3d
00000050: 05cd 7dbd ab90 1a3d 601c d5bc 1a10 5b3d
00000060: 7aea 3dbb 512a ca3b ceb5 e03c b513 e93c
00000070: c922 3dbd b17e ae3b 645f 703b 71c0 24bd
00000080: 83a9 463d 9147 b53a 376e 8fbd 3b94 6a3d
00000090: 3e7e de3d 21a9 abbd f4a8 bf3d e811 293c
000000a0: ca3c 513c 1419 c8bd aec3 75bd 0e0a 8e3c
000000b0: cec1 a03b 6d40 6a3d 5481 fc3c c434 1c3d
000000c0: 513e 6dbd 3bf6 883d
0.0354001 0.070358984 0.04303831 0.057024796 -0.0394063 0.038006045 0.07731392 0.05309848
-0.043006483 -0.03485019 -0.06275514 0.03396285 0.03212586 -0.05515804 0.044995323 0.017854612
0.027813394 -0.07024012 0.027208136 0.04636146 -0.0619631 0.037735622 -0.026014507 0.053482153
-0.002897887 0.0061695953 0.027430441 0.02845178 -0.04617575 0.0053251614 0.003667795 -0.04022259
0.048501503 0.0013830533 -0.07003444 0.05727027 0.108639225 -0.08381868 0.09358397 0.010319211
0.012770841 -0.09770408 -0.060001068 0.017338779 0.004905916 0.057190347 0.030823387 0.03813626
-0.057920758 0.0668759

out_d.0.weight f4 [50, 256]
00000000: 0c8e 163d ab0c 163c b050 cc3c d3e7 113c
00000010: 64d8 bf3c 4ce3 52bd 72d8 253d b8a3 9cbc
00000020: eafe 513d 3ffa db3c 186f 133c 94a1 21bd
00000030: b923 0a3c 2037 52bb b848 1f3d 58a3 bfbb
00000040: 2d41 9c3c e926 0ebd 1a15 66bd 264c 023d
00000050: b47c 55bd 5782 603d 486d 1b3d 3103 4e3d
00000060: 38c3 27bd 1ec8 06bd 4a0e 713c a4c5 12bd
00000070: 2d3a 85bd 1063 eabc 24e5 10bd 0ac6 19bd
00000080: afeb 82bd 9289 76bd 166e 2d3d 6e21 18bd
00000090: f45c acbb 52e0 81bd b237 83bc 909f e3bc
000000a0: 2b10 46bd c4b9 c03c f844 81bd e688 5c3d
000000b0: 4bf9 2cbc 90d7 033c 2b36 9e3c 15ca fc3c
000000c0: 63c9 da3c f400 82bc 1b63 d5bc 993c d3ba
000000d0: ac6a 2fbd e7b2 80bd e268 eb3c e81e 3d3c
000000e0: a9d8 c1bc f935 91bc 1c4e c53c 3401 1fbd
000000f0: c10a fd3b 9aee 6bbd a0a2 68bb 0014 c8bb
00000100: ac26 70bd 2caa 81bc 3d7c 823c 5bed 473d
00000110: e8e3 0d3d 1ded 3b3d 8193 4cbc 5594 60bd
00000120: 181c c73c cfe0 3ebd a9b7 be3c 7311 a2bb
00000130: 110f e13c 789a c03c f562 20bd 2c2e a2bc
00000140: 60f7 14bb cf80 303d cd77 2b3d 8e7a 21bd
00000150: e89a 51bc 7989 7fbc 1065 8e3b 6fc4 a63c
00000160: 438d 03bd 791f a4bc 7f17 12bd d868 e23c
00000170: 522c 21bd 644b 7c3d 6229 1bbd 2787 97bd
00000180: d354 46bd 6121 633d 6a76 10bd 1af1 063d
00000190: 658c 193d a09d 39bb 3ccb 62bd 142d 163d
000001a0: 301c 9bbb 9d45 43bc 4f4c 4dbd 5086 9cbb
000001b0: e21d 2f3d 38f2 48bc 9d21 81bc 2013 343c
000001c0: 20b3 5dbc c8a1 4dbd 6a20 5ebd 2beb ecbc
000001d0: 90e6 48bd c53e 783b d427 1fbd 58de 7bbc
000001e0: 9b51 8bbc 42c3 9abc cb8b cebc 088a 483d
000001f0: bb97 6b3d 7d04 60bc dfdc cbbb dab6 543d
00000200: c94d 813c 2bea b43b 1b7f 893c 0abd 70bd
00000210: 480f 753d 821d 423d c592 db3c 3adf 64bd
00000220: 401d 53bb 0999 c93c 5099 51bc a5fb 25bc
00000230: 85c7 94bc 1cbe 333d 0854 283c 6070 52bd
00000240: cc3e a8bc a683 2e3d 3b99 cebb 5de7 5abd
00000250: 2871 0b3d 25e3 e93c e0dc f2bc 4007 16bd
00000260: 23bb 653d 5ca3 debc 9a66 533d 53f0 cf3c
00000270: d6a2 153d 2628 3cbd b9d5 ac3c fbca 61bd
00000280: 7422 583c f5c9 6bbd 08ae c83c caa3 5e3b
00000290: 5130 52bd f04a 78bc 711e a2bc 3fd9 f63c
000002a0: e8bf ddbc 388d 6cbd c620 20bd 80eb 6abd
000002b0: 908b fabb c2c4 333b 24fa 65bd aba4 53bd
000002c0: 590a e23c 95de 5abc f50d 18bd a0c4 e8bb
000002d0: 1c90 48bd 3c88 933c 384c fb3c b127 35bd
000002e0: 055d aabc 624e 273d d450 5e3d cbef 743d
000002f0: 07f5 05bd 55d9 603d ceaf 223d 8edc 513d
00000300: c073 fabc 822f 6abd 3277 c53b 1835 0abc
00000310: 9e03 42bd 70d6 32bd 4298 f03c 62df dabc
00000320: 66bd 0c3d a10a 373b 8182 66bd 444d cebc
00000330: 7ace 3a3d 0025 503d a84a 4d3c 63ef 1f3d
00000340: 3067 ccbc 1224 6a3d e639 7ebd bd6e 583c
00000350: 7b73 8a3c 91d8 103c 7481 263b b008 e03c
00000360: 00fc 353c de1d 003d 540d 49bc 4f8e 5a3c
00000370: 689b 943a e077 b53b 620a 00bd d0d7 f1bc
00000380: 99d3 5e3c f286 b93c 20d8 59bc 68ad 5cbd
00000390: 8247 49bd e906 373c f049 fd3b 2e05 f43c
000003a0: 6ab9 143d f895 f03c dca8 d9bc bfd3 4b3d
000003b0: fa93 b83c a0e8 6bbc 04a6 ee3c d00c eb3c
000003c0: 7e68 463d 160f 1c3c ceda 643d a0db ae3c
000003d0: c62d 33bc 6303 81bd 4154 583d 010a 25bc
000003e0: c9ab 65bd 6a60 813b 9b25 bdbc 5ca9 9e3c
000003f0: f4a6 7d3d c75c 463d 3d51 21bd ef17 563d
0.03675656 0.009158294 0.024940819 0.008905369 0.023418613 -0.0514863 0.04048962 -0.019121036
0.051268496 0.026852725 0.008998655 -0.039460734 0.0084313685 -0.0032076314 0.03888771 -0.0058483295
0.019074047 -0.034705076 -0.056172468 0.031810902 -0.05212088 0.0548118 0.037946016 0.050296012
-0.04095766 -0.03290569 0.014712879 -0.035833016 -0.06505237 -0.02861169 -0.035374776 -0.03754238
-0.06392609 -0.06018979 0.042341314 -0.037141256 -0.0052601043 -0.06341614 -0.016017769 -0.027786046
-0.048355263 0.02352608 -0.06311983 0.053841494 -0.010557483 0.008047 0.019312939 0.030858079
0.026707357 -0.015869595 -0.026048234 -0.0016116082 -0.04282634 -0.06284123 0.028736535 0.011543013
-0.023662882 -0.017725931 0.024085097 -0.038819507 0.007722229 -0.057600595 -0.0035497323 -0.0061059
-0.05863063 -0.015828215 0.015928382 0.048810344 0.034641176 0.045880426 -0.01248634 -0.05482896
0.024305388 -0.046601113 0.023280935 -0.0049459278 0.027473005 0.023511156 -0.039156873 -0.019797407
-0.0022730455 0.04309159 0.041862298 -0.039423518 -0.01279328 -0.015596741 0.0043455437 0.020357339
-0.03211714 -0.020034539 -0.03566694 0.027637884 -0.039348908 0.061595336 -0.037881263 -0.07398825
-0.04842074 0.055451754 -0.03526918 0.032944776 0.037487406 -0.0028322712 -0.0553696 0.036664084
-0.004733585 -0.011918453 -0.0501216 -0.0047767535 0.042753108 -0.012264781 -0.015763098 0.010990888
-0.013531476 -0.050203115 -0.05423013 -0.02892073 -0.049048007 0.003787921 -0.038856342 -0.015372835
-0.017006686 -0.018891934 -0.025213143 0.04895976 0.05751775 -0.013672945 -0.0062213982 0.051932193
0.015784161 0.005521079 0.016784241 -0.05877403 0.059829026 0.047391422 0.026803384 -0.055876948
-0.003221348 0.024609106 -0.0127929 -0.0101307975 -0.018161545 0.043882474 0.010273941 -0.0513767
-0.020537756 0.04260602 -0.0063048876 -0.0534433 0.03404346 0.028550694 -0.029646337 -0.036628008
0.05608667 -0.027177505 0.05161152 0.02538315 0.036532246 -0.045936726 0.021098005 -0.055125218
0.013191808 -0.057565648 0.024497047 0.0033972138 -0.05131561 -0.015154585 -0.019789906 0.030132888
-0.027069047 -0.057751864 -0.039093755 -0.057353497 -0.0076460317 0.002743051 -0.056146756 -0.05167071
0.027592825 -0.013358732 -0.037122685 -0.0071035177 -0.04896556 0.018009298 0.030675992 -0.044227306
-0.020796308 0.040846236 0.054276302 0.059798997 -0.03270438 0.054894764 0.03971844 0.051235728
-0.030572772 -0.057174213 0.006026172 -0.00843551 -0.04736673 -0.043661535 0.029369477 -0.026717845
0.034360312 0.002792992 -0.056276802 -0.025183327 0.045607068 0.050816536 0.0125300065 0.039046656
-0.024951547 0.057163306 -0.062066935 0.013209996 0.016900769 0.008840696 0.002540675 0.027347893
0.011107445 0.031278484 -0.012271244 0.013339593 0.0011337819 0.005537972 -0.0312599 -0.029521853
0.0136002535 0.022647355 -0.013296157 -0.05387631 -0.04914046 0.011171081 0.0077297613 0.029787626
0.036309637 0.029368386 -0.026569776 0.049762484 0.022531498 -0.014398724 0.029131897 0.028692633
0.048439495 0.009525081 0.05587273 0.02134496 -0.010936206 -0.06299474 0.052814726 -0.010073186
-0.05607203 0.003948261 -0.02308922 0.019367866 0.061926797 0.048428323 -0.039384115 0.05226892

out_d.0.bias f4 [50]
00000000: c46a 033d 3516 ba3c c1e8 fa3c 04c2 0e3d
00000010: 76eb 0e3d c14c 4f3d ee02 513d 7e23 163d
00000020: 4c33 3d3c 37ea b43c 990a 033d 58ab 1abc
00000030: 0e51 ae3c 2e21 763d b4e8 19bd 3039 343d
00000040: 025b 9f3c 5c15 0e3d d947 83bc 193b 8eba
00000050: deb6 433c 4971 1d3d 6c03 8ebb 72c1 163d
00000060: d6ff 2fbd 329b f43c 5f1d 323c 3d4d c63c
00000070: b2e8 333d 129f acbb 7dde 25bd 1f7f 43bd
00000080: 6370 ecbb d019 303c 90fa 823d 7d45 483a
00000090: 2d9e 1bbc 494c 9b3c 0dd1 363c a7c3 2d3d
000000a0: 9d1d a33d 1f97 b23b 1d7e 503d 784f 92bd
000000b0: 6536 46bd 5d20 c63c 9c3a 583d c7a8 4b3d
000000c0: 038b 823c ccf8 74bc
0.03208424 0.022715667 0.030628564 0.034852996 0.03489252 0.050610308 0.051028185 0.03665494
0.011547875 0.022084339 0.03199253 -0.009440266 0.021278884 0.060090236 -0.03757544 0.04399985
0.019452576 0.03468834 -0.01602547 -0.0010851353 0.011945454 0.038438115 -0.004333904 0.036805578
-0.042968594 0.02985916 0.01087126 0.024206752 0.043923087 -0.005267986 -0.040495384 -0.047728654
-0.007215546 0.010748342 0.06395447 0.0007639749 -0.009498161 0.018957274 0.01115824 0.042422917
0.07964633 0.005450144 0.05090152 -0.07144064 -0.04839172 0.024185354 0.05279027 0.049721505
0.015935427 -0.014951896
