ch3_figures_output_tuned/model_100L_poly.pth (torch, 576125 bytes, 8 tensors)

backbone.0.weight f4 [256, 100]
000000 70 d6 95 3d 1f 0a 71 bd 92 42 29 3c 40 41 a6 3d
       0.07316291 -0.058847543 0.010330813 0.08117914
000010 7c 45 a0 bd fa a6 01 bd 67 1c f8 3c 88 4e f6 bb
       -0.07825753 -0.031653382 0.03028698 -0.007516686
000020 72 a8 b9 3d f3 3d ed bc 4b 21 b7 3d 89 e1 ac bd
       0.090653315 -0.028960204 0.08941897 -0.08441455
000030 30 d9 2f 3d 64 64 04 3d e7 e9 55 3d c4 ef a1 3d
       0.042931736 0.032322302 0.05222502 0.0790706
000040 26 70 68 bd e5 8d 89 3d 90 ce 13 bd 9c 81 7e 3c
       -0.056747578 0.06716517 -0.036085665 0.015533831
000050 ae 24 56 bd 5a 16 54 3d 03 39 b2 bd 30 71 86 ba
       -0.052281074 0.05177913 -0.0870228 -0.0010257121
000060 6c 40 b9 3c ae 11 de bd ae b8 4e bd 5d fe 57 bd
       0.022613727 -0.10843216 -0.050469093 -0.052732814
000070 b1 65 21 3d 24 5e df bd 91 ab 99 bc 61 f2 12 bd
       0.03940362 -0.10906628 -0.018758567 -0.03587568
000080 95 19 a1 3d 87 84 da bc 48 f1 16 bd 99 e9 37 bd
       0.078662075 -0.026674522 -0.036851197 -0.04490051
000090 8f 9a cb bd 47 38 58 3d 0b 16 33 bd a0 17 93 bd
       -0.09941589 0.052788045 -0.043722194 -0.071822405
0000a0 cd 50 5b bd f6 ce 63 3c c9 a2 90 3d 39 58 83 3d
       -0.053543855 0.013904324 0.07062299 0.064133115
0000b0 af e9 81 3d 57 5e 95 3d 75 e7 a9 3d 30 8e 74 3d
       0.063434 0.072933845 0.082961 0.059705913
0000c0 99 0d 5e 3d 1f 9e 52 bd c0 cd 37 bd af 15 a3 bd
       0.054212186 -0.051420327 -0.044873953 -0.0796312
0000d0 19 f6 7f bd ff eb 1c 3d 6e 78 44 3d 6a c3 4b bd
       -0.062490556 0.038311 0.047966413 -0.04974691
0000e0 52 40 a8 3c e6 d4 64 bd 5e 11 3e 3d f2 81 82 bc
       0.020538483 -0.0558671 0.04640328 -0.015931103
0000f0 2c e1 27 bd 46 a1 15 3d ba f1 68 bd 35 35 8c 3d
       -0.040986225 0.036530755 -0.056871153 0.06846086
000100 b9 9f 99 bb 46 53 39 bd 9e bc e2 b9 11 cb a5 bc
       -0.00468823 -0.04524543 -0.0004324661 -0.020238431
000110 20 84 da 3d 1d e0 84 bd 07 f0 ce 3d 9a bb 0a 3d
       0.10669732 -0.06488059 0.10104375 0.033870317
000120 9b 47 aa 3d 86 67 b1 3b 9c 79 a8 3d 02 3d 39 bd
       0.08314439 0.0054139523 0.0822632 -0.045224197
000130 17 c6 3f bc ee cb 14 bd b7 93 27 3d e9 cf 1f 3d
       -0.011704943 -0.036327295 0.040912356 0.039016638
000140 98 07 2b bd 13 1b 0a bc 7d d5 2e bd ae a9 da 39
       -0.04175529 -0.008429307 -0.042684067 0.0004170662
000150 9c 2c 81 3a 65 09 b4 bd 0d 09 a6 bd f5 eb e1 bd
       0.0009855214 -0.08790854 -0.08107195 -0.11031333
000160 32 33 56 3d 73 b1 d5 bd 02 53 0e 3d 86 e6 b4 bd
       0.052294917 -0.104342364 0.03474713 -0.08833031
000170 11 fa a5 3d 2b ca 1a bd 16 29 ed bc a6 1d b9 bd
       0.08104337 -0.03779046 -0.028950255 -0.09038858
000180 08 66 85 bd 58 14 d0 bd cc ae 88 bd 38 bb 48 3d
       -0.065136015 -0.1016013 -0.06673965 0.04900667
000190 90 1f 06 3d fd 19 9c bd 13 78 f3 bc 0d 37 72 bc
       0.032744944 -0.07622144 -0.029720342 -0.014783633
0001a0 00 5b c7 bc cd 28 68 bd 05 57 94 3d 4d 6b f0 bc
       -0.024335384 -0.056679536 0.0724316 -0.02934804
0001b0 b5 ef 8e 3d 0a 48 00 3d 1d 15 3f bd 77 00 89 3d
       0.06979314 0.0313187 -0.046650995 0.06689542
0001c0 b5 32 8c bd fa d2 e5 3c 20 15 e9 3c 27 17 64 bd
       -0.06845609 0.028054703 0.028452456 -0.055686142
0001d0 1a 52 a2 bb 0b ba 90 3d e0 27 f7 bc a8 5d b7 3d
       -0.004953635 0.07066735 -0.030170381 0.089534104
0001e0 b8 0c b5 3d d7 89 70 3d 13 71 9a bd 67 17 42 bb
       0.088403165 0.058725204 -0.075410984 -0.0029616
0001f0 1b 30 9a 3d a0 f1 ca bd 98 61 b0 3d ad a8 c7 3d
       0.07528707 -0.099093676 0.086123645 0.09748969
000200 cd 69 3b 3b ad 07 69 bd 2a 2f 8a bd 4a fc c1 bd
       0.0028596998 -0.056892086 -0.06747277 -0.094719484
000210 b3 82 29 bc 0a e8 04 bd 00 0a 10 bd d7 82 06 bd
       -0.0103461025 -0.032447852 -0.035165787 -0.032839622
000220 18 61 cc 3d 12 ac b0 3d 2d 9b 7a 3d 77 47 23 3d
       0.09979457 0.0862657 0.061183143 0.039863076
000230 9a a3 bb 3c 60 dc 13 bd 5a a4 b8 3d 10 d6 39 bd
       0.02290516 -0.036098838 0.090157226 -0.04537016
000240 67 b6 37 bb 85 fd 90 3d 67 55 e0 bc d5 fc 99 bd
       -0.0028032304 0.07079605 -0.027384473 -0.07518927
000250 3a b9 91 3c 5d 11 15 bd 13 03 bd 3d fd de 18 3d
       0.017788518 -0.036393512 0.09229102 0.037322033
000260 00 eb d5 3c 80 63 4f bd e7 e9 83 3c 53 7c 88 bc
       0.026113033 -0.050632 0.016102744 -0.016660845
000270 2b bd a6 3d a0 0c c6 3d c3 81 c4 bd dd 44 5d 3d
       0.0814155 0.09670377 -0.095950626 0.05402075
000280 7a 75 ef 3c 62 66 85 3d a7 26 c1 bd 85 8d b3 3d
       0.029230822 0.065136686 -0.094312005 0.08767227
000290 b7 c5 54 bd e2 e9 8a 3d 80 5f 50 3d f3 c6 97 3c
       -0.051946368 0.06782891 0.050872326 0.018527484
0002a0 e3 3b 8d 3d d8 f8 bc 3d 9a 99 97 b6 ed 66 c1 3c
       0.06896188 0.09227151 -4.5180323e-06 0.02360865
0002b0 f0 67 03 3d 40 f3 2c 3c fd 20 0d 3d f3 6c 9f 3c
       0.032081544 0.010556042 0.03445529 0.01946113
0002c0 87 14 6e bd c0 f6 14 3c 92 56 81 bd 0d d1 0d bd
       -0.058125045 0.009092033 -0.0631534 -0.034623194
0002d0 f3 67 83 3d da 82 a4 bd 73 47 98 3c 1a 74 8b bd
       0.06416311 -0.080327705 0.018588757 -0.06809254
0002e0 fd 09 7a 3d 7d 73 b7 3d f7 cf 6e bd 62 75 ae 3d
       0.06104468 0.089575745 -0.0583038 0.08518483
0002f0 4b 58 c6 3d c0 fb f3 3c 0d 3b aa bc c3 6a 8e 3d
       0.09684809 0.02978313 -0.02078011 0.06953957
000300 67 3d 43 bb 77 ba 40 3d 3d ee b2 bd 73 f7 77 3d
       -0.0029791237 0.047052827 -0.087368466 0.06053872
000310 b3 b8 48 3c f3 24 94 3c 80 60 36 3c 4f ac aa 3d
       0.012251067 0.018084025 0.011131406 0.083336465
000320 93 46 aa bc 5a 27 1d bd ed 77 67 3d 0d c4 67 bc
       -0.020785606 -0.038367607 0.056510855 -0.014145863
000330 6f bc 94 bd 7d 60 23 3d 53 7b 9d 3c b0 39 7d bd
       -0.07262503 0.03988694 0.019223845 -0.061822593
000340 e0 ba a1 3d 0d 79 51 bc 9b 6a 86 bd cd 80 e9 3b
       0.07896972 -0.012785208 -0.06563302 0.00712595
000350 10 6e 95 bd 3f bf 86 3d 4d 59 e4 3c 40 21 88 3c
       -0.072963834 0.06579446 0.027874613 0.016617417
000360 18 ce 8b bd 85 da 82 3d 87 e4 a1 3c 93 32 f7 3c
       -0.06826419 0.063893355 0.01976229 0.030175483
000370 c8 0b a2 bd 33 e5 90 bc 32 02 b9 bd 33 f9 d8 3a
       -0.07912403 -0.017687416 -0.09033622 0.0016553759
000380 13 31 b9 bd 5a 29 a1 3d 8d ee 1c 3d 73 11 56 bc
       -0.09042563 0.07869215 0.038313437 -0.013065684
000390 1a e9 b0 bc 00 72 bf 3d 13 01 be bd 07 a5 ef 3c
       -0.021595526 0.09347916 -0.09277549 0.029253496
0003a0 ba f0 28 bd 47 6f 91 bd a7 cb 19 bd 67 ad 62 3b
       -0.0412452 -0.071013026 -0.037547734 0.003458822
0003b0 67 a9 33 3c da 8e 2d 3c 33 6e bc 3b d8 75 83 bd
       0.010965682 0.0105931405 0.0057504415 -0.06418961
0003c0 52 09 b4 bd 25 e2 ad bd 0f cd a0 bd 97 e4 8d 3d
       -0.0879084 -0.08490399 -0.07851612 0.06928366
0003d0 9f 50 be bd 43 dd 12 bd 70 66 b3 3d 73 37 b7 3c
       -0.09292721 -0.035855543 0.08759773 0.022365307
0003e0 db da bc bd d0 46 2b bd 9d e7 4c 3d c3 a5 c5 bd
       -0.09221431 -0.04181558 0.05002557 -0.09650757
0003f0 ba 12 91 bd cd bd 4a 3c 9d 3c 74 3d 10 b5 92 3d
       -0.0708365 0.012374354 0.059628118 0.07163441

backbone.0.bias f4 [256]
000000 8b 10 9a bd 4d 4f 03 3c 25 3d ca 3d 44 49 0e 3d
       -0.075226866 0.008014512 0.09874944 0.03473784
000010 57 d5 30 3d cf ce c0 bd 63 c6 17 bd ad ae 0c bd
       0.043172207 -0.094144456 -0.03705443 -0.03434627
000020 3b 68 8b 3d f1 ae a3 3d c4 87 6a 3d 02 25 4d bc
       0.0680699 0.07992352 0.057258382 -0.01252103
000030 71 d7 38 3c da 6b 80 bd 4d b2 be 3b 67 ce 07 3a
       0.011281834 -0.06270571 0.005819595 0.00051805977
000040 6f cc 04 3d 25 58 90 bd 02 94 81 bd e1 96 a3 bd
       0.032421526 -0.07048062 -0.063270584 -0.07987762
000050 ff a6 c5 3d 4f e4 bb 3d 3d 0b f3 bb 7a d8 8a bd
       0.096509926 0.09174406 -0.007417111 -0.06779571
000060 a5 71 38 bd 75 89 c4 bd 05 7e ca 3d ed f6 fc bc
       -0.045030255 -0.0959653 0.098873176 -0.030879462
000070 2c 16 0f 3a 33 de 4a bd b5 74 8c bd ff 75 a6 bd
       0.0005458321 -0.049528312 -0.068581976 -0.08127975
000080 d3 54 ac bd 43 2c 4a 3d 67 f5 32 3b 57 9d 84 bd
       -0.084146164 0.049358618 0.0027306916 -0.06475323
000090 aa 0a ba bd f0 00 56 3d 00 b5 d8 3c ab 21 c1 3d
       -0.09084065 0.052246988 0.026453495 0.0943025
0000a0 4d ed df bc 93 0a e3 3c a3 93 1c 3d 53 5d c7 bd
       -0.027334834 0.027715003 0.038226735 -0.09734597
0000b0 40 f0 6b 3d 4b d8 9e 3d 70 14 1c bd a7 ec 75 3d
       0.057602167 0.07756098 -0.03810543 0.060040142
0000c0 75 f6 73 bb cd 25 3f 3d 45 81 ac 3d 6a 23 23 bc
       -0.0037225757 0.04666691 0.08423094 -0.009957174
0000d0 b0 c9 01 3d f7 ca 8e 3d 7c 31 08 3d 54 2e cf 3c
       0.031686485 0.06972306 0.033250317 0.025290646
0000e0 d5 e7 9e bd 0d ab b4 bc 4e 1b a2 bd 44 15 46 3d
       -0.07759062 -0.02205422 -0.07915364 0.048360124
0000f0 02 d1 bc bd 82 f8 21 bd 3f 1c 80 bd 53 89 bd 3c
       -0.092195526 -0.039543636 -0.062553875 0.02313677
000100 bb fb c7 3d ca 71 bc bd fa ca a9 bd 15 87 84 bd
       0.09764811 -0.09201391 -0.08290668 -0.06471077
000110 8b a3 0b be 7f 65 ec bc d3 8f 4e bd 9b c0 99 3d
       -0.13636605 -0.02885699 -0.05043013 0.0750744
000120 0d df 9c bc f0 da b0 bd 54 a2 65 3d 0d 44 21 bd
       -0.019149328 -0.08635509 0.05606301 -0.03937154
000130 80 be c1 bc d1 57 ce 3c 53 30 7c bd 60 3d 52 3d
       -0.023650408 0.025188359 -0.061569523 0.051328063
000140 45 b2 65 3d 7c 5e 53 3b b5 00 c8 bd 37 05 88 3d
       0.056078214 0.0032252362 -0.0976576 0.0664162
000150 40 4f 79 3d b2 be 86 bd df 30 98 bd 1a 46 0e bc
       0.060866594 -0.06579341 -0.074311964 -0.008683706
000160 6d f5 58 bd c0 e2 ac bc e0 9d 88 3d 22 2a cb bd
       -0.05296843 -0.021104217 0.06670737 -0.099201456
000170 f7 d0 97 3d 9a b7 ab 3d 9a 21 ee b9 df d1 26 bd
       0.07412904 0.083846286 -0.00045419933 -0.040727492
000180 6f c5 8e bd 87 08 b7 bd 38 0a ab 3c d0 2b 1c bd
       -0.06971251 -0.08937173 0.020878896 -0.03812772
000190 87 57 00 be c2 07 e4 bd 09 d8 80 3c 40 74 97 3d
       -0.12533389 -0.11134292 0.015728014 0.0739522
0001a0 aa ca 6b 3d 1f a6 3b bd 1c da a6 bd 8a 90 e5 bd
       0.057566322 -0.045812722 -0.0814707 -0.11209209
0001b0 8f 7d 8b 3d 27 cf 5d 3c 59 3c b8 bb 4f 6e b6 3d
       0.06811058 0.0135381585 -0.0056224284 0.089077584
0001c0 f6 c0 86 bd 52 d3 7d bd 67 9b 34 3b c8 9f 80 3d
       -0.06579773 -0.06196911 0.0027558447 0.06280476
0001d0 09 e0 94 bd 02 1a 60 3d 1a 62 67 3c 33 ba 21 3c
       -0.07269294 0.054712303 0.01412251 0.0098710535
0001e0 6b 07 ab bd b3 bd 8d 3d 29 e2 ae 3c 6a e4 91 bd
       -0.08351024 0.06920948 0.021348076 -0.07123645
0001f0 a5 94 65 3d 61 6e d6 3b ea 58 ce bd 0d 81 38 3d
       0.05604996 0.00654392 -0.10075553 0.045044947
000200 9c b5 25 3d 8b 51 77 3d db 86 b0 bd e3 14 4b 3d
       0.0404564 0.0603805 -0.08619472 0.049580466
000210 00 78 c0 b9 59 34 18 3d 17 06 5a 3d 0b 64 0a bd
       -0.000367105 0.037159298 0.053228464 -0.033786815
000220 50 e9 46 bd 57 67 94 3d 00 10 d8 ba 5a e5 64 3c
       -0.048562348 0.07246273 -0.001648426 0.013970697
000230 57 fa af bd be e0 c3 bd 29 96 69 3c 1a e2 da bc
       -0.085926704 -0.095643505 0.014256992 -0.026719142
000240 1e 5f a4 3d 5c 79 a0 b9 1d 34 5f bd a7 40 5e bd
       0.08025955 -0.00030607998 -0.05449306 -0.054260876
000250 a1 d4 81 bd cd b4 59 3a 96 fd 7f bc a0 27 b2 3d
       -0.06339384 0.00083048345 -0.015624424 0.08698964
000260 67 33 86 bd fa 53 82 bc a7 43 4b 3d d9 02 aa bb
       -0.06552773 -0.015909184 0.049625065 -0.0051883277
000270 33 41 ef bd 00 ec 5e bc 30 3e 0b 3d 2d 91 a5 3c
       -0.11682358 -0.0136060715 0.033994853 0.020210827
000280 ed 36 b0 bd 3f 55 43 3c 9a 85 69 bc 1a 25 c4 bd
       -0.08604226 0.01192218 -0.0142530445 -0.09577389
000290 5d ba 3c 3d 15 a3 b5 bd f4 97 07 3d aa d4 33 3c
       0.046076167 -0.08868996 0.0331039 0.010975996
0002a0 28 59 41 bc 9c 59 57 bb fa e4 c2 bc ad df 3d 3d
       -0.011801042 -0.0032859808 -0.023790825 0.046355892
0002b0 7a 87 b9 3c 6d a6 e5 bc 31 e4 51 3c 4d bb 20 bd
       0.022647608 -0.02803346 0.012810753 -0.039241124
0002c0 aa 08 7e bd d0 5f 3d 3d 0d ca c3 3c 20 d6 cc bc
       -0.06201998 0.046233952 0.023900056 -0.025004447
0002d0 ac 73 9a bd 37 3e a0 bc 50 d2 36 bc ff 0b 2d 3d
       -0.07541594 -0.019560916 -0.011158541 0.04224777
0002e0 7a e5 e9 3c cb b5 9f bd 58 4f c6 bd db c7 bd bd
       0.028551806 -0.07798346 -0.09683102 -0.09266635
0002f0 34 1e 30 3d 24 47 90 bd 29 ef 2b 3b 4a 48 3d 3d
       0.042997554 -0.07044819 0.002623508 0.04621152
000300 81 07 2e 3d dc e2 c5 bd 31 da f2 bc 42 8b c3 bd
       0.042487625 -0.096624106 -0.029645057 -0.09548046
000310 1e 36 1d 3d 17 8a 98 3d d3 5b 7a 3d 4e 08 8c 3d
       0.03838169 0.074482135 0.061122727 0.068375215
000320 67 fe a3 bd 28 75 84 3d 66 87 de bd 5c a8 7c bd
       -0.08007508 0.06467658 -0.10865669 -0.061683998
000330 90 89 70 3d 27 78 17 bd 7d 4d bf 3d 6a da 02 3d
       0.05872494 -0.03697982 0.093409516 0.031946577
000340 08 f8 f4 bd 25 7c 88 bd d7 5a 14 bd 5a c9 00 3d
       -0.11961371 -0.06664304 -0.036219444 0.031442024
000350 d6 0c e9 bd 2e 7b bf b7 6d 72 95 bd 23 90 8d bd
       -0.113794014 -2.2826334e-05 -0.072972156 -0.069122575
000360 aa 57 42 bc 4d b6 a9 bc b7 9f f0 bd ca 80 fa bc
       -0.011861721 -0.02071681 -0.11749213 -0.03057899
000370 98 71 9c bd 8a 12 37 3c bc c7 56 3d cf 11 99 bd
       -0.07638854 0.011173854 0.052436575 -0.074741
000380 80 b6 2c 3c 65 f3 75 3d 6d 55 e7 bc da e1 4d bc
       0.010541558 0.060046572 -0.028238976 -0.012566054
000390 39 84 06 3d b1 51 0e 3d fa f3 8e 3d f9 4e a4 3a
       0.03284094 0.034745876 0.069801286 0.0012535743
0003a0 2e 45 bf bd 50 c8 37 3d c3 86 cc 3d 1f 39 e6 bd
       -0.09339367 0.044868767 0.09986641 -0.11241364
0003b0 02 ec c2 3d 5a 53 23 3b 95 54 d8 bd 67 44 f9 3c
       0.09517671 0.0024921508 -0.10563008 0.030428125
0003c0 34 c0 df bd 5a 62 f7 3c ff 22 cc 3d a6 03 c0 bd
       -0.10925332 0.030198265 0.099676125 -0.09375696
0003d0 0f 93 43 3c af 62 b7 3d b3 d1 0d 3c cd 4b dc bb
       0.011936917 0.08954369 0.008655953 -0.0067229033
0003e0 68 cb 54 bc 08 fb 92 3d d1 f6 d6 bd e0 f8 b0 3d
       -0.012987949 0.07176787 -0.10496295 0.08641219
0003f0 73 ce 5a 3d f1 25 3d bd 60 7e fe 3c 4d df ac 3c
       0.05341954 -0.046178762 0.03106612 0.021102572

backbone.2.weight f4 [256, 256]
000000 20 e6 be 3b 08 94 45 3c 72 09 19 3d d8 0f c7 bc
       0.005825773 0.012059219 0.037362523 -0.024299547
000010 b0 10 77 bc 22 09 66 3d 44 7f c5 3c c4 f7 40 bd
       -0.015079662 0.056161053 0.024108537 -0.047111288
000020 ec 77 e4 3c 36 d7 38 bd 32 34 76 3d 34 a9 1b 3d
       0.027889214 -0.045127116 0.06010837 0.03800316
000030 f0 9f d0 bc 18 ab 5d 3d 5c e7 c2 3c 90 13 1b bc
       -0.02546689 0.054118246 0.023791961 -0.009465113
000040 f2 15 19 3d 5c 60 29 3d 38 ca 03 bc 28 69 14 bd
       0.037374444 0.04135166 -0.008043818 -0.036233097
000050 c8 c7 63 bc c0 1e fb bc 68 41 25 3d f0 46 6e bd
       -0.013902612 -0.030654311 0.04034558 -0.05817312
000060 a0 f2 f4 3b da e0 42 3d 14 ff da 3c 40 df 77 3c
       0.007475212 0.047577716 0.026732959 0.015128911
000070 d2 be 3b 3d e4 88 d9 bc f0 6d de bb 40 eb df bc
       0.045836277 -0.026554532 -0.006788008 -0.027333856
000080 b2 40 1a bd 00 5a 84 b9 26 40 78 3d f8 70 ef 3c
       -0.037659355 -0.00025244057 0.06060805 0.029228672
000090 8e ad 4e bd 90 3b 80 3c 98 f7 aa 3c 7a 68 44 3d
       -0.050458483 0.015653402 0.020870015 0.0479512
0000a0 3c 42 8f bc e0 91 ec bb d4 be c6 bc 68 02 c6 bc
       -0.017487638 -0.007219538 -0.024260916 -0.02417107
0000b0 34 b0 21 bd 94 f3 7d bd e2 4e 28 3d fa 66 11 bd
       -0.03947468 -0.061999872 0.041090854 -0.035498597
0000c0 64 38 d2 3c e4 74 e9 bc da f9 6f 3d f2 c2 6d 3d
       0.025661655 -0.02849812 0.058587886 0.058047242
0000d0 b4 9d 1a bd e2 6b 36 3d 00 c0 c4 36 e0 46 03 bc
       -0.037748054 0.04453648 5.863607e-06 -0.008012503
0000e0 96 4a 1e bd a0 49 c1 3c 9c 53 c9 3c 0e 50 33 3d
       -0.03864535 0.023594677 0.024576 0.043777518
0000f0 e0 29 d5 bb e2 07 58 3d 70 ef b0 bb f8 91 3c bc
       -0.006505236 0.052741893 -0.005399637 -0.011509411
000100 94 43 6d 3d 2c a2 e6 3c bc 73 a7 bc 18 4c 7f 3d
       0.057925776 0.028153501 -0.020440929 0.062328428
000110 92 4d 57 3d d8 83 e8 3c 94 4b b6 3c e8 47 f5 bc
       0.05256421 0.02838318 0.022252835 -0.029941514
000120 a0 cf 16 3c 3c 68 d2 bc 0c 6e 5b bd 0c a6 7a 3d
       0.009204775 -0.025684468 -0.053571746 0.06119351
000130 d4 35 e9 3c b8 61 69 bc 74 c0 45 3d a0 d4 33 bb
       0.02846805 -0.014244489 0.04827924 -0.0027439967
000140 10 dc 1a bc 38 ff db bc 38 bc eb 3c 2a 90 45 bd
       -0.009451881 -0.026855096 0.028776273 -0.04823319
000150 52 20 30 3d 10 99 48 bc 00 d6 7f bc 80 db ef 3c
       0.042999573 -0.012243524 -0.015614986 0.02927947
000160 ac 83 bc 3c b8 32 3e bd 70 f9 27 bd 80 92 2d bb
       0.023012005 -0.046435088 -0.041009367 -0.0026485026
000170 60 61 8e bb 00 f3 09 3c cc a1 5a bd f4 bb c0 3c
       -0.004345104 0.008419752 -0.053376958 0.023527123
000180 e0 24 5e bd e4 46 44 3d d0 af a8 3b ac ec f9 3c
       -0.054234385 0.04791917 0.0051479116 0.030508362
000190 52 4c 03 bd 58 f8 52 3c b8 c9 11 bd f0 9d 39 bc
       -0.032055207 0.012876593 -0.035592765 -0.011329159
0001a0 ac 6b cf 3c ec fd a0 bc a2 4f 4f bd 00 c4 52 ba
       0.025319897 -0.01965233 -0.050613053 -0.00080400705
0001b0 d8 25 fc 3c 70 49 f1 bc 72 be 52 bd 78 a9 2a bc
       0.030779764 -0.029453963 -0.051451154 -0.010416381
0001c0 e6 09 74 bd e8 bd 07 3d 98 e5 0c bd 80 a3 8d bc
       -0.059579752 0.033140093 -0.034398645 -0.017289877
0001d0 da a2 1c bd 36 51 31 3d 80 19 71 bc e2 b2 70 3d
       -0.038241245 0.04329034 -0.014715552 0.058764346
0001e0 d0 07 0a bc 06 bb 12 bd 16 b0 36 3d 18 e6 6f 3c
       -0.008424714 -0.03582289 0.044601522 0.014642261
0001f0 4c a1 1e bd a0 fc 04 3b 00 55 aa bc 30 f2 97 3c
       -0.038728043 0.0020292178 -0.020792484 0.018548101
000200 f6 e2 7d 3d 38 6c cc bc 10 10 7f 3c 40 42 ce bc
       0.061984025 -0.024953946 0.015567794 -0.025178075
000210 48 49 93 3c 54 7d 18 bd 7c 3f ba 3c b0 ed eb 3c
       0.01797928 -0.037228897 0.02273535 0.028799862
000220 e4 8f 51 bd 3e 4d 45 bd c8 f4 06 bc 14 a3 3c bd
       -0.051162615 -0.048169367 -0.008237071 -0.04605396
000230 70 c6 9b bc 54 12 a6 3c e0 66 c8 3b 54 f9 b5 3c
       -0.01901552 0.020272411 0.0061157793 0.022213615
000240 1a a9 3a bd 34 83 0e bd 88 52 3d bc 7c 29 b9 3c
       -0.045571424 -0.034793094 -0.0115553215 0.02260279
000250 96 32 64 3d 10 2b 8a 3c 10 68 69 3c 72 0c 24 3d
       0.055712305 0.016866237 0.014246002 0.04005093
000260 f0 ca 4b 3d 4c 85 45 bd 04 0e 20 bd 66 0f 6a 3d
       0.049754083 -0.048222825 -0.039075866 0.05714359
000270 5c 12 42 bd 00 45 2e bb 68 47 ab bc 6a d3 2d bd
       -0.04738079 -0.002659142 -0.020908073 -0.04243795
000280 18 b9 48 bd b6 1f 35 bd b2 a7 6c 3d d8 96 04 3c
       -0.049004644 -0.044219695 0.057777114 0.008092605
000290 a0 14 36 3c c4 29 34 bd f2 61 17 bd 9c 0c ef bc
       0.011113316 -0.043985143 -0.036958642 -0.029180817
0002a0 80 86 bd ba e4 1a 3a bd 4a 6a 7d bd c0 e8 38 bc
       -0.001445964 -0.0454358 -0.061868943 -0.011285961
0002b0 f6 bd 20 bd 80 6a ba 3a 20 9b 36 3b c0 8b 4b 3c
       -0.03924366 0.0014222413 0.0027863458 0.012423456
0002c0 06 a9 16 bd 6a 5f 61 bd 96 ef 66 3d f0 c2 5f bd
       -0.036782287 -0.055022635 0.05638083 -0.054629266
0002d0 9a a2 06 3d 2c 81 5a bd 00 3e a2 b9 6e d6 7a bd
       0.032869913 -0.053345844 -0.0003094524 -0.061239652
0002e0 50 dc c9 bb a8 75 3c 3d dc b1 76 bd 68 e3 f0 bc
       -0.0061602965 0.046010643 -0.060228214 -0.02940531
0002f0 80 c0 89 3a 5c 84 0d bd c4 9e 7e bd 88 a9 91 bc
       0.001050964 -0.034550056 -0.06216313 -0.017781034
000300 a2 a0 69 bd e8 f2 48 bc 38 6a 7e bd fa 3e 45 3d
       -0.057037957 -0.012264945 -0.062113017 0.048155762
000310 64 ef 01 3d 08 29 48 3c 80 f7 06 ba a6 80 41 bd
       0.03172244 0.012216814 -0.0005148575 -0.04724183
000320 c4 fc b5 bc bc 3e 72 bd 04 4e eb 3c 1e 47 54 bd
       -0.022215255 -0.05914186 0.028723724 -0.051825635
000330 c8 dc 7b 3d 58 c7 53 3d 92 76 62 bd 0c 9b 39 3d
       0.06148985 0.05170378 -0.05528886 0.04531388
000340 c2 64 47 bd 6a 2c 1a 3d 56 7a 5d 3d 38 b3 63 bd
       -0.048680075 0.037640013 0.054071747 -0.05559084
000350 dc 44 e8 3c 7c 98 25 bd 38 55 73 bd fc ca bb bc
       0.028353147 -0.040428624 -0.059407443 -0.022923939
000360 e6 2c 51 3d 40 a4 91 bc d2 83 23 3d 22 c1 05 bd
       0.05106821 -0.017778516 0.039920636 -0.03265489
000370 40 ac 22 3c 3c 29 26 3d 52 ae 31 3d 10 7e de bb
       0.009928763 0.040566668 0.043379135 -0.00678993
000380 b6 8d 6b 3d 54 77 18 3d 9c 98 ad 3c 2a 50 3d 3d
       0.057508193 0.037223175 0.021190934 0.04621903
000390 94 44 d4 3c 50 03 cf 3c 1c c7 05 3d 00 7b 48 ba
       0.025911607 0.025270134 0.03266059 -0.0007647723
0003a0 d2 b3 18 bd 86 06 11 3d b0 27 86 bb c0 8a e0 3a
       -0.037280865 0.03540661 -0.0040940866 0.0017131194
0003b0 6e b6 4e bd f0 b6 80 bc 60 93 87 3b d0 e0 2e 3d
       -0.050466947 -0.015712231 0.0041374415 0.042694867
0003c0 fe 08 6a bd 32 55 27 bd c0 23 78 bc a0 75 59 bb
       -0.057137482 -0.040852733 -0.015145242 -0.0033181682
0003d0 38 5e 18 3c 54 c6 2a bd 34 d5 aa bc dc 8a 08 bd
       0.009299807 -0.041693047 -0.020853616 -0.03333555
0003e0 9c 56 c8 3c 92 c8 45 bd f0 80 ed 3c 40 1c 85 bb
       0.024455361 -0.048286982 0.028992146 -0.0040622056
0003f0 f8 ee aa 3c c6 bc 52 bd 68 27 5a bc a0 8d cc 3b
       0.020865902 -0.05144956 -0.013315059 0.006242469

backbone.2.bias f4 [256]
000000 78 93 41 bc 73 51 60 bc 61 56 93 3c 1d 14 ac 3b
       -0.011814944 -0.013691294 0.017985525 0.005251421
000010 97 f3 ac 3d d1 b3 ff bb 30 5c 1e bd 62 f7 5e bd
       0.084448986 -0.007803418 -0.038662136 -0.05443514
000020 aa 9d e7 bc 8f fc 55 bd 1c 35 19 bd b8 43 7a bd
       -0.028273422 -0.05224281 -0.037404165 -0.061099738
000030 14 ad 35 bd 36 38 72 bd 92 db 32 bc 9a 1c b4 3d
       -0.044354513 -0.05913564 -0.010916607 0.08794518
000040 b5 3b e8 bc fa 84 33 3d c7 be a6 bd 44 37 4c bd
       -0.028348783 0.04382799 -0.08141857 -0.049857393
000050 a8 44 03 bd 7e be e8 3b 69 a3 b5 3c d4 70 39 bd
       -0.032047898 0.0071027866 0.022172647 -0.045273617
000060 84 11 f0 3c d2 c8 88 bd 46 f4 6d bd df 59 25 bd
       0.029305227 -0.066789284 -0.058094285 -0.04036891
000070 64 f0 1e bd 81 62 a3 3d 5c c9 a8 3c 4f 30 30 bc
       -0.038803473 0.079777725 0.020603828 -0.010753705
000080 84 3c 67 bc 8b d4 ea bc 2c d3 2e 3d 26 8a ae bb
       -0.014113549 -0.028665802 0.042681858 -0.005326527
000090 5a 52 1e bd fc 83 20 3d da a7 cc bc cc 0c 96 bd
       -0.038652755 0.03918837 -0.024982382 -0.073266596
0000a0 54 22 dc bb 5a ef 5b bd 11 bc 65 bc 98 9b 0c bd
       -0.0067179594 -0.05369506 -0.014021889 -0.034328073
0000b0 84 98 a3 bd 8e 61 28 3c b8 da 12 3d a2 f0 0d bd
       -0.079880744 0.010277165 0.035853118 -0.034653313
0000c0 72 7b d6 3b 3a dd e9 bc c6 fa 23 3d 8e 05 df 3d
       0.0065454775 -0.028547872 0.040034078 0.10889731
0000d0 72 69 3a 3d 36 af bf bb e3 31 83 3c e6 c0 8a bb
       0.045510717 -0.005849744 0.016014999 -0.004234421
0000e0 24 17 9e 3c ad 36 2c 3b 98 57 5a bc d2 b6 5a 3d
       0.019298144 0.0026277706 -0.013326548 0.053397007
0000f0 92 68 aa 3d aa b5 5c bd 8b 86 23 bd 6c 63 85 3d
       0.083207265 -0.053884186 -0.039923232 0.06513104
000100 72 af 10 bb 6a a8 1e bd 27 ca 66 3d 42 31 3a bd
       -0.002207723 -0.03873483 0.05634513 -0.045457132
000110 38 3f 39 bc 50 f7 08 3d 3a d4 5c bc 82 61 3a bd
       -0.011306576 0.03343898 -0.013478333 -0.045503147
000120 50 ff 93 bd bb 94 c2 3c c6 b8 98 3b 98 85 b6 bc
       -0.07226431 0.02375256 0.0046606986 -0.0222805
000130 33 6c 99 3d 0a 3f 83 3d b8 2f 15 bd 4c 61 95 3d
       0.074913405 0.06408508 -0.03642246 0.072939485
000140 25 00 bc 3b 6d ab fe 3c d8 94 2a bd 86 cc c0 3c
       0.005737322 0.031087602 -0.041645855 0.023535024
000150 9a 88 06 3d 15 0a c8 bd 9a a2 22 bc e1 52 8c 3c
       0.032845117 -0.09767548 -0.009926463 0.017129363
000160 64 2d 33 bd a6 5e d5 3d 6e 45 c5 ba f5 da 85 bd
       -0.04374446 0.104184434 -0.0015050599 -0.06535903
000170 bc 7c ba 3c 13 f9 55 3d b0 1a f8 3b 92 bc 2a bb
       0.022764556 0.05223949 0.007571541 -0.0026052338
000180 7e e4 93 bd 31 bd 93 bd 55 72 b3 3d 0a 23 75 bd
       -0.07221316 -0.0721382 0.087620415 -0.05984787
000190 5a e0 e0 bc eb cc 85 bd cf cd d5 bc ed 68 83 3c
       -0.02745073 -0.065332256 -0.026099114 0.016041243
0001a0 6f 7a 5f bc 42 ba 67 3d 86 87 b1 bd 5a c2 f4 bc
       -0.01364003 0.056574114 -0.08668427 -0.02987783
0001b0 d1 1a 40 bd 62 29 a2 3d 65 cf 7e bd 96 3e 0a bd
       -0.046900574 0.079180494 -0.062209506 -0.033751093
0001c0 0f 0a d8 3c cd c0 92 3d 9d 55 1d bc f5 81 aa bc
       0.026371984 0.0716568 -0.009602931 -0.020813921
0001d0 0e eb 24 bd 94 38 81 3c 83 d0 d0 3c b4 cd 90 bd
       -0.040263228 0.015774049 0.025490051 -0.07070485
0001e0 f7 68 0f bd ad eb 34 3c 20 d3 5a bc bb fd 09 3c
       -0.03501221 0.011042518 -0.013356 0.00842231
0001f0 cb 6f c1 bc 8e 0d 2d 3d de 0d 11 bd 94 c1 95 bd
       -0.023612877 0.042249255 -0.035413615 -0.07312313
000200 e9 42 3a bd b4 a7 88 3c f4 f3 5a bd cb 5b 90 bd
       -0.045473967 0.01668153 -0.053455308 -0.07048758
000210 82 40 79 bc c7 42 7c bd 77 be ab bc 64 b5 bd 3d
       -0.015213134 -0.06158712 -0.020964844 0.09263113
000220 62 70 58 bd dd e4 44 3d 9c 12 af 3c b7 b8 5c bc
       -0.05284155 0.048069824 0.021371178 -0.013471774
000230 c5 e8 14 bd 43 1c 90 bd 77 30 b3 bd 0e 84 77 3c
       -0.0363548 -0.070366405 -0.08749478 0.015107168
000240 9b 12 ab bc c0 aa a2 3d fd 4e 4d 3d 17 57 83 bd
       -0.020882895 0.07942724 0.050124157 -0.064130954
000250 1f 62 10 bb 40 a4 f6 bb ff 4c ce 3d 01 c2 8d bd
       -0.002203114 -0.0075269043 0.100732796 -0.06921769
000260 59 03 fe 3c 8e f8 8c bd d2 99 2f bd 72 f6 58 3a
       0.031007456 -0.068833455 -0.042871304 0.00082764693
000270 dd cd 85 bd 7a ae a8 3b 84 74 4b bd 36 9d 5c bd
       -0.06533406 0.0051477524 -0.049671665 -0.053860866
000280 c6 25 6c bd 07 ba 10 bb 6e 61 ca bc f1 14 82 3d
       -0.05765321 -0.0022083537 -0.024704661 0.063516505
000290 c1 4d 3a 3c ba 9d 00 3d 35 e2 d2 3b cd b8 d9 bb
       0.011371077 0.03140042 0.0064356574 -0.0066443444
0002a0 ed 55 95 bd 28 9f 50 3c 6b 7f 31 bd bd 6c e1 3c
       -0.0729178 0.012733258 -0.043334406 0.02751767
0002b0 36 bb 5a 3a 8a c7 7a bd eb 09 a1 bd e0 fb 5e 3d
       0.00083439366 -0.06122545 -0.0786322 0.054439425
0002c0 79 51 01 3c 08 a7 5d bc 4e 75 4a 3d 3b 02 da bc
       0.00789296 -0.013528593 0.049428277 -0.026612392
0002d0 7b 50 8f bd 90 26 ce bb b6 52 15 3b 34 d6 86 bb
       -0.06997772 -0.006291218 0.0022784895 -0.0041148905
0002e0 cc 82 bb 3c 3d 87 29 bd d2 bb 05 bd a6 cd 48 bd
       0.022889517 -0.04138874 -0.032649823 -0.049024247
0002f0 3c f1 c0 bb fd 54 a8 3c ac f9 9c bd 5a 11 22 bd
       -0.0058881324 0.020548338 -0.07664809 -0.03956733
000300 49 ae fc 3d e4 27 6f bd 6e 07 03 bd d1 e8 2e bd
       0.1233793 -0.058387652 -0.031989507 -0.0427025
000310 b6 15 c2 3d 9c 69 ea 3c 0e 1f 08 bc a9 c0 1f bd
       0.09476797 0.028614812 -0.008308185 -0.039002094
000320 ab d4 3b bd d2 5d 50 3d 28 29 14 3c 7b 6e 44 bd
       -0.045857113 0.050870724 0.009043016 -0.047956925
000330 a7 75 33 bd f2 54 1b 3e 43 f9 77 bd 59 2a 87 bd
       -0.043813374 0.15169123 -0.06054045 -0.06599874
000340 6e 5a ca 3c 77 da 0d 3c ff e5 36 bd e3 ff 90 bd
       0.024701323 0.008658043 -0.044652935 -0.070800565
000350 86 8d 70 bd 6f e4 42 bd c9 f2 48 3d 00 f5 9a 3b
       -0.058728717 -0.047581133 0.049059663 0.0047289133
000360 5b b2 85 bd 7f dd 6f bd 3a 5f bc 3c 65 25 2e 3d
       -0.06528159 -0.058560845 0.022994626 0.04251613
000370 a6 8a 90 bd a6 3c cd 3c a9 fa ca 3b b1 eb b9 bc
       -0.07057695 0.025053333 0.006194432 -0.022695394
000380 aa f9 76 bd ba d3 e5 bc ed 2f ee ba da c8 c3 bd
       -0.060296692 -0.02805506 -0.0018172242 -0.09559794
000390 54 fd 61 3d ad 4c 9a bd 60 0e 42 bd 16 e4 58 bc
       0.055173233 -0.07534156 -0.04737699 -0.013237974
0003a0 13 2b a1 3d 48 f4 13 bd 8e 5e 17 3d a8 a3 02 3c
       0.07869544 -0.036121637 0.03695541 0.007973589
0003b0 66 be f2 bc 00 61 d8 bc cc ad 25 bb 75 af 56 bd
       -0.029631805 -0.02641344 -0.0025280593 -0.052413423
0003c0 5e da a4 bd 5e 02 f8 bb a1 43 8f bd 8a b3 01 bd
       -0.08049463 -0.0075686416 -0.06995321 -0.031665362
0003d0 07 9a 88 bc 55 9a 75 bd 78 c2 3d bd 57 d7 55 3c
       -0.016675008 -0.059961636 -0.046328038 0.013051829
0003e0 33 2f 73 bd db d6 f7 bb b4 6b 70 3d f0 b3 9c 3b
       -0.059371185 -0.0075634546 0.058696464 0.0047821924
0003f0 04 1b c7 3b 00 7d 7e bc 3c 5f 0f 3d b5 e5 8b bc
       0.0060762186 -0.015532732 0.035002932 -0.017077306

out_n.0.weight f4 [100, 256]
000000 30 75 d5 bc 0a 56 15 be 27 51 18 3d b9 ae d3 bd
       -0.026056856 -0.14583603 0.037186768 -0.1033606
000010 75 57 3e be 30 f7 c5 bd 6d ef 49 3d bf 30 70 3d
       -0.1858805 -0.09666288 0.0493006 0.058640238
000020 c7 f7 56 3c e8 f6 70 bd 49 0f 98 3c 60 68 39 bc
       0.013120598 -0.05882922 0.018561976 -0.011316389
000030 60 03 f6 bb 32 6a 47 bd 19 e0 12 bd 7a 26 11 be
       -0.0075077266 -0.04868526 -0.035858247 -0.14174834
000040 d8 24 56 bd 13 29 94 bd 5b 97 15 bd 3a 0e 33 3d
       -0.05228123 -0.07234397 -0.036521297 0.04371474
000050 7b 5c 67 bd 0c 83 db bd 59 d1 f8 3b 69 9f 3c 3d
       -0.05648468 -0.107183546 0.0075933156 0.046050463
000060 db 75 d0 bd 43 1b 27 bc 1a 70 5f bd 63 48 fb bd
       -0.10178729 -0.010199371 -0.054550268 -0.12269666
000070 e9 d8 11 3d 31 c6 3d be 76 ec 0d be 5a 8f 58 bc
       0.035607252 -0.18532635 -0.13859734 -0.013217771
000080 15 78 82 bd 42 e8 20 be d4 32 a0 bc 30 8a ee bc
       -0.0637056 -0.157136 -0.019555487 -0.029118627
000090 80 e8 de bb aa c1 8f 3b 2a ce 52 bc 62 ae f6 3c
       -0.0068026185 0.0043871 -0.012866536 0.03011245
0000a0 37 16 06 bd c4 55 07 bd 53 02 7e bd d8 c2 48 bc
       -0.03273603 -0.033040777 -0.062013935 -0.012253486
0000b0 89 47 1a be fb 05 c3 bc cd e9 19 be 5d bc df bd
       -0.15066351 -0.023806563 -0.15030594 -0.10924599
0000c0 c9 2a be bd 6a aa 83 bd 83 39 40 be b8 0b 68 be
       -0.09285504 -0.06428988 -0.18771939 -0.2266072
0000d0 42 a7 17 be e6 76 93 bc 3d 62 aa bc 61 6a 46 3d
       -0.14809898 -0.018001031 -0.020798797 0.048441295
0000e0 be 22 8f 3c 17 e6 fa bc 1f dd bf bd 31 49 dc bd
       0.017472621 -0.030627294 -0.093683474 -0.10756148
0000f0 cd d7 3c be 77 45 ca bc 0e 32 e7 bd d1 20 f6 bd
       -0.18441696 -0.024691327 -0.11288844 -0.12017978
000100 92 7a 4e bd ee 25 0c bd a5 40 a7 bc 44 a0 12 bd
       -0.05040986 -0.03421586 -0.020416567 -0.035797372
000110 64 ec dc 3c f0 49 01 be e9 a0 ae bb 80 0d e5 3a
       0.026968189 -0.12625861 -0.0053292406 0.0017475337
000120 0b 23 e8 bd dd ce e3 bd ce 81 58 bd 68 f1 42 3c
       -0.11334809 -0.111234404 -0.052858166 0.011898376
000130 8f f3 d7 bd 0d df 0e be 78 8f 5a 3d be 26 03 be
       -0.10544502 -0.13952275 0.05335948 -0.12807748
000140 30 3a 40 be 65 18 19 bd fa 7f f2 3b 76 d9 32 bc
       -0.18772197 -0.03737678 0.00740051 -0.010916105
000150 1d 4d d3 bd 13 ce be 3c 34 3d 14 be 20 b8 8a bc
       -0.103174426 0.023291623 -0.14476472 -0.0169335
000160 9c be 73 bd 71 54 04 be ef 7f 05 be c8 55 eb bc
       -0.05950795 -0.12922837 -0.13037084 -0.028727427
000170 53 58 43 3c b4 43 b9 bd 83 7e 9c 3c ef 7f 2b be
       0.011922914 -0.090461165 0.019103294 -0.16748022
000180 72 3c 32 bc 5b 09 4e bc 99 96 c3 bd 00 6b 13 bb
       -0.010878669 -0.012575473 -0.095502086 -0.0022494197
000190 09 93 c6 bd 81 e8 b0 bc ab 96 1f bd 92 92 80 bd
       -0.096960135 -0.021595242 -0.038962048 -0.06277956
0001a0 e5 3a 86 3c c9 96 08 be be 90 e0 bc 99 17 c1 3b
       0.016385505 -0.1333877 -0.027412768 0.0058927056
0001b0 4e c5 00 bc 68 5d 9a be fa a4 1c 3d 5c f2 b5 bc
       -0.007859541 -0.30149388 0.03824327 -0.022210293
0001c0 5f ac 2c be ca dc 03 be fa 3c 46 bd 7a 2d b6 bd
       -0.1686263 -0.12877193 -0.048397996 -0.08895393
0001d0 31 09 6a bc 80 73 14 ba d0 88 a9 bd 89 c8 a4 bd
       -0.014284418 -0.0005662963 -0.08278048 -0.080460615
0001e0 ad 98 a8 bc a3 28 7e bd 3e 6c 3c 3d 8e 65 b7 bc
       -0.020580614 -0.062050473 0.046001665 -0.022387292
0001f0 55 84 5f 3c da b8 6d bd df ca 8d bd 78 c3 01 bd
       0.01364239 -0.058037616 -0.0692346 -0.031680554
000200 ee 6c c7 3c f7 e9 9b bd 8c 78 3d bd d0 80 5d b8
       0.024343934 -0.07612985 -0.04625754 -5.2810472e-05
000210 a7 19 f3 3c 71 33 a6 bc 59 30 4d ba 04 37 5d be
       0.029675318 -0.020288201 -0.0007827334 -0.21603018
000220 c0 97 db ba 65 9e 82 b9 3e 99 bb 3c 89 5e 70 bd
       -0.0016753599 -0.00024913545 0.02290022 -0.058683906
000230 88 6c 14 3d d2 ac a8 bc 06 7b f7 bd d6 7a 0b bd
       0.036236316 -0.02059022 -0.12084012 -0.034052692
000240 cb e9 a7 bd 50 39 51 be 9e d8 8a 3b ab 4b ce bc
       -0.08198889 -0.20432019 0.0042372486 -0.025182566
000250 0a 8c e3 bd 32 ca 05 bd 72 26 3f be c6 c2 a1 bc
       -0.11110695 -0.03266353 -0.1866701 -0.019746196
000260 87 4e 1b be ab bf 9a bd ee 95 df 3b 1d 07 c2 bd
       -0.15166675 -0.07556089 0.006823293 -0.09474013
000270 b5 e6 c9 bc 05 63 a2 bd 39 21 66 bb 78 05 06 bd
       -0.024646142 -0.07929043 -0.0035115017 -0.03272006
000280 d6 a5 e3 3c aa af 56 3c 4b 6d 3d bc 3c dc 18 be
       0.027789038 0.013103405 -0.011561702 -0.14927763
000290 11 3a 71 be 80 c1 6c ba c8 6a 97 bd f4 56 26 3c
       -0.23557307 -0.00090315193 -0.07393414 0.010152567
0002a0 58 b8 25 bd d1 08 64 be fc da cb 3c d7 20 b6 bd
       -0.040459007 -0.22268988 0.024884693 -0.088929825
0002b0 1f 01 23 bc 20 24 3f 3c 55 c4 aa bc 42 93 b5 bd
       -0.009948998 0.011666328 -0.020845572 -0.08865978
0002c0 d4 a7 6f bd 5e 06 9e bb d8 70 09 bc 4c 50 98 bd
       -0.058509663 -0.0048225364 -0.00838872 -0.074371904
0002d0 4d 90 aa 39 40 70 83 ba c1 a0 f7 3c 7e dd 1e be
       0.0003253244 -0.001002796 0.03022802 -0.1551418
0002e0 5d ad 3f be b2 ce b7 bc 72 b9 9a 3c 60 f6 cd bc
       -0.18718477 -0.022437427 0.018887255 -0.025141895
0002f0 c3 24 93 bd cd ec 24 bd c6 e4 a5 bd 6c b5 e3 bd
       -0.07184746 -0.040264893 -0.08100276 -0.11118588
000300 46 8c 32 be 48 e9 c8 bd 00 08 10 38 7c cd 5c 3a
       -0.17436323 -0.0981012 3.4339726e-05 0.00084229535
000310 db 00 bc bd d3 49 54 bd 25 6a 8b be 1a 79 bc bb
       -0.09179851 -0.051828217 -0.2722942 -0.005751741
000320 07 47 03 3d 2c f6 32 bd 5a 1f 23 bd 69 7d 38 3d
       0.03205016 -0.0436918 -0.03982482 0.045041475
000330 df e5 23 3c 5e 93 d4 be f0 41 f6 bd 70 1c 54 bd
       0.010003536 -0.41518682 -0.12024295 -0.051784933
000340 69 f6 a8 bd 9f 01 37 be fc 91 00 3d 92 1c b3 3b
       -0.08250124 -0.17871712 0.03138922 0.0054660523
000350 62 41 5b bc 04 90 4d bd 9c 30 f0 bd a8 cb 01 bc
       -0.013382288 -0.050186172 -0.117280215 -0.007922091
000360 47 65 1e be a3 35 82 bd ed e8 2d be 41 61 b0 bd
       -0.15468322 -0.06357887 -0.16983385 -0.086123
000370 b6 03 73 bd 9c 0d 48 bd 6f cc 67 bd e4 ea f9 3c
       -0.05932971 -0.048841104 -0.056591447 0.030507512
000380 e4 33 c0 3c 9c 83 ba bd 02 33 f5 bd 91 1a d9 bd
       0.023462243 -0.09107134 -0.119726196 -0.1060077
000390 5c 96 3c bd 79 8d a1 3c 20 19 b3 3b 17 0b f2 bd
       -0.04604183 0.01972078 0.0054656416 -0.118185215
0003a0 75 ee 9a bd 72 fe 26 3d 20 05 2d 3c 7f 7e e0 3c
       -0.07565013 0.04077 0.010560304 0.027404068
0003b0 07 88 fd bc 5e dd bf bd fd b4 f7 bd bd 0e d4 bd
       -0.030948652 -0.09368394 -0.12095068 -0.103543736
0003c0 1c b2 90 bd 8b 98 a5 bd 01 fc 64 3d 36 a8 48 bd
       -0.07065222 -0.08085736 0.055904392 -0.048988543
0003d0 99 f9 71 bd 06 ce 0d bc b3 26 8a bd 1f e6 96 bd
       -0.059075925 -0.008655077 -0.067456625 -0.07368111
0003e0 b1 2d 80 3c 14 cb 0c be c2 ed 3d be e8 ae 63 bd
       0.015646787 -0.13749343 -0.18547729 -0.055586725
0003f0 ee c8 13 bd 4c c6 75 bd fa 13 b7 bd 46 2b de 3a
       -0.036080293 -0.060003564 -0.08939357 0.0016950152

out_n.0.bias f4 [100]
000000 91 b3 33 be 08 cf 09 3d 22 79 a4 3d c2 69 2d bd
       -0.17548968 0.033644706 0.08030917 -0.042337187
000010 58 5b 4f 3d b3 f6 64 3d d8 0e c9 bd 31 e4 92 3d
       0.05062422 0.055899333 -0.09817284 0.0717243
000020 d8 6f 84 bd ad 56 ff 3d 59 ff 69 bc d0 36 49 bc
       -0.06466645 0.12467704 -0.014282071 -0.012281135
000030 c3 fb c1 3c b9 a2 b6 bd e3 ae 05 3e 7d 0b 5e bc
       0.02367962 -0.08917756 0.13054995 -0.013552544
000040 32 98 dd 3d 2f 81 dc bb e3 0e 85 bc 87 7e 78 3b
       0.108200446 -0.006729267 -0.01624245 0.0037917213
000050 4e 59 1c 3b 4f ae d2 3d 73 04 74 bd b3 75 a3 bc
       0.002385694 0.10287153 -0.059574556 -0.019953584
000060 1a 43 3b bc 1c ca 32 bd 5f ed 11 3d 14 b5 8a 3c
       -0.0114295725 -0.043649778 0.035626765 0.016932048
000070 5f af 9d 3d 8a 41 58 3d ab ca 4d bd 5c 96 4b 3d
       0.07699465 0.052796878 -0.050242107 0.04970394
000080 52 19 c3 bc 73 8d 84 3d 27 a9 59 3b 97 e9 9d bc
       -0.023815785 0.06472292 0.0033212395 -0.019276423
000090 2a dc 98 bb 3a 3f 6a bc 91 dc 64 3c 98 3a 59 bd
       -0.0046649175 -0.014297301 0.013968603 -0.053034395
0000a0 4f d2 b8 bc ee 76 8e 3d f0 2a b6 3b 66 4e b2 bc
       -0.02256122 0.06956278 0.005559318 -0.021765899
0000b0 ff 95 a5 bd c7 fe 20 bd 6c 28 16 bd ae c7 f6 3c
       -0.0808525 -0.039305475 -0.036659643 0.030124512
0000c0 de b9 11 3d be 14 7f bc 55 c1 0d bc 53 c8 38 bd
       0.035577647 -0.01556891 -0.008652051 -0.04511292
0000d0 21 66 ce 3c 35 be 96 bd 43 93 b8 3b af 70 c6 bc
       0.025195183 -0.07360498 0.0056327893 -0.024223654
0000e0 0d 58 ab bc 87 a6 01 bd 09 8d 80 bb 2e 54 1d bd
       -0.02091601 -0.031652953 -0.0039230627 -0.038410358
0000f0 f5 72 79 bd 58 e0 82 3d 3c 8c 76 bd 55 fb 8a 3d
       -0.060900647 0.063904464 -0.06019233 0.06786219
000100 e1 11 87 bd aa 2a 2d bd 75 0b 95 3d fa ae 13 bd
       -0.06595207 -0.042277016 0.07277576 -0.036055543
000110 7e 00 e2 3a 32 6b 02 3c ea b2 63 bc d6 2c 03 3c
       0.0017242578 0.007960128 -0.013897637 0.008006295
000120 23 3c 6e bc c6 38 12 3d f6 47 7b bc 69 14 d0 bd
       -0.014540705 0.035698675 -0.015336981 -0.10160143
000130 05 13 ae 3d ca c6 19 bd 82 a4 43 3d f2 88 bb 3c
       0.084997214 -0.037543096 0.04776431 0.022892449
000140 69 55 e0 3c 87 bf 1b 3d 44 e6 49 3c c6 2c 95 3d
       0.027384477 0.03802445 0.012322966 0.072839305
000150 25 94 fc bc 2b e3 92 3d e0 c2 79 bd 2a ae 5a bb
       -0.03083236 0.07172235 -0.060976863 -0.003336797
000160 3f c9 f4 bc 70 15 8c 39 4b 27 2d 3c c2 0d 9a 3d
       -0.029881118 0.00026718853 0.01056845 0.07522155
000170 04 e4 f2 bd 4f 78 89 3d da 8f 86 3d 0a 66 04 be
       -0.11859897 0.067124 0.06570406 -0.1292955
000180 6c f4 a3 3d 95 ab 86 3d 04 aa 3e 3c 16 95 0a be
       0.08005604 0.065756954 0.011637215 -0.13533434

out_d.0.weight f4 [100, 256]
000000 54 4b ec 3c 72 b8 75 bd db 99 08 3b 68 f1 c0 bd
       0.028844513 -0.059990354 0.0020843658 -0.094210446
000010 b9 20 94 3d 1a b5 02 3d 78 1c cc 3c f9 1a e7 bb
       0.07232804 0.031910993 0.024915919 -0.007052776
000020 86 9e c3 bc dd ab 81 bc 55 29 50 bc c1 d6 98 3b
       -0.0238793 -0.015829021 -0.012705167 0.0046642725
000030 40 46 3b 3c 76 90 93 bc b4 d6 12 3d 2f 80 60 bc
       0.011430323 -0.01801322 0.035849288 -0.013702436
000040 3f 86 3a bb 60 cc 80 3a d1 1a c0 ba 78 9a bf bc
       -0.0028461365 0.0009826533 -0.0014656429 -0.023389086
000050 e2 03 ba bc 69 08 54 bd 97 b6 5f bd fc d6 2c 3d
       -0.02270693 -0.051765833 -0.05461749 0.042197213
000060 a9 7c c6 bb a3 b2 f3 bb 96 36 77 bc 6f a7 1a bd
       -0.006057341 -0.0074370666 -0.015088698 -0.037757333
000070 11 1c 9e bc 02 d6 1e bd 60 74 8c bd 53 f3 10 bd
       -0.019300492 -0.038778313 -0.06858134 -0.035388302
000080 2f a7 c9 3c 8c 99 58 bd e7 5c 8d bd bb 92 0b 3d
       0.024615852 -0.05288081 -0.06902485 0.03407548
000090 80 89 0d bd de 9d 2c bb 4d 51 d6 3c 04 6c d9 3c
       -0.03455496 -0.0026339213 0.026161814 0.026540764
0000a0 bd 35 bf 3c 60 d5 12 3b 2e eb 96 3c d0 09 37 bd
       0.023341054 0.0022405013 0.01842269 -0.044687092
0000b0 5a 1b 79 bd 7f d4 a2 bd e9 af ad 3c 03 22 7b bb
       -0.0608171 -0.07950687 0.021202045 -0.0038319833
0000c0 b3 86 bf 3c 89 83 d3 bc d3 96 29 3c cb 83 14 bd
       0.02337966 -0.025819557 0.010350901 -0.0362585
0000d0 d9 ee 17 bd 09 cc 5f bd 3c bc 8d 3c 0b 6e 54 bd
       -0.037093017 -0.054637942 0.017301671 -0.051862758
0000e0 5c ac df bc fd dd 39 3d d0 10 81 bd 1f 68 fa bc
       -0.027303867 0.04537772 -0.06302035 -0.030567227
0000f0 bb 16 75 bc 9c b3 48 3d 49 06 33 3a 22 bb 20 bd
       -0.014959033 0.048999414 0.00068292447 -0.039240964
000100 2a a7 97 bd d1 78 7d bd c8 a3 0a bd 5c ec 12 3d
       -0.07404931 -0.061882798 -0.0338476 0.03586994
000110 91 c0 90 3c 1b 1a 8c 3d 6e 1d cf 3c 38 2c 23 3c
       0.017669948 0.06840917 0.025282588 0.009959273
000120 01 c1 4d 3b e8 2c 0b 3d 81 b1 87 bd 00 1b 28 ba
       0.0031395557 0.033978373 -0.06625653 -0.0006412715
000130 13 0f 10 bd 7b 22 90 bd f6 41 d1 3c 34 d8 84 3d
       -0.035170626 -0.07037827 0.025544148 0.0648655
000140 2d 7a 21 3d ad 86 fd 3b 8d a4 20 3d de f6 03 bd
       0.039423157 0.007737002 0.039219428 -0.032217853
000150 f6 9e e7 ba 0e 7e e4 3c f3 a9 dd bc e4 92 95 bc
       -0.0017671275 0.027892139 -0.027058577 -0.01825852
000160 80 4a ef 3a b4 fb 36 3d 2c 79 d3 3c a4 10 59 bd
       0.0018256456 0.044673637 0.025814615 -0.052994385
000170 64 99 b4 bc 87 4b 04 bd 48 64 50 bd 59 ab b2 bd
       -0.022045799 -0.03229859 -0.050876886 -0.08724088
000180 97 46 66 bd ad f2 c9 bc ec de 5c 3d b4 6c d7 bc
       -0.056219663 -0.02465185 0.053923532 -0.02629695
000190 8f 39 a4 bc 13 78 28 3d f6 7b b5 3c 2e 58 ab bc
       -0.020046977 0.041130137 0.022153836 -0.02091607
0001a0 80 df 91 bc b4 dc d1 3a 93 18 3b bd 80 26 43 bc
       -0.017806768 0.0016011209 -0.045677733 -0.011911035
0001b0 d8 70 87 3d ed 71 8e bd 4e c8 b0 3c 34 97 5c 3d
       0.0661332 -0.06955323 0.021579888 0.053855136
0001c0 14 04 a6 bd 28 7a 88 bc 75 4e c1 bc 39 60 18 3d
       -0.081062466 -0.016659811 -0.023596982 0.03720114
0001d0 d1 67 45 bd fc e5 61 bd fd 6d a0 3c 51 06 02 3d
       -0.04819471 -0.05515097 0.019583696 0.031744305
0001e0 d4 2f 3a bc d2 a9 55 bd c0 58 27 3d 24 3f 5a 3d
       -0.011363942 -0.052163906 0.040856123 0.05328287
0001f0 3f f0 62 3c 59 98 36 3d 26 e0 f5 bc 23 42 8e 3c
       0.013851224 0.044578884 -0.030014109 0.01736552
000200 c3 51 a5 bd 78 fb 04 3c 38 15 9d bb a1 78 12 bd
       -0.080722354 0.008116595 -0.0047937892 -0.035759572
000210 1e b5 4a bd dc 1a 25 3d 6a 61 13 3d d7 1b 41 bd
       -0.049489133 0.04030882 0.035981573 -0.04714569
000220 dc bf 5a bd fe 32 5e bd ae 84 33 3d 26 ed 35 bc
       -0.053405628 -0.05424785 0.043827705 -0.011103904
000230 df 90 33 bd fc 28 c8 bc 5a 4c 0c 3d e2 bb 22 3c
       -0.04383933 -0.024433605 0.034252502 0.00993249
000240 e1 d2 25 bd aa b5 97 3c 81 5b 3d 3d e2 c5 d8 39
       -0.040484313 0.018519241 0.046229843 0.00041346165
000250 f6 da 43 3d 6c fa 4d 3d 84 3c 46 bd 82 56 b4 3c
       0.04781624 0.05028765 -0.048397556 0.022013906
000260 42 85 90 bc 7f 23 3e bd 0e 1d 6a bd bd 98 f5 3b
       -0.017641667 -0.04642057 -0.057156615 0.0074950145
000270 a3 38 92 bc 74 e0 1a 3c b9 03 bc bb c8 e7 38 3d
       -0.017849272 0.009452928 -0.0057377485 0.04514292
000280 71 f3 19 bc 91 b9 8b bc aa 8c 47 3d e7 68 86 3d
       -0.00939642 -0.017056258 0.048718132 0.06562977
000290 e3 c3 a9 3d 90 38 a0 3b 6e b5 87 3c 6a b6 e8 bc
       0.082893156 0.0048895553 0.016566005 -0.028407294
0002a0 f1 a4 2d 3d b3 51 1f bb a5 29 73 bd 1c 5f e6 bb
       0.04239363 -0.002431017 -0.059365887 -0.007030381
0002b0 10 1e 1f bd 38 76 85 bc 40 fd 76 bd b8 6d 19 bd
       -0.03884703 -0.016291723 -0.06030011 -0.03745815
0002c0 90 db 16 bd 45 0c 00 3c 9c d3 8c bc 2c 7b 77 bc
       -0.036830485 0.007815425 -0.017190747 -0.01510505
0002d0 60 21 20 3c 88 0b 58 bd 01 59 8f 3c 2b fa a0 bd
       0.009773582 -0.052745372 0.017498495 -0.07860216
0002e0 a1 30 ec bc 5e ca 9e bc cc 78 23 3d 60 c6 da bc
       -0.028831782 -0.019383606 0.039910123 -0.02670592
0002f0 19 b1 9e bd 22 a1 43 3c 23 c1 b0 3c 50 b6 97 3c
       -0.077486224 0.0119402725 0.02157647 0.01851955
000300 74 ba ef bb e1 b2 3f bd 44 57 47 bd e3 07 dc bc
       -0.007315928 -0.04680145 -0.048667207 -0.02685923
000310 29 e6 79 3d a9 34 85 bc b7 33 be bc ba 91 64 3d
       0.061010513 -0.016260462 -0.023218019 0.05580304
000320 a8 41 01 bc 48 c2 e4 3c 96 81 1d bd 20 e4 2e bd
       -0.007889189 0.027924672 -0.03845366 -0.042698026
000330 c4 d7 12 3d 6c 8c 96 bd 17 4d 92 bd 59 91 46 3d
       0.0358503 -0.07351002 -0.0714361 0.048478458
000340 0b ac 83 3d 90 d9 8d bd 13 8e 6b 3c ed 71 2f bd
       0.06429299 -0.069262624 0.014377135 -0.042833257
000350 2f ea a6 bc b7 e2 94 bb 56 d9 e9 bc 84 8f e7 bc
       -0.02037534 -0.004543628 -0.028546017 -0.028266676
000360 5a 39 06 bd 6c 93 93 bd 65 6f 2f bb b5 23 ac 3b
       -0.03276954 -0.07205853 -0.0026769277 0.00525328
000370 aa 8a c1 3c 39 15 9b bd f4 cc 10 bd e5 b0 06 3d
       0.02362569 -0.07572407 -0.03535171 0.032883544
000380 a4 b6 f1 bc 0c b7 4b 39 b8 55 18 bd ff 8d bc bc
       -0.029506035 0.00019427779 -0.037191123 -0.023016928
000390 94 e8 04 3d e3 c6 39 3d e6 48 59 bd 16 43 20 bd
       0.032448366 0.04535569 -0.053048037 -0.039126478
0003a0 d4 66 00 3c 88 8b c7 3c b5 c2 39 3d 34 2e 85 bd
       0.007837016 0.024358526 0.045351703 -0.06502953
0003b0 e1 f5 21 3d 84 a8 f3 3c 9d 07 8f bd 5c 6e 6f 3c
       0.03954113 0.02974344 -0.06983874 0.014613714
0003c0 09 7c 35 3d 40 af de 3b e7 bd 25 3d 9c a4 2b 3d
       0.044307742 0.006795794 0.040464308 0.04190503
0003d0 d3 bd 14 3d c6 06 73 3c 0d 8b b6 3c c8 5b 84 bd
       0.036313843 0.014833158 0.022283101 -0.064628184
0003e0 b1 79 48 3d 63 66 fb bb 3a 2e da 3c 38 d1 10 3d
       0.04894418 -0.0076721176 0.02663337 0.035355777
0003f0 b1 4a ca bc 8a 43 09 bd 17 c2 c4 3c 5b c7 dd 3c
       -0.024693819 -0.033511676 0.02401833 0.0270726

out_d.0.bias f4 [100]
000000 d5 af 2b bd 89 f4 ac bc c4 60 95 bc 1b b1 1f 3d
       -0.041915733 -0.021112697 -0.018234618 0.03898726
000010 ed a6 bd 3d e9 0d 03 3d a0 1e 16 3d ff d1 47 bd
       0.09260354 0.031995688 0.0366503 -0.048784252
000020 88 7a b0 bc 62 ea b4 bc 42 81 f7 bb 38 30 19 3d
       -0.021542802 -0.022084419 -0.0075532505 0.0373995
000030 cc 73 15 bb 16 6c 54 bc 93 6b 41 bd e0 b7 88 bd
       -0.0022804616 -0.012965223 -0.04722173 -0.066756964
000040 b1 27 56 3d 50 1a 18 bd 71 88 6f 3d 43 40 38 3d
       0.052283946 -0.03713447 0.05847973 0.04498316
000050 6f 95 4a 3d 6a 33 5d bd 56 bd 05 bd 80 d4 03 bd
       0.049458917 -0.05400411 -0.032651268 -0.032185078
000060 6c e5 79 3d 9c e2 8d bb 1d 39 26 bc 90 b1 8d 3c
       0.06100981 -0.0043299925 -0.010145453 0.017296582
000070 58 86 6b 3d 96 00 66 3d 6a 7e e8 3c 6b 07 1f bd
       0.057501167 0.056152903 0.028380591 -0.038825434
000080 4f 01 bc bc d3 13 f6 bc 1e f5 48 bd 5c 70 2c 3d
       -0.022949843 -0.03003875 -0.049061887 0.04209934
000090 0f 71 b1 bc 51 59 64 bb cb 7a 5a bc 62 82 55 bc
       -0.021660356 -0.0034843276 -0.01333494 -0.013031574
0000a0 6c a1 72 3d be ff 58 bd 65 c8 8c 3c 93 fd 45 3d
       0.059235975 -0.05297827 0.0171854 0.04833753
0000b0 8a a5 60 bd 2b ff 58 bd 8b b3 0f 3c a4 95 3d bd
       -0.05484537 -0.052977722 0.008770834 -0.046285287
0000c0 b9 33 5e 3d d8 2e 82 bd 5e 8c fb 3c 8b 79 03 3d
       0.054248545 -0.06356591 0.03070658 0.032098334
0000d0 d3 a7 65 3c 8d 87 47 bd e2 ee c9 bc 54 d4 1a bc
       0.014017063 -0.048713256 -0.024650041 -0.009450037
0000e0 0d 9c 09 bd ab 69 42 bd 36 80 47 3d b1 54 18 bd
       -0.033596087 -0.047464054 0.048706256 -0.037190143
0000f0 3b 3a cc 3a eb d7 d6 bc 5d ca 5d 3d 1b 6c 4b bd
       0.0015581319 -0.026226005 0.054148067 -0.049663644
000100 68 cf 9e 3a d3 59 37 bc 82 62 0a 3c d1 ec 3d bc
       0.0012116255 -0.011190849 0.008446338 -0.011592106
000110 87 17 0c bc 95 c3 a7 3b 41 2e 95 3c 34 ed a7 bc
       -0.008550531 0.0051197507 0.018210532 -0.02049885
000120 c6 14 ee bb 62 80 9e 3c c2 6e 15 3d d1 a9 d8 3c
       -0.00726566 0.019348327 0.03648258 0.026448162
000130 67 00 8c bb 61 bb 12 bd b2 39 27 3d a9 41 63 3b
       -0.004272509 -0.03582323 0.040826507 0.0034676588
000140 94 01 17 bb e6 e5 b0 3c ff 58 18 bd f1 6c 5a 3d
       -0.0023041712 0.021594 -0.03719425 0.05332655
000150 2b 9f c7 38 fb 39 04 bc 5c 7f 71 bc 9c 99 64 3c
       9.518707e-05 -0.008070464 -0.0147398375 0.013952639
000160 47 19 05 3d 75 a1 07 3d 48 f4 30 bd 60 33 36 bc
       0.03249481 0.03311296 -0.043201715 -0.011120647
000170 e2 32 ba 3b 45 73 88 3d 93 68 47 bc dc 59 59 3d
       0.0056823352 0.06662611 -0.0121709285 0.053064212
000180 7d 07 39 bc 8c f6 7d 3c ef a0 de bc 28 26 ab bd
       -0.011293289 0.015500676 -0.027176348 -0.08356887
