ch3_figures_output_tuned/model_100L_exp.pth (torch, 576111 bytes, 8 tensors)

backbone.0.weight f4 [256, 100]
0.07694501 0.015274715 0.061698794 -0.07676172 -0.11702888 0.024660654 0.028384337 0.029043771
-0.04188102 -0.07789121 -0.06238598 0.012753107 0.018003825 -0.013274459 0.059836622 -0.05877738
-0.08779904 -0.06928153 -0.0156105105 -0.039839488 -0.043773506 0.013399532 0.037055027 0.042199485
-0.04619216 0.0030324887 -0.04560521 -0.110114396 0.09585724 -0.060068164 -0.05376347 0.07694476
0.09064393 0.02987292 0.010733413 0.08375399 0.06380511 0.028042478 -0.028713863 -0.04821491
-0.017252669 0.034456298 -0.003540492 -0.020446505 0.019782666 -0.015750391 -0.094667986 -0.03827873
0.0055715786 0.05161693 -0.048856296 -0.12968017 0.014324367 -0.01779523 0.010382805 -0.0682655
0.03712078 -0.12875727 -0.052174546 0.031852376 -0.12795655 0.06232985 -0.025869822 0.09755593
0.022498313 0.039474472 0.0046736817 0.034186676 -0.036845922 0.0343128 0.032890625 0.037894417
-0.028088022 0.051420465 0.09355223 -0.023741264 0.12332989 -0.03762981 -0.053397488 -0.04635717
-0.064831644 -0.02294863 0.11446426 0.052804884 -0.0067340396 0.07307419 0.12612832 -0.114419095
-0.033844117 0.0029829796 0.053639174 0.06051303 0.11608199 -0.02922829 0.03174111 -0.041538075
0.047848925 0.05504285 0.0532345 -0.052201595 0.09444828 0.07420202 -0.016766846 -0.0010922194
-0.049768545 0.011950433 -0.044195857 0.023310507 -0.089232996 -0.014585877 -0.0023605227 0.085352436
-0.0360376 -0.056854546 0.06736034 0.040593278 -0.042058837 -0.021153916 -0.008379936 -0.0007483244
0.033947494 0.061114203 -0.07810762 -0.052766036 -0.058930993 -0.01628288 0.029781628 -0.06295474
0.033648133 -0.0714759 -0.01564293 0.051737156 -0.02653482 -0.01772654 0.07088085 -0.021909868
0.093039 0.037457623 -0.04714067 -0.054132797 -0.09736802 -0.080905356 0.0041045905 -0.051706266
-0.00062068703 -0.0023868443 0.08708351 -0.0044169785 0.042585146 -0.094234005 0.065736495 0.029900825
-0.054256298 0.046721626 -0.009273387 -0.055385243 -0.044286825 0.06850209 0.023623073 -0.02057612
-0.007878089 -0.044495035 0.06767831 0.04371759 0.0011852265 -0.06491492 0.020186294 -0.08695252
-5.7816505e-05 -0.073939934 0.010228909 -0.070546046 -0.039915394 0.06617693 -0.04557947 -0.031652845
0.04055169 -0.006531823 0.02680415 -0.008346009 0.09430095 -0.032620966 0.091393426 0.07296932
-0.003804934 0.024750281 -0.065528326 -0.0872853 -0.06559376 0.060597446 -0.013098932 0.08026588
0.05791235 -0.027966475 -0.08823966 -0.012542784 -0.011539841 -0.08363318 -0.017193878 0.05100272
-0.058856025 -0.015745923 0.0057125883 -0.094852686 0.029820397 -0.0038142337 0.021319222 -0.036258437
-0.027862553 -0.060531642 -0.037579354 -0.026597867 -0.022375157 -0.05624776 0.07925965 -0.09462047
-0.019467518 0.07614334 0.04578293 -0.06696428 0.02740423 -0.028889038 0.04809195 -0.0039068973
0.08145187 -0.026294509 0.079921365 -0.021213595 -0.03635271 -0.06819543 0.083110474 0.058720294
-0.021924807 -0.10125326 0.063500315 0.056096334 -0.019411543 0.042085085 -0.022716241 -0.08600875
-0.05413825 -0.10017133 0.09731289 0.004883226 -0.022272673 0.035528775 -0.062218376 -0.03632479
-0.017002834 -0.0969746 0.10531114 0.020498127 0.07472141 0.009838569 0.07171944 -0.09088389
00000000: 5895 9d3d cc42 7a3c e0b7 7c3d 4035 9dbd
00000010: d6ac efbd 2405 ca3c 4586 e83c 34ed ed3c
00000020: 6f8b 2bbd 6d85 9fbd 7188 7fbd 68f2 503c
00000030: c27c 933c 1e7d 59bc 3f17 753d 8dc0 70bd
00000040: fccf b3bd 7ae3 8dbd 3ac3 7fbc bb2e 23bd
00000050: d94b 33bd b689 5b3c 03c7 173d 5ed9 2c3d
00000060: fe33 3dbd b8bc 463b 87cc 3abd a883 e1bd
00000070: cd50 c43d 090a 76bd 1637 5cbd 3795 9d3d
00000080: 86a3 b93d 0eb8 f43c 32db 2f3c 3687 ab3d
00000090: 41ac 823d 57b9 e53c 5639 ebbc ff7c 45bd
000000a0: 7855 8dbc 0c22 0d3d 9907 68bb 6e7f a7bc
000000b0: 420f a23c f706 81bc 4ae1 c1bd 28ca 1cbd
000000c0: ca91 b63b 466c 533d 8a1d 48bd e1ca 04be
000000d0: c0b0 6a3c 4dc7 91bc a41c 2a3c c8ce 8bbd
000000e0: f60b 183d f2d8 03be fab4 55bd a377 023d
000000f0: 0b07 03be 964d 7f3d f3ec d3bc 67cb c73d
00000100: 624e b83c fcaf 213d af25 993b 5407 0c3d
00000110: c0eb 16bd 948b 0c3d 52b8 063d 2d37 1b3d
00000120: da18 e6bc 449e 523d 5098 bf3d 0a7d c2bc
00000130: 6294 fc3d b721 1abd 53b7 5abd 04e1 3dbd
00000140: 74c6 84bd c4fe bbbc 3d6c ea3d ef49 583d
00000150: 38a9 dcbb eca7 953d c827 013e 8f54 eabd
00000160: 21a0 0abd 187e 433b c0b4 5b3d 83dc 773d
00000170: 65bc ed3d 2b70 efbc f702 023d d423 2abd
00000180: 3cfd 433d 9d74 613d 6b0c 5a3d 57d1 55bd
00000190: 1a6e c13d 3bf7 973d a05a 89bc cd28 8fba
000001a0: 1ada 4bbd c0cb 433c b706 35bd adf5 be3c
000001b0: cabf b6bd 9af9 6ebc 00b3 1abb 42cd ae3d
000001c0: 2a9c 13bd 50e0 68bd 38f4 893d 2345 263d
000001d0: e345 2cbd fa4a adbc 004c 09bc 332b 44ba
000001e0: 870c 0b3d e352 7a3d e3f6 9fbd 3321 58bd
000001f0: a061 71bd ad63 85bc 9af8 f33c 6aee 80bd
00000200: a0d2 093d f561 92bd 9a25 80bc 57ea 533d
00000210: 8d5f d9bc 4037 91bc fb29 913d 537c b3bc
00000220: 3b8b be3d 2a6d 193d 9316 41bd 5aba 5dbd
00000230: e268 c7bd b5b1 a5bd cd7f 863b f3c9 53bd
00000240: 9ab5 22ba 9a6c 1cbb d758 b23d 4dbc 90bb
00000250: c36d 2e3d c2fd c0bd dba0 863d 93f2 f43c
00000260: da3b 5ebd 2d5f 3f3d 67ef 17bc a3db 62bd
00000270: 1a66 35bd d34a 8c3d 2d85 c13c 408f a8bc
00000280: 1a13 01bc 6d40 36bd ed9a 8a3d 3711 333d
00000290: 9a59 9b3a 1df2 84bd ba5d a53c 2a14 b2bd
000002a0: 0080 72b8 d26d 97bd 2797 273c 727a 90bd
000002b0: 537e 23bd c587 873d 8ab1 3abd 6aa6 01bd
000002c0: 8719 263d e708 d6bb 6094 db3c b3bd 08bc
000002d0: db20 c13d 909d 05bd 7a2c bb3d f070 953d
000002e0: 335c 79bb 1ac1 ca3c b733 86bd a3c2 b2bd
000002f0: 0556 86bd 0735 783d e79c 56bc 7062 a43d
00000300: 8035 6d3d f319 e5bc ffb6 b4bd 4080 4dbc
00000310: 9a11 3dbc df47 abbd 2dda 8cbc 3ae8 503d
00000320: 0413 71bd 98fd 80bc aa30 bb3b 2042 c2bd
00000330: e849 f43c 39f8 79bb a6a5 ae3c ba83 14bd
00000340: 0240 e4bc 07f0 77bd cfec 19bd c5e3 d9bc
00000350: 1b4c b7bc 0d64 66bd e252 a23d 61c8 c1bd
00000360: 587a 9fbc 0af1 9b3d e286 3b3d 9224 89bd
00000370: d67e e03c b4a8 ecbc 11fc 443d 6e05 80bb
00000380: 3dd0 a63d 9567 d7bc d0ad a33d 22c8 adbc
00000390: 94e6 14bd 0caa 8bbd d335 aa3d b184 703d
000003a0: a79b b3bc df5d cfbd 740c 823d 45c5 653d
000003b0: f504 9fbc 6961 2c3d 6917 babc 5b25 b0bd
000003c0: 12c0 5dbd a026 cdbd fb4b c73d 7803 a03b
000003d0: 2e75 b6bc 9f86 113d b2d8 7ebd 4ec9 14bd
000003e0: 8749 8bbc 9e9a c6bd 5ead d73d b0eb a73c
000003f0: 8a07 993d f331 213c a4e1 923d 5521 babd

backbone.0.bias f4 [256]
0.02698613 -0.0291353 -0.10394383 0.06930338 -0.0039086323 -0.021148888 -0.05947995 -0.011324253
-0.028041027 0.05421929 -0.10797319 0.009557899 0.0755859 0.079591595 0.019647917 0.024861846
-0.06611308 0.023715984 -0.07007235 -0.08838128 -0.044284858 -0.08970282 -0.01735611 -0.01322068
0.065529406 -0.050255585 -0.079396926 -0.08812753 0.053373013 -0.0742669 -0.02692679 -0.09556996
-0.011445162 0.017089915 -0.026314301 -0.01457969 0.005163124 0.048741914 -0.11599332 -0.073457256
-0.06824014 -0.012171782 -0.08453854 0.035292912 0.092723794 -0.12684336 0.024976647 -0.0016145349
-0.085839175 0.043027535 -0.017417546 -0.063989244 -0.093495674 0.048306134 -0.005774749 -0.034620047
0.057489704 0.008730984 0.062060017 -0.12370232 0.054004926 0.019456312 -0.0935139 0.09401238
0.066260256 -0.007918408 -0.019537007 -0.021605527 -0.095388524 0.0648753 -0.09187552 -0.03680586
0.02234505 -0.046006415 0.089535095 -0.05074576 -0.030655777 0.075224645 -0.05251168 0.056889694
0.0890802 -0.028925514 0.07199903 0.0732943 0.013110141 -0.05692809 -0.037628967 0.02367315
-0.07995998 -0.07424583 -0.06208422 -0.030759025 0.051382553 -0.0072145346 -0.009442056 -0.058754455
0.07204776 0.056516398 0.033858337 -0.04369911 -0.061940175 -0.06347813 -0.09612981 0.067639396
-0.0015900756 0.057015955 -0.021853615 -0.039689448 -0.08387923 -0.06080525 -0.038369726 0.017921602
0.0901497 0.011390353 0.07895452 0.028929932 0.0920942 -0.02484746 0.07186601 0.041216273
-0.017474568 -0.041294288 0.017548228 0.010463345 -0.079908475 0.013013396 0.029618362 -0.006793377
-0.052806664 -0.01119138 -0.08476903 0.010994615 -0.005564213 0.012344646 0.073416546 0.052605104
0.05660495 0.0066814064 -0.030858004 -0.0041802167 0.036365505 0.060761053 -0.047936846 -0.10402009
-0.06501203 0.043881536 -0.09468017 0.100844026 0.062872365 -0.13216774 -0.020537782 -0.07078798
0.06777678 -0.06604701 -0.11581771 -0.06240052 -0.0490613 0.048809618 -0.046595942 -0.028133823
-0.09180317 -0.02673497 0.004860728 0.056144133 -0.087687075 0.01237272 -0.0035988092 0.0060837376
-0.025072945 0.07830124 -0.0035197972 -0.026253616 -0.086570434 -0.06995994 -0.0076330844 -0.12542929
0.065329514 -0.04978155 0.06546801 0.06980618 0.082754485 0.09410552 0.05244026 -0.08884253
-0.025577363 -0.051921394 0.07935237 0.034959126 -0.010102359 0.08704772 0.05698742 -0.07877575
-0.03621607 -0.093074374 -0.044579152 -0.01270456 0.08781012 0.08345628 0.0911888 -0.07976754
0.06067144 -0.032561507 -0.055455387 -0.05462947 -0.036867213 -0.07051927 0.027635168 0.029317869
0.09754657 -0.1087939 -0.09518522 -0.03169946 -0.03758421 -0.024462212 -0.035311904 0.032248396
0.020043036 0.06555098 0.054910004 0.08036697 0.08322229 0.006831849 -0.095421664 0.08183222
0.0023739338 -0.00035744905 -0.08479212 -0.093424596 -0.0865281 -0.09953059 0.01754756 0.074707486
-0.043765496 -0.027064374 -0.041065287 0.021590048 -0.07541255 -0.08104322 -0.060272455 -0.065105364
0.087383926 -0.059919205 0.088066675 -0.022397196 0.09322361 0.07160774 0.072786026 0.053644694
0.043292668 -0.09960332 0.0001486063 -0.09319293 0.08604663 -0.049333658 0.04908644 -0.10242701
00000000: 0412 dd3c 27ad eebc 81e0 d4bd eeee 8d3d
00000010: fc13 80bb 6f40 adbc 40a1 73bd 5c89 39bc
00000020: 4cb6 e5bc 0c15 5e3d 0c21 ddbd bc98 1c3c
00000030: c8cc 9a3d eb00 a33d abf4 a03c 12ab cb3c
00000040: 4b66 87bd 0648 c23c 1882 8fbd 3f01 b5bd
00000050: 0a64 35bd 1db6 b7bd 672e 8ebc 8d9b 58bc
00000060: 4834 863d cdd8 4dbd db9a a2bd 357c b4bd
00000070: a99d 5a3d 3f19 98bd 9295 dcbc 2fba c3bd
00000080: 7d84 3bbc 2600 8c3c 1791 d7bc a7df 6ebc
00000090: 6c2f a93b 9aa5 473d e88d edbd c270 96bd
000000a0: 7dc1 8bbd 276c 47bc 8b22 adbd 4d8f 103d
000000b0: f9e5 bd3d 3ae3 01be d39b cc3c cd9e d3ba
000000c0: 73cc afbd a43d 303d 3eaf 8ebc cb0c 83bd
000000d0: a97a bfbd a7dc 453d 1b3a bdbb c0cd 0dbd
000000e0: 537a 6b3d 670c 0f3c a532 7e3d a457 fdbd
000000f0: 4534 5d3d d862 9f3c 3784 bfbd 9089 c03d
00000100: 75b3 873d 36bc 01bc 130c a0bc 13fe b0bc
00000110: 0f5b c3bd 57dd 843d 3c29 bcbd bec1 16bd
00000120: f70c b73c 3971 3cbd 2d5e b73d c9da 4fbd
00000130: d321 fbbc 610f 9a3d 7d16 57bd 2b05 693d
00000140: ae6f b63d 33f5 ecbc 3a74 933d 521b 963d
00000150: ebcb 563c 6e2d 69bd d520 1abd 32ee c13c
00000160: 0fc2 a3bd 330e 98bd 064c 7ebd 5afa fbbc
00000170: 8376 523d e767 ecbb dab2 1abc 83a8 70bd
00000180: c78d 933d bd7d 673d 0aaf 0a3d d7fd 32bd
00000190: fbb4 7dbd d200 82bd b5df c4bd 8686 8a3d
000001a0: 156a d0ba 9089 693d 5a06 b3bc 6791 22bd
000001b0: e0c8 abbd ed0e 79bd 9329 1dbd 53d0 923c
000001c0: 68a0 b83d 9a9e 3a3c e8b2 a13d 77fe ec3c
000001d0: e29b bc3d e78c cbbc 7d2e 933d 65d2 283d
000001e0: d326 8fbc 3324 29bd 4dc1 8f3c 736e 2b3c
000001f0: 0ea7 a3bd 2436 553c 35a2 f23c fa9a debb
00000200: cd4b 58bd 0d5c 37bc 639b adbd c222 343c
00000210: 0054 b6bb 3341 4a3c 6a5b 963d 7378 573d
00000220: 98da 673d b3ef da3b edc9 fcbc 33fa 88bb
00000230: fff3 143d 95e0 783d 6d59 44bd 7c08 d5bd
00000240: 0725 85bd 20bd 333d ade7 c1bd 5087 ce3d
00000250: 3ac3 803d fb56 07be da3e a8bc 4af9 90bd
00000260: 8dce 8a3d a843 87bd d631 edbd b097 7fbd
00000270: 80f4 48bd 98ec 473d 63db 3ebd e778 e6bc
00000280: 4d03 bcbd 4c03 dbbc be46 9f3b 64f7 653d
00000290: 4895 b3bd f3b6 4a3c 00da 6bbb 175a c73b
000002a0: c765 cdbc 675c a03d 66ac 66bb d311 d7bc
000002b0: d74b b1bd 2847 8fbd f41e fabb 8970 00be
000002c0: 7bcb 853d bde7 4bbd 1814 863d 8bf6 8e3d
000002d0: 2f7b a93d 65ba c03d 99cb 563d 13f3 b5bd
000002e0: 9e87 d1bc 87ab 54bd 7f83 a23d 4d31 0f3d
000002f0: 5d84 25bc 1346 b23d a46b 693d 2e55 a1bd
00000300: 4d57 14bd c79d bebd a198 36bd c926 50bc
00000310: cbd5 b33d 20eb aa3d 32c1 ba3d 2a5d a3bd
00000320: 9e82 783d 375f 05bd 3025 63bd 27c3 5fbd
00000330: 1302 17bd 686c 90bd 2663 e23c 072c f03c
00000340: 7fc6 c73d 56cf debd 78f0 c2bd 4bd7 01bd
00000350: e7f1 19bd fa64 c8bc 37a3 10bd e516 043d
00000360: 4b31 a43c 983f 863d 50e9 603d 7097 a43d
00000370: 7370 aa3d b4dd df3b 6f6c c3bd a797 a73d
00000380: 0094 1b3b 0068 bbb9 7ea7 adbd 6555 bfbd
00000390: a535 b1bd b2d6 cbbd e7bf 8f3c 3d00 993d
000003a0: 7343 33bd 1bb6 ddbc 1334 28bd 9ddd b03c
000003b0: e571 9abd fdf9 a5bd 40e0 76bd f655 85bd
000003c0: 58f6 b23d d76d 75bd 4d5c b43d 537a b7bc
000003d0: 05ec be3d 14a7 923d d710 953d 8aba 5b3d
000003e0: a753 313d d3fc cbbd 33d3 1b39 efdb bebd
000003f0: 3739 b03d 1712 4abd dd0e 493d 41c5 d1bd

backbone.2.weight f4 [256, 256]
-0.04329659 0.035498254 0.07005546 0.0257583 0.023700414 -0.036966383 -0.023876429 0.012429741
-0.053712495 0.05246561 0.04771309 0.02574786 0.011414482 -0.060413465 -0.05250597 0.052259013
0.013785407 0.053710774 0.008897133 0.015387887 0.0072861016 -0.015359598 0.044894233 0.04446785
-0.006111346 -0.06066545 0.0034047365 0.031616323 -0.030822476 -0.009426795 -0.058939002 -0.036778957
-0.036651973 0.06587238 -0.0055488423 -0.02140516 0.013060051 0.048435383 -0.03631929 -0.047378518
-0.0131559605 0.05867953 -0.027412362 -0.007338397 -0.04655538 0.024659915 -0.01318871 0.024854355
-0.03180885 -0.032085493 0.039678298 0.019135376 -0.04291571 -0.030497039 0.034635466 0.030416109
0.018243434 -0.0077780634 0.013578133 0.022090212 -0.027894003 -0.047264606 0.0073367497 -0.056710757
0.049090087 0.0059359535 -0.06082856 0.006241657 0.057278812 -0.0005535409 -0.03601289 0.007995859
0.014368078 -0.0065667224 -0.049290635 -0.03466203 -0.017990276 0.058630925 -0.0055229217 -0.03715691
-0.06788105 -0.05519025 -0.044764265 -0.05350578 -0.06393393 -0.043835294 0.04962436 -0.022025015
-0.06895127 -0.027868196 -0.058538456 0.05201003 0.037256643 0.021928206 0.060058974 0.041589297
0.0003521368 -0.061095625 0.015959624 0.021582946 0.016231967 0.04453745 -0.033580698 0.044790752
-0.010632121 0.015075175 0.05124126 -0.056126706 -0.049678296 9.1694295e-05 -0.070215724 -0.030505776
-0.0607787 -0.039472267 -0.021704296 0.03134386 -0.047737673 0.025463447 -0.053552546 0.03353219
0.018262975 -0.02912432 -0.019678123 0.00982137 0.044252526 0.003649798 0.030574802 0.0015597714
0.066770226 -0.015783876 0.025345081 -0.038711905 0.000946708 -0.05086831 -0.025844403 -0.004938749
0.007465474 0.009146467 -0.04138699 -0.06022504 0.009687162 -0.050121713 -0.01054889 -0.051133282
-0.051746137 0.008911513 -0.001235418 -0.05179285 0.016039182 0.0038143902 -0.041294113 -0.060281806
-0.071109764 0.009834245 0.006391301 -0.014754325 -0.024386704 0.031570785 -0.021233737 0.057523653
-0.018455043 -0.0325244 0.05139995 -0.031060485 0.035476223 -0.047945395 -0.024080932 0.027135134
0.061897106 0.050753146 0.013120942 -0.03904379 -0.033569038 -0.05064831 0.0034715645 0.051562887
-0.011413872 -0.007419072 0.046169855 0.050222985 -0.050116166 -0.02659405 0.029186884 0.035558023
-0.025696464 0.052823104 0.020935982 0.049805276 -0.056900665 -0.018367678 -0.029692365 0.022635607
-0.015056454 -0.042180583 0.01829065 -0.03186432 -0.0397015 0.03972978 0.048324227 0.01250683
-0.02479302 0.035615537 0.02195929 0.022210583 0.0004951209 0.016653208 -0.010548243 -0.013484366
-0.062449835 0.026750386 0.013980977 -0.020838879 0.03351631 0.04145489 0.04059788 -0.012891333
0.01658162 -0.0014348149 0.019034818 0.056225076 -0.011122324 0.042286184 -0.024253085 -0.05286452
0.035289764 -0.012016907 -0.02648656 0.04445318 0.001587591 0.061369322 0.060142398 0.04307753
0.039396115 0.03843888 0.0066220504 0.035337675 -0.059235983 0.05057054 0.04996836 -0.055886336
-0.0009520098 -0.004612185 0.019337967 0.016558412 0.055198453 0.020785538 0.04309857 0.045174304
-0.061032947 -0.008335543 -0.04392314 0.02713421 0.060989037 0.061893225 0.045013286 -0.00047794852
00000000: c457 31bd 9e66 113d 3d79 8f3d 1203 d33c
00000010: 5f27 c23c 106a 17bd 8098 c3bc 1da6 4b3c
00000020: a201 5cbd 2ee6 563d cd6e 433d 2ded d23c
00000030: cf03 3b3c 1c74 77bd 8010 57bd 8c0d 563d
00000040: 30dc 613c d4ff 5b3d 48c5 113c 7a1d 7c3c
00000050: 40c0 ee3b d3a6 7bbc 04e3 373d ec23 363d
00000060: b041 c8bb 567c 78bd 0022 5f3b 1e80 013d
00000070: 6b7f fcbc d872 1abc 066a 71bd 88a5 16bd
00000080: 6120 16bd 19e8 863d 10d3 b5bb e059 afbc
00000090: d3f9 553c 2e64 463d 89c3 14bd fa0f 42bd
000000a0: 198c 57bc f259 703d e48f e0bc f076 f0bb
000000b0: dbb0 3ebd 9703 ca3c 7615 58bc 5c9b cb3c
000000c0: ff49 02bd 146c 03bd b685 223d cbc1 9c3c
000000d0: 62c8 2fbd edd4 f9bc ebdd 0d3d 342b f93c
000000e0: 4173 953c 20df febb d176 5e3c 88f6 b43c
000000f0: f781 e4bc 8898 41bd 1e69 f03b 8a49 68bd
00000100: b012 493d 6382 c23b 5e27 79bd d086 cc3b
00000110: 309d 6a3d 801b 11ba 4182 13bd 1001 033c
00000120: 1668 6b3c a92d d7bb fae4 49bd c6f9 0dbd
00000130: 5860 93bc fb26 703d a0f9 b4bb d831 18bd
00000140: 3805 8bbd 2c0f 62bd bc5a 37bd e028 5bbd
00000150: cbef 82bd a38c 33bd ea42 4b3d ce6d b4bc
00000160: 5336 8dbd d84b e4bc 05c6 6fbd 7808 553d
00000170: 6c9a 183d c8a2 b33c 6600 763d 8a59 2a3d
00000180: 009f b839 683f 7abd c2bd 823c b8ce b03c
00000190: e7f8 843c e76c 363d ea8b 09bd 8276 373d
000001a0: 5932 2ebc defd 763c 5be2 513d 1ee5 65bd
000001b0: 787b 4bbd 004c c038 43cd 8fbd 40e7 f9bc
000001c0: 16f3 78bd acad 21bd 35cd b1bc 6b62 003d
000001d0: 9488 43bd b898 d03c ea59 5bbd 0d59 093d
000001e0: 3c9c 953c 2096 eebc 0434 a1bc d0e9 203c
000001f0: 2342 353d 7331 6f3b 0278 fa3c 3e71 cc3a
00000200: d4be 883d 304d 81bc 7da0 cf3c 6090 1ebd
00000210: 802c 783a 4a5b 50bd a4b7 d3bc 3bd5 a1bb
00000220: efa0 f43b 10db 153c 6885 29bd 88ae 76bd
00000230: e7b6 1e3c 6d4c 4dbd 40d5 2cbc 2271 51bd
00000240: c2f3 53bd 9801 123c c0ed a1ba bd24 54bd
00000250: 9a64 833c d9fa 793b 0424 29bd 0eea 76bd
00000260: ffa1 91bd d01f 213c 1e6e d13b 20bc 71bc
00000270: a0c6 c7bc 5e50 013d 60f2 adbc ec9d 6b3d
00000280: 082f 97bc 4e38 05bd c188 523d 8f72 febc
00000290: 844f 113d 6462 44bd 6045 c5bc 804a de3c
000002a0: d287 7d3d 88e2 4f3d 38f9 563c 62ec 1fbd
000002b0: b07f 09bd 9a74 4fbd 3083 633b 9b33 533d
000002c0: 4001 3bbc b01b f3bb 9a1c 3d3d 9eb6 4d3d
000002d0: 9c46 4dbd c4db d9bc 5519 ef3c 4aa5 113d
000002e0: 6481 d2bc 0a5d 583d f081 ab3c 9e00 4c3d
000002f0: ac10 69bd d077 96bc 673d f3bc 4f6e b93c
00000300: 58af 76bc 8cc5 2cbd 46d6 953c 2984 02bd
00000310: 0a9e 22bd b2bb 223d a0ef 453d 72e9 4c3c
00000320: bb1a cbbc 99e1 113d f8e3 b33c f8f2 b53c
00000330: 00cb 013a 4f6c 883c 8ad2 2cbc 88ed 5cbc
00000340: 66cb 7fbd a023 db3c 7810 653c 4cb6 aabc
00000350: 6648 093d 9acc 293d f649 263d 2b36 53bc
00000360: 2dd6 873c 6610 bcba e8ee 9b3c 444c 663d
00000370: 683a 36bc 4734 2d3d 68ae c6bc 7888 58bd
00000380: 008c 103d 90e2 44bc 58fa d8bc 8a14 363d
00000390: b716 d03a 665e 7b3d e057 763d 1072 303d
000003a0: d25d 213d 1672 1d3d c9fd d83b 3dbe 103d
000003b0: 6ea1 72bd 0e23 4f3d a0ab 4c3d 12e9 64bd
000003c0: 4c90 79ba d021 97bb a86a 9e3c 82a5 873c
000003d0: c617 623d 6f46 aa3c 2088 303d b108 393d
000003e0: affd 79bd cd91 08bc c0e8 33bd 9048 de3c
000003f0: a4cf 793d c083 7d3d da5f 383d 2a95 fab9

backbone.2.bias f4 [256]
-0.02104119 -0.028780352 -0.098811954 -0.014928274 0.0023896992 -0.06923757 0.050828062 0.04169422
-0.031585395 0.03653158 -0.033553015 0.021858456 0.005741794 0.033045843 -0.041967556 -0.010417964
-0.07197453 0.0066820984 0.029375482 -0.0056836735 0.030009493 -0.049949624 -0.031009756 -0.012625054
-0.03509871 -0.058871668 0.023942666 -0.07180734 -0.02123556 -0.019961227 0.030748924 0.003239709
-0.02034953 0.024859289 0.006483434 -0.0034427983 0.05037153 0.0002702996 -0.0034047575 -0.048293546
-0.035307832 -0.06981345 -0.04201459 -0.04593309 0.029567396 -0.032264695 0.048885114 0.025676295
-0.023258768 -0.05412753 -0.012619039 0.1875088 -0.0034614478 0.002274141 -0.0016923371 0.0025427812
-0.01943656 -0.019103996 0.09082901 -0.04273035 -0.047669888 -0.06367121 0.0008786334 -0.047401402
-0.0050268206 0.02007325 -0.041714054 0.020208089 0.0016712385 -0.040254284 -0.07033558 0.06512566
0.032374058 -0.08493649 -0.017272972 -0.055681333 -0.037483484 0.02002396 0.027840817 0.018240336
0.097801186 0.074320816 -0.010035604 -0.058853727 0.022762451 0.03895006 0.018809004 -0.046082508
-0.07963503 0.025307756 0.014571318 -0.001503348 0.06335442 -0.051567648 -0.03972181 -0.037023026
-0.054140314 -0.067863874 -0.06180899 0.11010124 -0.04715418 -0.0156322 0.010890856 -0.06880713
-0.06471988 0.046409078 -0.03562934 -0.034573786 -0.008360713 -0.021872103 0.022357233 -0.05308688
0.012783389 -0.0856469 -0.016049102 0.1010359 0.0028886516 -0.015502467 -0.047694854 0.004247046
-0.03355414 0.05810774 -0.051079884 -0.045102596 -0.046086513 -0.014909982 -0.0047831307 -0.08621244
-0.026102975 0.015732743 -0.07274834 0.04340613 0.040813617 -0.06618368 0.048707724 0.0027013777
-0.05802882 0.012019718 -0.031819176 -0.021501765 -0.04259593 0.060349368 -0.0425969 0.026082043
0.014075012 -0.019101404 -0.04415681 0.03892391 0.0034657482 -0.031584516 0.0062022726 -0.03465435
-0.044632282 -0.03507494 -0.0022013618 0.05328755 0.0468859 -0.07959703 -0.07653034 -0.07123958
-0.06664966 -0.041455194 0.04214591 -0.022515146 0.039986882 -0.00703773 -0.010221094 0.059318166
0.03257262 -0.0766712 0.063129194 -0.026413068 -0.003552135 0.015258059 -0.015999306 -0.0020235928
0.016195951 0.005888259 -0.011814764 -0.02538923 -0.058315516 -0.04403319 -0.04631418 0.02701848
-0.043450326 -0.039096322 -0.02353587 0.015601428 0.03967836 0.047016576 -0.038815476 0.019305168
0.027623238 -0.016911304 -0.03298728 -0.08090738 0.051278934 -0.019912118 0.020466112 0.030818686
0.034912392 -0.010218058 -0.025615446 -0.017895088 0.04235158 -0.011296444 -0.0133223925 0.026036825
0.014317068 -0.0046904525 0.0019895623 0.054872535 0.099895865 -0.02799704 0.061890088 0.04022651
-0.05738787 -0.08532369 -0.062258087 0.02626534 -0.032910276 0.019609712 -0.07708711 -0.025649693
-0.0070851385 -0.003844309 0.041736163 -0.030486865 -0.051391073 -0.011007084 0.021135172 0.025837677
-0.0287972 -0.018485775 0.07296877 -0.03526532 0.05676708 -0.05532162 -0.0073930775 -0.033584543
-0.043683115 -0.041910037 0.061509434 -0.006211451 -0.039688744 0.10330136 -0.05726729 0.0037731826
0.027572317 -0.020634577 -0.034994192 -0.02285995 -0.04951436 -0.020205216 0.036351897 0.0072909463
00000000: 935e acbc c6c4 ebbc ec5d cabd b895 74bc
00000010: 809c 1c3b 6dcc 8dbd 1631 503d 8fc7 2a3d
00000020: b05f 01bd 23a2 153d e36e 09bd 8110 b33c
00000030: a925 bc3b 145b 073d 2ce6 2bbd 1cb0 2abc
00000040: 6267 93bd 81f5 da3b daa4 f03c 1c3e babb
00000050: 78d6 f53c fa97 4cbd 2c08 febc 51d9 4ebc
00000060: aac3 0fbd 6b23 71bd 6923 c43c ba0f 93bd
00000070: 32f6 adbc ba85 a3bc 2be5 fb3c 4c51 543b
00000080: 0fb4 a6bc b5a5 cb3c fc72 d43b 92a0 61bb
00000090: 6152 4e3d 00b7 8d39 5a22 5fbb 74cf 45bd
000000a0: f29e 10bd 5bfa 8ebd 7e17 2cbd 5624 3cbd
000000b0: 5337 f23c fc27 04bd c23b 483d 1857 d23c
000000c0: 2c89 bebc d4b4 5dbd 16c0 4ebc 4f02 403e
000000d0: 75d9 62bb c109 153b 69d1 ddba caa4 263b
000000e0: 6c39 9fbc fc7f 9cbc 8f04 ba3d 0506 2fbd
000000f0: 8041 43bd 0d66 82bd 1754 663a f927 42bd
00000100: 07b8 a4bb a870 a43c 5bdc 2abd 6f8b a53c
00000110: 750d db3a ade1 24bd 1a0c 90bd 9a60 853d
00000120: a99a 043d 2ff3 adbd 0c80 8dbc 1c12 64bd
00000130: 4888 19bd 4a09 a43c 6d12 e43c c26c 953c
00000140: fd4b c83d 8335 983d 606c 24bc 9b10 71bd
00000150: 5278 ba3c 198a 1f3d 5715 9a3c 03c1 3cbd
00000160: b117 a3bd 3652 cf3c 8abc 6e3c fd0b c5ba
00000170: f6bf 813d 9938 53bd 56b3 22bd 75a5 17bd
00000180: 3cc2 5dbd 37fc 8abd 6c2b 7dbd c27c e13d
00000190: be24 41bd 190f 80bc 906f 323c c1ea 8cbd
000001a0: db8b 84bd 7217 3e3d 12f0 11bd 3e9d 0dbd
000001b0: 5ffb 08bc 202d b3bc 8426 b73c a171 59bd
000001c0: 6b71 513c a467 afbd 6879 83bc e9eb ce3d
000001d0: 884f 3d3b 0ffe 7dbc ae5b 43bd ce2a 8b3b
000001e0: 1170 09bd 6202 6e3d 2439 51bd 80bd 38bd
000001f0: 36c5 3cbd ff48 74bc cfbb 9cbb 2690 b0bd
00000200: e8d5 d5bc f4e1 803c 15fd 94bd a0ca 313d
00000210: 2e2c 273d 4f8b 87bd c081 473d 9909 313b
00000220: a1af 6dbd 5aee 443c d354 02bd 7824 b0bc
00000230: 1279 2ebd e630 773d 167a 2ebd 02aa d53c
00000240: e19a 663c 8c7a 9cbc c5dd 34bd ae6e 1f3d
00000250: 9b21 633b c45e 01bd 6f3c cb3b b8f1 0dbd
00000260: 57d0 36bd beaa 0fbd b944 10bb 0c44 5a3d
00000270: 6e0b 403d c503 a3bd f0bb 9cbd 0fe6 91bd
00000280: 9e7f 88bd eccc 29bd 31a1 2c3d af71 b8bc
00000290: 49c9 233d c29c e6bb 6076 27bc 9bf7 723d
000002a0: de6a 053d ca05 9dbd e149 813d 3860 d8bc
000002b0: f0ca 68bb f0fc 793c fa10 83bc 419e 04bb
000002c0: 5fad 843c 4cf2 c03b b692 41bc 13fd cfbc
000002d0: 40dc 6ebd 255c 34bd f0b3 3dbd dc55 dd3c
000002e0: f8f8 31bd 7723 20bd 4cce c0bc 229d 7f3c
000002f0: c785 223d 7494 403d fafc 1ebd df25 9e3c
00000300: 214a e23c 9389 8abc ac1d 07bd c5b2 a5bd
00000310: dc09 523d bd1e a3bc 8ca8 a73c 7877 fc3c
00000320: 4c00 0f3d a469 27bc 7cd7 d1bc b898 92bc
00000330: da78 2d3d b814 39bc 2a46 5abc 2e4b d53c
00000340: 2392 6a3c 5eb2 99bb 5163 023b 06c2 603d
00000350: 3496 cc3d 0c5a e5bc 7680 7d3d 8ec4 243d
00000360: 8b0f 6bbd 30be aebd 5602 7fbd 692a d73c
00000370: edcc 06bd 8ca4 a03c d9df 9dbd 4e1f d2bc
00000380: 732a e8bb cdf0 7bbb 8af3 2a3d 97bf f9bc
00000390: 727f 52bd 0e57 34bc ab23 ad3c 89a9 d33c
000003a0: 1be8 ebbc 7b6f 97bc a770 953d 5e72 10bd
000003b0: 9984 683d ec98 62bd a141 f2bb f28f 09bd
000003c0: 11ed 32bd dca9 2bbd 51f1 7b3d 6d89 cbbb
000003d0: aa90 22bd aa8f d33d 1b91 6abd 8047 773b
000003e0: 57df e13c d809 a9bc 1256 0fbd ca44 bbbc
000003f0: 92cf 4abd 6985 a5bc bae5 143d e4e8 ee3b

out_n.0.weight f4 [100, 256]
0.0011838351 -0.072175704 -0.09765513 -0.021456607 -0.04597798 -0.047021795 -0.08020077 -0.30227405
0.011748782 -0.11126375 0.031179057 -0.024747448 -0.13933432 -0.1439703 0.053945884 -0.01929685
0.046664 -0.02901031 -0.11193771 -0.0035998307 -0.10441799 -0.010584948 0.024029553 -0.031661186
0.0004228537 -0.0139753455 0.03713699 -0.016592357 -0.17701456 0.0037360287 -0.18585037 0.00038592343
-0.08310743 -0.004055704 -0.13467243 -0.0141171925 -0.13329494 0.031041011 0.039002497 -0.12528652
0.0053847283 0.03529796 -0.042117383 0.02069825 -0.03132371 0.009652651 0.060384817 -0.0063991267
-0.023560539 -0.1369617 0.015711408 -0.36744648 -0.015369553 -0.20994656 -0.047811497 -0.029673204
-0.02253326 -0.053403698 -0.1665167 -0.16157718 0.03239729 0.0040766452 -0.00617756 0.01977734
-0.054377925 -0.09996076 -0.021086195 -0.12269817 -0.16239609 -0.20953882 0.027271299 -0.07913799
-0.061974585 0.009022424 -0.025167909 -0.106181175 0.019091992 -0.1660401 0.009438314 -0.029461633
-0.20042221 -0.20760043 -0.028799795 -0.10959916 -0.1680375 -0.13708661 -0.14484972 0.04689365
-0.052451577 -0.1126557 -0.10891216 0.035645686 -0.094291784 -0.07083882 0.03810221 -0.013274765
-0.04841175 -0.12618728 -0.014188533 -0.18287607 -0.03389673 -0.1308831 -0.029060192 -0.0563356
0.034150854 -0.14222516 0.024592606 0.015720025 -0.08240941 0.055299662 -0.04474199 -0.0021777211
-0.08129643 -0.09794806 -0.06934716 -0.43563405 0.041005153 0.004878905 -0.018466631 -0.06152298
-0.12518215 -0.13625228 -0.015388904 -0.020914406 0.058373623 -0.02315275 0.044696793 0.0040991944
-0.055036467 0.024767369 0.021137314 -0.033011165 -0.15128115 0.008896691 0.03255628 0.043123186
-0.04356076 -0.08631852 -0.03920307 0.009439349 -0.029370094 -0.10226912 0.015813552 -0.14516073
0.018166842 -0.15776744 -0.061160043 0.04822985 0.048961475 -0.18416388 -0.122402646 -0.012416827
-0.022658082 0.061612673 -0.027857115 -0.14830446 0.0276698 -0.06702206 -0.0836008 0.0036293338
0.013765349 0.0482601 0.008282328 -0.038839214 -0.031138161 -0.0078113293 0.006819822 -0.094327495
0.016456097 0.07193332 -0.3866641 -0.11375496 -0.122836284 -0.0054962263 -0.0072520524 -0.058299776
-0.052182496 -0.10742539 -0.011209724 -0.10620771 0.008321725 -0.0062315064 0.06116253 -0.034072723
-0.05353848 -0.017950062 -0.038649227 -0.011553043 -0.09241236 0.0151591245 0.04240445 -0.16450717
-0.11117417 -0.11675429 -0.10558653 -0.027990319 -0.164969 -0.037053358 -0.017615601 0.038599163
-0.069854006 -0.106052384 -0.06298854 0.02165813 -0.12381921 -0.05507475 -0.20042911 0.026496721
-0.08891298 -0.1083238 -0.11673392 -0.22639991 -0.21999133 -0.033109393 -0.10185331 -0.19120482
-0.20565392 -0.04215596 -0.0013512592 -0.049503006 -0.120833136 -0.10475821 -0.055073302 -0.12930128
0.04518386 -0.16909109 0.028453534 0.004189296 0.007898003 0.018873004 -0.11018196 -0.0009387644
-0.022861682 -0.06776102 -0.1470454 0.03510794 -0.037103307 0.051423788 -0.048055224 -0.12771824
-0.02292643 0.040344395 -0.13095377 0.011668482 -0.045967616 -0.13366213 -0.098151304 0.021038033
0.0072488976 0.029363252 -0.006607514 -0.16348673 -0.051352005 -0.028666282 -0.07823777 0.027223349
00000000: ea2a 9b3a dbd0 93bd 6aff c7bd c4c5 afbc
00000010: 6853 3cbd ed99 40bd 4d40 a4bd aac3 9abe
00000020: f77d 403c 40de e3bd 396b ff3c 29bb cabc
00000030: a8ad 0ebe f36c 13be 5cf6 5c3d 6d14 9ebc
00000040: c022 3f3d 08a7 edbc 993f e5bd 23eb 6bbb
00000050: 19d9 d5bd 7d6c 2dbc a0d9 c43c 29af 01bd
00000060: 76b2 dd39 d9f8 64bc f51c 183d b2ec 87bc
00000070: 4e43 35be 29d8 743b 8f4f 3ebe c455 ca39
00000080: 3a34 aabd b6e5 84bb 92e7 09be cc4b 67bc
00000090: 787e 08be b849 fe3c 15c1 1f3d 1c4b 00be
000000a0: 6072 b03b 9894 103d 4783 2cbd 608f a93c
000000b0: 4a4d 00bd 2726 1e3c 1256 773d c4af d1bb
000000c0: 0802 c1bc b03f 0cbe 36b5 803c f221 bcbe
000000d0: 94d0 7bbc 3bfc 56be fdd5 43bd 3815 f3bc
000000e0: ac97 b8bc d6bd 5abd 5b83 2abe 7d74 25be
000000f0: 05b3 043d 6195 853b 216d cabb 1704 a23c
00000100: 63bb 5ebd 3ab8 ccbd f5bc acbc 2e49 fbbd
00000110: 294b 26be 5891 56be 0f68 df3c 1913 a2bd
00000120: 10d9 7dbd cad2 133c ee2c cebc 8475 d9bd
00000130: cf66 9c3c 6a06 2abe 28a3 1a3c 8659 f1bc
00000140: 7b3b 4dbe 3595 54be 8ced ebbc 8675 e0bd
00000150: 0612 2cbe 6f60 0cbe 7c53 14be 8e13 403d
00000160: 77d7 56bd 08b8 e6bd 570d dfbd 3601 123d
00000170: 0d1c c1bd f113 91bd 1011 1c3d 667e 59bc
00000180: 664b 46bd 3d37 01be 0577 68bc dd43 3bbe
00000190: 4cd7 0abd 3806 06be a40f eebc 28c0 66bd
000001a0: c4e1 0b3d 79a3 11be 6f76 c93c 48c7 803c
000001b0: 44c6 a8bd e681 623d 6043 37bd 19b8 0ebb
000001c0: be7e a6bd fe98 c8bd e205 8ebd 6d0b dfbe
000001d0: 05f5 273d 39df 9f3b 5547 97bc 85ff 7bbd
000001e0: c02f 00be b885 0bbe be21 7cbc b054 abbc
000001f0: 2e19 6f3d d6aa bdbc fc13 373d 8952 863b
00000200: eb6d 61bd f0e4 ca3c 2928 ad3c b736 07bd
00000210: 72e9 1abe 6dc3 113c bc59 053d f0a1 303d
00000220: c46c 32bd c4c7 b0bd 6693 20bd 80a7 1a3c
00000230: 8d99 f0bc 7972 d1bd 6c8b 813c 04a5 14be
00000240: a1d2 943c ca8d 21be f482 7abd aa8c 453d
00000250: d48b 483d 7595 3cbe 3dae fabd f26f 4bbc
00000260: 719d b9bc 925d 7c3d 9b34 e4bc 20dd 17be
00000270: c7ab e23c dd42 89bd e536 abbd 1eda 6d3b
00000280: 0f88 613c 62ac 453d 9ab2 073c de15 1fbd
00000290: 7515 ffbc 2ef6 ffbb d078 df3b c62e c1bd
000002a0: f0ce 863c c751 933d d6f8 c5be 5cf8 e8bd
000002b0: 9791 fbbd b019 b4bb a0a2 edbb bfcb 6ebd
000002c0: 50bd 55bd d801 dcbd fda8 37bc 6e83 d9bd
000002d0: d857 083c aa31 ccbb 9085 7a3d d78f 0bbd
000002e0: 2a4b 5bbd 020c 93bc a74e 1ebd f948 3dbc
000002f0: b142 bdbd fa5d 783c 4ab0 2d3d 9174 28be
00000300: 49af e3bd e01c efbd c03d d8bd f44b e5bc
00000310: a2ed 28be 43c5 17bd 984e 90bc 281a 1e3d
00000320: 9e0f 8fbd fe31 d9bd 2300 81bd 646c b13c
00000330: ed94 fdbd 1096 61bd 4a3d 4dbe a70f d93c
00000340: 0218 b6bd ded8 ddbd 3212 efbd 61d5 67be
00000350: 6845 61be b79d 07bd 7898 d0bd 32cb 43be
00000360: f196 52be baab 2cbd bc1c b1ba aac3 4abd
00000370: 5d77 f7bd 798b d6bd 8b94 61bd 8e67 04be
00000380: b612 393d 3726 2dbe 6317 e93c 5d46 893b
00000390: a066 013c 8f9b 9a3c 14a7 e1bd 6a17 76ba
000003a0: 6c48 bbbc 4ac6 8abd 1293 16be 58cd 0f3d
000003b0: a3f9 17bd c0a1 523d 8ed5 44bd 92c8 02be
000003c0: 35d0 bbbc 2a40 253d bf18 06be 292d 3f3c
000003d0: 8a48 3cbd bade 08be 8d03 c9bd f457 ac3c
000003e0: 2988 ed3b 348b f03c d883 d8bb 1169 27be
000003f0: 7b56 52bd 8dd5 eabc 203b a0bd 8003 df3c

out_n.0.bias f4 [100]
-0.12360867 0.07398612 0.044577226 -0.09177076 0.0021035965 0.02755974 -0.060116936 0.0750586
-0.06264137 0.06652159 -0.014410392 0.03730859 0.018002842 -0.06622361 0.032209724 -0.010179894
0.08702404 -0.065538056 0.04604714 0.09043475 -0.008281812 0.023152037 -0.049961757 0.06663104
0.028814023 0.029089497 -0.02712871 -0.027331395 -0.018038176 -0.005406669 -0.024345765 0.0030747242
0.07671951 -0.06882649 0.055046335 0.0146792615 0.03020599 0.008465298 -0.04258673 -0.0018179266
-0.05232113 0.06669152 -0.06528698 0.018651588 0.02783347 -0.073115684 0.06442432 -0.06871651
-0.03706965 0.026885157 -0.047889978 0.030318381 -0.09077313 -0.012640828 -0.082286775 0.061411235
0.047376983 -0.024181912 0.066423304 -0.07268863 0.053548336 -0.013639606 0.044239193 -0.06739475
-0.03448688 0.118773304 -0.04631571 0.07584628 -0.050101057 -0.01423694 0.07045958 -0.08635379
0.0883261 -0.06416126 0.0013317239 0.059003547 -0.086785376 -0.031730253 -0.036232423 -0.05626386
0.07390827 -0.09615272 0.02096878 -0.005009843 -0.06429995 0.04570508 -0.05599634 -0.053234734
0.026527122 -0.09467031 -0.018308466 -0.031708308 -0.09601187 0.021268256 0.035640836 -0.08189223
0.11165194 -0.08064408 0.08881691 -0.094697684
00000000: 8b26 fdbd 0986 973d 9c96 363d 4ff2 bbbd
00000010: 7edc 093b f7c4 e13c 2d3d 76bd 53b8 993d
00000020: 1e4a 80bd 793c 883d 9119 6cbc e4d0 183d
00000030: b27a 933c 3ea0 87bd 58ee 033d 92c9 26bc
00000040: a939 b23d d138 86bd ed9b 3c3d db35 b93d
00000050: 70b0 07bc 57a9 bd3c b3a4 4cbd db75 883d
00000060: 630b ec3c 194d ee3c 073d debc 17e6 dfbc
00000070: ccc4 93bc 6d2a b1bb c570 c7bc 5081 493b
00000080: 1e1f 9d3d e7f4 8cbd 4478 613d 4981 703c
00000090: 8d72 f73c 09b2 0a3c 6c6f 2ebd 7f47 eeba
000000a0: ae4e 56bd 9095 883d 2eb5 85bd 37cb 983c
000000b0: 0403 e43c adbd 95bd e6f0 833d 3ebb 8cbd
000000c0: 58d6 17bd 433e dc3c 4828 44bd 415e f83c
000000d0: 43e7 b9bd 7a1b 4fbc f885 a8bd 598a 7b3d
000000e0: 5e0e 423d 2519 c6bc f108 883d c7dd 94bd
000000f0: 8055 5b3d a778 5fbc 2834 353d 4206 8abd
00000100: 1d42 0dbd 6b3f f33d 8bb5 3dbd 4b55 9b3d
00000110: c436 4dbd 0e42 69bc 1d4d 903d 41da b0bd
00000120: 50e4 b43d fb66 83bd 3d8d ae3a b4ad 713d
00000130: 88bc b1bd 95f7 01bd 7368 14bd ef74 66bd
00000140: 385d 973d b8eb c4bd b8c6 ab3c 9c29 a4bb
00000150: b1af 83bd 4035 3b3d 6b5c 65bd aa0c 5abd
00000160: 684f d93c 82e2 c1bd a3fb 95bc 92e0 01bd
00000170: dfa1 c4bd c43a ae3c 20fc 113d 1db7 a7bd
00000180: c6a9 e43d b928 a5bd a4e5 b53d dcf0 c1bd

out_d.0.weight f4 [100, 256]
0.022808611 -0.0893472 -0.02774971 0.04500352 0.014428683 -0.05346873 -0.08397206 -0.052396983
-0.0015900576 -0.011869261 -0.023394197 0.017258074 -0.062439013 -0.006287334 0.023752205 -0.004714276
-0.021634849 -0.05702329 -0.00028994592 0.055907317 0.04140708 0.022854816 0.033624507 0.014673981
-0.02137203 -0.041285004 -0.04830503 -0.037435878 0.0078115994 0.013784018 -0.007145506 0.05387292
0.022183884 -0.04821592 0.02950041 -0.05041048 -0.002851081 -0.0412307 -0.04188002 0.020860467
-0.0056887344 0.0024963557 -0.0076652355 -0.025263838 -0.041319486 0.010523663 -0.026623994 0.005961979
-0.018632434 0.043944973 -0.06270774 0.0049008573 0.0030358022 0.0070760623 -0.040474992 -0.05497023
-0.040804133 0.023440456 -0.0343114 -0.055499483 0.022423336 -0.030303672 0.035737917 -0.027379222
-0.027819483 -0.08002776 -0.0138384495 -0.09069707 -0.019242762 -0.006192974 -0.061385095 0.037292145
0.00281707 -0.004332683 -0.090641126 0.004647472 0.042644195 -0.011610772 -0.038932197 -0.0019418964
0.034792006 0.0053419974 0.014380559 0.057520956 0.008165466 -0.015506877 -0.06229149 0.05701933
-0.046389967 -0.09900176 -0.01949637 -0.043751113 -0.057984952 0.04126984 0.038548194 0.046376664
-0.042310134 -0.096299365 -0.014406507 0.015897889 -0.058561653 -0.08638957 0.054368336 -0.05800783
-0.028076386 0.033015873 -0.018013062 0.05890856 0.031218395 0.0359675 -0.024044476 0.0504344
0.006636695 -0.03731815 0.006126289 0.13755637 -0.0056753634 0.031680983 -0.022599138 -0.051024094
-0.04552481 0.019548045 -0.013994552 -0.026625173 -0.019003175 0.041840337 6.5024244e-05 -0.041003417
-0.040531274 0.036421284 0.015210808 -0.06092168 -0.054651882 0.008647344 0.023126893 -0.05237155
0.017644629 0.05151709 -0.08768382 -0.035374187 0.0050958516 -0.066519335 0.051762134 0.039027404
-0.037361432 -0.009815092 -0.057493996 0.027320296 -0.04258661 -0.0176254 -0.063721634 -0.025910757
-0.041337915 -0.05327324 -0.093375854 -0.01374232 0.015482827 -0.0043205284 -0.014581845 0.0076055825
-0.01249216 -0.009529591 -0.019444438 -0.053597257 0.028900657 0.035092294 0.032925747 -0.0041224705
-0.02678071 0.041151322 -0.09387325 -0.0034528275 -0.05947309 0.04765281 0.037345797 -0.04102226
-0.0058036726 -0.03987321 0.022903861 0.036739297 0.005223103 -0.040440913 -0.029440671 -0.045040447
-0.002256818 0.033117875 -0.011223398 0.017263 -0.01829554 0.029152058 -0.010489687 0.050295442
0.014083609 -0.051195864 -0.0076069757 -0.066675365 -0.08158766 0.044715118 0.006039098 0.0021368284
-0.019633953 -0.043397654 -0.017179364 0.010173254 -0.018324414 0.022693403 0.09831643 0.02307405
0.040218446 0.023320436 0.05117901 -0.025112865 0.0043819547 0.05721089 -0.03991232 0.0031195735
-0.024040904 -0.026926761 -0.00864266 -0.052554186 -0.08434557 0.062008712 0.01349749 0.020894902
-0.0014544637 -0.086025625 -0.043109402 0.0072424095 0.054793134 -0.04892783 -0.07420678 0.00471543
-0.06020138 -0.01337206 0.0039721276 -0.013798997 -0.034446016 -0.05922384 -0.04232994 -0.09425743
0.0045885975 -0.04851184 -0.027183155 0.057516452 -0.028361984 0.0004875062 -0.0073938547 0.032921642
0.014600468 0.013680436 -0.0025350002 0.0116553325 -0.104713626 0.033591945 -0.04710747 -0.010838019
00000000: 20d9 ba3c aafb b6bd 5c53 e3bc 9c55 383d
00000010: 4866 6c3c 0702 5bbd 8bf9 abbd 389e 56bd
00000020: 7b69 d0ba 4a77 42bc 30a5 bfbc ce60 8d3c
00000030: 0dc0 7fbd fb05 cebb fc93 c23c 377a 9abb
00000040: 913b b1bc 4191 69bd e203 98b9 12ff 643d
00000050: 789a 293d 063a bb3c dab9 093d 236b 703c
00000060: 6514 afbc 771a 29bd 7fdb 45bd 5d56 19bd
00000070: 72f8 ff3b 5dd6 613c d924 eabb daa9 5c3d
00000080: faba b53c 0e7e 45bd d8aa f13c 387b 4ebd
00000090: 34d9 3abb 86e1 28bd 628a 2bbd 92e3 aa3c
000000a0: 9068 babb e699 233b a82c fbbb 1cf6 cebc
000000b0: 9f3e 29bd 716b 2c3c 901a dabc b45c c33b
000000c0: 0ca3 98bc a5ff 333d ea6c 80bd 5f97 a03b
000000d0: 4ff4 463b 50de e73b 1bc9 25bd 7728 61bd
000000e0: 3c22 27bd 3306 c03c 1c8a 0cbd 6d53 63bd
000000f0: 25b1 b73c 683f f8bc ec61 123d 644a e0bc
00000100: afe5 e3bc 98e5 a3bd aaba 62bc 63bf b9bd
00000110: ffa2 9dbc 6eee cabb f06e 7bbd a6bf 183d
00000120: 989e 383b 2ef9 8dbb 0ea2 b9bd d249 983b
00000130: aeab 2e3d 1c3b 3ebc 5e77 1fbd 3b87 feba
00000140: 1082 0e3d ec0b af3b 709c 6b3c 189b 6b3d
00000150: 72c8 053c 8e10 7ebc 5d25 7fbd 1a8d 693d
00000160: 6803 3ebd 6fc1 cabd dab6 9fbc 5e34 33bd
00000170: a181 6dbd 900a 293d b6e4 1d3d 75f5 3d3d
00000180: 644d 2dbd 9a38 c5bd 4509 6cbc 4a3c 823c
00000190: 58de 6fbd 04ed b0bd 55b1 5e3d 9e99 6dbd
000001a0: 7300 e6bc a73b 073d 2190 93bc 1a4a 713d
000001b0: b8bd ff3c a852 133d ecf8 c4bc 4d94 4e3d
000001c0: a278 d93b ebda 18bd 09bf c83b 94db 0c3e
000001d0: 66f8 b9bb ebc3 013d d421 b9bc a4fe 50bd
000001e0: 3978 3abd 3923 a03c 6849 65bc 091d dabc
000001f0: 8cac 9bbc c660 2b3d a05d 8838 33f3 27bd
00000200: 1f04 26bd 7c2e 153d c136 793c 0389 79bd
00000210: a7da 5fbd 97ad 0d3c 9c74 bd3c 8d83 56bd
00000220: 788b 903c 9603 533d 9393 b3bd 86e4 10bd
00000230: 1afb a63b 4a3b 88bd 8804 543d 33db 1f3d
00000240: 4d08 19bd 7bcf 20bc d37e 6bbd d0ce df3c
00000250: 4c6f 2ebd 2563 90bc 7d80 82bd cc42 d4bc
00000260: f251 29bd 0a35 5abd d73b bfbd 7827 61bc
00000270: afab 7d3c 3893 8dbb b1e8 6ebc 4038 f93b
00000280: ebab 4cbc 0022 1cbc f149 9fbc cc88 5bbd
00000290: 12c1 ec3c f0bc 0f3d 26dd 063d ca15 87bb
000002a0: 3863 dbbc 4a8e 283d 9e40 c0bd d548 62bb
000002b0: 0e9a 73bd 982f 433d e8f7 183d f506 28bd
000002c0: bc2c bebb 1752 23bd e1a0 bb3c f27b 163d
000002d0: 9026 ab3b 5fa5 25bd 902d f1bc 557c 38bd
000002e0: 20e7 13bb 9ca6 073d 58e2 37bc 236b 8d3c
000002f0: 87e0 95bc 4cd0 ee3c f0dc 2bbc 9802 4e3d
00000300: f0be 663c c1b2 51bd f043 f9bb 188d 88bd
00000310: 6e17 a7bd 3327 373d a0e3 c53b 080a 0c3b
00000320: 62d7 a0bc bdc1 31bd bdbb 8cbc b8ad 263c
00000330: 151d 96bc 84e7 b93c 205a c93d ca05 bd3c
00000340: 19bc 243d 800a bf3c 15a1 513d 7fb9 cdbc
00000350: 8096 8f3b f755 6a3d 1a7b 23bd c271 4c3b
00000360: 6ef1 c4bc 8395 dcbc f299 0dbc 0f43 57bd
00000370: 5fbd acbd d9fc 7d3d 9424 5d3c c92b ab3c
00000380: b4a3 beba 342e b0bd 7c93 30bd bc51 ed3b
00000390: c46e 603d 8c68 48bd b9f9 97bd e583 9a3b
000003a0: b995 76bd 7c16 5bbc 9f28 823b 3015 62bc
000003b0: 4417 0dbd b294 72bd 2962 2dbd 0a0a c1bd
000003c0: f25b 963b 5ab4 46bd 35af debc 5f96 6b3d
000003d0: 6457 e8bc f997 ff39 2648 f2bb d8d8 063d
000003e0: cd36 6f3c e823 603c 3f22 26bb 02f6 3e3c
000003f0: 1974 d6bd b597 093d c3f3 40bd f291 31bc

out_d.0.bias f4 [100]
-0.057335105 -0.05270041 -0.04576005 0.057286814 -0.021712063 -0.0025538648 0.092508346 0.053148706
0.001955317 0.052265976 0.035190187 0.04739896 0.051053595 -0.05087214 -0.040844005 -0.05711901
-0.048049998 0.0016217174 0.03525036 0.062277675 -0.035802785 0.043197136 -0.032243676 -0.047040872
0.053202514 0.03008594 -0.026823502 -0.018198732 -0.06338489 0.011180074 0.024732145 -0.041434746
0.0061317915 -0.03171643 0.01817268 -0.04152975 -0.047486994 -0.02631923 0.026977308 0.04566873
-0.01632876 -0.05705252 0.050592113 -0.00642539 -0.050476052 -0.001635714 -0.015908092 -0.030000523
-0.028974736 -0.037938356 -0.0044283587 -0.021807186 -0.0037968396 -0.038676232 0.05525919 0.02954578
0.053616263 -0.043276977 -0.037058707 -0.012157146 -0.04726285 -0.045894455 -8.8996814e-05 0.05905405
0.0229671 -0.01473101 -0.058149897 0.050725378 -0.050385267 0.03822206 -0.05840335 0.029418245
-0.066394284 -0.058449566 -0.05693205 0.030754607 0.023828205 -0.057552125 0.028922375 0.015040756
-0.055934515 0.041425806 0.017015032 -0.0007353863 0.002322498 -0.05558865 -0.045060277 0.043989766
-0.02940211 -0.02643777 -0.06448576 -0.04297937 -0.069984406 0.05782196 0.041143443 -0.0101689035
-0.05246973 -0.049427513 0.020425478 -0.02263661
00000000: 37d8 6abd 63dc 57bd e46e 3bbd 94a5 6a3d
00000010: 7fdd b1bc be5e 27bb 0475 bd3d 75b2 593d
00000020: c724 003b d914 563d 9623 103d 6925 423d
00000030: 931d 513d 4e5f 50bd 0b4c 27bd 9ff5 69bd
00000040: 13d0 44bd ce8f d43a ae62 103d e016 7f3d
00000050: f1a5 12bd 7bef 303d f211 04bd eead 40bd
00000060: e1ea 593d ca76 f63c f6bc dbbc 8215 95bc
00000070: f0cf 81bd a12c 373c 119b ca3c 7bb7 29bd
00000080: 32ed c83b 16e9 01bd dfde 943c 191b 2abd
00000090: b981 42bd 6d9b d7bc 84ff dc3c 220f 3b3d
000000a0: e4c3 85bc e7af 69bd ad39 4f3d 148c d2bb
000000b0: fabf 4ebd 7465 d6ba b051 82bc a8c3 f5bc
000000c0: 6d5c edbc 4065 1bbd c41b 91bb fca4 b2bc
000000d0: 66d4 78bb f86a 1ebd 7657 623d fe09 f23c
000000e0: ba9c 5b3d 3343 31bd dfca 17bd c42e 47bc
000000f0: b196 41bd d3fb 3bbd cda3 bab8 a9e2 713d
00000100: 8025 bc3c 565a 71bc 962e 6ebd 6ac5 4f3d
00000110: c860 4ebd bc8e 1c3d 5a38 6fbd 88fe f03c
00000120: baf9 87bd d068 6fbd 9531 69bd 16f1 fb3c
00000130: 5e33 c33c c7bb 6bbd 9eee ec3c 816d 763c
00000140: 971b 65bd 1bae 293d 1c63 8b3c f0c6 40ba
00000150: 0d35 183b edb0 63bd 2091 38bd 9d2e 343d
00000160: b2dc f0bc 0694 d8bc 1c11 84bd 230b 30bd
00000170: fc53 8fbd b8d6 6c3d 0786 283d 799b 26bc
00000180: 80ea 56bd 8174 4abd 5553 a73c 6970 b9bc
