ch3_figures_output_tuned/model_100L_linear.pth (torch, 576153 bytes, 8 tensors)

backbone.0.weight f4 [256, 100]
00000000: 1504 993d 6d18 bdbd 133e 853d 87eb 95bc
00000010: ed73 dd3c e0ef ce3c 9a4d 1fbb 10f6 34bd
00000020: aa40 aa3d 33f2 4b3b 3304 093c cd44 c7b9
00000030: 7303 d73c 6775 fdbc 33a7 8b3d 33d1 4f3b
00000040: b324 f83c 378d 6dbd 77f6 9d3d d52f a23d
00000050: da03 7bbd 00e0 fabb 103b 2d3d fda9 913d
00000060: ab68 abbd 33cd fa3a 0025 b33d 1bf8 c23d
00000070: ebc6 883d 3a86 193d cd30 c4ba 676b cabb
00000080: fad5 e33c b332 853b 6a3d 583d 67c3 babd
00000090: b3da 50bc 27b7 e13c 6dc3 ef3c 3301 18bc
000000a0: d3c6 a3bd dd90 3cbd f316 3cbc b396 afbc
000000b0: f379 4f3d 676e 49ba 6787 1dbc 4dbf 2cbd
000000c0: 33fa e83b 4bba 90bd e018 55bd a7e1 67bd
000000d0: 9a47 ddbb aa4a 9c3d 0a49 44bd 00b0 6ebc
000000e0: 2ac4 8cbd e3ed 0e3d f331 19bc 0021 94bc
000000f0: dda7 613d 5dd9 943d 733d b93c 8d3e 44bc
00000100: 1af9 41bd bafe dfbc a748 7a3d 0da5 ed3c
00000110: 6dbc e4bc 7322 17bd 6764 f4bb 8b8b b93d
00000120: 673c 8bbc a05d bcbd 2772 b73d e081 e9bc
00000130: 9a32 903d 6744 373c e318 50bd 2a28 35bd
00000140: 2a10 7e3d 33ee 633c 07e7 a9bc 7a66 443d
00000150: 37d3 cbbd aafa 8a3d e269 8bbd e8bd bdbd
00000160: 67dd f73b 0d0b fc3c 4d98 de3b b790 393d
00000170: c3d1 c4bd 5d66 183d dae3 83bd e746 2a3d
00000180: 5b62 b63d 730a 60bc 6ae3 7f3d 6b89 b73d
00000190: 01a0 7c3d dd12 2fbd 1e97 0abd 9a9b 30bd
000001a0: 15fb b93c 2b7f 643d 4f97 56bc c1de 3ebd
000001b0: 24cc 5f3d ca0f f9bb 84d8 f13c 2f1e 373d
000001c0: 0d18 b63d 76b5 983d 6673 d6bc c3bb b2bd
000001d0: 3dfe 743d 0553 053c b0d5 cabd 6d9f a2bd
000001e0: 6d51 bbbd 84be a6bd 933b 8f3d cef3 713d
000001f0: e98c 8bbd 7fdc b1bc a278 ca3d 1053 adbd
00000200: 9644 3abd 10a9 28bd a6c0 ad3d 95e9 b93b
00000210: d066 56bb 3bc1 98bc 9d4e 463d a34f b9bd
00000220: 95ab 34bb 1c57 a9bd 44c4 53bb e055 75bd
00000230: 217a 64bd 3408 3dbc 7449 953c 4c07 d43b
00000240: 26bf 7c3c 69ff aa3b 6e1d 023d 4089 97bd
00000250: cc21 183d f17a 583d 417f 8bbb afef 06bd
00000260: fedd 78bd 207e a4bc 4ed6 193c 85f3 28bd
00000270: 38d2 0a3d 2268 bfbd abd6 783d 8969 d0bb
00000280: ff98 403c f142 b43d e83c 0d3d 2537 b3bc
00000290: d6a0 153d 0df2 3b3d 821e 833d a236 8cbd
000002a0: c7b4 33bd 944b b73d 9524 3abc 4905 883d
000002b0: e05f bc3d eafa dbbd 38c4 573c e68b ce3c
000002c0: 8cab 493d 4fe2 543d 153d ddbd def4 40bd
000002d0: e8bd 8e3b c3ab 213d b8e2 d5bc f215 c23c
000002e0: 0e97 913d f042 923d f9c3 b9bc 4860 bb3d
000002f0: 7204 48bc bbf3 81bd 065c 2bbd 875b 963d
00000300: 861a bcbd b36b 8c3d 5d06 0cbb 80ba 99ba
00000310: ae70 123d 36d3 4cbd 69e6 80bd 4861 f0bc
00000320: 93c7 94bd d5e2 7abc c990 3b3c 43e4 a53c
00000330: 2c4a bdbd 911d b63d 5146 0a3d 6b84 203d
00000340: d0d0 613d 325b e73d 2b1a 053e 3609 4a3d
00000350: fc33 4d3d f4a9 b7bd 3ae6 bf3c 17b0 0a3e
00000360: d8b7 40bd 2516 7dbc a3c7 aa3c 8acd e5bd
00000370: 92de 0cbc 0695 013e 8070 933b cf3c 07bd
00000380: 97c3 213d 3ec0 053e 41cb e43d 9202 b5bd
00000390: 0798 11bd b67e 6bbd daf3 92bc 55a5 d23c
000003a0: 86e7 343d 8600 cbbd b591 46bd 9017 393d
000003b0: 73f1 f03d 0883 57bd 4a43 753c 4d5f d63c
000003c0: fd6f 6b3d 90a9 f83d 3cfc d53d 9604 1a3a
000003d0: 2594 673c 7564 843c 9308 4ebd bc63 e93c
000003e0: 1ecb 66bb f683 09be 9fcc ce3d 5afe 393c
000003f0: 50af a03d 8487 4b3d 9a41 c73d 1460 14bc
0.07471482 -0.092331745 0.0650598 -0.018300785 0.027032817 0.025260866 -0.0024307729 -0.044179976
0.08313115 0.0031119704 0.008362818 -0.00038007498 0.026246762 -0.03093977 0.06819 0.0031710386
0.030290937 -0.057996 0.07713025 0.079192795 -0.06128297 -0.0076560974 0.042292655 0.07112501
-0.08369573 0.001913464 0.087472916 0.095199786 0.066785656 0.037481524 -0.0014968157 -0.006177354
0.027811993 0.0040648817 0.052792944 -0.09119301 -0.012747454 0.027553154 0.029267991 -0.00927763
-0.07996907 -0.04603659 -0.011480081 -0.021434164 0.05065341 -0.0007683993 -0.009614802 -0.042174626
0.007109904 -0.070667826 -0.052025676 -0.056611683 -0.0067529203 0.076314285 -0.047921218 -0.014568329
-0.06873353 0.034894835 -0.009350288 -0.018082142 0.055091728 0.07268021 0.02261231 -0.011977804
-0.047356702 -0.027343143 0.061104443 0.029009366 -0.02792188 -0.036898088 -0.007458258 0.09059819
-0.016996576 -0.09197545 0.0895732 -0.028504312 0.070409015 0.011185742 -0.050804984 -0.044227757
0.062027134 0.013911772 -0.020740045 0.04794929 -0.099523954 0.067860916 -0.06807305 -0.09264737
0.007564235 0.030766988 0.006793058 0.045304026 -0.096103214 0.037206996 -0.064399436 0.041571524
0.089054786 -0.013674366 0.06247274 0.08961757 0.06167603 -0.0427426 -0.033835523 -0.043117143
0.022702733 0.05578534 -0.013097598 -0.046599153 0.054638043 -0.007600759 0.029522188 0.04470652
0.08891306 0.07456486 -0.026178073 -0.08727219 0.059812773 0.008137469 -0.09904039 -0.07940564
-0.0914639 -0.08141807 0.06993785 0.0590704 -0.06813986 -0.021711586 0.0988629 -0.084631085
-0.045475565 -0.041176856 0.084840104 0.005673597 -0.003271509 -0.018646827 0.048414815 -0.090483926
-0.0027568091 -0.08268568 -0.0032313028 -0.05989635 -0.055780534 -0.0115376 0.018223502 0.0064705964
0.015426433 0.0052184355 0.031766348 -0.07399225 0.037141606 0.05285162 -0.004257113 -0.032943424
-0.060758583 -0.020079672 0.009389473 -0.041247863 0.033891886 -0.09346034 0.0607516 -0.006360237
0.011755227 0.088018306 0.034481913 -0.02187688 0.03653034 0.045885134 0.06402303 -0.06846358
-0.043873575 0.08949962 -0.011361261 0.06641633 0.09197974 -0.107412174 0.013169341 0.025213193
0.049235865 0.051973637 -0.10802666 -0.047108524 0.0043561347 0.039470445 -0.026109084 0.023692105
0.071088895 0.071416736 -0.022676455 0.091492236 -0.012208091 -0.06345316 -0.041835807 0.07341676
-0.091847464 0.068564795 -0.0021366097 -0.0011728555 0.03575199 -0.050006114 -0.06293947 -0.029343262
-0.07264628 -0.01531287 0.011448094 0.020250445 -0.09242663 0.08892358 0.033758465 0.039188784
0.05513078 0.11296691 0.12998264 0.04932519 0.050098404 -0.08967963 0.02342521 0.13543735
-0.047050327 -0.015447174 0.020847147 -0.11220844 -0.008597987 0.12654504 0.004499495 -0.033016976
0.03949317 0.13061616 0.1117158 -0.08838381 -0.035545375 -0.057493888 -0.017938543 0.025713602
0.04416611 -0.09912209 -0.0484788 0.045188487 0.11764803 -0.052615196 0.014969656 0.02616849
0.057479847 0.121417165 0.104485005 0.0005875317 0.0141344415 0.016161183 -0.050301146 0.02848994
-0.0035216282 -0.13429245 0.10097622 0.011352146 0.07845938 0.049689785 0.097293094 -0.00905611

backbone.0.bias f4 [256]
00000000: 5554 b83d 379f b4bd 4322 eabd 0a29 98bd
00000010: 0d38 dbbc 9a40 973d 82e0 82bd b841 92bd
00000020: 9a8c 41bb 4ddc e93b 6736 223d 4b0f 7b3d
00000030: 049d 87bd d3ed 63bd afb6 343d ad31 fa3c
00000040: 9ae5 e63a 9af5 16bb 5c14 79bd 4b37 0c3d
00000050: 9005 2a3d 3993 4bbd 27b9 323d 5095 27bd
00000060: d82a 8e3d a751 26bc 15f4 96bd 923b 9dbd
00000070: 97aa 8fbd 95cc 2bbc 3144 ddbc 3306 653c
00000080: b0db 81bd 9396 c8bd ef71 4c3d eeb9 1d3d
00000090: 044e eabd 47bb 8abc 6011 34bd 8206 89ba
000000a0: 76c8 80bd 1196 41bd 13d7 d9bc 2546 79bd
000000b0: d0e3 06bd fd47 5abd 2751 83bc c26c 81bd
000000c0: beac cbbc 88fd c5bd 29df 883d ff14 33bd
000000d0: 6f1c 9dbd 47fa f1bc a34f 9cbd 9072 583c
000000e0: 23cc 5bbd 003e 2a3c 5327 683d 8b2f fbbd
000000f0: 433b c43c 676a 37bb 00be 4f3b 4794 b0bc
00000100: 1f8b 83bd 4d15 1d3c 9b9d c5bd 8720 5a3d
00000110: da63 d63c 2da0 29bd 2897 19bd 4324 b23d
00000120: f0d5 b8bd 5cc8 54bd ff51 ad3d 7394 0a3d
00000130: 3099 7cbd 9532 82bd 1a26 ffbb 1715 6dbd
00000140: 53af 313d d3d8 98bc da9a a73d f0fc 19bd
00000150: 072a c03c 27ad 003c 32e7 b4bd a763 6b3d
00000160: f399 72bd 15f4 c5bc 8701 8fbc cd70 363c
00000170: f3cf 91bd 040d 93bd c74e c03c e912 2fbd
00000180: 9a8b d43b 0d9b 7ebc 6ca9 71bc f354 9fbd
00000190: a715 11bd 8d57 52bd c899 423d cb3d ba3d
000001a0: 08ff 8bbb c77d a0bc 8e57 d0bd b303 303d
000001b0: 286a 383d 274f b1bd 6c11 3bbd 5a79 c63c
000001c0: c599 47bc 2739 9dbd e75e 0dbd 0073 013d
000001d0: 0215 b33d 40eb 8abd 3339 aa3b 4d98 94bd
000001e0: 3581 463d d34d bdbc 1e90 01bb d3d1 37bd
000001f0: 95a7 2f3d cfd4 81bd a000 f3bc 1a68 95bb
00000200: c3aa a63d 4d79 c9bc 63af 7bbd b2a1 91bd
00000210: 4bc0 993d 3836 dbbd adad 343d 7363 2ebd
00000220: cd08 343d 7052 3dbd a34c b1bd 23ad bbbd
00000230: 3d6e 033d 423f 33bd 259c 873d 5c29 293d
00000240: d6e3 3e3d b2f2 a43d 7397 5dbc 3176 8abd
00000250: b557 b3bd cdde 03bd f590 bebd 58cd 7d3d
00000260: da58 3a3c 54aa 7ebd 7b62 823d b0e6 7abd
00000270: b170 d9bd 5d71 4c3d be8f 093d bda1 a13d
00000280: 9d99 523d da0e 823c 8022 a03d 5144 a1bd
00000290: 073e 653d 00f2 c1bc d158 23bc d5c6 ac3d
000002a0: cb8c a33c f337 6ebd da3d 70bc 8daf 59bd
000002b0: 672b da3b f33a 9d3c d561 c1bd 739f 48bc
000002c0: daa0 fb3c 8a67 e93b fadf dd3c 3239 803d
000002d0: 6d58 25bd 0083 c0bd 7d5c a93c 9a7f 57bc
000002e0: 4819 17bd be17 b9bc ef00 683d 4397 5a3d
000002f0: 4725 563c a564 e8bc 0570 ccbd 27f6 a13c
00000300: a17b c0bc e8b0 8b3d 9f36 c4bd 268a 48bd
00000310: 87f6 9cbd 40db 21bc 5aec 99bc 96d7 b7bd
00000320: 2976 7d3d 8352 b2bd e69f 403d 54bc c43d
00000330: 7351 00bd 0db9 97bc d346 883c 6a07 163c
00000340: e4d7 24bc 5d14 13bd 001c 61bb 17f2 47bd
00000350: b37a 2f3d 2d46 aabd c7c6 c0bc aab4 a8bd
00000360: 9a25 7eba d3f7 483d 6611 a8bd 487d f1bb
00000370: c001 483d 637d 4dbd e035 d63c 3a97 133d
00000380: 7d0d a6bd 6057 28bd ac06 8ebd 7030 503d
00000390: 2257 4a3b c03b 24bc 9ddd 5abd 9a04 d03c
000003a0: 1215 8d3d b2a1 90bd 669b 98bd 8ce1 9dbd
000003b0: fffe 043d 5df1 293d 11a1 0ebd b873 96bd
000003c0: 204e d1bc 62e8 833d 5c03 1d3d fc16 023d
000003d0: f8e4 85bd be7c 50bc d09e 22bd 7de9 21bd
000003e0: f7bb c2bd 02d2 b63d 20d7 ad3d 4038 5abc
000003f0: 201a 9bbd dce6 9b3d b7f2 b3bd 40e0 14bc
0.0900046 -0.0881943 -0.11432316 -0.074297026 -0.026760126 0.07385369 -0.06390478 -0.07141441
-0.0029533268 0.0071368576 0.039602663 0.06129388 -0.06621745 -0.05564673 0.044119533 0.030541265
0.0017616034 -0.0023034574 -0.06081043 0.03423242 0.04150921 -0.04970095 0.043633606 -0.04091388
0.069417655 -0.010151303 -0.07370774 -0.07677378 -0.07014959 -0.010485788 -0.027010055 0.013978529
-0.0634073 -0.09794345 0.049913343 0.038507394 -0.114406615 -0.016935004 -0.043961883 -0.001045421
-0.06288235 -0.047262255 -0.026591813 -0.06085791 -0.032932103 -0.05329131 -0.016029907 -0.06319572
-0.024862643 -0.09667498 0.066831894 -0.043721195 -0.07671439 -0.029538287 -0.07632377 0.013210908
-0.053661477 0.0103907585 0.056678127 -0.122649275 0.02395404 -0.0027987005 0.0031698942 -0.02155508
-0.064230196 0.009587598 -0.096492015 0.053253677 0.02617066 -0.04141252 -0.03749767 0.086983226
-0.0902518 -0.05194889 0.08462905 0.03383298 -0.06166953 -0.06357304 -0.0077865245 -0.05788144
0.043380093 -0.018658077 0.081838325 -0.037594736 0.02345754 0.007853783 -0.088331595 0.057468083
-0.05922885 -0.024164239 -0.017456783 0.011135292 -0.07119741 -0.07180217 0.023475064 -0.042742644
0.0064863684 -0.015539897 -0.014749866 -0.07779875 -0.03542104 -0.051353026 0.04750994 0.09093817
-0.0042723455 -0.019591225 -0.1017295 0.042972278 0.045023113 -0.08657675 -0.04567091 0.024227787
-0.012182658 -0.076769166 -0.034514334 0.031603813 0.08744241 -0.067831516 0.005194807 -0.072556116
0.048463065 -0.023108399 -0.0019769738 -0.04487784 0.042884428 -0.06339418 -0.029663384 -0.004559529
0.08138039 -0.024593974 -0.06144656 -0.07110919 0.0750738 -0.10703701 0.044110943 -0.04257531
0.043953706 -0.046221197 -0.086571954 -0.091638826 0.032087553 -0.0437615 0.06621579 0.04129921
0.046604 0.08054103 -0.013524878 -0.067608245 -0.08756963 -0.0321949 -0.09304992 0.06196341
0.011373723 -0.062174156 0.0636644 -0.061255157 -0.10617197 0.0499128 0.03358435 0.07892177
0.05141603 0.015876222 0.0781908 -0.078743584 0.055967357 -0.023674965 -0.009969906 0.08436362
0.019964596 -0.058158826 -0.014663184 -0.053145934 0.006658006 0.019193148 -0.09442488 -0.012245047
0.030716348 0.0071229385 0.02708434 0.06260909 -0.040367533 -0.09399986 0.020673985 -0.013152981
-0.036889344 -0.022594329 0.056641515 0.05336691 0.013070411 -0.028368304 -0.099823035 0.019770695
-0.02349645 0.068208516 -0.09580731 -0.048959874 -0.07664209 -0.009878933 -0.018789459 -0.08976667
0.061880264 -0.08707144 0.04702749 0.09606233 -0.031327676 -0.018520856 0.016635334 0.009157041
-0.010061238 -0.03590809 -0.0034348965 -0.04881486 0.042841624 -0.08314166 -0.023532284 -0.08237584
-0.0009694934 0.04906447 -0.082064435 -0.007369671 0.048829794 -0.050168406 0.026148736 0.036032893
-0.081080414 -0.041098952 -0.06934866 0.050827444 0.003087469 -0.010024011 -0.053434003 0.02539282
0.068887845 -0.07062091 -0.07451515 -0.07709035 0.032469746 0.041489948 -0.034821574 -0.0734629
-0.025549948 0.06440808 0.038333282 0.0317602 -0.06537813 -0.012725053 -0.039702237 -0.039529312
-0.09508508 0.089267746 0.084882975 -0.013319075 -0.07573342 0.07612392 -0.087865286 -0.0090866685

backbone.2.weight f4 [256, 256]
00000000: b070 01bd e02a c93b c8a5 a53c 80d8 083c
00000010: 3050 fbbc faab 693d b87d 223c 82a4 033d
00000020: d05f d4bc 90a8 503d e00e 9ebc 04ff 06bd
00000030: b4db b43c f54a d13c 8233 52bd 4c08 ae3c
00000040: 5e2d 473d 3e97 093d b4c8 493d ffe2 d8bc
00000050: 0472 e4bc 70f0 6fbc b46d ec3c bec4 493d
00000060: a8f4 6ebd ccf2 46bd 7c0b 8cbc d2c5 66bd
00000070: 30db 83bc 3064 54bc 34cf 13bd b27f 7a3d
00000080: d82c 6fbc b249 193d 48d6 ccbc 4063 e73c
00000090: 9648 07bd 1a46 283d f8f8 593d da73 5fbd
000000a0: 4486 033d 9282 5dbd e8ba 0bbc 5f9d eebc
000000b0: 7401 333d 7cbd 5bbd b478 13bd 8c19 e2bc
000000c0: f0f1 cebb 4c62 793d 729c 02bd f8ae 13bd
000000d0: d6c6 0c3d 6874 d4bc 2456 f4bc 58b6 893c
000000e0: 8653 753d 3473 323d 86d5 153d d026 9a3b
000000f0: c48a 02bd 68d7 de3c 46c1 1fbd 7061 423c
00000100: a201 69bd a84c 02bd 3410 f13c 3406 ae3c
00000110: 589c 423c c224 3e3d 8078 dbbb c813 243c
00000120: 8061 ba3c 68e6 9e3c c4d3 7e3d 6084 5fbc
00000130: 54ef 533d a208 0abd 9c25 4bbd a43f 293d
00000140: b280 63bd 0601 1fbd 046b 493d 385e d93c
00000150: b65b 4b3d b056 40bd f832 c63c 0cf3 213d
00000160: cc19 a83c d63e 0bbd 80fa 753c 7c68 d3bc
00000170: 2a62 1f3d c865 f1bc 3ca8 97bc a8e6 6c3c
00000180: 24b1 15bd b858 68bd 0c3a 57bd 6cfe 79bd
00000190: 2037 78bd 6400 05bd 0ad9 03bd d0ed 72bd
000001a0: 882e 803c be74 3e3d 0eb1 59bd 403a 91bb
000001b0: 3042 30bc 60f4 65bd 00cf 013d 9491 573d
000001c0: b8f1 13bc 94fb 803c 8831 7cbd 3c5c 7ebd
000001d0: bca3 bcbc b005 423d 806f a63c cadd 55bd
000001e0: 940e ecbc 6c76 cbbc ba3e 763d 20f0 28bc
000001f0: 2829 2dbd 10dd 983b a2e6 4a3d 406b e13c
00000200: d244 5e3d 70c7 d4bc 7e1c 1b3d a4bb 04bd
00000210: 444c a2bc 581f 5fbd 68d7 143c b2e5 0cbd
00000220: 7857 453d 2ab3 5fbd 4eb1 683d 54fb 3abd
00000230: 421a 7b3d 1c4d 453d 249f aabc 4c4a 103d
00000240: c084 053b 9ce2 153d 44ee 8dbc 28fe 2d3c
00000250: 8697 02bd a850 22bc 101a 7d3d 5287 7dbd
00000260: b07e bd3b 78f1 653d a4bd 2f3d 9040 0f3c
00000270: 2080 b03c b078 6bbc c4ff 633d 2898 cdbc
00000280: 86ba 68bd 4c40 f33c 78aa 4a3d 0029 183c
00000290: 20c8 6bbd 58d3 5dbc 80df 68ba ccf3 e43c
000002a0: 00b0 aa37 dcd3 dcbc 4c4c 02bd bc03 143d
000002b0: 222d 4a3d 00aa eabc 98e0 8cbc dc98 f13c
000002c0: 886b 643c c8d8 cdbc 5c52 6cbd 508e 71bd
000002d0: 1656 123d 78cf 54bd 0053 a9bb dc2f 1ebd
000002e0: 346d e73c 7042 803b 68ba bdbc d83c a33c
000002f0: fc9a dc3c 0851 98bc 5020 5abc 84c0 19bd
00000300: 0081 033d f466 7cbd 584a 02bc 751b 53bc
00000310: fabb 19bd 9440 933c 88d8 293c ec38 5dbd
00000320: 84ba a73c ea1e 7fbd f44f 7ebd b0a0 933b
00000330: 2046 e23b 5a05 7bbd 003d 0bbb 3015 45bc
00000340: 7ad0 3fbd 8078 193c 5213 6e3d 9058 c63b
00000350: 88b3 60bc 12bd 64bd 6890 d63c 605a 7a3d
00000360: 803b 2fba be43 60bd 12d3 003d 5012 823b
00000370: b089 963b a090 a3bb d0b3 2ebc 70b0 efbb
00000380: f49b 2e3d 080e f8bc bced e93c 7ae1 34bd
00000390: c6c1 7f3d 8003 7dbd 58ed 633c acdf c43c
000003a0: c25a 653d 78e8 633d e219 7dbd 543d a2bc
000003b0: c84b 2b3d 6c38 90bc 4831 2b3c fe5c 423d
000003c0: 90ac 43bd 22a1 733d 7260 46bd 9051 7dbd
000003d0: e0fe 19bb 903d 5c3d be18 473d 806e 123d
000003e0: 3014 813b e07b b0bb 7adb 20bd d43b 30bd
000003f0: 3cc4 e33c 108a 163d 7ab5 1d3d 486f 4c3d
-0.031601608 0.0061391443 0.020220652 0.008352399 -0.030677885 0.057048775 0.009917669 0.03213931
-0.025924593 0.050942004 -0.019294202 -0.032958046 0.022077419 0.025548438 -0.051318653 0.02124419
0.04862725 0.0335915 0.04926367 -0.026475428 -0.027886398 -0.014644727 0.028860904 0.049259894
-0.05833879 -0.048571393 -0.01709532 -0.056341 -0.016095728 -0.01296334 -0.036086276 0.061156936
-0.014598094 0.037423797 -0.025004521 0.028245568 -0.033028208 0.04108248 0.05321595 -0.054553844
0.032110468 -0.0540796 -0.008528449 -0.029127775 0.043702558 -0.053647503 -0.036003783 -0.027600072
-0.0063154623 0.06088476 -0.03188748 -0.036055535 0.034369312 -0.025934413 -0.029826231 0.016810581
0.059894107 0.043566898 0.036580585 0.004704334 -0.03187062 0.027202323 -0.03900268 0.011864051
-0.056886323 -0.031811386 0.029426672 0.021243192 0.011878096 0.046421774 -0.0066977143 0.010014482
0.02275157 0.019396976 0.062213674 -0.0136424005 0.051741913 -0.03369964 -0.049596414 0.041320458
-0.055542655 -0.038819335 0.049174324 0.026534185 0.04964801 -0.04695767 0.024194226 0.03953843
0.020520113 -0.033995472 0.015013337 -0.025806658 0.038911976 -0.029467478 -0.018512838 0.01445929
-0.036545888 -0.056725234 -0.052545592 -0.06103365 -0.060599446 -0.032471076 -0.032189406 -0.059308827
0.015647188 0.046498053 -0.053147368 -0.004431993 -0.010757968 -0.056141257 0.03169155 0.05262907
-0.009029798 0.015744962 -0.061570674 -0.06209968 -0.023027293 0.047368705 0.02031684 -0.052213468
-0.028815545 -0.024836741 0.060118414 -0.0103111565 -0.042275578 0.0046650246 0.049536355 0.027516961
0.05426485 -0.025974005 0.03786897 -0.03240551 -0.019811757 -0.05447325 0.00908456 -0.034398742
0.04817912 -0.054614224 0.056809716 -0.04564984 0.06130434 0.04816924 -0.020827837 0.035227105
0.0020373315 0.036593065 -0.017325528 0.010619678 -0.031882785 -0.009906925 0.061792433 -0.06189663
0.0057829246 0.056138486 0.042905465 0.00874342 0.02154547 -0.014372036 0.05566384 -0.025096968
-0.056818508 0.029693745 0.049478978 0.009287119 -0.0575639 -0.013539158 -0.0008883402 0.027948283
2.0347536e-05 -0.026956491 -0.031811044 0.036136374 0.04935945 -0.028645515 -0.017196938 0.029491834
0.013941653 -0.025127783 -0.05769573 -0.05897361 0.03572663 -0.05195567 -0.005167365 -0.03861986
0.028250314 0.00391417 -0.023160174 0.019926473 0.026929371 -0.018593326 -0.013313368 -0.037537113
0.032105446 -0.06162162 -0.007952295 -0.012884964 -0.037532784 0.01797513 0.0103665665 -0.054009363
0.02047468 -0.06228534 -0.062087968 0.0045052394 0.006905332 -0.0612844 -0.0021246076 -0.012028977
-0.046829678 0.009367108 0.058123894 0.006053038 -0.013714679 -0.055844374 0.026191905 0.061121345
-0.00066845864 -0.054752104 0.031451292 0.003969468 0.0045940503 -0.004991606 -0.010662988 -0.007314734
0.042629197 -0.030280128 0.028555743 -0.044160344 0.062440656 -0.061770916 0.013911568 0.024032436
0.055994757 0.05564162 -0.061792262 -0.019804634 0.041820318 -0.017605029 0.010448761 0.047451966
-0.04777199 0.05947984 -0.04843182 -0.061845362 -0.0023497865 0.053769648 0.04860758 0.035749912
0.003939174 -0.005385861 -0.03927181 -0.043025807 0.027803533 0.03675276 0.038503148 0.049910814

backbone.2.bias f4 [256]
00000000: 088f 613d 5863 713d 467a bdbd dce6 0dbd
00000010: 01c0 ed3d 611c 81bd c22c adbc 65df 27bd
00000020: f7e7 313d e2bb a8b8 bdc2 a1bc 49de 89bc
00000030: 2757 053e 4eb6 873d 2f27 7dbd 7c3c 87bb
00000040: b984 223e 7709 0c3e 1de6 48bd 9c67 91bb
00000050: d57c 14bd 2a51 1fbd 6181 74bd 20a6 55bc
00000060: 4930 caba 7ecf 003e c1eb 0a3e f017 81bc
00000070: acdb 153d 0014 0639 736e 2cbd d216 5dbc
00000080: 32ce 1ebc 8cbe eabb db85 bd3c d215 25bd
00000090: 96b2 b13b 2061 a9bd 3e8e dfbb 49f3 b8bc
000000a0: ce17 8abd 9925 5dbd 9e24 403c a69a 923d
000000b0: 3ab0 bb3d ba1f 09bd 4738 3d3e 17c6 48bc
000000c0: 12ca 46bd 2c8a 36bd 2019 3cbc a203 14bd
000000d0: f098 f1bc d21f 0abd 8e0c 68bd b0bc c8bc
000000e0: ea1f 5ebd 4441 16bd d483 95bd e0f1 1abd
000000f0: 3b47 8cbd 6b41 1c3c 4e65 103e 4365 1b3e
00000100: e7cb f53d 55ca eb3d c9dd d33d 5f6f 55bd
00000110: 6644 5dbd 4f0c dfbc 51dc 3ebd be8b 10bc
00000120: 07f9 0fbd f015 b43d ba4a 60bc 2076 9cbd
00000130: ad02 2c3d f11b e03d 6ed7 e33b 34d6 b9bc
00000140: 8658 4cbc faa9 24bb 9dc7 6a3d e55f 1bbd
00000150: 84b3 2cbd 4313 b9bd 2427 1cbd aa2f 11bd
00000160: 1bd4 b23d 88c1 08bd 1198 ddbb a885 023e
00000170: 3c16 1d3d 2016 a63c 5c33 8ebd 0a96 eebc
00000180: 8a1a e4bc d57c c13d 1772 8f3d b8fb 99bc
00000190: 1479 a1bb 791c 27bd f7b7 10bd 1a8e 1c3e
000001a0: 2dc4 cf3c e897 55bc 577c 83bd 5dd6 60bd
000001b0: 8a2f 75bd 7a7c 6bbd ba5f 233e f02a 14bd
000001c0: b0fa 0b3d 2741 283d 0999 8abd ff48 62bd
000001d0: 0bf0 82bd fc57 c2bc 8e23 fabc 382b a7bc
000001e0: 0961 87bd af0e f93d 561a 93bc acf6 053e
000001f0: c360 e53d a65c 38bd a7ed f9bb 43f7 f23d
00000200: f64a d8bc 644a 6bbd 2348 1b3d 6000 4abd
00000210: 534e 79bd de22 273d 1869 17bd 6328 373d
00000220: fff9 e9bc 4fce 91bd 78d2 ab3d 41f5 89bd
00000230: aa14 eebc 7f46 a83d a6f6 3fbd c7f2 b73d
00000240: 02af 14bd 6bbf 113e 7241 123e f96c db3d
00000250: fc82 5abd ece5 30bd d937 053e 4385 913d
00000260: ca21 51bd 6761 453b 7f50 b13d 9f60 f6bc
00000270: 60f4 2c3d f532 1ebd f7fa f0bc c1a4 1e3e
00000280: 5895 fabc 6ef7 0fbd a822 6dbc fc7c 673e
00000290: 4d2f 83bd d118 0f3e 7961 063e e8ab 7bbd
000002a0: 3076 dfbc 3db0 36bd fc53 793d 879b 053d
000002b0: 8d8c df3d 8a28 cb3d 2849 24bc dcc1 08bc
000002c0: bfca 5dbd c0d4 e9bb 8791 7abd 748a 62bd
000002d0: 4084 debc 6850 00bc 6fa2 803c 806b 74bd
000002e0: 1b45 2ebc f290 803d 0a67 893d 5b29 ca3d
000002f0: 0643 28bb 06d0 a73d 2b4b 4ebd 83b7 ec3a
00000300: 2527 7abd f945 803c d0ce 37ba 5382 b1bc
00000310: 607e 04bd f986 60bd 10a8 79bc 6cf0 4abd
00000320: 931e 973d 6770 95bc a427 9cbd b17a ab3d
00000330: 4c99 5fbd 0639 5abd d38a cabc 88fc 62bc
00000340: 0181 03bd 83f0 e23d 218d c93d 4214 ddbc
00000350: 150e cdbc 0d7f f0bc d006 56bc 1097 d3bb
00000360: f0d0 02bc a020 f9bc eecb 58bd 6ac2 8b3d
00000370: 5763 963d 9cf1 d6b8 c684 a9bd f7e2 833d
00000380: fb35 34bd ac30 363c 3f5c 82bc 8bbe 2dbd
00000390: 4f1b fe3d cffa 73bd 6711 1f3e 8b75 65bd
000003a0: fa23 823d 50b8 a53d 60b7 80bd a894 63bd
000003b0: 82e6 2bbd 8682 b23d cafb eb3d a978 96bc
000003c0: 7d38 1fbc 88f6 c63d 2ae5 2bbd ed8c 533b
000003d0: 1764 42bd 4e1c 2d3e 2511 a4bd 819a 2cbd
000003e0: 663d c83d 3ca9 73bd 1501 70bd 153d b3bc
000003f0: b898 143e 7578 1a3d 7ae7 0dbb a982 f03d
0.055068046 0.058932632 -0.092518374 -0.034643993 0.116088875 -0.06304241 -0.021139506 -0.04098453
0.04343411 -8.04586e-05 -0.019746179 -0.016829627 0.13021527 0.06626569 -0.061804947 -0.0041270833
0.15870942 0.13675486 -0.049047578 -0.0044374 -0.03625186 -0.038895763 -0.059693698 -0.013040096
-0.0015425767 0.12579152 0.13566495 -0.015758485 0.03658645 0.00012786686 -0.04209752 -0.01349421
-0.0096927155 -0.0071638282 0.023135116 -0.040304013 0.0054229004 -0.08270478 -0.0068223765 -0.022576945
-0.06742822 -0.053990934 0.01172748 0.07158403 0.09164472 -0.033477522 0.184785 -0.01225426
-0.048532553 -0.044565365 -0.0114806 -0.036136277 -0.029491872 -0.033721752 -0.056652598 -0.024504036
-0.054229654 -0.036683336 -0.07300535 -0.037828326 -0.06849524 0.009537081 0.14101145 0.15175347
0.12001782 0.11513201 0.103450365 -0.052108165 -0.054020308 -0.027227549 -0.04659683 -0.00882238
-0.0351496 0.08793247 -0.013689691 -0.07639718 0.04199474 0.109428294 0.0069531715 -0.022685148
-0.0124722775 -0.0025125728 0.057319272 -0.03793325 -0.042163387 -0.09036877 -0.038123265 -0.035445847
0.08731862 -0.03338769 -0.0067625125 0.12746298 0.038351282 0.020274222 -0.0694339 -0.029124279
-0.027844686 0.09447638 0.07004183 -0.018796787 -0.0049277637 -0.040798638 -0.035331693 0.15288582
0.025362099 -0.013036706 -0.064202 -0.054891933 -0.05985979 -0.057491757 0.15954486 -0.03617376
0.03417462 0.04107776 -0.067674704 -0.055245396 -0.06393441 -0.023723595 -0.030534532 -0.02040635
-0.06610305 0.12161004 -0.017956894 0.13082379 0.112000965 -0.04501023 -0.0076272073 0.11863568
-0.026402932 -0.05744399 0.03791059 -0.049316764 -0.06086571 0.040804736 -0.03696546 0.04471625
-0.02856159 -0.07119428 0.08389753 -0.067362316 -0.029062588 0.08216571 -0.04686608 0.08981853
-0.036299713 0.14233176 0.14282778 0.10714144 -0.053347573 -0.04318802 0.13009585 0.07105496
-0.051057614 0.003011787 0.086579315 -0.03007537 0.04222524 -0.038622815 -0.029416544 0.15492536
-0.03058879 -0.035148077 -0.014473595 0.22606272 -0.06405506 0.1397431 0.1312312 -0.06144324
-0.027278036 -0.044601668 0.06087111 0.032619026 0.1091548 0.099198416 -0.010027207 -0.008347001
-0.054148432 -0.0071359575 -0.061173942 -0.05530782 -0.027162671 -0.00783167 0.015702454 -0.059672832
-0.010636593 0.06277646 0.06709106 0.09871169 -0.0025674715 0.08193974 -0.050364655 0.0018060062
-0.061072487 0.015658366 -0.00070117135 -0.021668589 -0.032347083 -0.05481622 -0.015237823 -0.04954569
0.073788784 -0.018242074 -0.07624748 0.08373011 -0.054589555 -0.053277038 -0.0247244 -0.013854153
-0.03210545 0.1108103 0.09841371 -0.026987199 -0.025031129 -0.029357458 -0.013063148 -0.006457217
-0.007984385 -0.030411065 -0.052928858 0.06824191 0.07343166 -0.000102493184 -0.08277278 0.064397745
-0.043996792 0.011120003 -0.015913127 -0.042418044 0.124075525 -0.05956536 0.15533982 -0.0560203
0.06354518 0.080917954 -0.06284976 -0.05556169 -0.041967876 0.087163016 0.11522634 -0.018368082
-0.009718058 0.09714991 -0.041966595 0.0032280043 -0.047458734 0.16905329 -0.080110826 -0.042139534
0.09777336 -0.059487566 -0.058594782 -0.021879712 0.14511383 0.037712533 -0.0021652863 0.117436714

out_n.0.weight f4 [100, 256]
00000000: c9e6 aebe 3d4d a6be d144 d1bd 79ac 5abc
00000010: 3962 06bf 5b0d 8fbe 36a0 cfbc 124a ebbb
00000020: a1e5 c7be 530f 86bd d549 80bd 773d 343c
00000030: 681b ffbe f174 bcbe 77e3 64bd 309d 073c
00000040: 50b4 debe 544f c3be 97e3 a43b e959 0ebd
00000050: 0aab a83c c02e 25bc ba4e bfbd 0099 2e3d
00000060: ba84 89be 77d1 f5be cb18 c8be 503a 80bd
00000070: b752 2bbe 500c 253c 9b0b e1bc a268 6bbb
00000080: 7bde a5bd 8b40 3cbc c56e 34be ea66 d63c
00000090: acbf 94bd 84af aabd 2904 fc3c 3430 1bbe
000000a0: 092b 00bd 357a acbc f45c 38bd 2650 afbe
000000b0: 5455 78be 7944 e6bd 5fc5 f1be 8e5d 5abd
000000c0: 91be 253d d232 cf3c ecb1 2b3d 0fa1 36bd
000000d0: 52ae 1a3d 3cd2 173d 2198 08be ecf4 b7bc
000000e0: 65b5 0b3d 4049 c83c 484f fd3c 40eb 1dbc
000000f0: c6e6 92bd 25cf aa3c 4e73 fcbe 4792 d3be
00000100: 49c3 d9be 6135 f4be d905 f4be 2456 eabd
00000110: f08a fabd f6dc 4b3c 9a47 023d 6c2e 3fbd
00000120: d1be 383d b19e f8be f79c 453d 0855 2cbd
00000130: 2856 9fbe 541e e3be 3d19 7fbd 1046 1dbd
00000140: 2c25 0d3d 00d4 8bbd ab2d a3be d256 7cbd
00000150: 588c 3a3c 1528 56bd 60d4 f2bc 7575 1bbd
00000160: 272c edbe 467d c03c 49a5 73bc d397 d8be
00000170: 4ae8 9ebe 5dc7 9fbd c124 c1bd 25f6 39bc
00000180: 745f efbc 1912 c8be edfc ddbe 2709 afbd
00000190: 9d3b db3c 68a7 1f3d de82 d8ba d287 0bbf
000001a0: ced8 c6bd fce0 11bd 9263 00bc 9079 98bd
000001b0: 9cf6 eebc ece7 afbc 1f05 f3be 1747 98bd
000001c0: 8e66 37bd 7418 ecbe fb02 92bd 6260 84bd
000001d0: 335a debd 8098 af3b bca6 3dbe 57fa a8bd
000001e0: 2b52 60bb 0e4d 13bf 7021 a43c 2c40 e8be
000001f0: 1337 c1be 7f6b 653c 8d64 b6bc 18df e3be
00000200: f6e0 50bd fa1d 3d3d f973 49be 9d05 b5bc
00000210: c696 baba a40e 08be 0a6a 233d b22e 4dbe
00000220: 5d75 b2bd 1644 18bd e7e5 dcbe 6b75 81bd
00000230: bf07 82bc 9776 a6be 2d4b 023b e19e cdbe
00000240: c54c adbd e2a1 07bf ae47 11bf 6bda e4be
00000250: f953 b3bb f8a5 cdbd 0279 0dbf 10d8 83be
00000260: 8f67 fb3c 4881 823c 24af debe c723 4c3b
00000270: e505 2dbe 109f abba e1a7 fdbd 7d54 d4be
00000280: fa10 07bd 5108 8fbd f43c a7bc a298 32bf
00000290: c585 9fbc 143e d8be bbae d6be c87e 3f3d
000002a0: 4dcf 64bc 695b a13c a2b6 9abe c915 39be
000002b0: 7056 07bf b242 dfbe 9005 273c 45a7 20bc
000002c0: f17f cebb d0cd 22be 70d9 51bc c849 14bc
000002d0: 21b0 923c 0623 bf3b 061f 2abe 2f1f 273d
000002e0: 4835 66bc c103 e7be c4af e5be 5c61 bebe
000002f0: cd8c debd b3c9 80be 438b babd 109a 303d
00000300: 93c5 343d f24f 973b 80f0 b2bb a32a e03c
00000310: 143a 3b3d 385a d6bc ed6d 40bd 3873 90bc
00000320: ea9f 00bf 99d7 0ebe eece 2cbd 7743 67be
00000330: d441 2cbd 9ac6 51bc 25d3 2d3d b795 3cbd
00000340: 740c 18bd f3b3 b8be a198 30be 6317 a93b
00000350: c67f 11bd 41fd a93c 0ec6 0abd 12f1 d4bc
00000360: 903f 5fbd 7eda 5abd 2831 f63c d20c 8fbe
00000370: 32ad bfbe 3cab c6bc 70a6 22be eb98 81be
00000380: fb8f 87bd 96e3 05bd d357 ff3b f2b3 02bd
00000390: c8c0 c2be d559 3fbe 6586 f1be 2346 6fbd
000003a0: daae debe 0548 d4be d87e 513c 009c 95bc
000003b0: 30fe 653d cfe3 c2be f3b7 c8be 1a7d febc
000003c0: 44ef e0bd 0a0c 0cbf 7ae8 98bd 133e 59bd
000003d0: 4064 d63c da0c f1be daae b1bd 9df7 a4bc
000003e0: e1d6 e9be a0ff b53c 9e52 1cbd c736 2abd
000003f0: 5c91 f4be 9914 83be 8601 d1bc 1ef0 ddbe
-0.3416045 -0.32480803 -0.10218204 -0.013346785 -0.52493626 -0.27939877 -0.02534495 -0.0071804607
-0.3904238 -0.065458916 -0.06264082 0.0110009825 -0.49825597 -0.3680797 -0.05588099 0.0082772225
-0.43496943 -0.3814646 0.0050320136 -0.034753714 0.02058937 -0.010081947 -0.09341188 0.04262638
-0.26859075 -0.48011371 -0.39081416 -0.06261122 -0.16730772 0.010073736 -0.027471354 -0.003592052
-0.080990754 -0.011489998 -0.1762038 0.02617212 -0.07263121 -0.08334258 0.030763702 -0.15155107
-0.03129104 -0.021054367 -0.045010522 -0.34240836 -0.242513 -0.11243529 -0.47220895 -0.053311877
0.04046494 0.025292788 0.041917726 -0.04458719 0.0377639 0.03706573 -0.13339283 -0.022455655
0.03410854 0.02444899 0.030921593 -0.0096386075 -0.07172923 0.020850727 -0.4930672 -0.41322538
-0.42531803 -0.47696975 -0.4766071 -0.11442211 -0.122335315 0.012442818 0.031806566 -0.04667513
0.04510385 -0.48558572 0.048245396 -0.04207328 -0.3112042 -0.44359076 -0.06227993 -0.038396895
0.034459278 -0.06827545 -0.3187078 -0.061606236 0.011386 -0.05228432 -0.029642284 -0.037953813
-0.46322748 0.023497235 -0.01487095 -0.42303333 -0.31036597 -0.078016974 -0.094308384 -0.011350189
-0.02922032 -0.39076307 -0.4335703 -0.085466675 0.026761824 0.03897801 -0.0016518494 -0.5450412
-0.09709321 -0.035614952 -0.007836239 -0.07445061 -0.029170327 -0.021472894 -0.47464845 -0.07435434
-0.04477554 -0.46112406 -0.07129475 -0.06463696 -0.10857048 0.0053587556 -0.18520635 -0.082508735
-0.0034228663 -0.5753945 0.020035475 -0.4536146 -0.3773733 0.01400268 -0.022264743 -0.44506145
-0.05099579 0.046171166 -0.19673146 -0.022097403 -0.0014235608 -0.13286835 0.03989605 -0.20037344
-0.087137915 -0.037174307 -0.43144152 -0.06321224 -0.015872834 -0.32512352 0.0019881234 -0.40160277
-0.08461908 -0.5298139 -0.5675 -0.4469789 -0.005472657 -0.10041422 -0.5526277 -0.2575078
0.030689029 0.015930787 -0.43492997 0.0031149255 -0.1689678 -0.0013093669 -0.12385536 -0.4147071
-0.032975174 -0.06984008 -0.020414807 -0.6976415 -0.019472966 -0.42234862 -0.41930184 0.046751767
-0.01396544 0.019696908 -0.30217463 -0.18074717 -0.5286627 -0.43605572 0.010194197 -0.009805505
-0.006301873 -0.15898824 -0.012808189 -0.009050794 0.01790625 0.0058330325 -0.16613397 0.040801223
-0.014050789 -0.45120052 -0.4486066 -0.37183654 -0.10866699 -0.25153884 -0.09108593 0.043115675
0.044133734 0.0046176845 -0.0054607987 0.02736408 0.045709684 -0.026166067 -0.046979833 -0.017633066
-0.5024401 -0.13949431 -0.04218953 -0.2258433 -0.042054966 -0.012803698 0.04243769 -0.046041217
-0.03712125 -0.3607479 -0.17245723 0.0051602586 -0.035522245 0.020750644 -0.033880286 -0.025993858
-0.054503977 -0.053431027 0.030052736 -0.2793947 -0.37436825 -0.024251573 -0.15883803 -0.2531198
-0.06619259 -0.032687746 0.007792452 -0.03190989 -0.38037705 -0.18686612 -0.47172847 -0.058416497
-0.43492776 -0.41461197 0.01278659 -0.018262863 0.056150615 -0.3806443 -0.39202842 -0.031065512
-0.10983136 -0.5470587 -0.074662164 -0.053037714 0.02617085 -0.47080117 -0.086759284 -0.020137602
-0.45671752 0.022216618 -0.038164727 -0.041556146 -0.4776715 -0.25601652 -0.025513422 -0.43347257

out_n.0.bias f4 [100]
00000000: 550c d9be 5e33 723e ea08 be3c 4a9b 06be
00000010: ebcd a63d 3b9a 2bbd f5d6 6bbc 50db b63c
00000020: ff06 38bd da6c c53d ebc0 c1bd 4d3d 02bd
00000030: c1cd b23d 3c80 62bd c488 993d 4ac9 02be
00000040: 3e92 2e3d f545 e7bc 57fb 62bd bfc4 4e3d
00000050: c1c7 06be 9f26 433d 2041 fbbd 32a8 193d
00000060: 0c21 f5bd 4a6b 84bc 1a79 fd3d a939 f6bd
00000070: 7585 613d 638f c9bd 465d e23c ec61 8fbd
00000080: 4c31 083c 3526 853d e09f c3bd 5cd9 173e
00000090: baa6 01be 3a04 2a3e c238 0d3d bb30 97bd
000000a0: c913 ae3c 0aac 00bd d680 3f3e e6a1 0eba
000000b0: bc55 393e 12a4 e63c 5244 c9bd 02d2 d13d
000000c0: 7c31 35bd 9d82 513d 241f b73b 2ee8 84bd
000000d0: fe51 e93d 7330 d9bd 79ff 48bd 6efc cdbd
000000e0: cf73 8bbc 6f3f 763d 06b0 5cbc 0bfd 26bd
000000f0: 8d30 1f3d 76b3 453d 6ec6 223e e0f4 563d
00000100: fa9e f6bc 93ea 873d 6dd9 1fbd 141c 6fbd
00000110: 822e af3d 148b 6abc 0c68 c53d be6b 023e
00000120: fc2a 97bd 99cc 633d c83a 663d 1ed7 83bd
00000130: b57c 9e3d 81eb 883d a142 14be ece9 413d
00000140: 18ef ba3d 82c1 0ebd 2afe 1f3e 34c0 883d
00000150: e54e a4bd 2d1b ad3d 04a6 de3d 15af 013d
00000160: 09e2 af3d 2881 6a3d 3f05 a93d 8da4 e33d
00000170: 6539 163d 1f48 e03d 79cd 24bd 1604 4d3d
00000180: ecda ca3d 4f49 5ebd 6884 d73d af7d efbe
-0.4239222 0.23652408 0.02319761 -0.13145176 0.081447445 -0.041895133 -0.0143945115 0.022321373
-0.044928547 0.096399024 -0.09460624 -0.031796742 0.08730651 -0.055298075 0.07496789 -0.12772098
0.042619936 -0.0282316 -0.055415478 0.0504806 -0.13162138 0.047644254 -0.12268281 0.03751392
-0.11969194 -0.01616444 0.12376614 -0.120227166 0.055058915 -0.09841802 0.027632367 -0.07001099
0.008312535 0.06501428 -0.09551978 0.1482901 -0.12661257 0.16603175 0.034477957 -0.073823415
0.021249669 -0.03141407 0.18701491 -0.0005440995 0.18099111 0.028154407 -0.09827484 0.10245134
-0.044236645 0.051149953 0.005588429 -0.06489597 0.11392592 -0.10604944 -0.049071763 -0.10057913
-0.017022995 0.06011909 -0.013469702 -0.040768664 0.03886466 0.04826685 0.15896007 0.052479625
-0.030105103 0.06636538 -0.039025713 -0.058376387 0.085537925 -0.014315385 0.09638986 0.12736413
-0.073812455 0.05561504 0.056208402 -0.06437515 0.0773863 0.06685544 -0.14478542 0.047342226
0.09127635 -0.034852512 0.156243 0.06677285 -0.080228604 0.08452449 0.10871509 0.03166111
0.08588035 0.05725208 0.08252954 0.1111537 0.03667583 0.10951256 -0.040235016 0.050052725
0.09905037 -0.05426913 0.10523301 -0.46775576

out_d.0.weight f4 [100, 256]
00000000: c6e9 d53b d3d9 8f3c bb2c 10bd b7cb ef3b
00000010: 60a7 563d d6bc 3bbd a67e 87bc 0cb7 50bd
00000020: 9368 7dbd dfb3 e43c 5f8d c03d 0f9e 523d
00000030: 6aac 12bd c340 9fbb 9813 293d e4b7 bd3c
00000040: b6ee 3b3d a5ec babc b3f0 5fbc dc58 a8bc
00000050: 8f39 323d 00a1 763b 3efe 12bc 569e 623d
00000060: 8634 d8bc 3c03 523d c6bf 74bd b5b6 d7bc
00000070: 2d78 d23c b298 5a3d d2d4 8d3c ccc6 e93c
00000080: bd6a 97bd d2b2 91bb cd14 a4bb dff4 2dbd
00000090: 0f98 32bc ab47 13bd 3c99 f3bc b7ba 4ebd
000000a0: ba4c 5fbd fa99 cebc 6e54 403d 1eb9 f6bc
000000b0: 0e7b a93a 515b d73c 0dea 81bd 47ae 1bbd
000000c0: d773 8abd 4663 3ebd 245e a23c 54eb b7bd
000000d0: 84cf 253d e8da 4a3c 3811 e7bc 0878 283d
000000e0: fe55 163d a299 083d eaba f03b f4ae dbbc
000000f0: 0bf4 d13c afaf 4e3d 24a6 c33c cebe 87bc
00000100: 1ed2 7cbd 3ffd ac3c 6965 ae3b b55a a7bc
00000110: 7956 523c 7558 a73d 5434 803c ca21 e43b
00000120: 04cf 7fbd 1d97 413b 92f4 f3bb 69d7 623c
00000130: 2519 e53c ea11 98bb 8894 d3bb 7e94 7f3d
00000140: 85d8 533d e94d 81bd dc26 823a 2ba7 42bd
00000150: 48ec e83c e491 153c 9a72 f7bc 9cfa 70bd
00000160: 2b3d 64bd 6706 613d 8f48 ec3b 634e 31bd
00000170: b1a2 b33c 7ff3 7dbd a77f 9639 b13d 683d
00000180: 740d 16bd 1937 103d 4c20 5b3d 292d 1dbd
00000190: e041 603d 847c c5bb e5d5 07bb 9344 173d
000001a0: 256b 853d 3a4b 43bd d3ce 96bc 1965 35bd
000001b0: f7fb d33b f215 1b3d 71f9 503c 8852 1dbb
000001c0: f665 86bd cf4d d6bc e4df 20bd c9cd a3bc
000001d0: f7f3 49bd b07a 3d3d 8dbc 8e3c ff83 a4bc
000001e0: 00f0 533d dbc1 0ebd 5a3b 5d3c 965a 6fbd
000001f0: dc98 24bc cc6e 5ebd 071b 08bd c4b5 6e3c
00000200: 9e0c 54bc d636 123d 9ad8 36bb 8e58 14bd
00000210: 13a6 a53d 7eaf 4bbd 77c2 c83c 7f61 2abd
00000220: b034 203c 85c1 09bb c753 133c a2ca d8ba
00000230: 29fa adbc 9428 4abd 85a9 04bd 4c20 c6bc
00000240: a209 b0bc f1bd 0cbd cb23 d33c 93cd fcbc
00000250: cbf1 8b39 bbe8 61bd 62fb 623a 3b4d 083c
00000260: 72ff ca3c d163 bcbd e783 eebc 3c27 c03c
00000270: 1d78 1a3d a123 9abd f754 91bd 14a5 3ebd
00000280: 3ceb adbc b683 2c3d 341e 81bc 9e7b e8bc
00000290: 2986 abbd 34d4 5bbd b3bb 78bd 40a7 fe3a
000002a0: 83af 71bd 0cbe 3bbd c890 1dbd ad0c a5bc
000002b0: 9d1e d83c f9e7 26bd 9284 193d 2d83 113d
000002c0: f4ec 83bd 585e 71bd d521 7abd 5efb 563d
000002d0: 9565 4cbd 8bc9 acbc 57c3 213d f081 65bc
000002e0: 5c28 82bd 974f 93bc 75e5 47bd 0482 593d
000002f0: 800b 28bd 4533 373d ff12 fbbb 7c2e 10bd
00000300: ccf9 18bd 35de 8a3c 3f29 52b8 6c10 79bd
00000310: 8905 65bc fc94 41bd c9fb 8b3c 4826 463d
00000320: 34a5 d53c d37f 0dbd c244 49bc 047b 51bd
00000330: 7cf0 ac3c 2f59 dabc 3308 443d 290a ea3b
00000340: 17d3 06bd db2c e5bc a6d0 13bc 3e75 b8bc
00000350: c6cb e83c 75d2 95bc a02e 273d 7812 03bd
00000360: 2080 64bc 1059 e0bb 9cad 83bc 782a 85bd
00000370: a6b9 8dbd f6f6 a53c 5fb8 bcbd a9ad 48bd
00000380: 95b2 0bbc aaaf ed3c 805a edbc 2504 2bbd
00000390: a5b2 313d 44d7 bc3b 6cd7 4dbd a452 45bd
000003a0: 415b 38bd 9b8a 25bc 52b3 023d bcd3 0f3d
000003b0: 1080 9d3b fe08 c43c 721f 5abc 514c 783c
000003c0: a56e abbc 941f dc3c 6ba9 aabd c6cb d8bc
000003d0: 84e9 183d 6533 a1bc 1ee1 e83c 4fd7 0c3c
000003e0: 267b 96bd 704f 2f3c 5d81 92bd 357c 14bd
000003f0: 258d 803c b5dc 4abd 4104 6c3d ab4d 4a3d
0.006528112 0.017559921 -0.03519891 0.007317986 0.052405715 -0.045834385 -0.016539883 -0.050955817
-0.061867308 0.0279178 0.094019644 0.051420268 -0.035808958 -0.004860015 0.04127845 0.023158975
0.04588195 -0.022817919 -0.013668227 -0.020550184 0.043511923 0.0037632585 -0.008971749 0.055326782
-0.026392233 0.051272616 -0.059753202 -0.026332239 0.02569207 0.053368278 0.017313395 0.028537177
-0.073934056 -0.004446366 -0.0050073625 -0.042469855 -0.010900511 -0.03595702 -0.029736154 -0.050471034
-0.05451653 -0.025219906 0.04695552 -0.030117568 0.001293035 0.02628866 -0.0634347 -0.038008
-0.06760376 -0.046481393 0.01982028 -0.08980432 0.040481105 0.012381293 -0.028206453 0.041130096
0.036703102 0.03334964 0.0073465006 -0.026816823 0.025629064 0.050460514 0.023882933 -0.016570475
-0.06172382 0.02111685 0.0053221476 -0.020428995 0.0128379995 0.08171169 0.015649952 0.006962036
-0.062453285 0.0029539533 -0.0074449265 0.013845303 0.027966091 -0.0046408074 -0.0064569153 0.062397473
0.05172016 -0.06313688 0.0009929794 -0.047522705 0.02843298 0.009129021 -0.030206013 -0.05883275
-0.055722397 0.054937746 0.007210798 -0.043287646 0.021928163 -0.061999794 0.00028705338 0.05669946
-0.036633924 0.035208795 0.053497598 -0.038373146 0.054750323 -0.0060268063 -0.0020726856 0.03693063
0.06514577 -0.047679164 -0.018409168 -0.044285867 0.0064692455 0.037862726 0.012754784 -0.0024005491
-0.06562416 -0.026160149 -0.03927602 -0.019995587 -0.04930493 0.046259582 0.017423892 -0.020082472
0.051742554 -0.034852844 0.01350292 -0.058436 -0.01004621 -0.054304883 -0.0332289 0.0145697035
-0.012942461 0.035696827 -0.00279001 -0.036217265 0.08088317 -0.04972791 0.02450679 -0.041596886
0.009778187 -0.0021019888 0.008992142 -0.0016539881 -0.02123745 -0.049355105 -0.03238823 -0.024185322
-0.021488968 -0.03436083 0.025773903 -0.030859744 0.00026692296 -0.05515359 0.0008658675 0.008319194
0.024780009 -0.09198726 -0.02911563 0.023456208 0.037712205 -0.07526327 -0.07096284 -0.04654415
-0.021230333 0.042117797 -0.015761472 -0.028379258 -0.083751984 -0.05366917 -0.06072588 0.0019428506
-0.05900527 -0.04583554 -0.038468152 -0.020147646 0.026381785 -0.04074857 0.037479945 0.03552549
-0.064416796 -0.058927864 -0.06106742 0.052485816 -0.049901564 -0.021092197 0.03949293 -0.01400803
-0.06355354 -0.017982287 -0.04880281 0.05310251 -0.041026592 0.04472663 -0.0076621766 -0.03520058
-0.0373476 0.01695166 -5.0106315e-05 -0.060806677 -0.01397837 -0.047261223 0.017087834 0.04837635
0.026079752 -0.03454573 -0.01228446 -0.051142707 0.021110766 -0.026653854 0.047859382 0.0071423245
-0.032916155 -0.02797549 -0.009021914 -0.022516843 0.02841748 -0.01828883 0.04081595 -0.032000035
-0.013946563 -0.0068465546 -0.016073994 -0.06502241 -0.06920175 0.020259362 -0.092148535 -0.04899374
-0.008526464 0.029014427 -0.028973818 -0.041752 0.04338326 0.0057629663 -0.05025427 -0.048174515
-0.0450089 -0.010103847 0.031909294 0.035114035 0.004806526 0.023930069 -0.013313161 0.015154914
-0.020926783 0.026870526 -0.08333095 -0.026464354 0.037332073 -0.019677827 0.028427657 0.008596255
-0.073477075 0.010700092 -0.0715358 -0.036251266 0.015692303 -0.04952689 0.057621244 0.049390476

out_d.0.bias f4 [100]
00000000: 1aa2 c4bb ffc0 4ebd 834c 1ebe b5e6 8a3d
00000010: 90f7 093e cb79 ea3d dee3 1d3d e38e 4f3c
00000020: 331e e5bc 5b9d 3ebd 3ae8 46bc daf8 8f3d
00000030: 40c6 66bc b34c 1a3d 2124 453c 79c9 18bd
00000040: c077 3abc 0ff4 d6bc 0f24 d0bc 0e6e c93c
00000050: df57 a4bd 6dbc 1fbd bf7c 53bd 30b9 5dbb
00000060: a545 36bd 3088 a33c c0f3 d8bb 3889 02bd
00000070: 4d83 01bc 7270 9cbd 7320 0ebd 5216 983c
00000080: f396 593d d83f d5bc dd1c 08bc 7857 813b
00000090: 6c33 10bd 2e9a 293d 508d 88bc e2df 06bc
000000a0: 02c7 913c 1a07 aa3b f6bd 9abb cda3 4dbd
000000b0: 39e1 b8ba f6f3 df3c fbf9 103d 12bd fd3c
000000c0: 3078 b5bd a03d e8bc 2673 033d 61bc d2bc
000000d0: 6cf9 85bd ba54 8bbd 9048 95bd 1a33 32bd
000000e0: bda9 7abd 32e4 0cbd fb7f b6bc e000 483c
000000f0: 14f8 a4bd 6ca3 d4bc 929e 31bd 2db1 99bc
00000100: 1c01 05bb bf05 123d 636e 07bc ea74 243d
00000110: ad16 c73c 2998 78bc 2ffc 0abd 761a c73c
00000120: dcf0 5ebc edec 67bd 3e8d c53c ce13 21bb
00000130: 02b7 603c 92e4 0ebd 583e 0a3d dde7 2bbc
00000140: 7898 e83a 1ed8 d6bb 8bc6 84bd 48ec 8fbd
00000150: 9693 8b3d 7e48 52bd cbb6 483d a50a e5bc
00000160: 2af4 2ebc 79eb d63b 0ccf 99bc 1d8e 6dbc
00000170: abc1 cdb9 076e 76bc 15d3 b63c c736 ac3c
00000180: 9193 5b3d eaa6 923d 19aa 053e 1a02 adbd
-0.0060007693 -0.050477024 -0.15458874 0.06782285 0.13473344 0.114490114 0.03854739 0.012668344
-0.027968502 -0.046536785 -0.012140328 0.070298865 -0.014085352 0.037670802 0.01203254 -0.037301514
-0.01138109 -0.026239423 -0.02540782 0.024588611 -0.080245726 -0.038998056 -0.05163264 -0.0033832304
-0.044500012 0.0199624 -0.006620854 -0.031869143 -0.00790484 -0.07638635 -0.034698915 0.01856533
0.053122472 -0.02603142 -0.008307663 0.0039471947 -0.03520529 0.041406803 -0.016668946 -0.008232089
0.01779509 0.005188835 -0.004722352 -0.05020504 -0.0014105208 0.02733801 0.03539465 0.030973945
-0.088608146 -0.028349698 0.032092236 -0.025724592 -0.06541714 -0.0680327 -0.07289231 -0.043505765
-0.06119703 -0.03439731 -0.022277823 0.01220724 -0.0805513 -0.025956832 -0.043364115 -0.018761242
-0.002029485 0.03565001 -0.008266064 0.04015056 0.024302805 -0.015172997 -0.033931907 0.02430461
-0.01360723 -0.056622434 0.024115201 -0.0024578455 0.013715507 -0.03488595 0.033750862 -0.010492292
0.0017745635 -0.006556525 -0.064831816 -0.07027489 0.06815259 -0.051338665 0.04900245 -0.027959177
-0.01067833 0.0065588322 -0.018775485 -0.0144992145 -0.0003924494 -0.015040881 0.022317449 0.021022214
0.053607527 0.071607426 0.13053168 -0.084476665
