ch3_figures_output_tuned/model_100L_none.pth (torch, 576125 bytes, 8 tensors)

backbone.0.weight f4 [256, 100]
0.06614651 -0.015869975 -0.025781 -0.012116039 0.096084915 0.035491716 0.028079892 -0.0042100432
-0.09365564 -0.008766747 -0.07393613 0.04309374 -0.014776326 0.015715098 -0.020306027 -0.0064124824
0.084403254 0.037341237 -0.00873183 0.021652568 0.028839922 0.0060529592 0.02439542 -0.083677605
-0.03911611 -0.07573848 -0.07829174 0.06830515 -0.04221269 -0.07019641 0.00031846762 0.025613343
0.007296479 -0.06740367 -0.036607563 0.055724468 -0.075008586 -0.071988605 0.04745847 0.03864577
0.056029093 0.085278824 0.016719831 0.099780045 0.056194257 0.016954899 0.073183514 0.06945528
0.09322585 0.047428835 -0.054807235 -0.0008664727 -0.042544033 0.085418634 0.012065983 0.047416043
0.08136149 -0.02402928 0.023992373 -0.015319908 -0.08934649 -0.053791847 0.040981043 -0.08137449
-0.0662085 -0.0039736987 0.059101045 0.07967117 -0.088653766 0.011923313 -0.048870277 -0.008029759
-0.029545559 0.023089183 -0.06693412 -0.039971378 0.05887239 -0.042648744 0.087784864 -0.0405159
0.06384225 0.025539136 0.06643575 -0.026479578 -0.03617361 -0.0307832 0.08252972 -0.09251459
0.07409214 0.0017613411 -0.027402831 0.046701778 -0.038764644 -0.08263625 -0.017870558 -0.02057506
0.09387783 0.07235646 -0.018395305 -0.020915508 0.053524245 0.068719 -0.07140905 -0.08277572
-0.08640991 -0.06814784 -0.082148835 -0.0814199 0.018650837 -0.085226476 0.08057306 0.021159127
0.0030916692 -0.007843722 -0.013670354 -0.10100022 0.028146299 -0.04900005 0.017458329 -0.06692988
-0.028340047 -0.021409152 0.054890767 -0.037704308 0.07625687 0.035146076 0.08110947 -0.0104477415
-0.059115984 -0.038760338 0.09311008 -0.06885786 -0.04776859 0.029231885 0.022871068 0.04486543
-0.0192872 -0.022355676 -0.017656317 0.008713437 0.08398398 0.09157293 0.03656255 0.07472576
0.073000975 -0.0012634424 -0.0001427322 0.052160576 -0.009541476 -0.072839856 -0.050235532 0.013250344
-0.06720213 -0.09669133 0.087378144 -0.0037590154 0.005799593 -0.07652026 -0.026472 -0.066890195
-0.032128256 0.047523726 -0.024361925 -0.0697191 0.08401313 0.011699618 -0.07959643 0.051278755
0.00943399 0.04748038 -0.07092635 -0.07868099 -0.05601228 -0.064789444 -0.06765314 -0.061904136
-0.052966036 0.06879599 -0.057005797 -0.06372046 -0.0479978 -0.020698788 0.029894857 0.011845246
0.044281103 0.053369425 0.08810607 0.052640464 0.06719852 0.020360166 0.07572065 -0.07386073
-0.02545148 0.0019593542 -0.015138654 0.044726454 -0.040810674 -0.08159304 -0.09462127 -0.04320152
-0.07295418 -0.013768963 -0.036592733 0.07153117 0.06387335 -0.078033805 0.013067965 0.034777578
0.015984185 -0.03943401 0.04840668 -0.07190783 -0.065770544 -0.01464076 0.042106397 0.06861545
0.004284626 0.095164984 -0.017569752 0.050669912 -0.040031556 0.053504474 -0.036062147 0.008688596
0.059684865 -0.09009038 -0.0061426586 0.07308427 0.031807445 -0.02445242 0.010238078 -0.03500624
0.013049525 -0.071914956 0.052031707 0.07171391 -0.013781068 0.018645318 0.029908054 0.061037123
-0.019306507 -0.02724078 -0.04719595 -0.030904861 0.0300677 -0.007475908 0.03942117 0.058006782
-0.03315398 -0.015148973 0.05634971 0.01659031 -0.045851793 0.018453527 -0.037837707 -0.08758047
00000000: d277 873d c001 82bc ad32 d3bc 5a82 46bc
00000010: 2bc8 c43d c35f 113d cd07 e63c 67f4 89bb
00000020: 87ce bfbd 67a2 0fbc d36b 97bd 1083 303d
00000030: 6718 72bc f3bc 803c d358 a6bc cd1f d2bb
00000040: 9ddb ac3d 20f3 183d f30f 0fbc ba60 b13c
00000050: b341 ec3c e757 c63b e7d8 c73c 2a5f abbd
00000060: 3738 20bd c71c 9bbd 6b57 a0bd 92e3 8b3d
00000070: 37e7 2cbd 23c3 8fbd 00f8 a639 13d3 d13c
00000080: 4d17 ef3b ef0a 8abd d0f1 15bd 573f 643d
00000090: 1a9e 99bd c36e 93bd d063 423d 074b 1e3d
000000a0: c37e 653d aaa6 ae3d 07f8 883c 7b59 cc3d
000000b0: f32b 663d 00e5 8a3c 3de1 953d 923e 8e3d
000000c0: 32ed be3d bd44 423d 8d7d 60bd 0024 63ba
000000d0: a742 2ebd f7ef ae3d 67b0 453c 5337 423d
000000e0: daa0 a63d 0dd9 c4bc a78b c43c 5a00 7bbc
000000f0: 4bfb b6bd d754 5cbd bddb 273d aba7 a6bd
00000100: 5298 87bd cd35 82bb f013 723d a32a a33d
00000110: 1b90 b5bd 005a 433c 332c 48bd 408f 03bc
00000120: 8709 f2bc 8725 bd3c c214 89bd 07b9 23bd
00000130: 2d24 713d 73b0 2ebd 8dc8 b33d 00f4 25bd
00000140: babf 823d 7337 d13c 770f 883d b3eb d8bc
00000150: c72a 14bd 0d2d fcbc 5805 a93d 4a78 bdbd
00000160: 9fbd 973d cddc e63a e77b e0bc 5d4a 3f3d
00000170: adc7 1ebd 323d a9bd 4765 92bc 078d a8bc
00000180: 0543 c03d a02f 943d c0b1 96bc 0057 abbc
00000190: 3d3c 5b3d 8cbc 8c3d e83e 92bd 5186 a9bd
000001a0: aef7 b0bd 1891 8bbd a63d a8bd 7abf a6bd
000001b0: a4c9 983c 388b aebd 7d03 a53d e855 ad3c
000001c0: 9a9d 4a3b f482 00bc 9ff9 5fbc 34d9 cebd
000001d0: 1193 e63c 47b4 48bd c504 8f3c 8812 89bd
000001e0: 6329 e8bc 3f62 afbc 24d5 603d d56f 1abd
000001f0: 902c 9c3d 55f5 0f3d b91c a63d 012d 2bbc
00000200: 9a23 72bd 29c3 1ebd 7fb0 be3d 5a05 8dbd
00000210: ffa8 43bd b577 ef3c 1b5c bb3c d0c4 373d
00000220: 3100 9ebc 4023 b7bc fba3 90bc cec2 0e3c
00000230: cbff ab3d 978a bb3d 9dc2 153d d209 993d
00000240: 8981 953d 189a a5ba 62aa 15b9 54a6 553d
00000250: da53 1cbc 102d 95bd c6c3 4dbd f917 593c
00000260: 45a1 89bd 1b06 c6bd 50f3 b23d d059 76bb
00000270: 830a be3b a7b6 9cbd cfdb d8bc bafd 88bd
00000280: eb98 03bd 3da8 423d a992 c7bc e3c8 8ebd
00000290: 130f ac3d c1af 3f3c 7403 a3bd ac09 523d
000002a0: 0691 1a3c c97a 423d d641 91bd 8023 a1bd
000002b0: 226d 65bd 54b0 84bd bb8d 8abd 318f 7dbd
000002c0: eaf2 58bd e9e4 8c3d e97e 69bd df7f 82bd
000002d0: 5799 44bd 8190 a9bc 0fe6 f43c 9012 423c
000002e0: 1a60 353d e699 5a3d f570 b43d 879d 573d
000002f0: 619f 893d 5dca a63c 6e13 9b3d 4b44 97bd
00000300: 9f7f d0bc 8268 003b 1e08 78bc 1633 373d
00000310: 1829 27bd 401a a7bd ccc8 c1bd 14f4 30bd
00000320: 0069 95bd 3797 61bc 43e2 15bd ef7e 923d
00000330: 08d0 823d 30d0 9fbd 051b 563c ef72 0e3d
00000340: 44f1 823c 8e85 21bd 1546 463d 6a44 93bd
00000350: b5b2 86bd ccdf 6fbc c277 2c3d 4286 8c3d
00000360: 0c66 8c3b dce5 c23d 71ee 8fbc 418b 4f3d
00000370: 21f8 23bd 8227 5b3d e7b5 13bd 9d5a 0e3c
00000380: 1e78 743d 4e81 b8bd 5b48 c9bb 35ad 953d
00000390: 8648 023d 7150 c8bc 9dbd 273c b462 0fbd
000003a0: adcd 553c 2648 93bd 331f 553d bede 923d
000003b0: fdc9 61bc 11be 983c bc01 f53c 1002 7a3d
000003c0: ae28 9ebc 0e28 dfbc 8a50 41bd 312c fdbc
000003d0: 8a50 f63c 76f8 f4bb 1878 213d 8598 6d3d
000003e0: 78cc 07bd 6633 78bc f4ce 663d 67e8 873c
000003f0: 17cf 3bbd da2b 973c b6fb 1abd 645d b3bd

backbone.0.bias f4 [256]
0.06942457 0.016960885 0.06209822 0.09506923 -0.00926827 0.07590248 -0.13132139 -0.012757922
0.075405516 -0.0047584507 -0.01982441 -0.070087366 0.0998555 -0.08362535 -0.07121893 -0.0070961886
-0.024448356 0.019534081 0.06500434 -0.009636986 -0.09587935 0.03554638 0.086974695 -0.10467109
-0.12216759 -0.06641044 0.07554131 -0.058378197 -0.019807387 -0.052956082 -0.059922528 -0.029410232
0.0050053285 0.01028638 -0.06182753 0.048866972 0.021905541 -0.055134878 0.0027269684 -0.0122655155
-0.06786973 -0.012765395 -0.08072877 0.06943989 0.029275106 -0.083889365 0.053053882 -0.025961732
-0.01116724 0.042782247 -0.034241594 -0.08924625 0.1008105 -0.052849077 -0.06325841 0.05052534
-0.08464747 -0.09929471 -0.024553915 -0.10094393 0.026162459 0.01536434 -0.040325284 0.06700512
-0.03171128 0.06055098 0.08904628 -0.09591494 0.09468968 -0.01858703 -0.034495085 -0.08614301
0.06981335 0.042430896 -0.09292161 -0.05891316 -0.057537343 0.06610894 -0.02751329 0.08126356
0.042839278 -0.034380343 -0.052925337 0.06913362 -0.09224782 0.0687467 0.0632117 0.019112766
-0.042288613 -0.018161846 -0.057381418 -0.093449056 -0.038100448 -0.038492896 -0.046234693 -0.020307947
-0.08500177 -0.05882712 -0.07250031 -0.04576565 -0.08552053 -0.12152709 0.0042338707 0.04444052
-0.02438338 -0.017408177 -0.06116047 -0.097651914 0.0929925 -0.05285459 0.047236897 0.095127575
0.08403628 0.010886993 -0.018851722 -0.009188688 -0.06710261 -0.05909518 -0.008609796 0.062126484
-0.08445358 0.08902221 -0.06563473 -0.010612582 0.023534575 -0.03919598 0.007721353 -0.0741617
0.077083744 -0.028174663 -0.11013007 -0.08838761 -0.04915129 -0.06228571 0.08240544 -0.08564372
-0.03359667 0.04934339 -0.0866027 -0.072816275 0.016153483 0.06181862 0.053733345 -0.0939851
0.03987108 0.067043856 0.07626722 0.062392093 0.0030665211 0.00915148 -0.02096553 0.05325098
-0.068742074 0.07019006 -0.07577576 0.08379628 -0.073179565 -0.08274131 -0.044340238 -0.031236343
-0.051172607 -0.01262604 -0.0030310154 -0.05064074 -0.01069125 0.039931167 -0.12006658 -0.057527065
0.02929194 -0.09784066 -0.026301637 0.010832453 0.05591773 0.060437698 0.049984783 -0.10419699
-0.09205867 -0.01921555 -0.0073963525 -0.015196574 -0.03532254 0.0036054717 0.004334831 0.039434828
-0.0898931 0.0048672794 -0.01996843 0.037052535 0.012753499 -0.08482119 0.02469076 -0.08624926
-0.04210631 -0.11920093 -0.065726064 -0.066709004 -0.050662886 -0.0738784 -0.082813375 0.018260216
-0.075782396 0.060468234 -0.03149807 -0.04232558 -0.027138485 0.061364245 -0.0120357685 -0.050601613
0.0022725482 -0.08142919 -0.001392579 -0.09657256 -0.0826389 -0.09037876 -0.06560094 0.009557438
0.009829366 0.079295546 0.0035522343 -0.06907047 0.0742341 0.016501034 0.056298662 0.079986684
-0.053337287 0.039508414 -0.030794863 0.007138088 -0.046199 -0.019538732 0.05272745 -0.024391754
-0.09053077 -0.06019214 0.056910645 0.085768946 -0.0788516 -0.05850754 0.004517996 -0.06338417
0.07691087 0.07543495 0.0016942382 0.048017643 -0.07485876 0.06643275 0.08700415 -0.025903106
0.015183604 -0.06855347 -0.076595746 0.0063625216 0.05687337 0.03408302 0.05595502 -0.0038699242
00000000: 782e 8e3d 8ef1 8a3c b45a 7e3d a8b3 c23d
00000010: f1d9 17bc c272 9b3d 1d79 06be 9a06 51bc
00000020: 356e 9a3d c7ec 9bbb cd66 a2bc f789 8fbd
00000030: 0a81 cc3d c443 abbd 3bdb 91bd 2587 e8bb
00000040: eb47 c8bc f005 a03c ff20 853d 73e4 1dbc
00000050: 655c c4bd 1599 113d ca1f b23d cc5d d6bd
00000060: 0033 fabd 3202 88bd 67b5 9a3d fa1d 6fbd
00000070: 1a43 a2bc 7ae8 58bd 5371 75bd baed f0bc
00000080: bd03 a43b 3488 283c dd3e 7dbd bc28 483d
00000090: 4073 b33c 1cd5 61bd f0b6 323b 4df5 48bc
000000a0: 49ff 8abd f325 51bc 2055 a5bd 8036 8e3d
000000b0: 59d2 ef3c 30ce abbd 074f 593d b3ad d4bc
000000c0: cdf6 36bc 703c 2f3d ea40 0cbd bdc6 b6bd
000000d0: bc75 ce3d 4678 58bd a08d 81bd a9f3 4e3d
000000e0: a75b adbd 065b cbbd 4b25 c9bc b1bb cebd
000000f0: a752 d63c b6ba 7b3c 202c 25bd fb39 893d
00000100: b0e3 01bd 4e04 783d e55d b63d 0d6f c4bd
00000110: aaec c13d d443 98bc b84a 0dbd bf6b b0bd
00000120: 4dfa 8e3d 05cc 2d3d af4d bebd ed4e 71bd
00000130: 47ac 6bbd 2064 873d 8d63 e1bc 826d a63d
00000140: 3d78 2f3d 67d2 0cbd 3dc8 58bd ed95 8d3d
00000150: 6dec bcbd 12cb 8c3d 2375 813d 6092 9c3c
00000160: d336 2dbd 27c8 94bc c708 6bbd 3862 bfbd
00000170: 370f 1cbd baaa 1dbd 9760 3dbd da5c a6bc
00000180: 6815 aebd b5f4 70bd 0b7b 94bd c374 3bbd
00000190: 6325 afbd 32e3 f8bd 48bc 8a3b 4307 363d
000001a0: a7bf c7bc 989b 8ebc 6783 7abd bafd c7bd
000001b0: da72 be3d 0e7e 58bd 7a7b 413d 3fd2 c23d
000001c0: 371b ac3d 5c5f 323c ed6e 9abc 278c 16bc
000001d0: 186d 89bd ca0d 72bd 1a10 0dbc 5778 7e3d
000001e0: 00f6 acbd 4751 b63d 806b 86bd 65e0 2dbc
000001f0: 95cb c03c f78b 20bd 6703 fd3b 17e2 97bd
00000200: 15de 9d3d 8dce e6bc e08b e1bd 9004 b5bd
00000210: dd52 49bd 4d1f 7fbd 2fc4 a83d fa65 afbd
00000220: a99c 09bd 4b1c 4a3d c25c b1bd b320 95bd
00000230: 4f54 843c 8535 7d3d 7f17 5c3d 437b c0bd
00000240: dc4f 233d 4a4e 893d fd31 9c3d da8e 7f3d
00000250: b0f7 483b 17f0 153c e7bf abbc b31d 5a3d
00000260: a5c8 8cbd cebf 8f3d 5230 9bbd 629d ab3d
00000270: 2bdf 95bd 4774 a9bd 1c9e 35bd 5ce3 ffbc
00000280: 5e9a 51bd 73dd 4ebc 00a4 46bb aa6c 4fbd
00000290: 5a2a 2fbc dd8e 233d 78e5 f5bd 80a1 6bbd
000002a0: a7f5 ef3c af60 c8bd 8876 d7bc 9a7a 313c
000002b0: fd09 653d 858d 773d d8bc 4c3d 3b65 d5bd
000002c0: 4289 bcbd ee69 9dbc 1a5d f2bb 0dfb 78bc
000002d0: 5eae 10bd c749 6c3b 330b 8e3b 6a86 213d
000002e0: e019 b8bd b37d 9f3b d594 a3bc 66c4 173d
000002f0: 0df4 503c bbb6 adbd 4744 ca3c 74a3 b0bd
00000300: ab77 2cbd 9e1f f4bd 639b 86bd bb9e 88bd
00000310: e383 4fbd 8f4d 97bd 0f9a a9bd 7396 953c
00000320: cd33 9bbd 8aad 773d 1f04 01bd 965d 2dbd
00000330: 8751 debc 1359 7b3d ac31 45bc a343 4fbd
00000340: 08ef 143b 59c4 a6bd 3387 b6ba d6c7 c5bd
00000350: 953e a9bd 8018 b9bd c959 86bd cd96 1c3c
00000360: 590b 213c b465 a23d 9acc 683b d274 8dbd
00000370: 0c08 983d 2d2d 873c 6d99 663d 0fd0 a33d
00000380: 3378 5abd 93d3 213d 8245 fcbc 9fe6 e93b
00000390: 2a3b 3dbd b10f a0bc bdf8 573d 37d1 c7bc
000003a0: 3268 b9bd 098c 76bd 231b 693d a1a7 af3d
000003b0: f37c a1bd 9aa5 6fbd b30b 943b 8fcf 81bd
000003c0: 7283 9d3d a47d 9a3d 3311 de3a 26ae 443d
000003d0: 8d4f 99bd e50d 883d 3b2f b23d c032 d4bc
000003e0: a7c4 783c c365 8cbd 3bde 9cbd b37c d03b
000003f0: 0df4 683d a39a 0b3d 1731 653d 8e9e 7dbb

backbone.2.weight f4 [256, 256]
0.023834966 -0.0021577778 0.014997795 0.022239953 -0.049600247 -0.019919604 0.02846139 0.027827956
0.041953675 -0.04355853 -0.04620572 -0.039771125 -0.032366186 0.055444717 0.058152936 -0.078904554
-0.001980989 -0.059070922 -0.025631726 0.024049863 0.031965047 0.05109042 0.00820446 -0.0351054
0.046708547 -0.0610665 0.056342326 -0.030394495 -0.055552803 -0.041816555 -0.036555886 -0.026520267
-0.05136764 -0.00033659933 -0.019365363 -0.058189332 0.023186557 -0.011347666 -0.054724224 0.02947244
0.04050057 -0.055732355 0.060870163 0.030462623 -0.04961689 0.033198662 0.020050243 -0.052702382
0.041472398 -0.023605786 -0.021596871 -0.018726684 0.081320874 -0.010360844 0.05881106 -0.060228735
0.0166239 -0.041605785 -0.053627096 0.027652249 0.053964734 -0.039125666 0.047002055 0.029238641
-0.045811564 0.009234853 -0.012371577 0.021692201 -0.010516755 0.012278527 -0.051606715 -0.00607837
-0.021029942 -0.031765766 -0.027234659 0.031802513 0.02716747 0.05981049 -0.058517426 -0.039850146
-0.04812647 -0.011401199 -0.028974377 0.016347788 0.05712343 0.031444594 -0.028115261 -0.04086867
0.0589666 -0.048955686 0.045453638 0.049346477 0.0052517503 0.060090393 -0.053724766 0.0126027465
-0.021268144 0.036893114 0.03292065 0.036378603 0.043116227 0.053796217 0.022987736 0.030544914
0.04743874 -0.053442694 -0.05409073 0.015669473 0.05122447 -0.039062575 -0.034207717 0.061869882
-0.054515623 -0.0335097 0.009803839 -0.007566035 0.0046197698 -0.004420027 -0.00026853383 -0.030199587
0.06140209 -0.036606036 0.03226845 0.0032042712 0.03917675 0.056884885 -0.018772118 0.021781042
-0.015861042 0.036445007 -0.047870733 0.00030516088 0.03327343 -0.057810716 -0.045744397 0.05878485
-0.054360047 -0.06063734 0.032265365 0.0063719675 0.004954002 0.008836381 -0.013589352 -0.035518184
-0.028171852 0.047153838 -0.0481933 0.032674685 0.046671547 -0.059689797 -0.017906047 -0.0020311773
0.034653142 -0.06446963 -0.049667113 -0.004262492 -0.055283196 0.045031697 -0.05997229 -0.048879348
0.04750698 -0.044890717 -0.0034323782 -0.015221611 -0.02741699 0.049106523 0.0034106001 0.01357159
-0.003951736 -0.041869603 -0.04761798 0.015474945 -0.018742435 0.026271679 -0.04494166 -0.022982277
0.0068824515 0.023099162 -0.054799594 -0.037604116 -0.031629153 -0.040431358 0.040476486 -0.033386953
-0.0290398 -0.030750819 0.019614473 -0.0052635465 -0.029426523 0.045172654 0.029076874 0.039693117
0.0408685 -0.01813893 -0.04742513 0.017732283 0.016983844 -0.013940752 -0.046226546 0.030937865
0.033673413 -0.010141459 0.032484405 -0.045929477 0.0029868558 -0.038550414 0.004563883 0.02435147
-0.046992786 0.050201103 -0.062100433 0.019377977 -0.012814127 0.00959713 -0.01566977 -0.028371833
-0.0014589941 0.032869987 -0.037533104 -0.041679256 0.044477925 -0.010126673 0.051196225 -0.061945193
0.059537783 -0.052215554 -0.026141323 -0.014750524 0.057585508 -0.009114064 -0.0484499 0.020311657
-0.023519672 0.050675765 -0.022937603 0.029170841 -0.05149667 0.028851062 -0.016997367 0.010528281
0.00739 -0.023952778 -0.038806893 -0.017022107 0.052844726 0.02371952 -0.027483694 -0.00916864
0.0255448 0.043080784 -0.03332156 -0.055899106 0.047267914 0.02903904 0.041642673 0.021247953
00000000: 8c41 c33c 8169 0dbb 50b9 753c 9030 b63c
00000010: a129 4bbd 702e a3bc dc27 e93c 74f7 e33c
00000020: 9ed7 2b3d 6e6a 32bd 3642 3dbd 0ce7 22bd
00000030: 6892 04bd 001a 633d c631 6e3d b698 a1bd
00000040: 7bd3 01bb 5af4 71bd a0f9 d1bc 3804 c53c
00000050: c8ed 023d 3044 513d 006c 063c aeca 0fbd
00000060: 7651 3f3d de20 7abd 36c7 663d e0fd f8bc
00000070: 568b 63bd d647 2bbd a0bb 15bd 0841 d9bc
00000080: e066 52bd 9979 b0b9 1ca4 9ebc f057 6ebd
00000090: bcf1 bd3c 90eb 39bc 8226 60bd 3070 f13c
000000a0: ede3 253d 9c47 64bd fe52 793d c08c f93c
000000b0: 143b 4bbd 52fb 073d 6840 a43c 74de 57bd
000000c0: f6de 293d ec60 c1bc eceb b0bc b468 99bc
000000d0: 8f8b a63d 88c0 29bc dee3 703d 68b2 76bd
000000e0: d82e 883c d46a 2abd 16a8 5bbd f886 e23c
000000f0: 200a 5d3d 3c42 20bd 3a85 403d e085 ef3c
00000100: e8a4 3bbd c84d 173c 28b2 4abc d8b3 b13c
00000110: 784e 2cbc e02b 493c 9061 53bd 102d c7bb
00000120: fc46 acbc d21c 02bd 381b dfbc 5a43 023d
00000130: 508e de3c d8fb 743d f8af 6fbd e839 23bd
00000140: 4320 45bd 18cc 3abc ac5b edbc cceb 853c
00000150: 42fa 693d 0ccc 003d fa51 e6bc e865 27bd
00000160: f686 713d c285 48bd 982d 3a3d 881f 4a3d
00000170: e016 ac3b 5821 763d 800e 5cbd c07b 4e3c
00000180: 883a aebc 3c1d 173d ced7 063d bb01 153d
00000190: a49a 303d 6c59 5c3d c750 bc3c 5439 fa3c
000001a0: 204f 423d bae6 5abd 3e8e 5dbd 445d 803c
000001b0: c0d0 513d 1400 20bd 641d 0cbd 466b 7d3d
000001c0: c64b 5fbd 7841 09bd 48a0 203c 80ec f7bb
000001d0: 7061 973b e0d5 90bb 00ca 8cb9 2065 f7bc
000001e0: c280 7b3d 36f0 15bd ec2b 043d c0fe 513b
000001f0: cd77 203d 2000 693d fcc7 99bc 286e b23c
00000200: 04ef 81bc 5c47 153d 1a14 44bd 00fe 9f39
00000210: b849 083d eeca 6cbd 7a5e 3bbd 62c8 703d
00000220: a4a8 5ebd dc5e 78bd b028 043d f0cb d03b
00000230: 2e55 a23b 78c6 103c e0a5 5ebc 847b 11bd
00000240: a8c8 e6bc 6224 413d 5666 45bd e4d5 053d
00000250: aa2a 3f3d 4a7d 74bd b4af 92bc 801d 05bb
00000260: 74f0 0d3d a708 84bd be6f 4bbd 60ac 8bbb
00000270: a270 62bd 2873 383d 81a5 75bd b635 48bd
00000280: ae96 423d 54df 37bd c0f1 60bb 1064 79bc
00000290: 9899 e0bc ec23 493d 6084 5f3b 605b 5e3c
000002a0: 907d 81bb 767f 2bbd 120b 43bd a08a 7d3c
000002b0: bc89 99bc b437 d73c bf14 38bd 5445 bcbc
000002c0: 3086 e13b 743a bd3c 8a75 60bd c606 1abd
000002d0: 928d 01bd 5a9b 25bd acca 253d c2c0 08bd
000002e0: e0e4 edbc 24e9 fbbc 88ae a03c d479 acbb
000002f0: e40f f1bc f606 393d a032 ee3c 4095 223d
00000300: ba65 273d 1898 94bc da40 42bd 4b43 913c
00000310: b421 8b3c c067 64bc 0c58 3dbd 6871 fd3c
00000320: 22ed 093d 5d28 26bc 5e0e 053d 8c20 3cbd
00000330: 20bf 433b 0ae7 1dbd a08c 953b bc7c c73c
00000340: 827b 40bd ac9f 4d3d 065d 7ebd 90be 9e3c
00000350: 58f2 51bc 483d 1d3c e45d 80bc 0c6c e8bc
00000360: b83b bfba aea2 063d 50bc 19bd deb7 2abd
00000370: 7c2e 363d 58ea 25bc 22b3 513d 3eba 7dbd
00000380: e4dd 733d fadf 55bd 5426 d6bc 2fac 71bc
00000390: c8de 6b3d 2853 15bc 6773 46bd a264 a63c
000003a0: 54ac c0bc 6491 4f3d a4e7 bbbc b0f7 ee3c
000003b0: 2cee 52bd 1059 ec3c 103e 8bbc d07e 2c3c
000003c0: d027 f23b 9e38 c4bc faf3 1ebd f271 8bbc
000003d0: b673 583d 704f c23c 7c25 e1bc 1038 16bc
000003e0: 5443 d13c 7a75 303d 307c 08bd 76f6 64bd
000003f0: 009c 413d 48e3 ed3c 8291 2a3d 3010 ae3c

backbone.2.bias f4 [256]
0.10888408 -0.0058713835 -0.017125286 0.024153816 -0.018055772 -0.05439698 0.007605627 -0.034354504
0.031566635 -0.093757235 0.004347761 -0.037553772 -0.02753437 0.0051017352 -0.023329025 0.035007037
0.086542904 -0.09823915 -0.010367509 0.039397713 0.05033915 -0.035154343 0.11381151 -0.062192246
0.07318408 -0.041169584 -0.025723763 0.041370507 -0.035119563 -0.058114 -0.014823744 0.0043019205
0.01135846 0.09485745 -0.041803256 0.008469468 0.05145071 0.020912299 -0.042726725 0.014260151
-0.018899705 0.055600997 -0.062463604 -0.07679764 0.005417362 0.077560246 0.029741801 0.13663308
0.05205974 -0.058019683 -0.031774074 -0.056376044 0.040703222 0.022316076 0.016652554 0.06627375
-0.038628854 0.07446265 -0.06888185 -0.046540454 -0.004191684 0.010176722 -0.03704604 0.018631507
-0.021902483 0.0964635 -0.024813605 -0.070274234 -0.0049619265 -0.048124515 -0.0056256503 0.023596829
-0.054340795 -0.014119285 -0.023891108 -0.067871265 -0.0035080786 -0.015357037 -0.03301718 -0.017136447
-0.014725085 0.043086655 0.0008241751 -0.030332008 -0.0719111 0.02533238 -0.031203566 0.023659823
-0.012750509 0.03816047 0.01338924 -0.01627976 0.010930762 -0.04073877 -0.01832875 5.2283838e-05
0.037305444 0.099623404 0.018089836 0.00858075 0.036071453 0.016866587 -0.00055667275 0.06043037
-0.05843077 -0.068609394 0.04818333 -0.041248687 -0.01631527 0.11490056 -0.08263943 -0.056273744
-0.034791715 -0.07461313 0.02073367 -0.023820736 -0.051715225 0.03063271 0.07677371 -0.055483222
-0.04273931 0.04405165 -0.021736838 -0.04353489 0.04147856 0.007708028 -0.06515242 0.021685466
-0.0033414809 -0.028225169 0.018775316 -0.055822767 -0.0010648159 -0.022917084 0.012857914 0.08084189
0.1308658 0.033839494 0.0808092 0.07519596 -0.0065212096 -0.048691683 -0.025979444 0.15594973
-0.09726389 0.04544343 -0.0026799778 -0.055926297 -0.018328339 0.07361828 0.028160445 0.030083062
-0.016748425 -0.054238178 0.017457208 -0.0075410903 0.051185668 0.08034927 0.05866285 0.008365889
0.049085483 -0.010819867 -0.05644798 -0.060193256 -0.05165745 0.09721639 -0.031230945 0.08838271
-0.05114552 0.004277985 -0.023679718 0.044516925 -0.042572595 -0.014335696 -0.029039785 -0.054336186
-0.055392772 0.010656157 0.00010444969 -0.042015135 -0.057259053 0.0064605386 0.044072602 0.015107453
0.002065681 -0.029089244 -0.040824153 -0.048318375 -0.039460454 -0.03847589 0.02599544 -0.021482881
-0.036904044 -0.057765085 0.015076288 0.04842899 -0.025823452 -0.009125975 -0.02646029 0.042883947
-0.008219168 0.06002829 0.03918312 0.027119271 -0.0727503 -0.046589144 -0.029765604 0.06057132
-0.0113758 0.02996812 -0.039078362 0.028861884 -0.041547827 0.09211579 -0.061986525 -0.031820357
-0.013480462 0.004681153 -0.046333633 0.015114646 -0.027485954 -0.036977615 -0.044608004 0.005391731
-0.070095696 -0.010924137 -0.045511328 0.0050492766 -0.0006433798 -0.027170254 -0.051808216 -0.036306746
-0.014998715 0.018604571 0.06281863 0.0014247756 0.058470387 0.10986921 0.021549689 0.020662487
-0.07730448 0.022116734 0.044338513 0.0396559 -0.05756194 0.0026901232 0.010572177 -0.09064612
0.007537253 -0.0371351 0.09693098 -0.004953435 0.10626265 0.018539172 0.004261677 0.045307018
00000000: 9efe de3d bc64 c0bb 544a 8cbc 39de c53c
00000010: b3e9 93bc 5ecf 5ebd a038 f93b 4fb7 0cbd
00000020: 044c 013d cb03 c0bd aa77 8e3b fcd1 19bd
00000030: c28f e1bc 752c a73b 831c bfbc 8a63 0f3d
00000040: 683d b13d 9c31 c9bd 7cdc 29bc 7f5f 213d
00000050: 6d30 4e3d 00fe 0fbd 0216 e93d 4cbd 7ebd
00000060: 89e1 953d 70a1 28bd a4ba d2bc 1f74 293d
00000070: 88d9 0fbd f208 6ebd 4adf 72bc 20f7 8c3b
00000080: d618 3a3c 9f44 c23d e439 2bbd 86c3 0a3c
00000090: fbbd 523d 4550 ab3c 3802 2fbd 69a3 693c
000000a0: 8ed3 9abc dfbd 633d d6d9 7fbd 1548 9dbd
000000b0: 2084 b13b e8d7 9e3d 14a5 f33c 8be9 0b3e
000000c0: 983c 553d 0ca6 6dbd 8825 02bd 91ea 66bd
000000d0: 6cb8 263d 34d0 b63c f06a 883c 88ba 873d
000000e0: 4a39 1ebd e07f 983d ed11 8dbd 34a1 3ebd
000000f0: 655a 89bb 44bc 263c 97bd 17bd 1aa1 983c
00000100: d66c b3bc a88e c53d e745 cbbc f0eb 8fbd
00000110: a897 a2bb 361e 45bd 6057 b8bb 234e c13c
00000120: 7494 5ebd 9354 67bc 49b7 c3bc 1700 8bbd
00000130: cbe7 65bb 159c 7bbc 063d 07bd bc61 8cbc
00000140: 7c41 71bc a27b 303d 740d 583a d57a f8bc
00000150: 2046 93bd da85 cf3c 9f9e ffbc 3fd2 c13c
00000160: 83e7 50bc 274e 1c3d 8b5e 5b3c 225d 85bc
00000170: f016 333c b2dd 26bd 2d26 96bc 584b 5b38
00000180: 98cd 183d 5b07 cc3d 2331 943c 4696 0c3c
00000190: a9bf 133d cc2b 8a3c aded 11ba d685 773d
000001a0: 1a55 6fbd 1583 8cbd e25b 453d 62f4 28bd
000001b0: 9aa7 85bc fc50 eb3d dd3e a9bd 4c7f 66bd
000001c0: c281 0ebd c5ce 98bd a8d9 a93c b423 c3bc
000001d0: 58d3 53bd 73f1 fa3c 893b 9d3d 6042 63bd
000001e0: 6a0f 2fbd 816f 343d 7411 b2bc a451 32bd
000001f0: 6ce5 293d a093 fc3b a26e 85bd b8a5 b13c
00000200: bffc 5abb 7838 e7bc b1ce 993c 6aa6 64bd
00000210: 4b91 8bba 9cbc bbbc 00aa 523c 6f90 a53d
00000220: af01 063e 489b 0a3d 4b7f a53d 5700 9a3d
00000230: dfaf d5bb ee70 47bd d8d2 d4bc 49b1 1f3e
00000240: 4a32 c7bd e422 3a3d 91a2 2fbb f912 65bd
00000250: 5025 96bc 2ec5 963d bcb0 e63c c170 f63c
00000260: fe33 89bc da28 5ebd 6b02 8f3c 401b f7bb
00000270: 10a8 513d 288e a43d 7548 703d 1511 093c
00000280: dc0d 493d d045 31bc ff35 67bd 348d 76bd
00000290: c396 53bd 6319 c73d 0ad8 ffbc ff01 b53d
000002a0: f77d 51bd 572e 8c3b f8fb c1bc 6157 363d
000002b0: 9a60 2ebd 44e0 6abc d8e4 edbc 9f8f 5ebd
000002c0: 88e3 62bd 2997 2e3c 000c db38 1018 2cbd
000002d0: 7888 6abd edb2 d33b 7985 343d 4085 773c
000002e0: 6060 073b 914c eebc 3a37 27bd 7de9 45bd
000002f0: 49a1 21bd e598 1dbd 64f4 d43c defc afbc
00000300: b228 17bd 159b 6cbd 8902 773c 7a5d 463d
00000310: b48b d3bc 1d85 15bc 40c3 d8bc 14a7 2f3d
00000320: b0a9 06bc 39e0 753d 7b7e 203d 3c29 de3c
00000330: 1cfe 94bd 42d4 3ebd ffd6 f3bc a219 783d
00000340: 9061 3abc b47f f53c a210 20bd c26f ec3c
00000350: 0e2e 2abd 34a7 bc3d 95e5 7dbd 1056 02bd
00000360: 28dd 5cbc 5c64 993b 56c8 3dbd 6ca3 773c
00000370: 392a e1bc d775 17bd e2b6 36bd 1ead b03b
00000380: 558e 8fbd 27fb 32bc 166a 3abd 6774 a53b
00000390: 7da8 28ba 2794 debc da34 54bd 62b6 14bd
000003a0: 2cbd 75bc 9d68 983c 0ea7 803d 89bf ba3a
000003b0: a57e 6f3d 1c03 e13d f988 b03c 6044 a93c
000003c0: d051 9ebd 272e b53c 4d9c 353d 3a6e 223d
000003d0: 12c6 6bbd c74c 303b ed36 2d3c aca4 b9bd
000003e0: 10fb f63b fa1a 18bd c083 c63d 6d50 a2bb
000003f0: 3ba0 d93d 76df 973c 8aa5 8b3b da93 393d

out_n.0.weight f4 [100, 256]
-0.44844195 -0.041407567 -0.014402408 -0.24292848 -0.07749966 0.022394046 -0.004069805 -0.021886414
-0.01044105 -0.31046075 -0.039501477 -0.111628085 -0.0659047 0.0022486616 -0.06104125 0.045282785
-0.28395486 -0.14823973 -0.05987716 0.03491209 -0.018379292 0.0028391257 -0.4445694 0.02155625
-0.35784528 -0.067312986 0.01565655 -0.26251918 -0.08842512 0.049271055 -0.13237886 0.015738986
-0.31139624 -0.60189486 -0.028571762 -0.049772978 -0.2519158 -0.03169865 0.041977853 -0.01663748
-0.0018759902 -0.26856357 -0.05506681 0.022688843 -0.019017167 -0.4288809 -0.031017028 -0.8186584
0.0065769367 0.015205547 0.017138332 -0.036703307 0.011855571 -0.02215594 -0.27289852 -0.13681881
-0.03437517 -0.46614164 -0.1403218 -0.027011365 -0.099943735 -0.10095024 0.02616178 -0.029629419
-0.054124553 -0.43081254 -0.031568944 -0.05811707 -0.065833546 0.010448846 -0.03324052 -0.16418359
0.03871896 -0.05557558 -0.06724859 -0.065707386 -0.23989566 -0.12830175 0.030147921 0.015010893
0.039596867 -0.017728606 -0.06430327 -0.0661637 0.013499447 -0.3813585 -0.091538794 0.044665713
0.030214727 0.003192055 0.039902005 -0.124303445 -0.04092907 -0.0871498 -0.067038424 0.013804462
0.03337299 -0.27271885 -0.04155135 -0.30868322 -0.020113677 -0.05983433 -0.06364133 -0.2239838
0.0132426545 -0.075709105 -0.3295816 0.054034106 0.028334413 -0.20175058 0.004918083 -0.06307827
0.015747968 0.029072609 -0.014573156 -0.058914766 -0.036308162 0.043168575 -0.46129385 0.049396493
0.013238375 0.030739065 -0.0152808335 -0.1312322 -0.22272187 -0.038737632 -0.11506283 -0.037451126
-0.07390275 -0.048371337 0.013276328 -0.050938588 -0.067636915 -0.031316124 -0.1114608 -0.35304135
-0.35041267 -0.07357473 -0.427411 -0.24489278 0.038413174 -0.0599735 -0.027098447 -0.85703295
-0.07137733 -0.044587024 -0.024780044 0.015429224 -0.002441981 -0.10503499 -0.007150106 -0.013024805
0.018178804 -0.09511446 -0.047585323 -0.04195822 0.061990008 -0.33586612 -0.32584396 -0.042266887
0.045005523 -0.02912812 -0.116699114 -0.11945683 0.0014273877 -0.19890542 -0.11148442 -0.20613526
-0.026525225 0.01748258 -0.008329563 -0.05731364 -0.03588337 0.023234894 0.03708928 -0.027211955
-0.015579596 -0.097262196 -0.008836493 -0.027165554 -0.019336402 -0.112615876 -0.10494494 -0.033388976
-0.056151897 -0.09658698 -0.017171033 0.030834626 0.009512502 -0.017582014 -0.24410574 -0.14383009
-0.027595453 -0.10875901 -0.123310484 -0.067855485 -0.084811926 0.037883278 0.055629812 0.03243994
0.05000569 -0.17898948 -0.0040598046 -0.018756054 -0.05573387 0.021956567 -0.08590983 -0.26289308
0.015575483 0.014931708 0.034590535 -0.107459575 0.03858738 -0.17481574 -0.017186994 0.025094504
0.034620374 -0.009289152 -0.02209934 0.066761084 -0.08774902 0.01134525 0.056828797 -0.101278566
-0.06788254 -0.080400005 0.0065774918 -0.07221588 0.054669954 0.06135817 -0.11782193 0.04114117
-0.030913938 -0.0343844 -0.3387227 -0.055144474 -0.16924089 -0.46498644 -0.070648044 -0.084582984
-0.2100836 -0.28707024 -0.2658954 0.008119315 -0.057802897 0.0077642556 -0.040897485 -0.10241092
-0.03314083 -0.011890918 -0.45064637 -0.022393333 -0.32730797 -0.058628745 -0.03604995 -0.056996595
00000000: 2f9a e5be fb9a 29bd 14f8 6bbc 3ec2 78be
00000010: 24b8 9ebd b873 b73c 005c 85bb 234b b3bc
00000020: f010 2bbc b6f4 9ebe 4dcc 21bd 449d e4bd
00000030: 0bf9 86bd 485e 133b 6406 7abd 717a 393d
00000040: 8862 91be 28cc 17be c141 75bd fbff 0e3d
00000050: 2b90 96bc a010 3a3b 9a9e e3be bc96 b03c
00000060: 7f37 b7be 64db 89bd 2a42 803c ea68 86be
00000070: 3b18 b5bd 72d0 493d 538e 07be 0cef 803c
00000080: 546f 9fbe c815 1abf 540f eabc c0de 4bbd
00000090: 1cfb 80be 72d6 01bd f8f0 2b3d 534b 88bc
000000a0: c9e3 f5ba 2a81 89be bc8d 61bd f4dd b93c
000000b0: e4c9 9bbc 4796 dbbe 6c17 febc 9993 51bf
000000c0: 5883 d73b b020 793c b065 8c3c 3556 16bd
000000d0: de3d 423c 6080 b5bc 5bb9 8bbe 3b1a 0cbe
000000e0: facc 0cbd 1eaa eebe 85b0 0fbe f046 ddbc
000000f0: 4daf ccbd 00bf cebd 3b51 d63c 65b9 f2bc
00000100: b5b1 5dbd 7693 dcbe 704e 01bd 2a0c 6ebd
00000110: bdd3 86bd a331 2b3c 3627 08bd be1f 28be
00000120: c697 1e3d 38a3 63bd a1b9 89bd 9891 86bd
00000130: 35a7 75be 8961 03be c6f8 f63c 40f0 753c
00000140: 5330 223d 953b 91bc 6fb1 83bd d580 87bd
00000150: c92c 5d3c 6c41 c3be b178 bbbd 65f3 363d
00000160: e084 f73c cc31 513b 4970 233d ce92 febd
00000170: 3ea5 27bd 987b b2bd 714b 89bd 1c2c 623c
00000180: 1eb2 083d cea1 8bbe c031 2abd ba0b 9ebe
00000190: 70c5 a4bc d814 75bd 6356 82bd 025c 65be
000001a0: b8f7 583c 600d 9bbd ebbe a8be de52 5d3d
000001b0: 921d e83c b497 4ebe df27 a13b 2e2f 81bd
000001c0: e201 813c ae29 ee3c 3fc4 6ebc 9c50 71bd
000001d0: deb7 14bd 88d1 303d b52e ecbe fa53 4a3d
000001e0: c5e5 583c 7ed0 fb3c 765c 7abc bc61 06be
000001f0: 3411 64be 5aab 1ebd 10a6 ebbd 5a66 19bd
00000200: 535a 97bd 0621 46bd f584 593c fba4 50bd
00000210: 3985 8abd 5645 00bd 8f45 e4bd d6c1 b4be
00000220: 4a69 b3be 59ae 96bd 9dd5 dabe 2cc5 7abe
00000230: 2257 1d3d c6a6 75bd 90fd ddbc 8366 5bbf
00000240: 472e 92bd e2a0 36bd 85ff cabc dbca 7c3c
00000250: a509 20bb 961c d7bd 704b eabb fe65 55bc
00000260: b7eb 943c 5fcb c2bd d4e8 42bd 62dc 2bbd
00000270: 3ce9 7d3d a5f6 abbe 05d5 a6be 0b20 2dbd
00000280: b657 383d 189e eebc f2ff eebd c8a5 f4bd
00000290: 2f17 bb3a ddad 4bbe f251 e4bd 1f15 53be
000002a0: 6e4b d9bc a137 8f3c b878 08bc b5c1 6abd
000002b0: 71fa 12bd 1b57 be3c eeea 173d 9beb debc
000002c0: 9041 7fbc 6731 c7bd f0c6 10bc 4c8a debc
000002d0: 6067 9ebc 27a3 e6bd 5fed d6bd e1c2 08bd
000002e0: 88ff 65bd 65cf c5bd 44aa 8cbc e698 fc3c
000002f0: 53da 1b3c 2808 90bc dbf6 79be 3248 13be
00000300: dc0f e2bc 0bbd debd 358a fcbd d1f7 8abd
00000310: e0b1 adbd 7f2b 1b3d 16dc 633d bedf 043d
00000320: c4d2 4c3d 0549 37be 1c08 85bb 4ca6 99bc
00000330: 3349 64bd 42de b33c 7ef1 afbd ec99 86be
00000340: 5030 7f3c 1fa4 743c ceae 0d3d c413 dcbd
00000350: cd0d 1e3d e602 33be bdcb 8cbc fd92 cd3c
00000360: 18ce 0d3d 8731 18bc ad09 b5bc 09ba 883d
00000370: c2b5 b3bd 6de1 393c 50c5 683d 236b cfbd
00000380: 0006 8bbd c2a8 a4bd 0088 d73b ebe5 93bd
00000390: 9aed 5f3d b452 7b3d a04c f1bd a583 283d
000003a0: 3a3f fdbc a8d6 0cbd 106d adbe 2cdf 61bd
000003b0: 7c4d 2dbe b412 eebe ecaf 90bd d839 adbd
000003c0: 2820 57be dffa 92be 7123 88be e006 053c
000003d0: bbc2 6cbd 4c6b fe3b 1f84 27bd d1bc d1bd
000003e0: aebe 07bd 20d2 42bc 1fbb e6be 3972 b7bc
000003f0: e994 a7be b224 70bd 1da9 13bd 4375 69bd

out_n.0.bias f4 [100]
-0.35733795 0.16444403 -0.0008739655 0.24142855 -0.064140365 0.05106434 0.07166975 -0.07168867
0.13916613 -0.060176376 -0.039815232 0.1825264 -0.12668091 0.06900179 -0.09295387 -0.0145432325
0.057282716 -0.12831852 0.273818 -0.17776753 0.074678004 -0.0007991011 -0.12033526 0.051802274
-0.19997458 0.09195481 -0.084587075 -0.08168656 0.05418284 -0.15101561 0.10022724 -0.15715158
0.010584837 0.08868864 -0.10197591 0.06496526 -0.105289236 -0.03279903 0.11783942 -0.09074407
0.05123019 -0.07410998 0.027559653 0.07634059 -0.06283916 0.06379437 -0.005863242 0.05028676
-0.022606075 -0.018117135 0.040333264 9.266561e-05 -0.025052363 0.008451324 0.031913023 -0.02711072
0.07802106 -0.0002876276 -0.011987387 -0.019850196 -0.08878631 0.09622938 -0.0026433636 0.041631185
0.08585362 -0.06387128 0.028563842 -0.011438497 -0.026544191 0.08627026 0.00033559345 -0.0074403877
0.0009731914 -0.05100839 0.062092777 -0.03856626 0.017620241 0.010435906 -0.06129842 -0.03374591
0.021608498 0.034828898 0.081346735 -0.009645275 0.016546551 -0.0300272 -0.0006888127 0.059406057
-0.03222473 -0.013804794 0.009960838 -0.03496961 0.009344302 -0.023064755 0.0960271 0.0043062023
0.025583852 -0.011181468 0.0014861202 -0.27545446
00000000: 00f5 b6be 0464 283e d51a 65ba 0c39 773e
00000010: 065c 83bd d728 513d 97c7 923d 82d1 92bd
00000020: 9181 0e3e 817b 76bd 4c15 23bd 33e8 3a3e
00000030: a4b8 01be cf50 8d3d 995e bebd bd46 6ebc
00000040: 48a1 6a3d ee65 03be df31 8c3e b108 36be
00000050: c8f0 983d c47a 51ba 5572 f6bd 9f2e 543d
00000060: 23c6 4cbe ce52 bc3d fd3b adbd 484b a7bd
00000070: d3ee 5d3d d6a3 1abe f043 cd3d 58ec 20be
00000080: 066c 2d3c 64a2 b53d bfd8 d0bd 820c 853d
00000090: e2a1 d7bd 4758 06bd cb55 f13d 07d8 b9bd
000000a0: bfd6 513d f9c6 97bd c8c4 e13c 7558 9c3d
000000b0: d1b1 80bd 9fa6 823d 7020 c0bb 7df9 4d3d
000000c0: 6030 b9bc 636a 94bc 7e34 253d 7855 c238
000000d0: 9d3a cdbc 6c77 0a3c 3bb7 023d 4d17 debc
000000e0: 81c9 9f3d b9cc 96b9 bf66 44bc e19c a2bc
000000f0: 99d5 b5bd e913 c53d 483c 2dbb 7685 2a3d
00000100: 06d4 af3d f2ce 82bd b8fe e93c 8968 3bbc
00000110: 3473 d9bc 76ae b03d 97f2 af39 7fce f3bb
00000120: c51d 7f3a 2cee 50bd ff54 7e3d a8f7 1dbd
00000130: 5358 903c 5dfb 2a3c 0d14 7bbd 2739 0abd
00000140: 4e04 b13c bfa8 0e3d 1e99 a63d 3707 1ebc
00000150: a28c 873c 9afb f5bc 7091 34ba c453 733d
00000160: 14fe 03bd 812d 62bc c832 233c 4b3c 0fbd
00000170: d818 193c 4cf2 bcbc dba9 c43d 0b1b 8d3b
00000180: 3a95 d13c 7a32 37bc ebc9 c23a 5e08 8dbe

out_d.0.weight f4 [100, 256]
-0.008163577 -0.0028058304 0.008809416 0.014716393 0.023645714 -0.040126838 -0.00076679885 0.022251325
-0.033336762 -0.036051102 0.009302963 -0.053989865 -0.06653017 0.03677398 0.020998085 -0.03308054
-0.031472888 -0.03547859 -0.07214037 -0.042593367 0.028835287 0.05875855 -0.049767584 0.033227876
-0.039460644 0.008492068 -0.028316995 0.024411727 -0.0481371 0.03725507 -0.026126686 -0.06081693
-0.034788955 -0.00711624 -0.01605846 0.003057576 0.0019855828 -0.00015585445 0.0062069446 -0.05948116
-0.017951984 -0.02708247 0.044658195 -0.004186264 0.049009502 -0.0025218308 0.057716705 -0.033920757
0.048975732 -0.024665952 0.002412185 0.04381123 -0.021578833 -0.062325887 -0.036127962 -0.044163596
-0.01775553 -0.04901045 0.03156576 -0.013041124 -0.049126994 -0.022555796 -0.025033385 -0.03591575
-0.061828457 0.029645922 0.047507517 -0.019759947 0.043969575 -0.049735613 0.048081666 0.038637996
-0.03928976 -0.053710423 0.027369933 -0.05377064 0.011691226 -0.03463496 -0.038114395 0.013306893
-0.0073841712 0.027346047 -0.0024547698 0.020674054 0.03822352 -0.008792277 -0.017566573 -0.034399923
-0.036788527 0.030784838 0.05237756 0.017670712 -0.039648518 -0.03338392 -0.009476825 -0.086988054
0.016990185 -0.045707278 -0.019264605 0.02848903 -0.013231336 -0.016208015 0.027160445 0.021929711
0.04635399 -0.027643893 -0.057545956 -0.05973146 -0.023127273 0.032950934 0.006881529 -0.014631292
-0.015392822 -0.012582621 0.060365617 0.037524775 -0.041091494 0.04431301 -0.020316713 -0.067096956
-0.032213237 -0.021052403 -0.06150505 0.0058658677 0.004305512 -0.017628342 0.013227181 0.010517926
-0.076103665 -0.040008925 -0.02640412 -0.08005776 0.061532173 -0.056834944 -0.015271361 0.028580986
-0.030435046 -0.023487866 -0.0026354194 -0.06344737 -0.017385114 -0.0008850023 -0.034795508 -0.077318296
0.03385086 0.031078728 -0.07652575 0.015851004 0.04778534 -0.042567007 -0.012368284 0.005499804
0.06281632 0.0010362834 -0.061092667 -0.02909229 0.014925823 -0.07243805 0.026978351 -0.08006506
-0.029542565 -0.044162348 0.0147163505 0.041424222 0.012502742 -0.06848891 0.040394776 -0.02811115
0.046177465 0.05960147 0.019103967 -0.056077298 0.06478001 -0.04402686 -0.0336565 0.031722173
-0.06594572 -0.052466616 0.049986683 0.005720569 -0.017891318 0.015792878 -0.045518417 0.0053078583
-0.007677123 0.014398915 0.044841558 0.0046346923 0.0062398147 0.027420156 -0.07339996 -0.01178603
-0.034998454 0.037309077 0.029202657 -0.0225528 0.018022526 0.014277229 0.034706987 0.021244429
-0.013671763 -0.0896987 -0.038501155 -0.061609585 -0.06364932 -0.0720753 -0.04905532 -0.058184292
0.014168762 -0.00864867 0.03502179 -0.01771758 0.022516815 0.0179866 0.020484522 -0.059383653
-0.04169687 0.0032014993 -0.05370033 0.054758944 0.03227068 -0.010692561 0.03655515 -0.017869104
-0.011831091 0.016785646 -0.062290788 -0.058535326 0.0321479 0.057281606 -0.040840738 -0.055583805
-0.022505943 0.010810164 -0.05394883 -0.0061011976 0.015106383 -0.054190353 -0.011159249 -0.04781594
0.030184396 -0.037166886 -0.056599755 0.006014444 0.025013184 0.07114525 -0.044237733 -0.08665607
0.016815215 0.01605893 -0.04472769 -0.008113761 -0.01819994 -0.07331639 0.02395248 0.011612973
00000000: 86c0 05bc 06e2 37bb 5e55 103c 071d 713c
00000010: a8b4 c13c 0a5c 24bd 0003 49ba 6948 b63c
00000020: 218c 08bd 52aa 13bd 746b 183c 7a24 5dbd
00000030: f840 88bd 50a0 163d 2d04 ac3c 767f 07bd
00000040: b7e9 00bd ff51 11bd 55be 93bd 6276 2ebd
00000050: fb37 ec3c ceac 703d 18d9 4bbd f419 083d
00000060: 7ca1 21bd 5122 0b3c 0bf9 e7bc 1afb c73c
00000070: 682b 45bd c698 183d a207 d6bc 2c1b 79bd
00000080: dd7e 0ebd 592f e9bb 088d 83bc 9d61 483b
00000090: 8d20 023b dc6c 23b9 a063 cb3b 84a2 73bd
000000a0: 0a10 93bc 0edc ddbc 83eb 363d ed2c 89bb
000000b0: 30be 483d 4d45 25bb 5a68 6c3d 7ef0 0abd
000000c0: c79a 483d 4010 cabc c015 1e3b 6873 333d
000000d0: 18c6 b0bc 6e49 7fbd eafa 13bd e3e4 34bd
000000e0: 0c74 91bc 2ebf 48bd 194b 013d 70aa 55bc
000000f0: 6339 49bd efc6 b8bc d012 cdbc 651c 13bd
00000100: d63f 7dbd 01dc f23c 3e97 423d 9ddf a1bc
00000110: 7119 343d 92b7 4bbd 48f1 443d e042 1e3d
00000120: 4dee 20bd 76ff 5bbd e936 e03c 9a3e 5cbd
00000130: 8e8c 3f3c 63dd 0dbd d71d 1cbd 2805 5a3c
00000140: ebf6 f1bb d104 e03c 34e0 20bb a25c a93c
00000150: 4490 1c3d 7c0d 10bc c6e7 8fbc efe6 0cbd
00000160: 91af 16bd 7c30 fc3c da89 563d 2bc2 903c
00000170: 7c66 22bd 94bd 08bd af44 1bbc cb26 b2bd
00000180: 002f 8b3c 8e37 3bbd ced0 9dbc d461 e93c
00000190: 3fc8 58bc acc6 84bc 957f de3c f0a5 b33c
000001a0: aedd 3d3d 7275 e2bc 4fb5 6bbd faa8 74bd
000001b0: 6875 bdbc 8ff7 063d 737e e13b 16b8 6fbc
000001c0: 2d32 7cbc 5627 4ebc f041 773d 94b3 193d
000001d0: 8e4f 28bd 8f81 353d 3c6f a6bc 216a 89bd
000001e0: 07f2 03bd 1776 acbc b8ec 7bbd 7736 c03b
000001f0: 4115 8d3b 5069 90bc d1b6 583c 6153 2c3c
00000200: 3ddc 9bbd 66e0 23bd 744d d8bc 53f5 a3bd
00000210: 2909 7c3d c2cb 68bd bb34 7abc ac22 ea3c
00000220: eb52 f9bc a069 c0bc 00b7 2cbb b2f0 81bd
00000230: 3a6b 8ebc 80ff 67ba bc85 0ebd 0e59 9ebd
00000240: 33a7 0a3d d198 fe3c 88b9 9cbd f7d9 813c
00000250: 90ba 433d be5a 2ebd 58a4 4abc b337 b43b
00000260: d8a5 803d e7d3 873a 4e3c 7abd f452 eebc
00000270: 708b 743c 665a 94bd b401 dd3c 26f9 a3bd
00000280: 4003 f2bc 94e3 34bd d91c 713c 72ac 293d
00000290: 4dd8 4c3c ea43 8cbd fe74 253d 5b49 e6bc
000002a0: 9524 3d3d ac20 743d ec7f 9c3c 4fb1 65bd
000002b0: 62ab 843d 8255 34bd 66db 09bd 1cef 013d
000002c0: 8d0e 87bd 3ce7 56bd d6be 4c3d 9c73 bb3b
000002d0: d090 92bc 1160 813c 8571 3abd 8bed ad3b
000002e0: 6090 fbbb 6de9 6b3c c8ab 373d 9ede 973b
000002f0: 5c77 cc3b 3ca0 e03c b852 96bd 311a 41bc
00000300: 8a5a 0fbd 67d1 183d 693a ef3c a6c0 b8bc
00000310: faa3 933c 0aeb 693c ea28 0e3d cc08 ae3c
00000320: 88ff 5fbc f4b3 b7bd 63b3 1dbd 555a 7cbd
00000330: 935a 82bd 379c 93bd 3bee 48bd a752 6ebd
00000340: 1824 683c 27b3 0dbc 0273 0f3d 7524 91bc
00000350: 2f75 b83c a258 933c 28cf a73c 463c 73bd
00000360: 56ca 2abd 3fd0 513b e1f4 5bbd ea4a 603d
00000370: 432e 043d da2f 2fbc daba 153d 3a62 92bc
00000380: 31d7 41bc 0d82 893c a024 7fbd bdc2 6fbd
00000390: 84ad 033d 1ea0 6a3d 9e48 27bd d8ab 63bd
000003a0: 625e b8bc 1d1d 313c 73f9 5cbd 8eec c7bb
000003b0: c380 773c b4f6 5dbd 48d5 36bc a6da 43bd
000003c0: 4445 f73c 4e3c 18bd 25d5 67bd d014 c53b
000003d0: 73e8 cc3c 9ab4 913d a032 35bd bd78 b1bd
000003e0: 10c0 893c 048e 833c 6234 37bd 95ef 04bc
000003f0: 0a18 95bc e726 96bd fe37 c43c 5744 3e3c

out_d.0.bias f4 [100]
-0.05455561 0.15070124 0.019368757 -0.014621878 0.014181992 0.007774949 0.06395923 -0.029426023
0.013812121 0.043455698 0.07179736 -0.04736381 -0.05897666 0.016386842 0.030461201 0.0005376658
-0.031704698 0.0007376682 -0.031671096 0.008455687 -0.05174042 -0.05776756 0.007486373 -0.05874464
0.027783137 0.014912261 -0.022527844 -0.029865233 0.029564302 0.039551098 0.041429736 0.037887402
-0.03434889 0.059402138 -0.06532287 0.043952756 0.053593285 0.0015797255 0.04567659 -0.024881877
-0.05494084 -0.0064158076 0.048515946 -0.016591381 -0.07512755 -0.050128825 0.02707614 -0.083711185
-0.014751237 0.037742015 -0.053406168 -0.05725325 -0.03279161 0.054357857 -0.042254988 -0.053027928
0.006918609 -0.03057043 0.0427934 0.045000356 -0.0032113714 0.009102968 0.02948043 0.040292878
0.029907098 -0.01724233 -0.02798945 0.01651933 -0.05502588 -0.020890413 0.024883186 0.051910676
-0.021821927 0.038236473 0.0069558285 0.036251806 0.03217283 0.022327537 0.04607019 -0.05049305
-0.052376352 -0.037731744 -0.057129823 -0.019665403 -0.04595101 0.028808123 -0.005424886 0.08526935
-0.011611143 -0.006735702 0.027252689 -0.07859751 0.02284817 0.048526756 0.11667067 0.059505984
-0.040925797 -0.096976146 -0.019923707 -0.02857323
00000000: b475 5fbd 6d51 1a3e 3aab 9e3c 9a90 6fbc
00000010: 965b 683c 00c5 fe3b 0ffd 823d d80e f1bc
00000020: 3c4c 623c 9afe 313d 7f0a 933d 8e00 42bd
00000030: 8391 71bd b33d 863c c589 f93c 24f2 0c3a
00000040: c9dc 01bd 1360 413a 8db9 01bd b989 0a3c
00000050: c3ed 53bd ad9d 6cbd 4050 f53b 389e 70bd
00000060: 7699 e33c 8e52 743c 508c b8bc efa7 f4bc
00000070: d630 f23c 5500 223d 3ab2 293d d22f 1b3d
00000080: 6cb1 0cbd a84f 733d ffc7 85bd ce07 343d
00000090: a284 5b3d cb0e cf3a 6017 3b3d 14d5 cbbc
000000a0: a509 61bd b23b d2bb a8b8 463d a6ea 87bc
000000b0: 79dc 99bd e253 4dbd c8ce dd3c c570 abbd
000000c0: 2caf 71bc 5f97 1a3d 6dc0 5abd 6282 6abd
000000d0: 7f50 06bd 58a6 5e3d 9113 2dbd d033 59bd
000000e0: 80b5 e23b d76e fabc 2248 2f3d 4b52 383d
000000f0: df75 52bb 9d24 153c f180 f13c 250a 253d
00000100: bbff f43c c93f 8dbc 224a e5bc 8c53 873c
00000110: d162 61bd 5f22 abbc d3d7 cb3c 4aa0 543d
00000120: e6c3 b2bc d99d 1c3d b8ed e33b c67c 143d
00000130: a8c7 033d 3de8 b63c 18b4 3c3d cdd1 4ebd
00000140: 9688 56bd 9a8c 1abd f600 6abd 5719 a1bc
00000150: 2037 3cbd 03ff eb3c 3ec3 b1bb b2a1 ae3d
00000160: aa3c 3ebc 2ab7 dcbb 0841 df3c bbf7 a0bd
00000170: 162c bb3c fec3 463d 08f1 ee3d 8cbc 733d
00000180: cfa1 27bd 6e9b c6bd 0b37 a3bc 6812 eabc
