Phase1/ch3_figures_output_tuned_corrected/model_100L_sine.pth (torch, 576125 bytes, 8 tensors)

backbone.0.weight f4 [256, 100]
0.095614195 0.01705035 0.07704069 -0.00025930404 0.059533846 0.08243703 0.0965021 -0.023294186
-0.06694865 -0.023880636 0.09333249 -0.048304986 -0.008846223 -0.0618168 0.08886639 -0.09264838
-0.06218952 -0.017029691 -0.07120663 0.081409596 0.013450778 0.08465492 0.041692495 0.07611878
0.05812422 0.015053702 0.076696694 -0.051914718 0.06132182 0.037995707 0.05641222 -0.016681267
-0.029058635 0.034708418 -0.043937303 0.0034438611 0.048484396 -0.08447292 0.0698117 0.025072992
0.0011287928 0.013380564 -0.04134958 -0.09539874 0.02266152 -0.04246035 -0.047106184 0.054390933
0.070266545 -0.038364004 0.08188333 -0.068399705 -0.0013584495 -0.045273185 -0.07352348 0.06206597
-0.008549988 -0.079848506 0.086408235 0.05121064 -0.031996813 0.07453733 0.049244046 -0.035679437
-0.026228858 -0.07680899 0.011848402 -0.063568704 0.04933461 -0.030461324 0.010402024 -0.0830827
0.030885626 0.06484979 -0.09203675 -0.09284469 -0.00030150413 -0.015337921 -0.009641349 -0.08716724
-0.034093536 0.07798194 -0.06565601 -0.04794681 0.07539643 0.06306541 -0.025297714 -0.03289498
0.054575898 -0.014556062 0.040659618 0.02718066 -0.038995862 -0.048835862 0.01220634 0.031971883
0.065314725 0.09327753 0.035437644 0.0070820334 0.071396746 -0.089288466 0.020239353 0.09104993
-0.07131511 0.019386971 -0.0019820333 -0.06987127 0.039491724 -0.088371255 -0.037783768 -0.0649063
-0.03914038 -0.037280858 -0.02876842 0.041041505 0.061411798 0.0683043 0.092769794 0.0729082
-0.085349075 -0.04931655 0.04467274 0.016333807 -0.04237857 -0.059873234 0.060777247 0.068008415
-0.07120078 0.014624822 0.072253875 0.069266476 -0.090019844 -0.087653294 -0.0116601465 -0.057817232
-0.05816933 -0.055313375 -0.09022208 0.038297404 0.08668814 -0.08280969 -0.04849085 0.006521416
-0.079684615 -0.079403 -0.07422771 0.037225604 -0.09677173 -0.07859557 -0.003543961 -0.084610544
-0.06589817 0.038539078 0.046220552 0.07703904 -0.06040076 0.04094678 -0.011552858 -0.0085901385
-0.060532596 -0.0019178152 -0.02967806 0.007953227 -0.031666826 0.038529623 0.0685144 0.08700814
0.06077082 0.03802351 -0.041030135 0.0842865 0.047136392 -0.0014915705 -0.065281905 0.05923177
0.04380375 -0.02934941 -0.08546598 -0.07592217 0.0020668507 -0.056178298 -0.004200697 -0.05624577
-0.007525003 0.0028657913 0.05679555 0.014462245 0.05362394 -0.07785499 0.033440053 -0.01156528
-0.08146427 0.032747734 -0.029303385 0.076934375 0.07794839 -0.08293901 0.05882981 0.09342778
-0.021875942 0.08976579 -0.038801264 -0.043516457 0.08960841 -0.070741855 -0.050749566 -0.08355286
0.0063607334 0.05351169 0.08155648 -0.07737894 -0.03226484 0.066904835 -0.018168438 0.061393786
-0.09316827 -0.02460972 0.07344432 -0.038203705 -0.06642713 0.01582092 0.028269028 -0.010351527
-0.091934375 -0.08793601 0.08857223 -0.052313425 -0.09525485 0.037570264 0.0469252 -0.003400898
-0.039261736 -0.08954469 0.07905785 -0.026232434 -0.0005236864 -0.041579463 -0.015807629 -0.034807563
0.087737225 0.08196992 -0.09482103 -0.07642728 0.014927626 0.038986575 0.0050029396 0.026183356
-0.09672922 0.068670414 -0.091685735 -0.036062624 0.065133475 0.026159704 -0.015040767 -0.058148216
00000000: 60d1 c33d 2dad 8b3c 82c7 9d3d 33f3 87b9
00000010: c3d9 733d bfd4 a83d e5a2 c53d 73d3 bebc
00000020: 601c 89bd 53a1 c3bc 1b25 bf3d 73db 45bd
00000030: c0ef 10bc 9d33 7dbd 95ff b53d 6fbe bdbd
00000040: 70ba 7ebd da81 8bbc c8d4 91bd 13ba a63d
00000050: a760 5c3c 8f5f ad3d c0c5 2a3d 2ae4 9b3d
00000060: aa13 6e3d cda3 763c 2813 9d3d 87a4 54bd
00000070: 972c 7b3d 63a1 1b3d 8010 673d 27a7 88bc
00000080: 600c eebc 6a2a 0e3d 9af7 33bd 67b2 613b
00000090: 9397 463d 2300 adbd 70f9 8e3d e065 cd3c
000000a0: 00f4 933a 273a 5b3c 2d5e 29bd 6a60 c3bd
000000b0: a7a4 b93c e7ea 2dbd 6af2 40bd 07c9 5e3d
000000c0: e8e7 8f3d 9323 1dbd 73b2 a73d 2515 8cbd
000000d0: 000e b2ba 6070 39bd 7a93 96bd e338 7e3d
000000e0: 4015 0cbc 9d87 a3bd cdf6 b03d 40c2 513d
000000f0: 170f 03bd 07a7 983d 20b4 493d 9a24 12bd
00000100: e7dd d6bc 084e 9dbd cd1f 423c 4f30 82bd
00000110: 1713 4a3d 078a f9bc 406d 2a3c 4327 aabd
00000120: da03 fd3c f7cf 843d c37d bcbd 5b25 bebd
00000130: 3313 9eb9 e74b 7bbc c0f6 1dbc bd84 b2bd
00000140: aaa5 0bbd ffb4 9f3d a876 86bd e063 44bd
00000150: 7269 9a3d 7028 813d 273d cfbc e3bc 06bd
00000160: fa8a 5f3d 8d7c 6ebc b38a 263d faa9 de3c
00000170: 20ba 1fbd 1d08 48bd 1afd 473c f3f4 023d
00000180: bac3 853d 4a08 bf3d 1027 113d 6710 e83b
00000190: 7538 923d dfdc b6bd 00cd a53c 6378 ba3d
000001a0: a80d 92bd 6dd1 9e3c 00e5 01bb ab18 8fbd
000001b0: 13c2 213d fdfb b4bd 27c3 1abd 98ed 84bd
000001c0: aa51 20bd d0b3 18bd c0ab ebbc 231b 283d
000001d0: f08a 7b3d 20e3 8b3d 17fe bd3d e550 953d
000001e0: 7fcb aebd 2700 4abd c3fa 363d 7ace 853c
000001f0: 2795 2dbd a33d 75bd 90f1 783d ff47 8b3d
00000200: b7d1 91bd f39c 6f3c d7f9 933d 95db 8d3d
00000210: 535c b8bd 9283 b3bd 330a 3fbc c3d1 6cbd
00000220: f742 6ebd 4790 62bd 5bc6 b8bd bddd 1c3d
00000230: 8d89 b13d 2098 a9bd 579e 46bd 9ab1 d53b
00000240: b031 a3bd 0a9e a2bd b304 98bd e079 183d
00000250: 4230 c6bd b7f6 a0bd cd41 68bb 4b48 adbd
00000260: 9ff5 86bd 27db 1d3d c351 3d3d a5c6 9d3d
00000270: ca66 77bd d0b7 273d 3348 3dbc a7bd 0cbc
00000280: 07f1 77bd 335f fbba 671f f3bc 404e 023c
00000290: 13b5 01bd 3dd1 1d3d 4751 8c3d 5331 b23d
000002a0: d3ea 783d 8abe 1b3d 370f 28bd 679e ac3d
000002b0: 1712 413d cd80 c3ba 85b2 85bd 039d 723d
000002c0: 906b 333d 2d6e f0bc ca08 afbd 157d 9bbd
000002d0: 0074 073b 371b 66bd 00a6 89bb f761 66bd
000002e0: 4d94 f6bb 00d0 3b3b 73a2 683d 0df3 6c3c
000002f0: c7a4 5b3d 7072 9fbd 70f8 083d 4d7c 3dbc
00000300: bdd6 a6bd 7d22 063d a70d f0bc c58f 9d3d
00000310: 68a3 9f3d eddb a9bd 87f7 703d 1057 bf3d
00000320: 2d35 b3bc 20d7 b73d 13ee 1ebd 503e 32bd
00000330: 9d84 b73d 1be1 90bd c7de 4fbd c31d abbd
00000340: b36d d03b 132f 5b3d 1507 a73d da78 9ebd
00000350: 2328 04bd 6705 893d fad5 94bc 0d78 7b3d
00000360: 02cf bebd 539a c9bc fa69 963d 7d7b 1cbd
00000370: f20a 88bd e09a 813c 7394 e73c 7399 29bc
00000380: 1748 bcbd cb17 b4bd 5b65 b53d 9a46 56bd
00000390: fa14 c3bd 47e3 193d a334 403d 9ae1 5ebb
000003a0: ead0 20bd 3563 b7bd 15e9 a13d 67e5 d6bc
000003b0: 0048 09ba 3a4f 2abd 007f 81bc 6092 0ebd
000003c0: 93af b33d d8df a73d 8731 c2bd e885 9cbd
000003d0: 0093 743c 63b0 1f3d b3ef a33b 7a7e d63c
000003e0: f819 c6bd 13a3 8c3d bbc5 bbbd 67b6 13bd
000003f0: b364 853d e04c d63c 8d6d 76bc d32c 6ebd

backbone.0.bias f4 [256]
-0.033517983 -0.037263453 0.048203267 -0.02427852 -0.053279426 -0.074574366 0.06545061 -0.07618556
-0.06746047 -0.025773393 0.085783675 -0.0707198 -0.03684492 0.028634382 -0.078087926 0.087474346
0.04059006 0.02430196 0.03218163 -0.10029423 0.056259695 -0.015296507 -0.08416703 0.06483602
-0.06890286 -0.071536556 0.016918827 -0.08406888 -0.08635724 -0.087935045 0.046525564 0.097989075
-0.05847855 -0.047418214 0.069545746 -0.058169927 -0.06915388 -0.07537021 0.07868191 0.017831182
-0.047622275 0.022471705 0.08352295 0.033239894 0.06836151 -0.07487359 -0.039135553 -0.022858487
-0.0074258926 -0.060509812 -0.006686569 0.06051307 0.060631227 0.026949555 0.04789248 -0.08269385
0.06840161 -0.046831746 -0.083156995 0.036764335 -0.024222886 -0.07359773 -0.07546073 -0.03566154
0.02240107 -0.019918073 -0.014314243 -0.027127195 0.052188933 -0.063019656 -0.031253986 0.019102085
-0.11215321 0.06501808 -0.063055195 0.047515485 -0.09963786 0.009220267 0.018358696 -0.09626405
0.012329372 0.08698326 0.09004614 -0.092315756 0.018961335 0.029045535 0.03380474 -0.038319625
0.09547465 0.042132635 0.068831675 0.097643994 -0.036266744 0.06073243 0.03924489 0.054002523
-0.08444776 0.037513416 -0.0008209397 0.037866306 0.021783888 -0.09879543 -0.010961476 -0.068164766
-0.02680607 -0.0943871 0.071548775 0.077511795 0.030613376 0.028436005 0.014950397 0.01158652
-0.10574692 0.03792065 0.055172052 -0.06777731 -0.09140007 0.010321127 0.042749558 -0.03698939
0.034262743 0.007584858 0.022493403 -0.06160662 -0.0815621 0.04467047 -0.05945921 0.004886034
-0.07026096 -0.060976934 -0.037041675 -0.084650286 -0.060280498 0.09713062 0.021081055 0.030134475
-0.03905661 0.044089805 0.068867944 0.03879477 0.028330682 -0.06867124 0.018994821 0.037033606
0.009689224 0.048694182 0.04988266 0.06419189 -0.068074636 0.00562706 0.0043021953 -0.07328128
-0.013290703 0.0757554 0.04319548 -0.059780788 -0.094852485 -0.046807863 -0.06745478 0.07921445
0.010208229 -0.1012405 -0.02142779 0.055295635 -0.096784465 0.0819137 -0.06937691 0.020764312
0.032438308 0.08864585 -0.0028581142 -0.065451406 0.05708734 -0.055203058 0.024829749 0.08592415
-0.010090411 -0.03470104 -0.019805837 0.014137122 0.019193387 -0.030251121 -0.096473046 -0.06416213
0.030472003 -0.012491822 -0.037225056 -0.05225257 -0.022907078 0.08092393 0.017406762 0.0043237447
0.07443843 -0.09425651 0.06820198 -0.06464972 0.042737607 -0.009979439 -0.04171759 0.07846528
-0.061525516 -0.06911352 0.0540825 -0.051158104 -0.09203513 0.009311691 -0.065244496 -0.04054544
0.06951091 0.06723075 0.075601235 0.027626371 0.014159864 0.017748253 0.057802584 0.090489745
0.03467859 -0.09163993 -0.02897832 0.09153426 -0.0060444833 -0.032177396 0.055039305 -0.047704067
-0.06980987 -0.03664409 -0.0693677 -0.01941984 -0.03659205 0.043670285 -0.06142236 0.089555085
-0.07400223 -0.078655735 -0.09001718 0.061715018 -0.0054710032 0.021516073 0.053207852 -0.03728406
0.060669612 -0.107436195 -0.03662305 -0.049887266 -0.103870496 -0.034915246 0.0476102 -0.026988171
0.067634255 -0.07857853 -0.004801893 0.043484785 0.007627804 0.02964897 -0.023910511 0.075498655
00000000: 274a 09bd 90a1 18bd ca70 453d bfe3 c6bc
00000010: 873b 5abd 72ba 98bd f80a 863d 2d07 9cbd
00000020: b728 8abd b922 d3bc 5aaf af3d 8bd5 90bd
00000030: b3ea 16bd a792 ea3c 90ec 9fbd c025 b33d
00000040: c341 263d e714 c73c e3d0 033d 1067 cdbd
00000050: 9170 663d 339e 7abc c45f acbd bfc8 843d
00000060: f11c 8dbd c281 92bd 5a99 8a3c 4e2c acbd
00000070: 11dc b0bd 4a17 b4bd 9791 3e3d 7fae c83d
00000080: 3487 6fbd 9a39 42bd 006e 8e3d 9743 6ebd
00000090: 8da0 8dbd b25b 9abd fb23 a13d b312 923c
000000a0: 930f 43bd 9516 b83c 150e ab3d 8e26 083d
000000b0: 1f01 8c3d 5357 99bd 9a4c 20bd b941 bbbc
000000c0: e754 f3bb 23d9 77bd 021b dbbb 8edc 773d
000000d0: 7358 783d 50c5 dc3c e82a 443d 655b a9bd
000000e0: 2516 8c3d a5d2 3fbd 374e aabd 3396 163d
000000f0: 136f c6bc 68ba 96bd 288b 9abd d611 12bd
00000100: 7382 b73c 3a2b a3bc 4986 6abc da39 debc
00000110: 10c4 553d 7310 81bd 2e04 00bd fa7b 9c3c
00000120: 95b0 e5bd 3328 853d 1523 81bd 999f 423d
00000130: ef0e ccbd 9a10 173c fa64 963c 1626 c5bd
00000140: 2201 4a3c 4824 b23d 1c6a b83d 0b10 bdbd
00000150: cd54 9b3c e7f0 ed3c d776 0a3d 0af5 1cbd
00000160: 3788 c33d 4593 2c3d 9ff7 8c3d 93f9 c73d
00000170: 708c 14bd 92c2 783d 40bf 203d c031 5d3d
00000180: f2f2 acbd aba7 193d 5534 57ba b319 1b3d
00000190: 2074 b23c 4255 cabd c397 33bc f899 8bbd
000001a0: 6798 dbbc 064e c1bd 2a88 923d 81be 9e3d
000001b0: e7c8 fa3c a0f2 e83c 83f2 743c 63d5 3d3c
000001c0: d791 d8bd af52 1b3d 17fc 613d d5ce 8abd
000001d0: f62f bbbd f219 293c 291a 2f3d 3082 17bd
000001e0: 1757 0c3d 678a f83b 1644 b83c 3957 7cbd
000001f0: 080a a7bd 62f8 363d 808b 73bd 061b a03b
00000200: fae4 8fbd f3c2 79bd 03b9 17bd 215d adbd
00000210: afe8 76bd 6bec c63d 2db2 ac3c 93dc f63c
00000220: d3f9 1fbd 8397 343d a30a 8d3d 44e7 1e3d
00000230: bf15 e83c 82a3 8cbd 079b 9b3c 8db0 173d
00000240: 8dbf 1e3c 8d73 473d c351 4c3d 0a77 833d
00000250: b76a 8bbd 3363 b83b 6ef9 8c3b 7f14 96bd
00000260: 40c1 59bc a625 9b3d beed 303d b3dc 74bd
00000270: 0542 c2bd 9ab9 3fbd bb25 8abd 303b a23d
00000280: 6a40 273c 2e57 cfbd 5589 afbc ad7d 623d
00000290: ef36 c6bd 5fc2 a73d 7b15 8ebd eb19 aa3c
000002a0: 08de 043d f58b b53d 334f 3bbb 630b 86bd
000002b0: 6ad4 693d 9a1c 62bd c267 cb3c 00f9 af3d
000002c0: 4052 25bc ad22 0ebd da3f a2bc 639f 673c
000002d0: 733b 9d3c 33d1 f7bc a993 c5bd 6f67 83bd
000002e0: 6ca0 f93c 80aa 4cbc 4d79 18bd ca06 56bd
000002f0: a0a7 bbbc 72bb a53d a098 8e3c 33ae 8d3b
00000300: 2d73 983d 8f09 c1bd 7bad 8b3d 1367 84bd
00000310: a10d 2f3d cd80 23bc 10e0 2abd 68b2 a03d
00000320: 2e02 7cbd 648b 8dbd 9d85 5d3d 298b 51bd
00000330: ea7c bcbd 1090 183c e89e 85bd fa12 26bd
00000340: bc5b 8e3d 47b0 893d d2d4 9a3d b350 e23c
00000350: c6fe 673c c964 913c 67c2 6c3d b052 b93d
00000360: 230b 0e3d b7ad bbbd f163 edbc 5076 bb3d
00000370: cd10 c6bb 72cc 03bd e570 613d 5765 43bd
00000380: 7af8 8ebd 1d18 16bd a710 8ebd 5b16 9fbc
00000390: 8ce1 15bd 9ddf 323d 0396 7bbd a868 b73d
000003a0: 7b8e 97bd 4216 a1bd ed5a b8bd e3c8 7c3d
000003b0: 1a46 b3bb 7a42 b03c 7af0 593d 2cb7 18bd
000003c0: b380 783d 8207 dcbd 0d02 16bd 9756 4cbd
000003d0: 0eba d4bd 4a03 0fbd ea02 433d 4c16 ddbc
000003e0: d483 8a3d c8ed a0bd 3359 9dbb 1a1d 323d
000003f0: a8f2 f93b 66e2 f23c fadf c3bc 0a9f 9a3d

backbone.2.weight f4 [256, 256]
-0.049240865 0.030303739 -0.0013895705 -0.010343411 -0.02498249 -0.055511676 -0.061628297 -0.0087359855
-0.058926947 -0.00089614093 -0.055051357 -0.06397063 -0.014047414 -0.042162314 0.040372998 -0.001961939
-0.06729028 0.05129835 -0.033376366 0.024049595 -0.061878167 0.011359631 -0.03827336 0.0061870273
0.010702065 -0.042318247 0.05259294 0.040285997 -0.0021341746 -0.055238582 0.009727374 -0.058536164
-0.036758866 -0.039918162 0.04155367 -0.05835566 0.026029214 -0.010615163 0.006544836 -0.058699846
0.027852602 -0.058767438 -0.015440278 0.022744758 0.033964276 0.059321128 0.049336746 0.007927199
0.034545742 -0.015675522 -0.014450762 0.042415753 0.012023516 -0.029932065 -0.026555466 -0.055608384
0.01720918 0.04821697 -0.04785777 -0.011152305 -0.03453274 -0.051373973 -0.027190834 -0.00029890463
-0.01844921 0.034621827 0.026775142 0.029659182 0.00838029 0.032351445 -0.049374 0.00681556
-0.020364111 0.039748773 0.0075810635 -0.016101016 0.046618573 0.005380444 -0.014812828 0.026307689
0.045205347 0.047516163 -0.02493182 0.00044424832 0.014316693 -0.02092655 0.00037012994 0.04961451
0.024206989 0.045203406 -0.009620577 -0.036502846 0.013095677 -0.055438146 -0.053259104 0.055642314
0.015797459 0.033468653 -0.042135227 0.0010717139 -0.009213306 -0.041141093 0.037983242 0.023248509
0.05618137 -0.040635865 0.04301352 0.008100257 0.050571907 -0.020109594 0.006015921 -0.04536083
0.028104644 -0.040618375 -0.03582097 0.00398165 -0.018135127 0.040978786 -0.06687516 -0.057485037
-0.02008307 0.04121729 0.036572717 -0.0327796 -0.060992643 -0.014274763 0.046399474 0.025073512
-0.045303993 -0.02037859 0.01060506 0.0075346166 0.049777105 -0.036001958 0.03217183 0.04551912
0.0066128476 0.0035204068 -0.025906526 -0.015280252 0.021404494 0.016687617 0.052352995 -0.052367456
-0.027115945 0.032648697 0.046356186 0.011586009 -0.019039387 -0.025533073 -0.026933754 0.05181271
0.0056192875 0.016849846 0.0020217018 -0.050026402 0.023280978 -0.050331533 0.036883473 0.034169022
-0.027077306 0.026363805 0.018020054 -0.04677733 -0.06713376 0.047295816 -0.06084896 -0.0203448
0.011607845 -0.03202498 0.048331127 0.005852483 -0.022339553 -0.044815555 -0.013154882 -0.023306154
-0.019928306 -0.056731943 -0.056720056 0.048504252 -0.05122958 0.00037752837 0.04499903 -0.023406789
-0.005529909 0.03594426 -0.0011929125 -0.014275327 -0.035872445 0.047135517 -0.0051491484 0.00319352
0.0054576546 0.0049548075 0.025725648 0.04867226 -0.045511045 -0.0067743436 -0.02091798 0.021960296
0.040809922 -0.024605615 -0.05719363 -0.040237222 0.03500261 0.049230963 -0.0057289824 -0.009734824
0.01601669 0.032197267 -0.01803103 -0.019149803 -0.031507533 -0.045454606 -0.017204918 -0.050399113
0.023748048 -0.040071845 -0.06440666 0.036421105 -0.013141222 0.026059581 0.02074155 0.04733661
-0.0061005875 0.05494716 -0.008625984 0.036800325 0.047365922 -0.024056211 -0.013191715 0.03487151
0.017752973 -0.052366026 -0.0033950284 -0.031405993 0.010482319 0.0572877 -0.009534851 -0.025768826
-0.028742284 0.04039671 0.0051157996 -0.00053723156 -0.00947342 0.027688747 -0.010686367 0.04268931
-0.06273114 -0.04995054 0.01845143 -0.043728836 -0.0037332398 -0.0025229468 -0.030182913 -0.026512533
00000000: cab0 49bd 8c3f f83c 4022 b6ba 6977 29bc
00000010: 14a8 ccbc 3660 63bd f46d 7cbd 6121 0fbc
00000020: 625d 71bd 00eb 6aba 887d 61bd 0903 83bd
00000030: 2027 66bc 64b2 2cbd 285e 253d e093 00bb
00000040: 7ccf 89bd 381e 523d a8b5 08bd a803 c53c
00000050: f673 7dbd bf1d 3a3c 87c4 1cbd 8cbc ca3b
00000060: b757 2f3c e655 2dbd b26b 573d ee02 253d
00000070: 82dd 0bbb da41 62bd 905f 1f3c 9ec3 6fbd
00000080: 7790 16bd 3a81 23bd 2e34 2a3d 5806 6fbd
00000090: 383b d53c 38eb 2dbc 1076 d63b 406f 70bd
000000a0: 242b e43c 20b6 70bd 38f9 7cbc 3753 ba3c
000000b0: 201e 0b3d b6fa 723d 5415 4a3d 15e1 013c
000000c0: d67f 0d3d f469 80bc e4c2 6cbc 24bc 2d3d
000000d0: 48fe 443c 1734 f5bc d98a d9bc 9ec5 63bd
000000e0: 44fa 8c3c 287f 453d 8206 44bd 28b8 36bc
000000f0: 3472 0dbd 846d 52bd 50bf debc 4db6 9cb9
00000100: cc22 97bc 9ecf 0d3d 8b57 db3c d0f7 f23c
00000110: 7c4d 093c f382 043d 643c 4abd 1055 df3b
00000120: a3d2 a6bc 9ccf 223d 926a f83b 47e6 83bc
00000130: 1ef3 3e3d 704e b03b 81b1 72bc 3983 d73c
00000140: 3e29 393d 4fa0 423d d13d ccbc 00ea e839
00000150: 9090 6a3c 286e abbc 000e c239 9638 4b3d
00000160: bc4d c63c 3527 393d a09f 1dbc 0284 15bd
00000170: 408f 563c 1c13 63bd 3826 5abd 32e9 633d
00000180: ac69 813c 6d16 093d fd95 2cbd c078 8c3a
00000190: 68f3 16bc 9083 28bd 5194 1b3d a873 be3c
000001a0: 701e 663d cb71 26bd f22e 303d f1b6 043c
000001b0: 7d24 4f3d e0bc a4bc 3421 c53b 47cc 39bd
000001c0: b63b e63c 745f 26bd 02b9 12bd 8078 823b
000001d0: 1e90 94bc 5fd9 273d d8f5 88bd 6e75 6bbd
000001e0: 4085 a4bc 76d3 283d 46cd 153d e743 06bd
000001f0: 6cd3 79bd b2e0 69bc 600d 3e3d f766 cd3c
00000200: ae90 39bd 00f1 a6bc d8c0 2d3c f2e4 f63b
00000210: 14e3 4b3d ca76 13bd 9cc6 033d 4272 3a3d
00000220: 96b0 d83b a0b6 663b ec39 d4bc 065a 7abc
00000230: 7a58 af3c 78b4 883c 1870 563d 427f 56bd
00000240: 4222 debc a4ba 053d fcdf 3d3d 3ed3 3d3c
00000250: 7df8 9bbc bc2a d1bc 2da4 dcbc 9039 543d
00000260: 0022 b83b b008 8a3c 877e 043b 7ce8 4cbd
00000270: c0b7 be3c 7028 4ebd 2013 173d d1f4 0b3d
00000280: 3ad1 ddbc e8f8 d73c cb9e 933c 9699 3fbd
00000290: 6d7d 89bd 42b9 413d c23c 79bd 23aa a6bc
000002a0: d52e 3e3c a02c 03bd dcf6 453d 30c6 bf3b
000002b0: 7001 b7bc 8490 37bd 9387 57bc 8cec bebc
000002c0: b040 a3bc c15f 68bd 4a53 68bd 65ac 463d
000002d0: 1cd6 51bd 00ef c539 e750 383d 98bf bfbc
000002e0: 3d34 b5bb 4a3a 133d 805b 9cba 10e3 69bc
000002f0: fcee 12bd 2c11 413d 30ba a8bb 604a 513b
00000300: 20d6 b23b f05b a23b 98be d23c 905c 473d
00000310: ca69 3abd 50fb ddbb 2f5c abbc 14e6 b33c
00000320: 4e28 273d b791 c9bc de43 6abd c9cf 24bd
00000330: e65e 0f3d 68a6 493d 30ba bbbb d07e 1fbc
00000340: 6f35 833c 48e1 033d d0b5 93bc 0ce0 9cbc
00000350: 0b0e 01bd 9c2e 3abd 54f1 8cbc 4d6f 4ebd
00000360: 448b c23c 6022 24bd a4e7 83bd 4c2e 153d
00000370: 484e 57bc e77a d53c 2fea a93c 08e4 413d
00000380: 70e7 c7bb 4610 613d 0054 0dbc f0bb 163d
00000390: c502 423d 8811 c5bc 1022 58bc 6ed5 0e3d
000003a0: af6e 913c c27d 56bd 207f 5ebb 92a3 00bd
000003b0: 08be 2b3c 82a6 6a3d 1038 1cbc 2519 d3bc
000003c0: f074 ebbc 0577 253d 70a2 a73b 00d5 0cba
000003d0: 6736 1bbc 83d3 e23c df15 2fbc fcda 2e3d
000003e0: 2f79 80bd f098 4cbd 7427 973c 021d 33bd
000003f0: 5fa9 74bb 0658 25bb 2842 f7bc d030 d9bc

backbone.2.bias f4 [256]
-0.058310658 0.012493603 -0.06351949 0.03134876 0.08354301 0.037371606 -0.029360425 -0.07629545
0.023248533 -0.01696159 -0.018319419 0.0016146263 0.031411994 -0.039702572 0.0023289695 -0.055960465
0.0053121774 -0.0020736016 0.0563208 -0.03514443 -0.016369967 0.044120237 -0.07001408 -0.027590208
-0.054608714 -0.02427226 0.048033506 0.032068964 -0.044607814 0.049294427 -0.05722486 -0.0061103255
0.03547512 0.058552116 0.07791172 -0.0632675 -0.058152612 -0.046631 0.023105793 -0.04324767
-0.012304924 -0.041945696 0.02754858 -0.027435329 -0.038310602 0.023722388 -0.09566801 0.05898588
-0.0737645 0.009839745 0.04266682 -0.048824925 0.038754355 0.014647381 0.033607315 0.009305379
-0.052457802 -0.0018203917 -0.05633395 -0.08486475 -0.046674557 0.011169948 0.012037879 -0.011983121
-0.029209625 -0.00515254 0.009436333 -0.059139192 -0.03919804 -0.056182362 -0.035961706 -0.0005183917
-0.05770566 -0.023089474 0.041490775 0.062318966 -0.061504398 0.020533264 -0.01801983 0.057641044
-0.026377957 0.04651358 -0.007005593 -0.013225058 -0.02037736 -0.03998267 0.036337726 -0.035332046
0.08701826 0.04793695 -0.036851313 0.010093067 0.042566862 -0.017213384 -0.02999543 -0.062352568
-0.06697942 0.027284382 -0.0044649504 0.011836402 0.0149619505 0.085723735 0.002948919 -0.059345644
0.02207139 0.08052117 -0.054338712 -0.04915685 -0.035709597 -0.053864628 0.039243948 0.04546269
-0.05444502 -0.05985336 -0.011635836 -0.038631484 0.12025805 0.048124757 -0.01099854 -0.063954495
-0.03699717 0.03683025 -0.07243045 0.009884878 -0.028497443 -0.011006622 0.009139355 -0.041340306
-0.06484167 0.026367892 0.015584027 0.048906557 -0.04004357 -0.028399503 -0.04841847 0.0019169077
-0.02682432 -0.018989207 -0.032194268 0.033380527 -0.07753206 0.02854723 0.026334532 0.014366748
0.06754491 -0.017896177 0.041339867 0.07242944 0.052709777 0.005067191 0.0742912 -0.06256085
0.03548537 0.036849417 -0.0026892722 -0.04126791 0.032643657 -0.039250836 -0.028734388 0.045891788
-0.031082885 0.03494779 0.012583515 0.036453225 -0.03896536 -0.036478862 -0.013094497 -0.0020481113
-0.049777 0.00448177 0.0073137623 -0.09096183 0.04647302 0.02881132 -0.012409437 -0.04535181
0.016878728 -0.03903517 -0.054295816 0.014651186 -0.015002096 0.040398277 -0.038046554 0.012902029
0.044277802 -0.037184604 0.02878926 0.07991871 -0.074673526 -0.049080335 0.029408459 0.1337537
0.038151115 0.094101444 0.12514979 -0.07339384 0.040819038 0.03176377 -0.0053663393 0.063194744
-0.029301321 0.00636718 0.068905875 -0.08436251 0.11508018 -0.024003068 0.06567028 -0.079608925
-0.059113286 -0.03505964 0.046221435 -0.0065040216 -0.02809458 -0.057432726 0.021234488 -0.030744353
-0.07635468 -0.036469907 -0.003268891 0.016136203 -0.0064470996 -0.020914916 -0.0777944 -0.037509803
-0.034637343 -0.07147846 -0.05620346 -0.046598896 0.096286915 -0.020079218 -0.049949504 -0.050406784
0.003894714 0.018725907 -0.04194904 -0.018340021 -0.059427932 -0.06546652 -0.008102484 0.102551036
-0.05396735 -0.0068931924 0.027777627 -0.031854298 0.011717256 0.030591078 -0.061780293 0.043099813
-0.011347711 -0.059921056 -0.019901698 -0.0055974117 -0.05529711 -0.025629265 0.14929913 -0.018085506
00000000: 28d7 6ebd f8b1 4c3c 8216 82bd 8f67 003d
00000010: 9918 ab3d f812 193d 4685 f0bc ca40 9cbd
00000020: b573 be3c 08f3 8abc 9b12 96bc dea1 d33a
00000030: dda9 003d 2a9f 22bd a0a1 183b cd36 65bd
00000040: c611 ae3b 43e5 07bb a4b0 663d 9bf3 0fbd
00000050: 4f1a 86bc 6cb7 343d 8b63 8fbd dc04 e2bc
00000060: 63ad 5fbd 9ed6 c6bc c8be 443d bf5a 033d
00000070: afb6 36bd f4e8 493d 9d64 6abd 2039 c8bb
00000080: 5c4e 113d 58d4 6f3d 2e90 9f3d 6492 81bd
00000090: 6f31 6ebd 2600 3fbd 5c48 bd3c 7824 31bd
000000a0: 989a 49bc 40cf 2bbd 8fad e13c 0ec0 e0bc
000000b0: 94eb 1cbd 7455 c23c 97ed c3bd 2e9b 713d
000000c0: d811 97bd e236 213c 67c3 2e3d a5fc 47bd
000000d0: e3bc 1e3d 92fb 6f3c d3a7 093d 9775 183c
000000e0: fedd 56bd 369a eeba 6ebe 66bd 92cd adbd
000000f0: d22d 3fbd 2802 373c 863a 453c da54 44bc
00000100: 0649 efbc a3d6 a8bb d99a 1a3c f03b 72bd
00000110: 208e 20bd 7a1f 66bd 954c 13bd aee4 07ba
00000120: c55c 6cbd 2326 bdbc 3bf2 293d 2c42 7f3d
00000130: 09ec 7bbd 6035 a83c 539e 93bc 0419 6c3d
00000140: 9616 d8bc 0685 3e3d 2c8f e5bb eaad 58bc
00000150: 6cee a6bc dec4 23bd ded6 143d 56b8 10bd
00000160: a136 b23d 8959 443d 67f1 16bd 645d 253c
00000170: 975a 2e3d 1503 8dbc fab8 f5bc 6865 7fbd
00000180: 822c 89bd 7f83 df3c b84e 92bb 78ed 413c
00000190: f822 753c ed8f af3d a742 413b 6b14 73bd
000001a0: 0fcf b43c 48e8 a43d 4592 5ebd b158 49bd
000001b0: 3a44 12bd 28a1 5cbd 43be 203d 1637 3a3d
000001c0: be01 5fbd cc28 75bd 3ca4 3ebc 0c3c 1ebd
000001d0: da49 f63d 771e 453d 3833 34bc 93fa 82bd
000001e0: 588a 17bd 51db 163d 6a56 94bd 2ff4 213c
000001f0: 7873 e9bc 1e55 34bc 3cbd 153c 7454 29bd
00000200: b6cb 84bd 7a01 d83c 2654 7f3c 3e52 483d
00000210: ba04 24bd 13a6 e8bc 7252 46bd c040 fb3a
00000220: adbe dbbc 418f 9bbc 23de 03bd 05ba 083d
00000230: 21c9 9ebd e1db e93c 84bb d73c 8262 6b3c
00000240: fc54 8a3d 019b 92bc fe53 293d e355 943d
00000250: 35e6 573d ae0a a63b fc25 983d e71f 80bd
00000260: 1b59 113d 6aef 163d 803e 30bb 8a08 29bd
00000270: 5bb5 053d 7cc5 20bd 6164 ebbc 07f9 3b3d
00000280: 89a1 febc 6a25 0f3d 162b 4e3c fa4f 153d
00000290: 249a 1fbd dc6a 15bd 4d8a 56bc 9b39 06bb
000002a0: f8e2 4bbd d0db 923b 49a8 ef3b 324a babd
000002b0: 7e5a 3e3d b805 ec3c f450 4bbc d2c2 39bd
000002c0: 4245 8a3c 58e3 1fbd 4a65 5ebd 870b 703c
000002d0: 5acb 75bc aa78 253d b4d6 1bbd 0863 533c
000002e0: a45c 353d e24e 18bd 74d7 eb3c 6cac a33d
000002f0: 6fee 98bd 7608 49bd 02ea f03c bbf6 083e
00000300: 5844 1c3d 42b8 c03d 4427 003e 824f 96bd
00000310: dd31 273d ba1a 023d 1ed8 afbb 3f6c 813d
00000320: 5309 f0bc c7a3 d03b 861e 8d3d 40c6 acbd
00000330: 28af eb3d 15a2 c4bc 247e 863d 010a a3bd
00000340: c620 72bd b29a 0fbd b052 3d3d b01f d5bb
00000350: 9b26 e6bc 943e 6bbd f3f3 ad3c 95db fbbc
00000360: d85f 9cbd 7861 15bd e43a 56bb 1230 843c
00000370: 3142 d3bb c255 abbc ac52 9fbd e1a3 19bd
00000380: e3df 0dbd 4d63 92bd 9935 66bd 7cde 3ebd
00000390: 1332 c53d 2c7d a4bc da97 4cbd 5877 4ebd
000003a0: 753e 7f3b 1367 993c c2d2 2bbd d03d 96bc
000003b0: b46a 73bd 5013 86bd 48c0 04bc 4706 d23d
000003c0: de0c 5dbd 4ae0 e1bb e88d e33c a779 02bd
000003d0: bcf9 3f3c 249a fa3c 550d 7dbd 6e89 303d
000003e0: c0eb 39bc c86f 75bd e308 a3bc 7e6a b7bb
000003f0: 397f 62bd 77f4 d1bc dfe1 183e 0e28 94bc

out_n.0.weight f4 [100, 256]
-0.13558082 0.02428849 0.0012265013 -0.05920989 -0.3482705 0.05090708 0.0020023852 -0.11034473
-0.01065128 -0.026003074 -0.20692673 -0.09000346 -0.19072926 -0.059481137 0.049017467 -0.06285405
-0.098458506 -0.06950009 -0.26165625 0.005237637 -0.18766934 -0.09292518 0.0043799207 -0.028439155
-0.06489612 0.01762858 -0.4120437 -0.012663309 -0.022840159 -0.03739336 -0.060290594 -0.009542219
-0.051055197 -0.42221972 -0.47081223 -0.06730568 -0.05049384 -0.025319342 -0.008148693 -0.021197587
0.04567056 0.05394227 -0.2233984 -0.015062278 -0.04689622 -0.017961845 -0.007371164 -0.3617752
-0.047646448 -0.02220642 -0.05433709 -0.14297655 -0.24376944 -0.03519044 -0.025999647 -0.07120499
-0.06719773 -0.004550608 -0.058300894 -0.12189878 -0.053791463 -0.09253852 0.0031277454 -0.03036908
0.011181103 -0.055336557 0.00588982 -0.07701316 0.008840144 -0.049204614 -0.36907992 -0.040036146
-0.033324063 -0.033686984 -0.011160812 -0.12740865 -0.11077396 -0.031106338 -0.05259861 -0.2831018
-0.05980183 -0.21102631 -0.24175788 -0.041909724 0.045439363 -0.02702944 -0.039641775 -0.03154373
-0.31757158 -0.10707417 0.028688217 0.011002967 -0.023830168 -0.01590516 -0.10302525 0.020396091
-0.012367738 -0.39827856 0.035072047 -0.010507353 -0.060055435 -0.3329539 0.028661937 0.006748157
-0.04810346 -0.4755841 -0.090241306 -0.13566744 -0.0076626316 0.011529103 -0.10854553 -0.13096637
0.019535815 0.01570191 0.00044636746 -0.11177443 -0.8034302 -0.064015165 0.033064343 -0.0462198
-0.083389685 -0.021172576 -0.066819586 -0.3045329 0.04462453 -0.33497772 -0.01860518 -0.005876492
-0.053168785 -0.20131183 0.0259694 0.01789739 0.031390935 -0.06355004 -0.033536017 0.026960902
-0.03657175 -0.025941873 0.0054319217 0.03885868 -0.11404162 0.037723344 0.034343105 -0.038536653
-0.2105511 0.03633319 -0.20809525 -0.31281814 0.029867748 -0.042747524 -0.3071907 -0.04720504
-0.089175 -0.07361526 -0.061782792 -0.06422071 -0.3707588 -0.013472311 -0.11270225 -0.27884328
-0.016056437 0.028023612 0.056244668 -0.2663268 -0.1486596 0.04159352 0.013651635 -0.040270627
-0.025992133 -0.07106958 -0.038728848 0.028815988 -0.522865 -0.10720704 -0.14555246 -0.02879525
-0.03471766 -0.035396934 0.052698188 0.01728916 -0.034941602 -0.00013633072 -0.06890075 -0.0012174919
-0.071484245 0.03140721 0.020577155 -0.34402883 -0.00090169336 -0.084936276 -0.2259872 -0.7092959
-0.04450107 -0.45110837 -0.35493627 -0.054958187 -0.17104207 -0.053586233 -0.16479951 -0.024352496
-0.030031437 -0.072322756 -0.18721342 -0.1761516 -0.5199993 -0.13250425 -0.3238289 -0.052079506
0.03871169 -0.0047672763 -0.019317523 -0.0037351772 0.03287502 -0.04035296 0.05171098 0.031686306
0.017912999 -0.0696122 -0.098385096 -0.24641937 -0.03354727 -0.0369648 0.0017337437 0.03256397
-0.093867734 -0.021723881 -0.10784731 0.0369564 -0.36747986 -0.09005088 -0.054988876 -0.0055428804
0.021956166 -0.119298086 -0.05945798 -0.105531454 0.03909423 -0.00972884 0.004470816 -0.33977288
-0.022982433 -0.19216923 -0.0402544 -0.03305564 0.026577165 -0.08485441 0.053719357 0.04937277
-0.009085774 0.01185894 0.015325696 0.053875595 -0.018740613 -0.035290286 -0.5492245 0.017238444
00000000: b3d5 0abe a8f8 c63c 8ec2 a03a 1286 72bd
00000010: 8350 b2be f183 503d 733a 033b 6bfc e1bd
00000020: b582 2ebc 6604 d5bc 9ae4 53be bc53 b8bd
00000030: 884e 43be 7ea2 73bd 8ac6 483d a0b9 80bd
00000040: 9da4 c9bd 1056 8ebd cff7 85be 7ca0 ab3b
00000050: 642c 40be 8f4f bebd 7085 8f3b 3bf9 e8bc
00000060: 42e8 84bd d069 903c 64f7 d2be c579 4fbc
00000070: 491b bbbc c829 19bd 45f3 76bd f856 1cbc
00000080: 411f 51bd 2f2d d8be 4d0e f1be 8fd7 89bd
00000090: a1d2 4ebd 826a cfbc 1882 05bc 90a6 adbc
000000a0: 0e11 3b3d 92f2 5c3d 8dc2 64be c6c7 76bc
000000b0: 4016 40bd b824 93bc ce89 f1bb 993a b9be
000000c0: ec28 43bd 3dea b5bc 9290 5ebd 7268 12be
000000d0: b29e 79be da23 10bd 36fd d4bc ecd3 91bd
000000e0: f79e 89bd 441d 95bb ebcc 6ebd 11a6 f9bd
000000f0: 7054 5cbd d684 bdbd dcfa 4c3b 94c8 f8bc
00000100: f230 373c 96a8 62bd 64ff c03b 13b9 9dbd
00000110: 40d6 103c c78a 49bd 0bf8 bcbe f1fc 23bd
00000120: d07e 08bd 5dfb 09bd d7db 36bc 6a77 02be
00000130: 75dd e2bd b8d2 febc a471 57bd b8f2 90be
00000140: c4f2 74bd 4817 58be 618f 77be 88a9 2bbd
00000150: a01e 3a3d d86c ddbc 6a5f 22bd 0034 01bd
00000160: be98 a2be b449 dbbd 8d03 eb3c ca45 343c
00000170: 7c37 c3bc 8a4b 82bc e7fe d2bd b415 a73c
00000180: 0ea2 4abc 2beb cbbe b5a7 0f3d 0827 2cbc
00000190: b0fc 75bd ef78 aabe 70cc ea3c a51f dd3b
000001a0: 2208 45bd c27f f3be 6fd0 b8bd 68ec 0abe
000001b0: d016 fbbb 90e4 3c3c 1e4d debd 0c1c 06be
000001c0: 9309 a03c 4ba1 803c 6d06 ea39 fee9 e4bd
000001d0: 9aad 4dbf 621a 83bd 7a6e 073d f950 3dbd
000001e0: 36c8 aabd 1c72 adbc b5d8 88bd bceb 9bbe
000001f0: 36c8 363d 3382 abbe e469 98bc 968f c0bb
00000200: 83c7 59bd b024 4ebe c7bd d43c 8c9d 923c
00000210: c893 003d 8626 82bd 105d 09bd 1cdd dc3c
00000220: 42cc 15bd 0d84 d4bc 43fe b13b 472a 1f3d
00000230: a78e e9bd cb83 1a3d 5bab 0c3d 9cd8 1dbd
00000240: b59a 57be 1cd2 143d ec16 55be b329 a0be
00000250: 35ad f43c 0718 2fbd 1948 9dbe 125a 41bd
00000260: 62a1 b6bd 99c3 96bd f40f 7dbd 2686 83bd
00000270: 19d4 bdbe f8ba 5cbc 70d0 e6bd 8cc4 8ebe
00000280: ca88 83bc c691 e53c cf60 663d fd5b 88be
00000290: 393a 18be f85d 2a3d 1bab 5f3c d0f2 24bd
000002a0: 74ed d4bc ee8c 91bd 24a2 1ebd 820f ec3c
000002b0: 7bda 05bf 5d8f dbbd b40b 15be 04e4 ebbc
000002c0: 1b34 0ebd 60fc 10bd 0eda 573d ffa1 8d3c
000002d0: ed1e 0fbd 00f4 0eb9 d61b 8dbd 4094 9fba
000002e0: 5566 92bd d9a4 003d 6c91 a83c 8c24 b0be
000002f0: 9e5f 6cba 12f3 adbd 3069 67be 6b94 35bf
00000300: c146 36bd adf7 e6be 35ba b5be d61b 61bd
00000310: a725 2fbe 3d7d 5bbd 34c1 28be e37e c7bc
00000320: 7d04 f6bc f41d 94bd e0b4 3fbe 1661 34be
00000330: ad1e 05bf 32af 07be e7cc a5be 5251 55bd
00000340: 2690 1e3d d036 9cbb c83f 9ebc e0c9 74bb
00000350: f5a7 063d 2549 25bd e4ce 533d 80c9 013d
00000360: 48be 923c d790 8ebd 207e c9bd 5c55 7cbe
00000370: dd68 09bd 6768 17bd c93e e33a cc61 053d
00000380: ba3d c0bd 48f6 b1bc 0ddf dcbd 985f 173d
00000390: 5226 bcbe 996c b8bd 043c 61bd 0da1 b5bb
000003a0: 6bdd b33c 8e52 f4bd 368a 73bd e020 d8bd
000003b0: 4521 203d b665 1fbc ec7f 923b b6f6 adbe
000003c0: a845 bcbc 03c8 44be cce1 24bd 5a65 07bd
000003d0: 5bb8 d93c 26c8 adbd d408 5c3d 1a3b 4a3d
000003e0: 80dc 14bc 004c 423c a118 7b3c a8ac 5c3d
000003f0: ea85 99bc 8c8c 10bd fa99 0cbf a337 8d3c

out_n.0.bias f4 [100]
-0.34849897 0.23256752 0.03344182 0.21879043 -0.08901391 0.15859641 -0.02808836 -0.079821095
-0.007076795 -0.1276287 0.17642759 -0.009976447 0.016850943 0.1904373 -0.09356137 -0.008034901
0.08035979 -0.08918573 0.03828607 -0.10435464 -0.039673377 -0.103683315 0.04029979 -0.07096022
0.07644812 0.003016863 -0.037455 -0.10642566 -0.030332541 -0.06579758 0.02500254 -0.011600472
0.011134327 0.02944575 0.035285 0.040568765 -0.06153882 -0.009746368 0.041336875 0.00024671428
0.008276806 0.0657726 -0.097626954 0.0072010113 0.18210135 -0.028260235 -0.09531934 0.18829653
-0.06453192 0.10137949 0.10217257 -0.116488546 0.007837226 -0.11274212 0.016098259 -0.0690194
0.051027652 -0.13457921 0.026193134 -0.08832306 0.008080928 -0.12691283 -0.025168965 -0.061321363
0.045607675 -0.1422033 0.060729697 -0.0866309 -0.02479974 0.10683142 -0.10690195 0.15596727
-0.055274058 0.039422568 0.14998786 -0.11087709 0.15464282 -0.037363444 -0.024327327 0.066316545
-0.097159095 0.049092535 -0.024263162 0.009754927 -0.12953304 0.025736587 0.0037292647 0.08829728
-0.032476723 0.012419682 -0.043522257 -0.03995958 -0.090109356 0.03174332 -0.009034422 -0.03779424
-0.03318591 -0.025258599 0.0526258 -0.10260194
00000000: 756e b2be 2e26 6e3e 4afa 083d 990a 603e
00000010: ed4c b6bd 1967 223e 8f19 e6bc 3e79 a3bd
00000020: 76e4 e7bb 19b1 02be 6fa9 343e 4074 23bc
00000030: fd0a 8a3c ff01 433e 1b9d bfbd d1a4 03bc
00000040: ac93 a43d 02a7 b6bd dbd1 1c3d e3b7 d5bd
00000050: 8d80 22bd eb57 d4bd 6511 253d 9853 91bd
00000060: d590 9c3d 90b6 453b 6a6a 19bd b2f5 d9bd
00000070: f37b f8bc e2c0 86bd 20d2 cc3c e80f 3ebc
00000080: c16c 363c 3738 f13c 0187 103d 6f2b 263d
00000090: 2110 7cbd 3baf 1fbc db50 293d 6e59 8139
000000a0: 719b 073c c9b3 863d a4f0 c7bd 76f6 eb3b
000000b0: c778 3a3e 0282 e7bc c936 c3bd ced0 403e
000000c0: 5029 84bd 0da0 cf3d da3f d13d 8c91 eebd
000000d0: b567 003c 57e5 e6bd 7fe0 833c 0b5a 8dbd
000000e0: 5f02 513d 22cf 09be fc92 d63c b8e2 b4bd
000000f0: de65 043c 70f5 01be 252f cebc 1c2c 7bbd
00000100: 1dcf 3a3d be9d 11be b4bf 783d 8b6b b1bd
00000110: d328 cbbc 6eca da3d 69ef dabd e2b5 1f3e
00000120: 0d67 62bd 8f79 213d 6b96 193e 8713 e3bd
00000130: b05a 1e3e 690a 19bd 1a4a c7bc f8d0 873d
00000140: 59fb c6bd 4115 493d 8ac3 c6bc 21d3 1f3c
00000150: 4fa4 04be 89d5 d23c ae66 743b 34d5 b43d
00000160: 5006 05bd ec7b 4b3c 6544 32bd a8ac 23bd
00000170: 418b b8bd 4905 023d 1d05 14bc 22ce 1abd
00000180: f3ed 07bd 1feb cebc 278e 573d f720 d2bd

out_d.0.weight f4 [100, 256]
-0.10250504 -0.0026016012 -0.016497264 0.02588659 0.024725491 0.026603082 0.031451892 -0.0062744515
0.05236947 0.076950245 -0.03316783 0.029233389 0.011240587 0.05728075 0.0545543 -0.06339513
0.044532627 -0.020799862 -0.03760821 -0.001110367 0.0461856 0.0005062574 0.05542163 -0.007487299
0.03642973 0.022305023 -0.077303484 -0.035940472 -0.0435093 0.049167775 0.06092004 0.061813846
0.0044449912 -0.058768775 -0.03192628 0.050753962 0.0029737193 -0.033295996 0.0028016567 0.00031096832
-0.01880145 -0.006563671 -0.06011804 -0.012140643 -0.051287275 0.025109172 -0.019200835 0.029646117
0.09682783 0.03510244 0.03599002 0.066341385 -0.045088876 -0.051961243 0.018481636 0.050488766
0.028947782 0.04821146 0.025937254 -0.013005936 0.01406835 0.03970848 0.008362658 0.003321031
-0.076892346 -0.06275917 -0.019830348 0.030696308 -0.049443714 -0.047132965 0.03769261 0.003677011
0.03601496 0.043303687 0.0074700904 -0.00447558 0.024609674 -0.04783574 -0.057675466 -0.006723199
0.02219153 -0.03042874 0.023204427 0.016190866 0.05712346 0.040051684 0.04187186 0.034671105
-0.04692116 -0.019714035 0.021000192 -0.060594887 0.03043409 0.0022106485 0.01392814 0.030693749
-0.00019596591 -0.06349866 -0.0106538655 0.01707603 0.052842006 -0.013602161 0.023000496 0.03598192
-0.049449448 -0.00856667 -0.028148718 -0.024988417 -0.061370224 0.038933337 0.044357505 -0.020718671
-0.031670477 0.027579471 0.028739315 0.061755076 0.03103507 -0.058812425 0.025523111 0.03656593
0.022271117 0.036238495 -0.03492615 -0.039087277 0.04448469 -0.036791913 -0.055040784 -0.073342
0.049095687 -0.03424041 0.029480549 0.018252917 0.06436443 0.019080559 0.057791814 -0.056947663
-0.037400633 -0.014776887 0.02377095 -0.010819821 -0.06730534 -0.021365415 -0.05201862 0.044138033
-0.02836462 -0.008233502 0.023832569 0.018186372 -0.046359107 -0.020494906 -0.047701184 0.06384572
0.008418794 0.0082745515 0.009682238 -0.045858223 0.020011453 0.031276926 0.02433337 -0.023037178
-0.055269457 -0.024294978 -0.008600242 0.04303387 -0.049077574 -0.05113717 0.025655385 -0.06306867
-0.021829307 0.061825056 -0.0037412853 -0.0076398044 -0.03388295 -0.06271784 -0.015069258 0.047895797
0.049470205 0.013167636 -0.0012176186 0.042691108 -0.033711202 -0.016557217 -0.031277552 -0.039771557
0.048326384 0.021459954 -0.061038107 -0.06919738 -0.00839222 -0.014454637 -0.058506165 -0.0728853
0.03756771 0.007940826 -0.031350233 0.000981532 -0.040140096 -0.014441153 0.032402318 -0.029476685
-0.028377974 -0.03412174 0.03363913 0.030251252 0.020584209 0.047964122 0.011711056 -0.06146834
0.0026465803 0.010022938 -0.06063178 -0.05102122 0.021361688 0.07915861 0.01812631 0.0008185064
0.042029448 0.027588971 -0.038905215 0.04086955 0.05365418 0.02610848 -0.0012932777 0.0570502
-0.0008068387 0.019823125 0.009543759 -0.05989909 -0.084792696 -0.0020392942 0.054274924 -0.036859736
-0.023781504 -0.06773421 0.013071321 0.048323244 -0.0007868385 0.006129867 -0.026769107 -0.01249491
-0.020756759 -0.062291507 0.048467793 0.0293877 0.054208275 -0.03160207 0.03234949 -0.017717477
-0.05872348 -0.053605713 -0.020323098 0.07562087 0.057667878 0.01964544 0.04606525 0.030330863
00000000: 2aee d1bd a07f 2abb 4525 87bc 1d10 d43c
00000010: 1d8d ca3c b5ee d93c b3d3 003d ea99 cdbb
00000020: 5f81 563d 1798 9d3d feda 07bd dc7a ef3c
00000030: 702a 383c 389f 6a3d 5474 5f3d 4ed5 81bd
00000040: d867 363d 7964 aabc 110b 1abd bc89 91ba
00000050: 1d2d 3d3d 5cb6 043a cb01 633d 0458 f5bb
00000060: 5737 153d 06b9 b63c 4a51 9ebd 5136 13bd
00000070: cf36 32bd 2664 493d 4b87 793d 8430 7d3d
00000080: 4aa7 913b 87b7 70bd 22c5 02bd 63e3 4f3d
00000090: bbe2 423b 6261 08bd 009c 373b 7609 a339
000000a0: 8005 9abc 1014 d7bb 553e 76bd 8ce9 46bc
000000b0: 9b12 52bd c0b1 cd3c 124b 9dbc 6adc f23c
000000c0: ab4d c63d 93c7 0f3d 456a 133d fedd 873d
000000d0: 1daf 38bd 50d5 54bd cd66 973c 4fcd 4e3d
000000e0: e623 ed3c 6179 453d 5d7a d43c d916 55bc
000000f0: f07e 663c 5ca5 223d 8803 093c a8a5 593b
00000100: bc79 9dbd e187 80bd 4173 a2bc d376 fb3c
00000110: 7e85 4abd 7f0e 41bd 9163 1a3d 02fa 703b
00000120: 6c84 133d 355f 313d a9c7 f43b e3a7 92bb
00000130: 3a9a c93c 69ef 43bd 1c3d 6cbd 484e dcbb
00000140: 03cb b53c b145 f9bc 3617 be3c b5a2 843c
00000150: 4afa 693d 3c0d 243d d481 2b3d 4a03 0e3d
00000160: 6730 40bd 547f a1bc 9808 ac3c 5832 78bd
00000170: ea50 f93c 87e0 103b da32 643c 7571 fb3c
00000180: 337c 4db9 960b 82bd 8d8d 2ebc 08e3 8b3c
00000190: dc70 583d 99db 5ebc 896b bc3c c761 133d
000001a0: 818b 4abd 385b 0cbc 2498 e6bc 82b4 ccbc
000001b0: 585f 7bbd 9078 1f3d 37b0 353d 34ba a9bc
000001c0: e7b8 01bd 58ee e13c b66e eb3c e4f2 7c3d
000001d0: 423d fe3c 4ce5 70bd d815 d13c 28c6 153d
000001e0: eb71 b63c d16e 143d b90e 0fbd fb19 20bd
000001f0: 9435 363d 1eb3 16bd 7272 61bd 5534 96bd
00000200: 8f18 493d ac3f 0cbd 3181 f13c 2487 953c
00000210: 80d1 833d d54e 9c3c 1cb7 6c3d f441 69bd
00000220: 6831 19bd c21a 72bc 4cbb c23c 9e45 31bc
00000230: 62d7 89bd 8606 afbc 7a11 55bd 15ca 343d
00000240: eb5c e8bc cfe5 06bc 853c c33c 96fb 943c
00000250: 0ce3 3dbd efe4 a7bc 5162 43bd 8bc1 823d
00000260: fbee 093c fc91 073c 40a2 1e3c d5d5 3bbd
00000270: 0fef a33c 3c1c 003d c756 c73c 77b8 bcbc
00000280: 3a62 62bd 4306 c7bc 08e8 0cbc 4944 303d
00000290: 9105 49bd 3675 51bd 3e2b d23c 262a 81bd
000002a0: 60d3 b2bc 453c 7d3d 5a30 75bb 5357 fabb
000002b0: d9c8 0abd 3672 80bd 0de5 76bc 622e 443d
000002c0: 45a1 4a3d 11bd 573c 8098 9fba dfdc 2e3d
000002d0: c214 0abd 00a3 87bc e41c 00bd 80e7 22bd
000002e0: e3f1 453d c9cc af3c 1803 7abd 5bb7 8dbd
000002f0: 867f 09bc 24d3 6cbc 29a4 6fbd e344 95bd
00000300: 99e0 193d 3d1a 023c 1a69 00bd c0a6 803a
00000310: f169 24bd 969a 6cbc 4bb8 043d 1779 f1bc
00000320: ed78 e8bc 3dc3 0bbd 2fc9 093d 79d1 f73c
00000330: 37a0 a83c 0776 443d bbdf 3f3c 3ac6 7bbd
00000340: 4072 2d3b 4037 243c 0859 78bd a0fb 50bd
00000350: b5fe ae3c e91d a23d a17d 943c 0991 563a
00000360: 1227 2c3d 4402 e23c 135b 1fbd d466 273d
00000370: 7cc4 5b3d 73e1 d53c 3383 a9ba 78ad 693d
00000380: 0782 53ba 1b64 a23c 6d5d 1c3c c058 75bd
00000390: cba7 adbd aea5 05bb 624f 5e3d 3cfa 16bd
000003a0: 6ed1 c2bc 3cb8 8abd 1829 563c 98ee 453d
000003b0: d643 4eba 0ddd c83b e34a dbbc 73b7 4cbc
000003c0: 140a aabc 6125 7fbd 2a86 463d 79be f03c
000003d0: 7f09 5e3d 2c71 01bd e680 043d 3e24 91bc
000003e0: 0888 70bd aa91 5bbd a07c a6bc 1ddf 9a3d
000003f0: 2735 6c3d 79ef a03c eaae 3c3d 6e78 f83c

out_d.0.bias f4 [100]
-0.041494306 0.10327506 -0.019775746 -0.012446946 0.07441745 -0.026436018 0.01479209 -0.093692645
-0.0547345 -0.013481235 -0.0029303485 0.015171081 -0.0024682023 0.05318626 0.007884162 0.06661117
-0.050941363 -0.03985092 0.0028102656 -0.07190799 -0.00826914 -0.032069575 0.020290056 -0.045648172
-0.022055632 -0.053592306 0.034938034 0.038901947 -0.047445986 -0.018642629 -5.599659e-05 0.03206727
0.03156228 -0.045975618 -0.049258273 -0.043062992 -0.04782798 0.034258418 0.011175306 0.020682476
-0.038771268 0.033825036 0.0052674427 0.07553463 0.009728316 0.054701544 0.00850621 0.047899377
0.048938017 0.078411505 0.06942819 0.013951709 -0.010870692 -0.018645408 -0.0060699354 -0.0117430575
-0.0710157 -0.02018041 0.0019613865 -0.06734374 -0.047476344 -0.016672688 -0.07207342 -0.0026296868
-0.010703904 -0.086779036 -0.037352104 0.017787328 -0.006501562 -0.038243808 0.042767037 0.0072964127
0.037985638 -0.053505085 0.034358613 0.017566083 -0.04345936 -0.03141038 -0.04910423 -0.07071351
0.01409602 -0.11936397 -0.14094771 -0.022013066 -0.006757042 -0.044829216 -0.084660724 -0.008375385
0.025107935 -0.09250322 -0.067258 0.004924362 -0.03643208 0.06547469 -0.040812913 -0.008774315
-0.0020088328 -0.09869661 -0.0014892317 -0.105229534
00000000: eff5 29bd e081 d33d bf00 a2bc 47ee 4bbc
00000010: 2d68 983d 5990 d8bc 865a 723c eee1 bfbd
00000020: 4831 60bd 66e0 5cbc 170b 40bb 2090 783c
00000030: 90c1 21bb d6d9 593d 922c 013c 706b 883d
00000040: e4a7 50bd b83a 23bd 6f2c 383b 7f44 93bd
00000050: 497b 07bc 635b 03bd 5537 a63c 94f9 3abd
00000060: 03ae b4bc 9b83 5bbd 2f1b 0f3d a657 1f3d
00000070: b956 42bd 6db8 98bc e1dd 6ab8 f858 033d
00000080: 7347 013d ee50 3cbd 0bc3 49bd d262 30bd
00000090: 46e7 43bd 8e52 0c3d a118 373c 4c6e a93c
000000a0: 9fce 1ebd 1f8c 0a3d 839a ac3b e6b1 9a3d
000000b0: 8463 1f3c ba0e 603d a15d 0b3c 2332 443d
000000c0: 3b73 483d 3696 a03d 5e30 8e3d b595 643c
000000d0: fd1a 32bc 41be 98bc 4fe6 c6bb f465 40bc
000000e0: ae70 91bd 6351 a5bc 9b8a 003b 84eb 89bd
000000f0: 8e76 42bd 2995 88bc 3b9b 93bd d356 2cbb
00000100: 6d5f 2fbc 35b9 b1bd 85fe 18bd bbb6 913c
00000110: 0e0b d5bb 8aa5 1cbd 7d2c 2f3d bf16 ef3b
00000120: d496 1b3d 2628 5bbd 9ebb 0c3d bfe6 8f3c
00000130: 7102 32bd 2ca8 00bd 8421 49bd 3fd2 90bd
00000140: fef2 663c 1975 f4bd 9954 10be bf54 b4bc
00000150: 2d6a ddbb d79e 37bd 9a62 adbd e938 09bc
00000160: 28af cd3c 5472 bdbd 90be 89bd 8b5c a13b
00000170: ce39 15bd 9817 863d 712b 27bd 25c2 0fbc
00000180: 9fa6 03bb 7321 cabd 5332 c3ba 9582 d7bd
