Phase1/ch3_figures_output_tuned_corrected/model_50L_none.pth (torch, 422127 bytes, 8 tensors)

backbone.0.weight f4 [256, 50]
000000 de 77 95 3d 3a 86 5a 3d ab 95 e5 bd 70 d8 b6 3d
       0.072982535 0.053350665 -0.112101875 0.08928001
000010 f6 14 72 bc dd 54 06 be be e3 0b bd 1f 4f a7 3c
       -0.014775505 -0.1311831 -0.03415274 0.02042347
000020 ad c8 fb bc 41 9e e9 3d 8e 02 ad bd ac 37 5b bc
       -0.030735338 0.11407138 -0.08447753 -0.013379972
000030 06 b6 32 3d 22 74 4e 3d 1b a8 80 bd 2a 34 70 3d
       0.043630622 0.05040372 -0.062820636 0.058643498
000040 63 16 1b 3d 47 93 c7 3d 4c cc e9 bd 43 56 bd 3d
       0.037863147 0.09744888 -0.1141592 0.09244969
000050 eb 77 b8 bc 14 22 0c be c0 9e 91 3d 36 ba 03 3e
       -0.022518119 -0.13684875 0.07110357 0.12864003
000060 cf 42 89 3d a9 33 47 bd 36 00 0f be d6 71 0e be
       0.06702196 -0.04863325 -0.13964924 -0.13910612
000070 5a 9b ce 3d da a6 f8 3c ab 65 fe ba ce 90 fa 3c
       0.10088225 0.030352999 -0.0019408962 0.030586626
000080 0f 05 b6 bd 71 57 10 be f0 4c 5d 3d 2c 47 ee 3c
       -0.088876836 -0.14095856 0.05402845 0.029086672
000090 03 9e 78 3d 00 0f 2d bc c1 10 ca 3d 48 3a 7d bd
       0.060697567 -0.010562658 0.09866477 -0.06182316
0000a0 8c 64 87 3d d4 80 96 bd 6e 13 a1 3d a6 ee 7b bd
       0.06610975 -0.07348791 0.07865034 -0.06150689
0000b0 2f ca bc 3c 5a 5a 21 3c 47 10 9d 3d 69 ad 76 bd
       0.023045627 0.009848202 0.0766912 -0.06022397
0000c0 5c 1c 1d bd 19 3c ca ba 49 8f c5 3c 22 de 04 3e
       -0.038357124 -0.0015429287 0.024116175 0.12975362
0000d0 cf 72 a3 bd dc c8 5d 3c 10 5e 0b 3d 9f 24 ca bc
       -0.079808824 0.013536658 0.034025252 -0.024675665
0000e0 18 38 f6 3d 11 6f 0b 3e 42 89 ba bc ab 57 fc 3d
       0.12022418 0.13616587 -0.022770528 0.12321409
0000f0 e2 71 dd bb 02 c5 01 3d df 75 04 3e ee 22 08 be
       -0.0067579607 0.031682022 0.12935589 -0.13294575
000100 9d c9 d8 bd 94 b9 84 bd 0d 71 c9 3c 9b 8d e3 bd
       -0.1058533 -0.06480709 0.02459004 -0.111109935
000110 f2 ca c8 3d db 36 bf 3d cf 66 00 be ce dd ec bc
       0.09804334 0.09336635 -0.12539218 -0.028914358
000120 c7 ec be bb 89 52 91 3d 06 2a 75 bc 81 76 43 3d
       -0.005826566 0.070958205 -0.014963632 0.047720436
000130 0c 02 32 3d 1e 1a 0d be 5a c5 51 3d dc 74 cc 3d
       0.043458983 -0.13779494 0.0512136 0.09983227
000140 0d 71 10 3e e6 fc 0e be d0 5c 12 3c 0d 02 58 3d
       0.14105625 -0.1396366 0.008933261 0.05273633
000150 c1 a3 04 be f4 30 33 3d 58 60 2c 3c 31 cd 3c bd
       -0.12953092 0.043747857 0.010521017 -0.046094123
000160 4e 1a c0 3d c1 08 3e 3d 22 2c a2 3d 98 83 56 bd
       0.09380017 0.046395067 0.07918574 -0.05237159
000170 19 ff 8b 3d 7a c8 41 3d c1 b0 32 3d 2b ef 59 3d
       0.068357654 0.04731033 0.043625597 0.053206604
000180 01 cb 05 be 1b dc 79 3d 9d 11 af bd e8 18 0d 3e
       -0.13065721 0.061000925 -0.08548281 0.13779032
000190 96 ae b6 bd 6a a5 21 bd fe 01 c8 bd 29 8d 12 be
       -0.089200184 -0.03946439 -0.09766005 -0.14311661
0001a0 d1 5f 22 3d 25 11 d2 bc c7 1a 8f 3d 36 57 da bd
       0.03964216 -0.02564294 0.06987529 -0.106611654
0001b0 8a dc 17 bc 3c a6 80 3d b0 d9 3c bd 5c 20 f0 3d
       -0.009268889 0.06281707 -0.04610604 0.11724922
0001c0 5a f9 b8 bc 05 22 4c 3d 64 2f e7 3b 50 10 ef bd
       -0.022579838 0.04983713 0.00705521 -0.11673033
0001d0 5f b7 d3 3d a7 23 e9 3d 70 09 07 3e 94 19 bf 3d
       0.1033771 0.11383753 0.13187194 0.093310505
0001e0 97 d9 a1 3d e6 d4 11 3d d3 f5 b4 bd 16 33 48 bc
       0.0790283 0.035603426 -0.0883595 -0.012219211
0001f0 77 0d a0 3d 76 f8 ec bd 69 b5 a5 3d d8 33 a9 bd
       0.07815068 -0.11570828 0.08091242 -0.082618415
000200 0e 00 20 3d 8c d1 81 bd e7 30 b8 3a 86 0a 00 be
       0.039062552 -0.06338796 0.001405266 -0.12504014
000210 41 e7 e9 3d 3a a5 bd 3d 68 2b f5 3d 86 52 71 bd
       0.11421061 0.0926003 0.1197117 -0.05891659
000220 a8 73 e4 3d 20 e7 dd bd bb b1 59 bd bc bb 46 bd
       0.11154872 -0.10835099 -0.053148013 -0.04851888
000230 54 b3 a0 3d 6f 08 ca bb 1f 2b 3b bc 18 55 04 bd
       0.07846704 -0.006165556 -0.011423855 -0.032307714
000240 34 a3 99 3d cf 29 94 3d ea e3 13 3e 34 e5 22 bd
       0.07501832 0.07234537 0.14442411 -0.039769366
000250 20 d0 df 3c 24 77 c4 bb ec 39 fb bd ad b9 a5 3d
       0.027320921 -0.005995648 -0.12266907 0.080920555
000260 ee e3 89 3c 6c 5a cc bd ca b4 d2 bd b3 61 ad bd
       0.016832318 -0.09978184 -0.10288389 -0.084659
000270 22 fb 48 bb b6 f1 12 be 8b 7f 8a 3d 98 ec b6 3d
       -0.0030667265 -0.14350018 0.06762608 0.089318454
000280 f9 09 fb 3c 6f 4b 17 bd 7f 9b dd 3d e5 ac a5 bd
       0.030644404 -0.036937173 0.10820674 -0.08089618
000290 81 fc ee bd 06 ee ef 3c 90 aa 38 bd ec e2 d5 bd
       -0.11669255 0.029288303 -0.045084536 -0.104436725
0002a0 5d 84 68 3d 68 af ce 3d d7 cc 5e bd d6 c1 e4 bd
       0.056766856 0.1009205 -0.05439457 -0.11169784
0002b0 ab 55 10 3e cb 18 24 3d 54 c9 85 bd 05 69 f6 3d
       0.1409518 0.040062707 -0.06532541 0.1203175
0002c0 3e 46 79 bd 63 3b 04 3d af 24 dc 3c 35 d6 05 3e
       -0.060858004 0.032283198 0.02687296 0.13069995
0002d0 37 fd ca 3d cc c2 f9 3d c5 93 1d bd 6c 12 f6 3d
       0.09911578 0.12195358 -0.038471002 0.120152324
0002e0 4a aa 09 3e bc 38 ab bd 67 91 ec 3d 6f 19 0f be
       0.13443866 -0.083604306 0.11551171 -0.13974546
0002f0 e3 bd bd bd 93 97 e7 3d 47 e0 98 bd 7e 7d 02 be
       -0.09264734 0.11308207 -0.074646525 -0.12743184
000300 85 de 94 bd d0 05 d3 bd db a7 c0 3d 0e 7e b8 3d
       -0.07269005 -0.10303843 0.09407016 0.09008418
000310 2f 6b 08 be 32 96 bb 3d 03 ea bd bc 64 5b 72 3d
       -0.13322137 0.09159507 -0.023182875 0.05916919
000320 da ed bc bd b5 26 34 3c bf 47 80 3d 92 c5 fd 3d
       -0.09225054 0.010995557 0.062636845 0.12391199
000330 20 c3 8d bb 0a 91 e2 3d 71 30 0b 3e 50 f5 b7 bc
       -0.004326239 0.1106282 0.13592698 -0.022455841
000340 ff 0e db 3d 97 7c fb 3c 87 49 ba 3d 30 68 d3 bd
       0.1069622 0.030699058 0.090960555 -0.103226066
000350 77 17 f2 3d 87 25 a3 3d ee 8c b6 3d 49 4a f5 3d
       0.11820882 0.07966142 0.08913599 0.119770594
000360 7b 28 4d 3d 2e b5 cc 3d f2 ac 49 bd 50 c6 52 3d
       0.050087433 0.09995495 -0.0492372 0.051458657
000370 1c 82 89 bc 31 c2 5f bd f3 71 37 bd 18 b6 bb bd
       -0.016785674 -0.054628555 -0.044786405 -0.09165591
000380 ac 96 52 bb 33 3a dc 3d ef 96 6a bc 0a 3d 09 be
       -0.0032133264 0.10753288 -0.014318212 -0.13402191
000390 8f 6b 0c bd 1f 3d b7 3d f5 ec a8 3a 16 2f 4c 3d
       -0.034282263 0.08947205 0.0012888002 0.049849592
0003a0 14 c1 b5 bc 90 53 d9 bd e3 87 06 be 04 2c 84 bd
       -0.022186793 -0.106116414 -0.13137774 -0.06453708
0003b0 96 61 fc bc 70 7d d3 bc cc fe d9 3d b1 e2 ca 3c
       -0.030808251 -0.02581665 0.10644302 0.024766298
0003c0 0d 7e a0 3d 14 26 18 3d fb e2 e2 bd b8 69 ef 3d
       0.07836542 0.03714569 -0.11078449 0.11690086
0003d0 a0 18 e5 bd bd 99 03 be cd 5e ff bd bc b9 08 bd
       -0.111863375 -0.12851615 -0.12469254 -0.033380255
0003e0 a0 08 85 bd a8 54 00 be 25 e6 1d 3d 91 a8 2f 3d
       -0.06495786 -0.12532294 0.03854956 0.042885367
0003f0 ec 7f 82 3d 08 7a e5 bd f3 cf 08 3e 3b fe ac bd
       0.063720554 -0.11204916 0.13360576 -0.08446928

backbone.0.bias f4 [256]
000000 f9 d6 60 bd ab 95 a4 3d 24 d3 04 be 51 9e ec 3d
       -0.054892514 0.080363594 -0.12971169 0.11553634
000010 f0 04 0c be 35 0f 34 3d 7a ae 65 3a 32 c9 6d bd
       -0.13673759 0.043959815 0.0008761656 -0.058053203
000020 45 85 ad 3d 76 20 f0 3d 78 d5 4d bd 39 c5 10 be
       0.08472685 0.117249414 -0.050252408 -0.14137734
000030 f2 d0 b3 3d ca 1c 76 bd 4c 52 05 bd ec 54 0d bd
       0.087800875 -0.06008605 -0.032549188 -0.034504816
000040 f8 3d 41 3d e3 3a ca bd 0e ca a4 bd 04 13 89 bd
       0.04717824 -0.09874513 -0.080463514 -0.0669308
000050 79 71 b8 bd 79 44 8f bd 5f 7e eb bd 2e 86 05 3d
       -0.09006018 -0.06995482 -0.11498713 0.032598667
000060 8a 42 99 bd 40 2d e9 3d 98 34 c0 bd 04 4b d4 3d
       -0.074833944 0.11385584 -0.093850315 0.103658706
000070 67 4b 04 be 0b fb fb 3d 94 1b 0d bd 18 02 92 bd
       -0.12919389 0.12303742 -0.03445013 -0.071293056
000080 81 5d c0 3d 34 f9 37 bc 19 25 a2 bd 2b a6 7b bd
       0.093928345 -0.011228848 -0.07917232 -0.061437767
000090 40 9b e8 3d f3 1a da 3d 3f ba be 3d bb 9f b1 bd
       0.113577366 0.106496714 0.093128674 -0.08673044
0000a0 ca e2 58 bd 4a 81 e9 3d 88 cd 15 bd ea dd 74 bc
       -0.052950658 0.11401613 -0.036572963 -0.014945487
0000b0 dd 7f 62 bd 20 3d df 3d da cd e9 3d 81 e9 4f bc
       -0.05529772 0.109003305 0.11416216 -0.012689949
0000c0 ce 87 44 bd cc 83 04 3e 31 bc 53 3c d0 e4 c2 3d
       -0.047981076 0.12940902 0.012923286 0.09516299
0000d0 65 40 46 3d 36 2e 04 be 46 20 09 3e b3 e1 99 3c
       0.048401255 -0.12908253 0.13391218 0.01878438
0000e0 d2 7e d6 3d ee a0 aa bd 2c ea c8 3c dc ae 3a 3b
       0.10473408 -0.08331476 0.024525724 0.0028485572
0000f0 5b 86 df bd c4 0a 44 3d 45 e7 08 3d 28 d0 a1 3d
       -0.10914298 0.04786183 0.03342368 0.07901031
000100 e9 10 0e be 9d 9e ae 3d f4 7b c6 3c 6b 7c 49 3d
       -0.13873638 0.08526347 0.024229027 0.04919092
000110 43 03 9d 3c 58 74 f0 bd 85 44 e9 bd a7 39 f2 bd
       0.019166594 -0.11740941 -0.11390022 -0.118274026
000120 22 03 c8 3d 9a fa 04 3e bb 85 b7 bb 68 37 d2 bd
       0.097662225 0.12986222 -0.0056006587 -0.10264474
000130 be 7d 00 3d 2a 2d 1c bd af 0e ea bd e9 ae 82 bd
       0.031369917 -0.03812901 -0.11428582 -0.06381018
000140 2e 47 f3 3d a8 9c ff 3d 08 90 d2 bd 48 73 6a bd
       0.11878811 0.12481052 -0.10281378 -0.057238847
000150 83 10 a9 3d b9 b6 fd bd 26 24 ae 3c 1c ca a1 bd
       0.082551025 -0.12388367 0.021257471 -0.078998774
000160 d3 a9 fd 3d 5d b7 22 be 36 e0 06 3e 63 eb 93 3d
       0.12385907 -0.1589026 0.13171467 0.07222631
000170 38 d2 8e bd d2 ed 37 3d fc 3d 84 3d f5 a9 03 be
       -0.0697369 0.044904537 0.06457135 -0.12857802
000180 e9 75 2f be a6 59 d2 bd 50 22 f8 bd 99 3b 1b 3d
       -0.17134823 -0.10271005 -0.121159196 0.037898634
000190 a2 fb c2 bd be e1 65 3d ff c8 3f ba 37 b0 92 3d
       -0.095206514 0.056123488 -0.00073160225 0.071625166
0001a0 8e 18 af bd 2f 5a e2 bd d7 69 cb 3d c7 73 c6 bd
       -0.08549605 -0.110523574 0.09932297 -0.096900515
0001b0 a2 11 17 bd 7b d6 f6 bd e7 09 ac bd 52 20 bd 3d
       -0.03688205 -0.12052628 -0.08400326 0.0923468
0001c0 d7 10 d7 3d b1 0c ee 3d de 56 f2 bd 82 11 74 3d
       0.10501259 0.116235144 -0.11832975 0.05958701
0001d0 40 9b e7 3d 6b cf 07 be 01 07 ea 3d 0b 92 a4 bc
       0.113089085 -0.13262717 0.11427117 -0.02008917
0001e0 92 94 bc bd a5 d6 ac 3b 58 e6 04 3e 80 10 06 be
       -0.09208025 0.005274611 0.12978494 -0.13092232
0001f0 60 f9 28 3d dc 2b 16 be a1 fe 8d bc f7 dd ff 3b
       0.041253448 -0.14665169 -0.01733333 0.0078084427
000200 f7 8a ec bd 08 83 b8 3d 0c 39 b0 bd ec 3d 90 3d
       -0.11549943 0.09009367 -0.08604631 0.07043061
000210 ba 0f 0d bd 87 81 b6 bd f0 30 9b 3d 3d 51 24 be
       -0.034438826 -0.08911424 0.075776935 -0.16046615
000220 77 85 d0 3d 12 07 8d bd 76 ec bf bd 4c d3 68 bc
       0.101817064 -0.06886114 -0.09371273 -0.014210533
000230 08 a4 a6 3d 9c b1 a9 bd e3 10 9e 3d 23 cd 5b 3d
       0.08136755 -0.082858294 0.07718065 0.05366243
000240 96 99 be 3d e5 5f e1 bd b8 59 06 3e 89 11 72 3d
       0.09306638 -0.110046186 0.13120162 0.059098754
000250 07 ff ef 3d 35 07 fc bd f8 9b d9 bc d6 31 89 3d
       0.117185645 -0.12306062 -0.02656363 0.066989586
000260 5d 06 82 3d d9 a1 01 3d a1 16 b5 bd 43 a9 1f bd
       0.0634887 0.03164849 -0.08842207 -0.03897978
000270 ad 0d 28 3d 98 cb ae bd 1a 91 37 3d 26 c8 10 bd
       0.041028667 -0.08534926 0.044816114 -0.035347126
000280 f0 50 eb bd a0 a2 71 bc ef 36 25 be dd 64 95 ba
       -0.11490047 -0.0147482455 -0.16134237 -0.0011397857
000290 a0 0d 98 bd f7 aa 5c 3d 7d 03 9a 3d 80 33 d0 bd
       -0.07424474 0.053873982 0.075201966 -0.10166073
0002a0 d3 52 f4 bd c1 45 67 bd 8c d3 1f be d7 d8 5e bd
       -0.1192986 -0.056463007 -0.15608042 -0.054406013
0002b0 45 bf e9 3d 1c 04 c5 3d 28 8c 89 bd 49 34 a0 bd
       0.11413435 0.096199244 -0.06716186 -0.078224726
0002c0 4f 61 b7 3d cf 35 a1 3c 09 3c a1 3d 12 45 94 3d
       0.08954107 0.019678978 0.07872779 0.072397366
0002d0 45 ae 07 3d d1 03 e5 bd f1 d4 e6 3d 87 49 9c bd
       0.03312518 -0.111823685 0.11271084 -0.07631212
0002e0 e6 e5 44 bd 2f 64 e7 bd de 77 ef bc af 8c 74 bd
       -0.04807081 -0.112984054 -0.029231962 -0.05970448
0002f0 ff 55 15 3d 7e 02 0d 3d 73 27 c6 bc 87 9f 57 3d
       0.036458965 0.034426205 -0.024188733 0.05264237
000300 97 b9 6e bd 53 96 c0 bd 5d 9a 82 3d 42 bc be bd
       -0.05828246 -0.09403672 0.06377099 -0.09313251
000310 06 91 5c 3d c3 0f e1 bd b2 4e e2 bc 37 9c b1 bb
       0.053849243 -0.109893344 -0.027625415 -0.0054202336
000320 aa 46 c0 bd b4 57 da bd f1 6a 47 be 59 29 70 3d
       -0.09388478 -0.10661259 -0.19474389 0.058633182
000330 0f 57 f2 3d 54 87 07 be e8 2e d8 bd 2d 20 35 3c
       0.11833011 -0.13235217 -0.10555822 0.011055035
000340 50 a9 d3 3d 94 05 38 bc 7a 79 0e be 76 c8 b2 3d
       0.10335028 -0.011231799 -0.13913527 0.08729641
000350 40 13 c4 3d 48 ec 0c bc 22 fc 49 3d b5 b3 7f 3d
       0.09573984 -0.008601256 0.04931272 0.06242724
000360 f7 8b e9 3d 7c 56 6b 3d f8 f4 b6 3d 3c 41 9d 3d
       0.11403649 0.057455525 0.08933443 0.07678458
000370 60 76 df bd d1 35 ed bd fb f2 aa bc fa 06 0f 3e
       -0.1091125 -0.1158253 -0.020867815 0.13967505
000380 df 8e dc 3d 63 de b8 bd d1 e9 ea bd 7b d8 eb 3d
       0.10769438 -0.09026792 -0.11470378 0.115159
000390 d0 fc c4 bd ad aa ca bd 3e b1 0e 3d 91 6c 25 bd
       -0.09618533 -0.09895835 0.034837 -0.04038674
0003a0 9d f5 ff bc 96 69 f0 bb 93 78 f6 3d eb 94 2d bd
       -0.031245047 -0.0073368056 0.120347165 -0.042378347
0003b0 73 f2 db 3d 0b 90 a5 bd a6 93 5a bd 06 bb 0f be
       0.10739603 -0.08084115 -0.053363465 -0.14036188
0003c0 5e 15 fd bc 94 95 e5 3d 2e 96 a0 bb e7 45 ca bd
       -0.030893978 0.112101704 -0.0049007153 -0.09876614
0003d0 34 ee e0 ba 93 11 bf bd e1 22 d2 bc 5f 70 0a be
       -0.0017160834 -0.09329524 -0.025651397 -0.13519429
0003e0 82 92 f5 bd dd 2e 0f 3e 36 d9 31 bd 3d e2 09 3e
       -0.11990835 0.1398272 -0.04342004 0.1346521
0003f0 d6 02 a0 bc 4c 35 ef bd 46 75 5a bd e4 2f 28 bd
       -0.019532602 -0.116800874 -0.053334497 -0.041061297

backbone.2.weight f4 [256, 256]
000000 66 e4 35 bd 60 f0 19 bb 00 1f 3a bc 26 4d 3c bd
       -0.04440727 -0.0023489222 -0.01135993 -0.045972012
000010 b4 73 45 3d b8 3f 7c bc b8 b9 60 bc 44 2f f1 3c
       0.048206046 -0.015396051 -0.013716154 0.029441483
000020 00 24 6e bb b4 91 61 bd f0 72 6e bc 02 48 1c 3d
       -0.0036337376 -0.055070594 -0.01455377 0.03815461
000030 a0 7b 1e 3b de 6b 00 bd ca e3 42 3d b8 44 ee 3c
       0.0024182573 -0.03135287 0.047580518 0.029085502
000040 e0 68 82 3c c0 9c 3b bc 00 d1 71 bd 38 d9 24 3c
       0.015919149 -0.011450946 -0.05903721 0.010061555
000050 c0 b3 37 bc 30 c4 a3 bb 40 12 36 bb fa f9 38 3d
       -0.011212289 -0.0049977526 -0.0027781874 0.04516027
000060 fe 02 3b bd cc a6 3a 3d f8 9f 60 3c aa 15 70 bd
       -0.04565715 0.045569226 0.0137100145 -0.05861441
000070 80 af 56 bd 36 67 0b bd 98 8c 3d 3c 7e 8d 75 bd
       -0.052413464 -0.034033976 0.011569165 -0.05994939
000080 98 18 c0 bc da 68 5e 3d c0 d4 c3 3a b0 a1 6a bd
       -0.023449227 0.054299213 0.0014940724 -0.057283103
000090 e8 9b 9a bc e0 d5 87 3c ec bd 22 bd 60 17 3f 3b
       -0.01887317 0.016581476 -0.039731905 0.002915822
0000a0 ec 64 c4 bc e0 4c 24 3b 26 b9 4f 3d a8 31 6c bc
       -0.023973905 0.0025070235 0.05071368 -0.014416136
0000b0 de 61 64 3d 80 6c c5 3c 7e 60 37 bd 74 fb b9 bc
       0.055757396 0.024099588 -0.044769756 -0.02270291
0000c0 92 94 47 bd b0 c4 82 bb c0 8d b0 ba 6a 75 71 3d
       -0.048725672 -0.003990732 -0.0013469979 0.058949865
0000d0 70 46 76 bc dc 76 d8 bc 16 5a 6a bd 3e 00 09 3d
       -0.015031442 -0.026423864 -0.05721482 0.033447497
0000e0 ac a8 19 bd a0 91 3b bd 50 d9 61 bc b4 93 22 3d
       -0.037514374 -0.045793176 -0.0137847215 0.039691642
0000f0 e6 7c 16 3d 90 a3 57 3d 08 b9 ab bc 48 b3 39 bd
       0.036740206 0.05264622 -0.020962253 -0.04533699
000100 c0 93 a6 3b 80 96 1a bd 28 9d a8 bc c8 03 6f bd
       0.005083531 -0.037741184 -0.02058275 -0.058353215
000110 a8 fa e4 3c d8 fc 8a 3c 10 9f a0 bc f8 43 56 3c
       0.027951553 0.016966268 -0.019607097 0.013077728
000120 70 22 b6 bb 2c 36 6c bd 70 ff 52 bd c0 c9 08 bd
       -0.0055583045 -0.05766885 -0.051513135 -0.03339553
000130 54 1f bb 3c b8 e3 61 bc ce 02 28 bd 44 cf e3 bc
       0.022842087 -0.013787203 -0.0410183 -0.027808793
000140 20 3b f7 3b 38 80 a5 bc 1c 2f 48 3d 60 62 5c bb
       0.00754489 -0.020202741 0.048873052 -0.0033627972
000150 2c 3c 66 bd 04 62 e7 3c 68 13 78 bc 60 53 52 3b
       -0.056209728 0.02824498 -0.015141346 0.0032093152
000160 4a b6 5d 3d 20 c9 67 bd 8c 57 04 3d 0a 07 27 bd
       0.054128923 -0.056588292 0.032310054 -0.040778197
000170 b4 5e 25 3d 08 49 13 3d a4 03 e9 3c 46 53 2b 3d
       0.04037352 0.03595832 0.028444119 0.041827463
000180 06 1d 4e 3d 10 37 3e 3d f8 5b f1 bc e0 e8 84 bb
       0.050320648 0.04643923 -0.0294628 -0.004056081
000190 20 b2 1e bc 68 54 3f 3c 26 52 55 3d 40 7d 8c 3c
       -0.009686023 0.011677839 0.052080296 0.017149568
0001a0 18 cd cf 3c 60 b5 c4 bb d8 89 c8 bc 96 0f 68 3d
       0.025366351 -0.006003067 -0.024479792 0.05665549
0001b0 0e eb 44 bd 60 a8 51 bc a4 ff 9a 3c 0c 55 e4 3c
       -0.048075728 -0.012796491 0.018920727 0.027872585
0001c0 00 14 42 3d c0 52 ef 3c f8 5d 44 3c 74 05 7e bd
       0.047382355 0.029214263 0.0119852945 -0.06201692
0001d0 dc c6 31 3d 6e 84 46 bd 00 41 78 3c f2 6d 6e bd
       0.043402538 -0.04846614 0.015152216 -0.05821032
0001e0 c0 a4 75 3d 10 f0 d0 3c d4 0f 02 3d c0 3d 6d 3c
       0.05997157 0.025505096 0.031753376 0.014480054
0001f0 f0 2a b3 bb 50 ac ae 3c 20 2e 4e bb 04 aa 10 3d
       -0.005467765 0.0213224 -0.0031460598 0.03531839
000200 c0 98 ce bc d4 2f 90 bc 80 b3 49 bb 16 7b 41 bd
       -0.025219321 -0.017600931 -0.0030777156 -0.047236525
000210 d4 e1 98 3c 60 d5 28 3c 5c c8 18 bd bc 15 28 bd
       0.01866237 0.010304779 -0.037300453 -0.041036353
000220 a0 92 7e 3b 68 03 12 3d fc 46 c0 bc 20 fe 60 3d
       0.003884472 0.03564778 -0.023471348 0.054929852
000230 9e 8c 1d 3d 32 36 68 bd 90 1b cd 3c 2c a5 28 3d
       0.03846418 -0.05669231 0.025037557 0.041173145
000240 96 80 11 bd 60 27 35 3b be bf 79 bd 3c 79 3b bd
       -0.03552302 0.0027641878 -0.060973875 -0.045769915
000250 20 cc 1e bd a0 c5 4a bd d4 a7 9b 3c 6a d1 00 3d
       -0.038768888 -0.049504876 0.019000925 0.031449713
000260 5e 66 78 bd 70 40 53 bc fa 51 5c 3d 90 47 db bb
       -0.0606445 -0.012893781 0.053789116 -0.0066918805
000270 a0 f2 c3 3b 00 51 f4 39 6a 8d 65 bd 14 16 27 bd
       0.005979851 0.00046599656 -0.056043066 -0.04079254
000280 f2 51 6f 3d 80 38 2b 3b 58 48 fc 3c 2c b5 bb bc
       0.05842776 0.0026126206 0.030796215 -0.022913538
000290 d0 17 dd 3c c0 a0 b7 bc 88 58 6e bc 9c e3 26 bd
       0.026988894 -0.022415519 -0.014547475 -0.04074441
0002a0 34 53 1c 3d a2 ae 38 bd 80 8a bb bb 40 f9 54 3c
       0.038165286 -0.045088418 -0.0057232976 0.012998879
0002b0 9c d7 97 bc c0 cf 6d 3d dc 4c 54 bd e8 75 2b 3c
       -0.018535428 0.058059454 -0.05183111 0.010465123
0002c0 a6 15 6b 3d 94 b2 f8 bc 6c 07 7c bd 84 25 4a 3d
       0.057393692 -0.03035859 -0.061530516 0.049352184
0002d0 cc f7 9c 3c 08 8d 7a bc 96 e0 7a 3d 00 10 e8 39
       0.019161128 -0.0152924135 0.061249338 0.0004426241
0002e0 b8 a1 38 bd 94 ec 06 bd 24 2e aa 3c 08 17 78 bc
       -0.045076102 -0.032940462 0.020773955 -0.01514221
0002f0 30 86 3a bd a0 cf b7 3b 8c 31 83 bc 24 7e 01 3d
       -0.045538127 0.0056094676 -0.016014837 0.031614438
000300 3e 6c 10 bd cc 74 ed 3c f6 e6 79 3d d6 27 50 bd
       -0.035259478 0.028986357 0.061011277 -0.05081924
000310 b8 82 e9 bc 7c 9e d0 bc 34 c3 7e bd ac 88 18 bd
       -0.028504714 -0.025466196 -0.06219788 -0.037239715
000320 e8 b9 19 bd 94 63 11 bd 02 ba 5d bd ee e5 4d 3d
       -0.03753081 -0.035495356 -0.05413247 0.050268106
000330 fc 7e bc bc 40 02 6d bb d0 f1 2a bc c0 ac 33 bb
       -0.02300977 -0.0036164671 -0.010433629 -0.00274162
000340 52 17 0a bd 00 76 71 39 d2 98 29 bd 10 b9 37 3c
       -0.033713646 0.0002302751 -0.041405506 0.011213556
000350 50 4b 54 bc 72 d8 30 3d f4 76 68 bd f0 0c 14 bc
       -0.012957409 0.04317517 -0.056754068 -0.009036288
000360 e2 d5 4f bd 8a a1 36 3d a2 c7 75 bd ac c7 56 bd
       -0.050741084 0.04458765 -0.060004838 -0.052436516
000370 22 ee 3b bd d6 40 14 bd 44 be 07 3d 3e 1d 24 3d
       -0.045881398 -0.036194645 0.033140436 0.04006695
000380 b8 f0 86 3c d0 8d b2 3c 80 4d 36 3d a8 dc 97 bc
       0.016472206 0.021796137 0.044507504 -0.018537834
000390 10 48 09 3c 80 d0 1e bb 64 f2 79 3d 00 95 6e 3a
       0.008378997 -0.0024233162 0.061022177 0.0009101182
0003a0 9c c9 84 3c 2c 4b 1c bd 5c 8d a7 3c 18 16 81 3c
       0.016209416 -0.038157627 0.020453148 0.015757605
0003b0 a0 b7 22 3b b8 07 96 3c 70 11 c1 3c 28 5e 3a 3d
       0.0024828687 0.018314227 0.023567885 0.04549995
0003c0 ae 6e 5c bd ca 9e 1c 3d 94 31 a4 bc d6 b7 59 3d
       -0.05381649 0.03823737 -0.020043172 0.053153835
0003d0 44 ca 4d 3d c2 b9 18 3d b0 4d d1 bb 00 73 d3 b9
       0.050241724 0.037286527 -0.006387435 -0.00040330738
0003e0 1c 3d 89 bc 34 65 43 3d 2e 93 11 bd ec d5 df 3c
       -0.016752772 0.047703937 -0.035540752 0.027323686
0003f0 80 a3 72 3a e0 aa 5d bb 64 d4 ba bc 44 da 07 bd
       0.0009255931 -0.0033823773 -0.022806354 -0.03316714

backbone.2.bias f4 [256]
000000 08 77 57 3c 43 7c a6 3c 0a 26 e5 3a 90 69 44 bd
       0.013150938 0.020322924 0.001748265 -0.047952235
000010 49 b2 1b 3d cf e1 cd bc 4f 5d 29 bd 13 b8 c7 3a
       0.038011823 -0.025132088 -0.04134875 0.0015237354
000020 20 88 66 bd 20 26 7d bb 2a fc 90 bc 50 0a 5b 3c
       -0.056282163 -0.003862746 -0.017698366 0.013369158
000030 3c 73 2d 3d 7c 96 7a bc 34 b4 73 3d 0d d8 81 bd
       0.042346224 -0.015294667 0.059498027 -0.063400365
000040 96 d3 29 ba 4c 73 aa bd bd 67 03 bd b0 15 df 3c
       -0.0006478367 -0.083227724 -0.032081354 0.027232021
000050 9c 69 3e bd 26 97 a8 3c 34 63 12 3c 75 bd 93 3c
       -0.046487436 0.020579886 0.008934785 0.018034676
000060 80 c6 89 3b 4a cf f1 bc 1c fa 1b 3e cf 90 bf 3c
       0.0042045712 -0.029517788 0.15232128 0.02338448
000070 6d 07 b2 3c 24 27 dc 3c b8 07 81 bd bc b2 c8 bc
       0.021732057 0.026874132 -0.063003 -0.02449929
000080 ce d8 ee 3b 2d 1c 4b bd d0 93 62 bc aa 29 cd bc
       0.0072890287 -0.049587417 -0.013829187 -0.025044281
000090 b0 81 69 bd 7b 78 21 3d 5e 05 3c bc c5 b2 1a bc
       -0.057008445 0.03942154 -0.011475889 -0.009442036
0000a0 72 7e 82 3c dc ff 99 3c 14 86 f2 3c da 1e 02 3d
       0.015929434 0.018798761 0.029604949 0.031767704
0000b0 8c 66 a9 bd 43 42 16 bc 88 32 77 bd 69 ee f3 bc
       -0.082715124 -0.009171071 -0.060350925 -0.029776769
0000c0 f1 97 77 3d ae 8c 28 ba 5e 69 66 bd 58 61 0c 3d
       0.060447637 -0.00064296543 -0.05625283 0.03427252
0000d0 9d c4 64 bd 68 b7 06 3d 20 9a 94 3d f3 75 4f bd
       -0.055851568 0.032889754 0.072559595 -0.050649595
0000e0 03 20 b9 bd 1a b3 62 bd ab 53 12 3d 18 fb a4 bc
       -0.09039309 -0.055346586 0.035724323 -0.020139262
0000f0 52 67 b5 3c 1a 86 44 bd 06 cf 90 bd 3d 32 a6 3c
       0.022143994 -0.04797945 -0.070707366 0.020287627
000100 3d 5e 72 3b 8e a6 28 3d ba 18 03 3d f2 67 d5 bc
       0.003698244 0.041174464 0.032006003 -0.026050542
000110 1a ff 0c 3d e7 74 d7 bc e4 2b e6 3c 7c e7 82 bd
       0.03442297 -0.02630086 0.0280971 -0.063918084
000120 f2 cf 25 bc 63 1c d9 bc e5 88 0d 3d 14 65 32 bc
       -0.010120379 -0.026502794 0.03455438 -0.010888357
000130 59 09 2b 3d c4 50 02 bd e7 ef a5 bd 96 ae e5 3c
       0.04175696 -0.031815305 -0.08102398 0.02803735
000140 ed c4 9d 3d 43 0f d4 bc ba 01 16 bd 8a f2 6f bc
       0.07703576 -0.025886184 -0.03662274 -0.014645228
000150 44 4d da bc 8f 22 85 bd 80 3d 36 bb 07 2e 3f 3d
       -0.026648171 -0.06500732 -0.0027807653 0.046674754
000160 6f 18 3f bd bc 57 35 bd 82 e2 0f 3d 75 d1 9b 3d
       -0.04665416 -0.044273123 0.035128124 0.0760831
000170 eb 93 59 3d 70 a5 65 bd 7c 4b 35 3d 9d 6b 07 bd
       0.05311958 -0.056065977 0.04426144 -0.033061612
000180 95 30 4b 3c ea 6c e6 3d 18 1b d8 b8 cf 30 b5 bc
       0.01240172 0.112512425 -0.00010304729 -0.022118
000190 d6 5d 08 3d 90 02 6e bc 80 44 37 bc 54 e3 22 bd
       0.033292614 -0.014526978 -0.011185765 -0.03976758
0001a0 1b f4 c9 bb c0 b7 cd 3c d8 d2 2f bd 6a 67 32 bd
       -0.006163133 0.025112033 -0.042925686 -0.043555655
0001b0 46 5d 0f bd ca b6 a8 bc da d2 7f 3d 8e 81 61 bd
       -0.03500106 -0.020594973 0.062456943 -0.055055194
0001c0 c0 02 54 bd a0 b9 51 bd 48 00 b1 3c 5b 15 a3 3b
       -0.051760435 -0.051202416 0.02160658 0.004976911
0001d0 92 8d 89 bc c6 7a 43 bd e4 32 01 bd d1 5b a5 3d
       -0.016791139 -0.047724508 -0.031542674 0.08074153
0001e0 25 e7 f6 bc f0 01 ed bc 27 3e d1 3b 34 6f 81 3d
       -0.030139515 -0.028931588 0.006385583 0.063200384
0001f0 5f 67 ae 3c 40 9e e0 3b 0c a6 8d 3c b7 7f 54 3d
       0.021289526 0.0068548024 0.017291091 0.05187961
000200 b6 62 a4 3b 8a 9f c3 3c 58 8f 74 3d 13 8c a6 bc
       0.00501665 0.023879785 0.059707016 -0.020330464
000210 f9 84 b3 bc b0 0f 46 3d 46 c2 ae bd 61 96 a1 3d
       -0.021913992 0.048354805 -0.085331485 0.078900106
000220 91 e7 a7 bc b7 8e b1 bd bc 1b 60 3d 96 2d f0 bc
       -0.020496162 -0.08669799 0.05471395 -0.029318612
000230 6e 2c 39 bc 4b d6 c5 3d 5f 9d cc bb 90 ef a4 bb
       -0.011302097 0.09660014 -0.006244346 -0.005033441
000240 0d 87 84 bc 9b f9 c1 3c 06 26 49 bd 04 76 bb bc
       -0.016177678 0.023678591 -0.049108528 -0.022883423
000250 15 6d 09 3d 63 a2 83 bd 90 f1 63 bc 04 fd 22 bd
       0.033551294 -0.06427457 -0.013912573 -0.039792076
000260 0c 9e 26 bd 00 2e 8e 39 98 39 d8 bc 08 94 46 3d
       -0.04067807 0.00027118623 -0.02639465 0.048481017
000270 bc 8f 1f bd 2e 79 31 3d 1b 60 84 bd de 1d 0a 3d
       -0.038955435 0.043328457 -0.06463643 0.03371989
000280 cd 22 be bc a8 c6 38 bd fa da 13 3d 96 17 5c bb
       -0.023209954 -0.04511133 0.036097504 -0.0033583394
000290 67 1f 11 3c d1 42 4e bd 14 9d 23 3d 65 60 c4 3c
       0.008857585 -0.05035669 0.039944723 0.023971746
0002a0 5a 8e aa 3c 12 bc fe bc 39 8b 8f 3c 03 09 c9 bc
       0.020819832 -0.031095538 0.017522441 -0.02454043
0002b0 61 ab 2d bd d4 a4 1f bd de d0 21 bd 9c e4 7a bd
       -0.042399768 -0.03897555 -0.039505832 -0.061253175
0002c0 16 f2 50 bd ff 1b bc 3c ea d4 ff bc 1a f5 9f bd
       -0.05101212 0.022962568 -0.031229455 -0.07810421
0002d0 1c e3 b6 bc f4 06 36 3c c0 13 6d bb 6c ce 1f bd
       -0.022325091 0.011110056 -0.0036175102 -0.03901522
0002e0 d0 2b 27 bc e8 04 d3 3c 98 4e 2e bd 49 c0 c0 3c
       -0.010203317 0.025759175 -0.04255542 0.023529189
0002f0 83 44 9e 3c e1 2e 76 3c ea 05 5e bc bc db 9b bd
       0.019319778 0.015025825 -0.013551215 -0.076102704
000300 0f 63 80 bd 13 df 08 3d 84 f6 a6 3c f3 92 17 3b
       -0.06268894 0.033415865 0.02038122 0.002312836
000310 8d ef 49 bc 0f 75 ab 3c 26 89 ee bc e7 8d fe 3c
       -0.01232518 0.020929841 -0.029118132 0.031073524
000320 df 1d 9b 3b 99 98 55 3c a4 85 81 bb 8f 7d 81 bd
       0.0047337855 0.01303687 -0.003952699 -0.063227765
000330 33 91 50 bc ea f0 6d 3d 2c 6c db bc b0 1f 17 3c
       -0.012729931 0.05809108 -0.026784979 0.0092238635
000340 99 0a 3c 3d 81 92 87 3c 15 bc 80 bc c8 77 4d bd
       0.045908544 0.01654935 -0.015714685 -0.05016306
000350 48 5e 18 bd 46 a5 58 bd 68 e9 43 3d a7 98 a3 3c
       -0.03719929 -0.052891992 0.047830015 0.019970251
000360 6e 4b ae bd 46 c3 30 3d d7 c1 a8 bc d0 88 dc 3c
       -0.08510481 0.043154977 -0.020600243 0.026920706
000370 3c db bb 3b c4 86 49 bd e3 1d f5 3c 6a 9d 5e bd
       0.005732922 -0.04920079 0.029921478 -0.05434934
000380 72 c4 47 bd 7e a1 05 3d 3e df 4a 3d 60 43 2f bd
       -0.04877133 0.032624714 0.049529307 -0.042788863
000390 d3 20 42 3d 5b bb 79 bd 8e ee 41 ba 22 b8 ec bc
       0.047394585 -0.06096969 -0.0007397913 -0.028896395
0003a0 95 3b 3c 3d 39 e0 2e 3d c2 b5 77 bd 88 0e 23 bd
       0.04595526 0.042694304 -0.060476072 -0.03980878
0003b0 11 65 7e bd 54 ee 15 bd e5 fe 79 bc 6c d2 a8 bb
       -0.062108103 -0.03660424 -0.0152585255 -0.0051520374
0003c0 bc 5f 46 bd 21 e8 b0 3c fe 19 0b 3d 20 a4 84 3d
       -0.048431143 0.021595063 0.033960335 0.06476617
0003d0 ab 3f 46 bc 18 63 4d bc 57 50 73 3d f2 0c 49 bd
       -0.012100141 -0.012535833 0.05940279 -0.04908461
0003e0 2e 6e 13 3d 50 c2 1d bd ae ed 12 3c b8 f2 b7 3c
       0.035993747 -0.03851539 0.0089678 0.022454605
0003f0 24 19 59 3d 2f ac e5 bc fb 5c 47 3c 56 c1 29 bd
       0.05300249 -0.028036205 0.012168164 -0.041444145

out_n.0.weight f4 [50, 256]
000000 e0 30 65 3b 1e 41 02 bd db 7a 0f 3d a8 cd 58 bc
       0.0034971759 -0.03180038 0.035029273 -0.013232626
000010 ab 33 b2 3c bd e5 2b 3d 5d cf 67 bd 59 da e1 bc
       0.021753153 0.041967142 -0.05659424 -0.027569937
000020 df 94 3a 3c 08 5c c3 bc 19 32 80 3d 4c 51 22 bd
       0.011388033 -0.023847595 0.06259555 -0.039628312
000030 ed bb 80 3c 2d 37 9f 3b 5e a1 65 bd 41 37 d4 3c
       0.01571461 0.0048588724 -0.056062095 0.025905253
000040 c7 d6 4a 3b 99 14 b1 bc 41 08 24 bd b0 1d 94 3c
       0.0030950771 -0.021616267 -0.040046934 0.018080562
000050 70 fe bf 3c d6 e7 8e bd 87 58 39 3d 42 35 af 3c
       0.023436755 -0.06977813 0.045250442 0.0213877
000060 10 a0 38 bc c4 e3 c4 3c ea ee 9b bd 7f 81 85 bd
       -0.011268631 0.024034388 -0.076139286 -0.0651884
000070 bd a8 12 bd 1d e0 19 3d df 53 e9 3b fa d9 d1 3b
       -0.035805453 0.037567247 0.007120594 0.0064041587
000080 67 61 09 bd 67 80 86 3c 32 62 7b bd d3 20 98 bc
       -0.033540156 0.016418649 -0.061372943 -0.01857034
000090 8c 49 30 bd fb 79 92 3c 37 ac b7 3b a5 65 c5 3b
       -0.04303889 0.01788043 0.0056052464 0.00602408
0000a0 72 73 cf bc 13 8d e3 3b 73 20 02 3d 60 ed d4 bc
       -0.025323603 0.0069443076 0.031769227 -0.025992095
0000b0 3f e4 95 bd b3 59 68 bc b7 89 14 bc 0a f9 51 3a
       -0.07318925 -0.014181542 -0.009066037 0.0008009827
0000c0 26 de 6c bc 6c 55 7c 3d 57 8b 6b bb 46 ee 0b 3d
       -0.014457261 0.061604902 -0.0035941207 0.034162782
0000d0 11 e4 6b 3d d2 ab e1 3c 6f bc 01 be 6b 6a 9d 3c
       0.057590548 0.02754775 -0.12669538 0.019215783
0000e0 75 57 db 3c 56 fd 03 bd 92 70 2a 3c d6 b0 43 3d
       0.026775101 -0.03222402 0.010402815 0.047776066
0000f0 21 97 0b bc 62 8c 26 bd 96 18 8d bb b7 b9 79 bd
       -0.008519919 -0.040661223 -0.0043059094 -0.060968127
000100 29 03 22 be a0 90 35 bb bf 74 87 bc 15 6e 7a 3d
       -0.15821518 -0.0027704611 -0.016535161 0.06114014
000110 7a 5b 18 3c 46 d3 3a 3d d2 e2 6a 3d 1c 79 62 3a
       0.009299153 0.045611642 0.05734522 0.00086392625
000120 1d d4 96 bb 92 cf 41 3d 8f 80 c4 bd ae 0c ef bc
       -0.0046029226 0.047317095 -0.09594833 -0.02918085
000130 cd 22 36 3c b5 ad 88 bd be 76 0c 3d c6 17 e0 bb
       0.011116696 -0.06673757 0.03429293 -0.0068387715
000140 f7 ba 1c 3c 45 9c 7a bd fa d4 41 3d 76 b6 d4 3c
       0.00956606 -0.061184186 0.04732225 0.02596591
000150 12 ed 17 3d 93 69 b6 bb ce f5 1a 3d ec 05 fd 3c
       0.037091322 -0.0055667846 0.037832074 0.030886613
000160 98 fb 1a bd af e5 32 3d 48 20 4c bd 50 18 9c bd
       -0.037837595 0.043676075 -0.049835473 -0.07621825
000170 3c 63 fa bc 69 03 7b 3c 9a b4 1f 3d 7a 33 3e 3d
       -0.030564897 0.015320637 0.038990594 0.04643581
000180 ff 78 98 bb 41 7c a8 3d f5 b6 2c 3d 46 c3 e2 bb
       -0.0046530957 0.082268246 0.04216667 -0.006920251
000190 0c cd b2 bd 06 c0 7f bd 82 d9 01 bd 18 28 12 bc
       -0.08730516 -0.062438987 -0.031701572 -0.008920692
0001a0 2f 8f 97 bc ed bf e8 3b 0c f5 05 3d 5e 31 2c 3d
       -0.018500892 0.0071029575 0.032704398 0.042039268
0001b0 74 98 32 3d 70 f5 09 bd b7 45 c1 bd 90 f9 b8 bb
       0.043602422 -0.033681333 -0.09437125 -0.0056449845
0001c0 06 da 6b bd 36 38 4f bd 84 3d b1 3c b8 c3 81 bc
       -0.05758097 -0.050590716 0.021635778 -0.015840396
0001d0 0d de a6 3c 4a 5b 48 bd 3c 90 3c bd c1 9f a0 bd
       0.020369554 -0.048915185 -0.04603599 -0.07842971
0001e0 02 c9 37 bd 83 91 85 bd 70 60 37 3c a7 df 82 bd
       -0.04486943 -0.06521895 0.011192426 -0.063903145
0001f0 ef b4 f1 bc fc 56 53 bd 8b e2 f4 bc f6 d6 ed 3c
       -0.029505221 -0.051596627 -0.02989318 0.029033165
000200 87 80 53 bc 53 93 91 3c 72 28 66 bd 8e d9 08 bd
       -0.012909061 0.017770445 -0.056190915 -0.0334106
000210 21 23 84 3d 0f 91 84 3d fb bc 10 3c d4 29 09 3d
       0.06452013 0.0647298 0.008834119 0.033487156
000220 e6 2c 3e 3b 6f ca c3 bb 80 04 59 ba 05 d5 05 bb
       0.002901846 -0.0059750597 -0.00082785636 -0.002042116
000230 b6 3e 7f bd 95 03 11 3c 4c c1 88 3c 7c 0e 0c bd
       -0.062315665 0.008850952 0.016693734 -0.0341935
000240 ea b5 9e bd 9c 59 8e bd 48 11 34 3c 8d 9c 0f bd
       -0.07749541 -0.069506854 0.010990448 -0.035061408
000250 7c b5 05 3d 32 7e eb 3c 50 89 59 bd f8 67 f8 3c
       0.03264378 0.028746698 -0.053109467 0.030323014
000260 4c 68 af bc c6 8f 45 bd b0 d1 d7 3c e2 d0 44 bd
       -0.021412037 -0.048232816 0.026345104 -0.04805077
000270 0c ed b2 bc db 4b 1c bd 96 86 20 bd 3d 5d 69 3d
       -0.021841548 -0.03815828 -0.03919085 0.056973685
000280 d5 d1 a3 bc de c1 65 3d a0 2c d5 3c d9 9f 9e bd
       -0.019997517 0.05609309 0.026022255 -0.07745332
000290 25 d5 e9 3c b6 19 a3 3c 0f c3 8e bb ed 82 f8 bc
       0.028544018 0.01990972 -0.004356749 -0.030335868
0002a0 fb 77 98 ba fa a8 a1 3c df e1 aa bd 26 bb a4 bd
       -0.0011632437 0.019733895 -0.08343863 -0.08043508
0002b0 56 29 b2 3b 45 c2 7c bd 51 bb 11 bd fc 18 d4 3b
       0.0054370565 -0.061708707 -0.03557903 0.006472705
0002c0 28 48 18 bc a3 ed 2c 3d 13 ca 24 bd be 9e e0 3c
       -0.009294547 0.042218816 -0.040231775 0.027419444
0002d0 d8 3c b1 3c 17 3e 28 3d c0 49 51 3b 16 b1 41 3d
       0.021635458 0.04107484 0.0031934828 0.047288023
0002e0 c9 da 17 be 40 66 60 bb 79 8c 69 3d 03 1e 6e bd
       -0.14829554 -0.0034240633 0.05701873 -0.05813409
0002f0 f1 24 5a 3b 8e 14 55 bc de e1 36 bd 8e 55 26 3c
       0.003328618 -0.013005389 -0.044648997 0.010152234
000300 c0 c3 a7 3c cc 9e 2c bd 52 3a 24 bd e7 69 06 bd
       0.020479083 -0.042143628 -0.04009468 -0.03281584
000310 27 b0 3a bd f0 42 0b bc d9 da 15 bd bd 73 b8 bc
       -0.04557815 -0.008499846 -0.036585663 -0.022516126
000320 2f 13 cd bd 3f c3 80 3d bf c8 04 bc 60 f1 e0 3c
       -0.100134246 0.0628724 -0.008104502 0.027458847
000330 3e 1d be 3b 97 d0 88 3c 2e 82 d7 3b 7e 3b df bc
       0.005801826 0.016701026 0.006576798 -0.027250048
000340 52 3f 55 3b d3 23 90 3d 45 3a 20 bb 4c 56 c4 bc
       0.0032538963 0.07038083 -0.0024448794 -0.02396693
000350 71 d5 23 3d 38 da 48 bc 0b 34 96 bd 8a 4a 2d 3d
       0.039998475 -0.012259059 -0.07334145 0.042307414
000360 f6 7a c5 3c 98 d2 c6 3c 5b a3 d7 3c 74 7c c9 3c
       0.024106484 0.02427034 0.026323011 0.024595477
000370 38 52 93 bd 78 de 09 3d 82 00 01 bb 2c 04 1f bd
       -0.07193416 0.03365943 -0.001968414 -0.038822338
000380 35 37 4f 3d b2 80 29 3d ac a0 ae bc 8d 92 98 3c
       0.05058976 0.0413825 -0.021316849 0.018624568
000390 45 db 61 bd f3 ff b1 3d 79 55 db bc 64 d4 2b bd
       -0.055140752 0.086913966 -0.026774155 -0.0419506
0003a0 ef 1a b3 3b 7a ab 0b 3c 98 a2 11 3d 00 3e 92 ba
       0.005465857 0.00852477 0.035555452 -0.0011157393
0003b0 d8 83 1f bd 46 a8 7e bd 0e b0 20 bd 94 0b 20 3d
       -0.038944095 -0.062172197 -0.0392304 0.03907354
0003c0 d2 0b 90 bb 64 c6 04 3d 74 66 72 3d 9c 22 ed 3c
       -0.0043959403 0.032415763 0.05917974 0.028947167
0003d0 d6 41 f2 bb c0 55 7d 3b 9f f2 0c 3c 1e d9 55 bd
       -0.007393102 0.0038655847 0.008602767 -0.052209012
0003e0 a0 57 5c bc be ba 89 3d d2 b4 3e bc 08 cf 30 3d
       -0.013448626 0.06725071 -0.011639791 0.04316619
0003f0 25 46 0b bd d9 ee a3 3c ea a5 4c 3d 62 6b 90 3d
       -0.034002442 0.020011352 0.049962915 0.07051732

out_n.0.bias f4 [50]
000000 1c 99 de 3c df de 8b 3c 61 f8 1a bc 0b 59 61 3d
       0.027172618 0.017074047 -0.009458632 0.05501656
000010 ce 35 21 3c de 0b 9d 3c 14 d5 03 3d 90 6d 6f 3c
       0.009839488 0.019170698 0.03218563 0.014613524
000020 3f 12 1e bc f8 b9 2b bd dc 02 a0 bd 0a a9 17 3d
       -0.009647905 -0.0419254 -0.078130454 0.037026443
000030 6b 31 a1 3b 83 f3 c5 3c 3e b0 dc 3b a2 25 60 3d
       0.004919221 0.024163967 0.006734877 0.05472339
000040 28 f1 63 bd 74 ad 03 bd 63 76 41 bd 05 d9 41 3d
       -0.055649906 -0.03214784 -0.047232043 0.047326107
000050 0e fe 00 bd c2 e7 d2 3c e7 6c 78 bc 61 32 8a 3d
       -0.031492285 0.025745276 -0.015162683 0.0674789
000060 3a f4 4c bd d9 48 3a bd 4d 7f 93 3b 55 1a 91 bc
       -0.0500376 -0.04547963 0.0045012594 -0.017712751
000070 5c 42 a8 bd 3c 7a b8 3d ca e0 97 bd e2 98 e3 bc
       -0.08215782 0.09007689 -0.07415922 -0.027782861
000080 18 4c 93 3d 5c 27 df ba a6 ce 51 3c 83 a9 ff 3d
       0.07192248 -0.001702528 0.0128056165 0.12483504
000090 fe 0e b4 bd 62 ec 55 3d 5c 72 a1 bc 95 51 63 bd
       -0.08791922 0.052227385 -0.019707851 -0.055497725
0000a0 b4 23 11 bd 06 68 06 3e f7 ea 8c bd 5c 55 1d 3d
       -0.03543444 0.1312562 -0.068807535 0.038411483
0000b0 8c 1d b5 3c 4d af 3a 3d 82 9f d7 bc 80 16 c8 bd
       0.022108816 0.045577336 -0.026321176 -0.097699165
0000c0 f4 d4 96 3d 4b ac 63 3d
       0.07364836 0.055584233

out_d.0.weight f4 [50, 256]
000000 0c d3 8d bc 36 2f 26 bd 58 0a cc bc c8 69 33 3c
       -0.017312549 -0.040572368 -0.024907276 0.010950513
000010 2a 32 ed 3c 33 e7 e6 bc a5 97 2c 3d 41 31 ba 3c
       0.028954584 -0.028186416 0.042136807 0.022728564
000020 2d 59 9d 3b c0 50 9c ba 1c f2 41 3d 90 1b 72 bc
       0.0048018903 -0.0011925921 0.047350034 -0.014777079
000030 d4 b5 2f 3c 63 61 9b bc 88 9b 62 3c 5e 39 9a 3d
       0.010724504 -0.018967336 0.013831027 0.07530473
000040 2f e5 29 bd c5 c5 ce 3c 08 0a bf bc 30 2d 18 3d
       -0.041478332 0.025240788 -0.023320213 0.03715247
000050 c0 86 41 bb 56 72 d7 bc 5d 22 9a bc db 0f 22 3d
       -0.002952978 -0.026299637 -0.018815214 0.039565902
000060 10 31 fb bb 8a 2c 84 3d 46 4e b8 3d 5d 65 25 3d
       -0.007665761 0.06453808 0.089993045 0.04037987
000070 1c d8 6a 3d ef 31 5f bc 36 f0 98 3c fc 66 5a 3c
       0.057335004 -0.013622745 0.018669229 0.013330217
000080 93 6a 74 3c 88 56 5d 3c 10 be e3 bc fb a6 c4 bc
       0.014917987 0.0135094 -0.02780059 -0.024005404
000090 c0 d3 44 3c 88 35 6e bc fa fd e5 ba c0 47 50 3d
       0.012013376 -0.01453913 -0.0017547004 0.050849676
0000a0 66 5e 6d 3c 89 be d0 bc c1 76 76 3c fc 05 5d 3d
       0.014487838 -0.02548148 0.015042962 0.053960785
0000b0 7d 74 9e bc ec f6 c8 bc 2b a5 39 3d a2 01 25 bd
       -0.019342655 -0.024531804 0.045323532 -0.04028476
0000c0 96 2d b7 bc 28 d6 16 bd fd 2d 84 3c cc f1 53 bd
       -0.022360604 -0.03682533 0.01613521 -0.051744267
0000d0 48 bf 7e bd c0 bf 58 bb 07 a4 2d 3d 8a a0 3d 3d
       -0.06219414 -0.0033073276 0.042392757 0.04629568
0000e0 9e 39 4d bd 2e 58 1b 3d 02 f9 9f 3c 40 34 54 bc
       -0.050103776 0.03792589 0.019527916 -0.0129519105
0000f0 2b d1 80 3c 00 69 3f bd 0a c1 12 3d db b7 e5 3a
       0.015724739 -0.046730995 0.035828628 0.0017526107
000100 c3 7f 0e 3e 58 31 c1 3c 61 f5 92 3c ea 01 24 bd
       0.13915925 0.0235831 0.017939271 -0.040040888
000110 7d ad 5e bd 66 ff 85 3d 81 37 ca 3c 14 87 6d bd
       -0.05436467 0.06542854 0.02468467 -0.05799015
000120 da 90 bb bd 09 b8 0e bb 59 15 e5 3c 20 b8 91 bd
       -0.091584876 -0.0021777174 0.02796428 -0.07115197
000130 28 24 47 bd 0b be 5b 3d c8 3e 83 3d ae bc 3a bb
       -0.048618466 0.053648036 0.06408459 -0.002849381
000140 fe fe 98 bd 29 55 69 bb 80 3a aa bb 1f 1c 08 3d
       -0.07470511 -0.0035603738 -0.005194962 0.033229943
000150 8e e0 30 bc 12 a2 c9 bc 5c 7e 8e bc 96 c6 40 bd
       -0.0107957255 -0.024613414 -0.017394237 -0.047064386
000160 8a a0 0e bd 32 58 b4 3c c0 93 f8 bc 58 d3 38 3d
       -0.03482107 0.022014711 -0.03034389 0.045123428
000170 b0 ac 1b 3d a7 6b bb bc c0 05 d6 ba 25 28 79 3d
       0.038006485 -0.022878481 -0.0016328618 0.0608293
000180 be 8e b8 bc 15 5b 35 3e 9b 3d f3 3c a8 21 46 3d
       -0.022529002 0.17710526 0.029692462 0.04837194
000190 bd 9a 88 3d 40 53 b5 bc 2c 8c a5 bc 8a a6 11 3d
       0.06670139 -0.022134423 -0.02020844 0.035559215
0001a0 5c 3d 89 3d 28 4d 15 bc fd 4c 5c bd 70 4c 35 bd
       0.067011565 -0.009112634 -0.05378436 -0.04426235
0001b0 5e 70 77 bd 05 f6 39 3d 2a af 44 bd 54 73 8c 3c
       -0.060409896 0.045400638 -0.048018612 0.017144836
0001c0 12 b8 67 3d 00 5d d7 39 40 a2 0f bc 4c 6b 5f 3d
       0.056572028 0.00041077286 -0.008766711 0.054545686
0001d0 86 92 12 bd 60 12 35 bd d9 24 94 bc 64 d7 2a 3d
       -0.035784267 -0.044206977 -0.018083977 0.04170932
0001e0 b8 bb 99 bc 1f 24 d8 3b ab 03 66 bd a4 cb 9b 3c
       -0.01876627 0.006596103 -0.05615584 0.019018002
0001f0 94 d6 5c ba e8 a4 7f bc b3 d8 ae bc fe 8b 13 bd
       -0.00084243086 -0.015603282 -0.021343565 -0.03602218
000200 72 4e fb bc 36 80 94 bd 62 04 2c 3d 56 c0 a6 bd
       -0.030677054 -0.07251017 0.041996367 -0.08142154
000210 0b f1 e0 bc a0 27 b7 bc 0e 49 60 3c f3 d8 57 bb
       -0.027458688 -0.022357762 0.013689293 -0.0032935708
000220 19 7e a3 ba b4 2b 74 3d e6 e8 4b bd 39 d3 51 3d
       -0.0012473493 0.05961199 -0.049782656 0.05122683
000230 32 eb fe 3c 26 cc 8f bd 03 13 8d bc fa d9 39 3d
       0.03111801 -0.0702136 -0.01722098 0.045373894
000240 d9 16 4c bd fc 1d 69 bd d1 af 66 bd 87 10 36 bd
       -0.049826477 -0.05691336 -0.056320015 -0.044449355
000250 18 7f 58 3a 13 8e 15 bd 32 a1 04 bd e8 e3 2d 3d
       0.00082586845 -0.036512446 -0.03238029 0.042453676
000260 8d 7a 61 3d d0 50 f0 3c 16 29 2f 3d 30 3f 28 bd
       0.055048514 0.02933541 0.042763792 -0.041075885
000270 3c f5 be 3c 1f 8d 34 3d bd dc 3f 3d 9d 21 36 bd
       0.023310296 0.044079896 0.04684137 -0.04446565
000280 5d 78 df 3c 58 46 62 3c a0 2c 6e 3d a1 d7 ce 3c
       0.027279073 0.013810717 0.058148026 0.025249304
000290 00 c5 10 bd 83 5d 43 3c 25 29 7d 3d 02 95 ab ba
       -0.035344124 0.01192415 0.061806817 -0.0013090672
0002a0 06 45 2c bc 7e 54 d4 3c d2 a0 13 bc 19 71 01 3d
       -0.010514503 0.025919195 -0.0090105105 0.031602
0002b0 22 6c 76 bc a9 d9 08 3d 20 b0 ad 3b b9 bb 66 bd
       -0.015040429 0.033410702 0.0053005368 -0.05633137
0002c0 41 49 66 bd d8 40 a9 3b 92 d4 18 3d 07 1d d9 bc
       -0.056222204 0.0051652007 0.037312098 -0.0265031
0002d0 f3 15 e6 bc d0 bb 1d bd d0 15 2a 3c f8 36 4d 3d
       -0.028086638 -0.03850919 0.010381177 0.05010125
0002e0 05 6d 64 3c 00 cc 81 38 c3 2b 5b bd ac e0 ba bc
       0.013942008 6.189197e-05 -0.05350853 -0.02281221
0002f0 d4 fd bc 3b a7 d8 79 bd d7 c7 27 bd 1c 12 4a 3c
       0.0057675634 -0.06099763 -0.040962067 0.012333419
000300 01 b3 b2 bc 6d 97 e2 3c 79 a1 54 bd c9 01 ba bc
       -0.021813871 0.027660096 -0.051911805 -0.02270593
000310 ac bf 7c 3c 08 6e 03 3c 12 67 80 3d ba e2 9b 3d
       0.0154265575 0.008021839 0.06269659 0.07611604
000320 ce 77 f6 ba 87 87 be bc 04 fd 54 3c 69 7e 7b 3d
       -0.0018804015 -0.023257984 0.012999777 0.06139985
000330 6b c0 40 3d a2 0f f9 bc 1a 71 8c 3c 26 94 90 bd
       0.047058504 -0.030402962 0.017143775 -0.07059507
000340 9e e1 2d bd 37 a9 3f 3d d2 8b 88 bd 4e 60 71 3d
       -0.042451493 0.046792235 -0.066672936 0.058929734
000350 ad 75 27 3d 52 dc 6a 3d 66 ec ac 3d 8e a1 5e 3d
       0.04088371 0.05733902 0.08443527 0.05435329
000360 c5 c2 2f bd d7 1d a6 3b 34 c5 ef 3c d8 c1 3f 3c
       -0.042910356 0.005069475 0.029268838 0.011703931
000370 90 6c 10 3d 02 db 13 3d 3b e8 29 bc e8 a7 29 3d
       0.035259783 0.036097534 -0.010370309 0.041419894
000380 03 2c a3 3c d0 da 19 3d 90 0b e0 bb 90 bd 26 bd
       0.019918447 0.03756219 -0.006837316 -0.040708125
000390 9d 1c 4f bc 56 c6 24 3d 3b 99 bc bc e0 da f9 bc
       -0.012641099 0.04022821 -0.023022285 -0.030499876
0003a0 b6 b4 b7 3b 81 17 8c bd 30 86 96 3c 24 1a c6 bc
       0.005606259 -0.068404205 0.018374532 -0.024182387
0003b0 16 11 10 bd ac 2a 9b 3c 0f 40 ff 39 7d 99 0e 3d
       -0.035172544 0.018941246 0.00048685118 0.034814347
0003c0 85 b8 16 bd 0d f9 0d bd 79 87 6f bd 96 9b a7 bd
       -0.036797065 -0.03466134 -0.058478806 -0.081839725
0003d0 22 05 fb bc 10 e4 3b bd dc e7 35 bd 7e cc 68 bd
       -0.030642096 -0.045871794 -0.04441057 -0.056835644
0003e0 0c 03 7d 3d 34 9a 28 3c 01 91 28 3d 79 a8 b1 bc
       0.061770484 0.010290671 0.04115391 -0.02168678
0003f0 79 d4 a2 bd fb 96 5d bc 0d 47 ab 3c 2d b4 89 bc
       -0.07950682 -0.013524766 0.020907903 -0.016809547

out_d.0.bias f4 [50]
000000 e9 c1 c8 3c f1 73 27 3d c4 b8 c0 bc ee 1d 81 bd
       0.024506526 0.040882055 -0.023525603 -0.06304537
000010 a5 6e 60 bd ed 57 bb 3c b7 a1 eb bb be 58 d5 3c
       -0.05479302 0.022869075 -0.007190909 0.026043292
000020 75 30 97 3c 6a 73 8c 3c 65 80 27 bd ec ff 48 bd
       0.018455723 0.017144877 -0.04089393 -0.04907219
000030 0f 8b 7f 3c ac 89 09 bd 92 ae 89 bd 30 a9 88 3c
       0.015597119 -0.03357856 -0.0672275 0.016682237
000040 6f f4 2d 3c ea 59 2b bd e0 be 17 3d 2d 53 aa 3c
       0.01061736 -0.041833796 0.037047267 0.020791614
000050 97 e0 3a bb 46 3a b0 bc bc 69 c5 bc e4 0c 80 3c
       -0.0028515214 -0.021512162 -0.02409827 0.015631147
000060 3e a7 fd 3c 08 f3 41 3d b0 55 14 3d d1 1c d0 3a
       0.030963536 0.047350913 0.03621453 0.0015877729
000070 e9 9e 1b 3c 26 1f fe bc 62 e9 83 bd 3c da 99 bc
       0.009498336 -0.031020712 -0.064409986 -0.01878082
000080 c8 71 1f bd a6 10 5e bd c3 46 52 bd 18 ee 31 3c
       -0.03892687 -0.054215096 -0.051337015 0.010859989
000090 a5 5c 70 3b fd a0 f3 39 37 ff 80 3b dd 25 f6 3c
       0.0036676314 0.00046468517 0.003936674 0.030047351
0000a0 73 dd 7c bd e0 66 bb 3a ab 9d b9 bd 18 45 2c 3c
       -0.061734628 0.0014297627 -0.09063276 0.01051452
0000b0 a4 c1 83 3d 19 70 d6 ba bb 18 de bc 6f db cd 3d
       0.064334184 -0.0016360312 -0.027111402 0.10051619
0000c0 63 99 fe 3d 3d 77 d7 3b
       0.124316 0.0065754936
