Phase1/ch3_figures_output_tuned_corrected/model_200L_none.pth (torch, 884093 bytes, 8 tensors)

backbone.0.weight f4 [256, 200]
0	0x3d411fe0	0.04714954
1	0xbd8f0986	-0.06984238
2	0xbcb67114	-0.022270717
3	0xbd825c4a	-0.06365259
4	0x3c9f2fdb	0.019431999
5	0xbd54ed1b	-0.051983934
6	0x3c95cab9	0.018285142
7	0xbd278656	-0.040899597
8	0x3ca28cc2	0.01984251
9	0x3d010ed1	0.03150827
10	0xbd099fab	-0.033599537
11	0xbd19aae4	-0.03751649
12	0x3c1667fb	0.009180064
13	0x3cb3051d	0.021853024
14	0xbb5245c7	-0.0032085048
15	0xbd1d4fdd	-0.03840624
16	0x3ce60c66	0.028082084
17	0xbd6f263a	-0.058386065
18	0xbad26a44	-0.0016053398
19	0x3d59623c	0.0530722
20	0xbc590fac	-0.013248365
21	0x3cafe50f	0.021471528
22	0xbd0ffbcc	-0.03515224
23	0x3c443c79	0.011977308
24	0xbbe306aa	-0.0069282847
25	0xbaae411b	-0.001329455
26	0xbcc140fa	-0.023590554
27	0xbd1a60ad	-0.037689853
28	0x3d8c5066	0.06851272
29	0xbcaf341a	-0.021387149
30	0x3d108d27	0.035290863
31	0xba97937a	-0.0011564337
32	0x3d74a8af	0.05973118
33	0x3d50c3fe	0.050968163
34	0x3c0ba049	0.008522102
35	0x3c8e2483	0.017351395
36	0x3caef02b	0.021354755
37	0xbd6ce08d	-0.057831336
38	0x3d6ec71f	0.058295365
39	0xbd85ef5e	-0.06539796
40	0x3d244c05	0.04011156
41	0x3cc1eb5f	0.023671804
42	0xbcb89d37	-0.022535903
43	0xbbd0cdf4	-0.006372208
44	0xbc808f70	-0.015693396
45	0xbd3dfb00	-0.04638195
46	0xbd664b77	-0.056224313
47	0xbd4f142b	-0.050556343
48	0xbd652ddb	-0.055951934
49	0xbc133a11	-0.008986012
50	0x3b063b21	0.002048202
51	0x3d10ed62	0.035382636
52	0x3d8b6007	0.06805425
53	0x3d6fb4e3	0.058522116
54	0x3d3023c9	0.043002877
55	0xbca9e558	-0.020739242
56	0x3ba51979	0.005038437
57	0xbc8e0f4d	-0.01734128
58	0x3aa4c52f	0.0012570972
59	0x3cca0344	0.02465976
60	0x3d462388	0.04837373
61	0x3d6215af	0.05519646
62	0xbcf68c40	-0.030096173
63	0x3d8f2abd	0.069905736
64	0x3cccd2e8	0.025002912
65	0xbd13ff33	-0.03613205
66	0x3d5f36d7	0.05449566
67	0xbb8879ef	-0.0041649262
68	0xbd0aaa5a	-0.033853866
69	0xbd1457ad	-0.036216427
70	0x3cbfd828	0.023418501
71	0xbd437262	-0.047716506
72	0xbcc32f59	-0.023826288
73	0x3cab17d3	0.020885384
74	0x3d024692	0.031805582
75	0xbd4d0431	-0.050052825
76	0x3c8253d4	0.015909113
77	0x3d18d361	0.03731096
78	0x3cfbf636	0.030757051
79	0xbc5665e1	-0.013085813
80	0xbcd0507a	-0.025429
81	0x3d8ad64a	0.06779154
82	0x3d64ef00	0.05589199
83	0xbd12fe26	-0.035886906
84	0xbb079f83	-0.0020694442
85	0x3d4374ae	0.047718696
86	0xbd665a3e	-0.056238405
87	0x3b2540ee	0.0025215703
88	0xbc1eab4b	-0.009684394
89	0xbb90254a	-0.0043989765
90	0xbbf0eb7c	-0.0073522907
91	0x3d6a525f	0.05720746
92	0xbd371153	-0.044694256
93	0xbd4505e3	-0.048101317
94	0x3ccf7608	0.025324836
95	0x3ccb2639	0.0247985
96	0x3d4f1165	0.050553698
97	0x3c3b9cc8	0.011450954
98	0x3d80079e	0.06251453
99	0x3bb7d5d9	0.0056102094
100	0xbcf6e4f4	-0.03013847
101	0x39dacd0b	0.0004173297
102	0xbc3b3348	-0.011425801
103	0xbbd53362	-0.0065063694
104	0xbad86e10	-0.0016512293
105	0xbc046867	-0.008081532
106	0x3d7c3c0a	0.061580695
107	0xbd658737	-0.056037154
108	0x3b17aa63	0.002314233
109	0xbd89e4c8	-0.0673309
110	0xbca34331	-0.0199295
111	0xbd1715c5	-0.036885995
112	0x3d4564e9	0.04819194
113	0xba219ad7	-0.00061647355
114	0x3d33abc0	0.043864965
115	0x3d8b7555	0.06809489
116	0x3d76ea3e	0.060281985
117	0xbc27672a	-0.010217467
118	0xbc19f70e	-0.009397281
119	0x3d1f26aa	0.038855232
120	0x3d4caf42	0.049971826
121	0x3d22b31a	0.039721586
122	0x3d15fb28	0.036616474
123	0x3d1a684e	0.03769713
124	0xbd4db2eb	-0.050219458
125	0xbd300d97	-0.04298171
126	0x3d32886a	0.043587126
127	0x3b4d5c43	0.003133551
128	0xbbe7135b	-0.007051868
129	0xbd896049	-0.06707818
130	0xbd29432b	-0.041323822
131	0x3d194bad	0.037425686
132	0x3d49ee4f	0.049299534
133	0xbcdc4233	-0.026887035
134	0x3d03eae2	0.032206424
135	0x3d579adc	0.05263792
136	0x3d0e6014	0.034759596
137	0xbcef6099	-0.029220866
138	0xbd8dfa78	-0.06932539
139	0xbb940142	-0.0045167515
140	0xbd5cd8b7	-0.053917613
141	0xbc4a334b	-0.012341331
142	0x3ce75b52	0.028241787
143	0x3c0d87b2	0.008638309
144	0xbd6cceb0	-0.0578143
145	0x3ce5df72	0.028060649
146	0x3d53fb00	0.051753044
147	0xbd3e33f1	-0.046436254
148	0x3c82be76	0.01595996
149	0x3d334b4b	0.043772977
150	0x3d3da859	0.046303127
151	0xbd6e921d	-0.058244813
152	0x3cb91a2e	0.022595491
153	0xbcc6d8d0	-0.024273306
154	0x3d5344ee	0.05157941
155	0x3d61dd24	0.055142537
156	0x3d8f1f3a	0.06988378
157	0x3c87fda0	0.01660043
158	0xbd8778e8	-0.06614858
159	0x3c9d6ec6	0.01921786
160	0xbd1ee9ca	-0.038797177
161	0x3d05084a	0.03247861
162	0xbd2eafdb	-0.042648178
163	0x3c501f03	0.012702706
164	0x3c4e4130	0.012588784
165	0x3b2f2f67	0.0026731135
166	0x3d3f2401	0.046665195
167	0x3d3314c4	0.043720976
168	0x3ca06b16	0.019582313
169	0xbd1033c2	-0.03520561
170	0xbc8084b1	-0.015688272
171	0xbc77090d	-0.0150778415
172	0x3d27e84c	0.04099302
173	0xbb10838c	-0.0022051064
174	0xbd47dacb	-0.04879264
175	0x3d742fce	0.059615903
176	0x3cf11ffc	0.029434197
177	0x3c5eed7f	0.013606428
178	0xbc26d005	-0.010181432
179	0x3bbd23c7	0.0057720873
180	0x3d55a0e1	0.05215538
181	0xbd565bae	-0.052333526
182	0x3d60ec34	0.05491276
183	0x3c462ded	0.0120959105
184	0x3cc4dbff	0.024030684
185	0xbcbf4dcb	-0.023352524
186	0x3d425f86	0.04745438
187	0xbd0c85ef	-0.034307417
188	0xbd77862f	-0.0604307
189	0xbc656f8b	-0.014003645
190	0x3d421d44	0.04739119
191	0x3d906764	0.0705097
192	0xbbed1605	-0.007235291
193	0x3d00d56f	0.031453546
194	0xbd262696	-0.040564142
195	0x3c1aa1ae	0.0094379615
196	0xbd5e7084	-0.054306522
197	0xbc15a12e	-0.0091326665
198	0x3ceae26b	0.028672418
199	0xbd48da75	-0.04903646
200	0xbccd0505	-0.025026808
201	0x3d685f72	0.05673165
202	0xbcc478ef	-0.023983447
203	0xbd166cc3	-0.036724817
204	0x3c880395	0.01660327
205	0xbd413905	-0.04717352
206	0x3cd2f004	0.025749214
207	0xbc016873	-0.007898438
208	0x3d42a75f	0.0475229
209	0x3d8ec175	0.06970493
210	0x3caf1eb7	0.02137695
211	0xbbb14568	-0.005409885
212	0x3d078f2f	0.033095535
213	0x3d617ebc	0.055052504
214	0xbd9022c7	-0.07037883
215	0xbd6294d9	-0.055317733
216	0xbd71b760	-0.05901277
217	0xbcf1f83c	-0.029537313
218	0xbd3740b6	-0.044739448
219	0x3c2596ce	0.010106755
220	0x3d181697	0.03713092
221	0x3c7dd669	0.015493014
222	0x3c397e38	0.011321597
223	0xbcdf367c	-0.02724766
224	0x3d1cf595	0.038320143
225	0x3c2cec63	0.010554406
226	0x3d1734ae	0.036915474
227	0xbd3002a6	-0.042971276
228	0xbd115008	-0.035476714
229	0x3c77ab4c	0.015116524
230	0xbcf21b93	-0.029554164
231	0xbcf27e01	-0.029601099
232	0x3d63ff4f	0.055663403
233	0xbcd641c3	-0.026154405
234	0xbcb1267d	-0.021624798
235	0x3d09ec5a	0.033672668
236	0xbd89cf5f	-0.06729006
237	0x3c9638b2	0.018337581
238	0xbd6bd1b0	-0.05757302
239	0xbc2a07ba	-0.010377819
240	0x3d25068c	0.040289447
241	0xbd6be262	-0.057588942
242	0x3ccfd4e0	0.025370061
243	0xbd7eb483	-0.06218387
244	0xbcfa8b58	-0.030584022
245	0x3ab5bf10	0.0013866145
246	0x3d898fb3	0.067168616
247	0xbd7cf161	-0.061753634
248	0x3ce0595f	0.027386365
249	0x3d0b25a5	0.033971447
250	0x3bf7b12b	0.007558962
251	0x3d73d7ac	0.059531853
252	0xbd62e6a9	-0.055395756
253	0x3d010de5	0.03150739
254	0xba68a35d	-0.00088744407
255	0xbbcb3a29	-0.0062020016

backbone.0.bias f4 [256]
0	0xbd6c6d8d	-0.057721663
1	0xbd1ed856	-0.038780533
2	0xbd558aa2	-0.052134164
3	0xba6fb1c7	-0.00091436174
4	0xbd6bb7b1	-0.05754823
5	0x3bf2042a	0.0073857503
6	0x3d619a46	0.055078767
7	0xbd931745	-0.07182173
8	0x3d77428d	0.060366202
9	0xbd1ab951	-0.037774388
10	0xbd5e4e58	-0.054273933
11	0xbc4da6af	-0.0125519475
12	0x3cb662ad	0.02226385
13	0xbc6efb40	-0.01458627
14	0xbc8d8ef6	-0.017280083
15	0xbcc64aab	-0.024205526
16	0xbd592faf	-0.05302399
17	0x3d6ffc59	0.058590267
18	0x3baf5bf3	0.0053515374
19	0xbd84aef2	-0.06478681
20	0x3d468b11	0.048472468
21	0x3d537a55	0.051630337
22	0xbd3951d4	-0.045244053
23	0xbd49288c	-0.049110934
24	0xbd0b37f6	-0.033988915
25	0x3c085fb4	0.008323599
26	0x3d0c478b	0.034247916
27	0x3cd017b8	0.025401935
28	0xbcd32061	-0.025772275
29	0x3d1ab223	0.03776754
30	0xbd132bba	-0.035930373
31	0xbd15dad0	-0.03658563
32	0xbb9f7fbe	-0.004867523
33	0xbd068a02	-0.03284646
34	0x3d6aa257	0.057283726
35	0xbd4fce38	-0.050733775
36	0xbd17ecd5	-0.037091095
37	0xbd83dcad	-0.06438575
38	0x3d3b0a2c	0.045663998
39	0x3d3078a6	0.04308381
40	0xbd09c7d8	-0.03363785
41	0xbd807776	-0.06272785
42	0x3cba3e9e	0.022734936
43	0xbd052898	-0.032509416
44	0xbc703b8e	-0.014662636
45	0xbbbcb718	-0.005759131
46	0x3cfb53ab	0.030679544
47	0xbd10cd8b	-0.03535227
48	0xbd8cbb0d	-0.068716146
49	0xbca5b82e	-0.020229425
50	0xbcec64de	-0.028856691
51	0xbcb26ac5	-0.021779427
52	0xbb8ee991	-0.0043613394
53	0xbd18ff9a	-0.037353136
54	0xbd65fc69	-0.05614892
55	0x3d0725a6	0.03299489
56	0xbcf42311	-0.029801877
57	0xbcf3a459	-0.029741453
58	0xbcfdd67b	-0.030986061
59	0xbc44affc	-0.012004849
60	0x3d5f3e19	0.05450258
61	0x3cce8dcc	0.025214098
62	0x3d861bdc	0.065482825
63	0xbd167cb4	-0.03674002
64	0x3d6132f0	0.05498022
65	0x3d04560b	0.03230862
66	0x3d72727c	0.059191212
67	0x3d8f87ae	0.07008301
68	0xbc892e1b	-0.016745618
69	0xbca37b6a	-0.01995631
70	0xbd4fc21a	-0.05072222
71	0xbbf89cef	-0.0075870673
72	0x3d756193	0.059907507
73	0x3d6b42d3	0.057436775
74	0xbcff8d58	-0.031195328
75	0x3d638564	0.055547133
76	0xbc9dc61f	-0.01925951
77	0x3d0ec488	0.034855396
78	0xbcdeca2d	-0.027196014
79	0x3d041b4b	0.03225259
80	0xbc65b9c1	-0.014021338
81	0x3d3e621b	0.04648028
82	0xbcd9bbbf	-0.026578782
83	0x3d6954d2	0.056965657
84	0x3c19acf7	0.009379617
85	0x3cd3e8c7	0.025867833
86	0xbd222306	-0.039584182
87	0x3b668649	0.0035175255
88	0xbd701a5d	-0.058618892
89	0x3d594cc7	0.053051736
90	0x3d1f602e	0.038910083
91	0xbd7269ea	-0.05918304
92	0xbd550c97	-0.05201396
93	0xbd838d0f	-0.06423389
94	0x3c0e5180	0.008686423
95	0xbd7cff1f	-0.06176674
96	0x3d1caea7	0.0382525
97	0x3bfac476	0.0076528145
98	0xbd87b6b4	-0.06626645
99	0xbd2539ec	-0.04033844
100	0xbd66ce39	-0.056349013
101	0xbd5a536e	-0.05330222
102	0xbd944baa	-0.07240994
103	0xbc063a99	-0.008192682
104	0x3d7d6d18	0.061871618
105	0x3cb61c36	0.022230249
106	0x3d20e8e4	0.0392846
107	0xbd299e04	-0.04141046
108	0xbd8d045d	-0.06885598
109	0xbd389fdb	-0.045074325
110	0xbd0065fb	-0.031347256
111	0xbd86260d	-0.06550226
112	0x3ce505a8	0.027956799
113	0x3ce14137	0.027496917
114	0xbd88fbe1	-0.06688667
115	0xbd5b43f1	-0.05353159
116	0xbd15d2f4	-0.036578134
117	0xbb7e2f15	-0.0038785387
118	0x3d020d2e	0.03175085
119	0xbd21852b	-0.03943364
120	0xbc9a3bc7	-0.018827332
121	0x3ccb8386	0.024842989
122	0x3d75ce8a	0.060011424
123	0x3d4e33b9	0.050342295
124	0x3c34732a	0.011013785
125	0xbcaec41b	-0.021333745
126	0x3d885612	0.066570416
127	0xbb54751f	-0.0032418442
128	0x3b913462	0.0044312933
129	0x3d4800fa	0.048829056
130	0x3cf1b357	0.029504461
131	0x3c0f861e	0.008760003
132	0xbc039f97	-0.008033655
133	0xbc002a13	-0.007822531
134	0xbd87c63e	-0.066296086
135	0xbd702aa1	-0.058634404
136	0x3d836013	0.06414809
137	0x3d3c17e1	0.04592121
138	0x3d5b64b0	0.05356282
139	0x3d15b6ba	0.036551215
140	0x3cc7cf83	0.024390941
141	0x3b113d2f	0.0022161712
142	0xbd58322e	-0.05278223
143	0x3c3670d4	0.011135299
144	0xbbae0182	-0.0053102383
145	0xbc03be21	-0.008040936
146	0x3cacb010	0.021080047
147	0x3d2816ca	0.04103736
148	0xbc31ef08	-0.010860212
149	0x3d2db793	0.0424114
150	0xbd521fee	-0.05129998
151	0x3d5c75c6	0.053823255
152	0xbc4b1114	-0.012394208
153	0xbc9ba339	-0.018998729
154	0xbc941318	-0.01807551
155	0x3cfd510d	0.030922437
156	0xbcbea257	-0.023270769
157	0x3c7b3837	0.015333227
158	0x3c5a0b15	0.013308306
159	0xbd569e6a	-0.05239717
160	0x3ccb4e7f	0.024817703
161	0x3d22df40	0.03976369
162	0x3d0bdb96	0.03414496
163	0xbd36dee2	-0.04464615
164	0x3d73b74d	0.05950098
165	0xbc79eb58	-0.015253864
166	0xbd749d64	-0.059720412
167	0xbc5807fb	-0.013185496
168	0xbc8ebce0	-0.017424047
169	0xbcd59157	-0.02607028
170	0xbc0b9a6a	-0.008520702
171	0x3ce3f2ed	0.027825797
172	0xbd4e53e7	-0.050372984
173	0xbd3702e4	-0.04468049
174	0x3cd6d5b1	0.026224943
175	0x3d56bc6d	0.05242579
176	0x3d7b03d0	0.061282933
177	0xbd3dd988	-0.046350032
178	0x3d0f4186	0.034974597
179	0x3ccfe112	0.025375877
180	0xbdb86282	-0.09003164
181	0xbd76450c	-0.060124442
182	0x3d882ae9	0.066488095
183	0x3d5ad184	0.053422466
184	0x3bd3b774	0.0064610783
185	0x3d56a4cb	0.052403253
186	0xbd7d62c1	-0.061861757
187	0xbd47d2c4	-0.048784986
188	0x3d53b800	0.051689148
189	0x3c071295	0.008244176
190	0xbd74c63f	-0.059759375
191	0xbc9ffcb0	-0.01952967
192	0x3d4ffc29	0.050777588
193	0x3cfb948b	0.03071048
194	0x3c1305b4	0.008973528
195	0x3d7c4e95	0.06159838
196	0xbd90920c	-0.07059106
197	0xbd222918	-0.03958997
198	0xbd1c91e5	-0.038225073
199	0x3caebe91	0.021331104
200	0x3d1433d5	0.036182243
201	0x3bc39654	0.0059688482
202	0x3d319479	0.043354485
203	0xbd0d33d0	-0.03447324
204	0xbd6e0e14	-0.058118895
205	0x3ca285b2	0.019839142
206	0xbc61aa60	-0.013773531
207	0x3c317be4	0.0108327605
208	0x3d572f8a	0.05253557
209	0x3d7a2c5a	0.061077453
210	0xbd41d333	-0.047320556
211	0x3d63919b	0.055558782
212	0xbd0dcaad	-0.034617115
213	0x3c51b163	0.01279864
214	0x3d409de8	0.04702559
215	0xbbfdb872	-0.007742935
216	0x3d13f419	0.03612146
217	0x3d8d3a1c	0.06895849
218	0x3d1d59b9	0.038415644
219	0x3c0bc98b	0.008531938
220	0xbd4879eb	-0.048944395
221	0xbca30439	-0.019899474
222	0x3b7c5b83	0.0038506694
223	0xbcd253cc	-0.025674723
224	0xbd879328	-0.06619865
225	0x3d901c14	0.070366055
226	0xbd7608fc	-0.060067162
227	0xbc28cd98	-0.010302924
228	0x3c1ef003	0.009700778
229	0xbca57c1d	-0.020200783
230	0xbc948dfd	-0.018134112
231	0x3c48b037	0.012249044
232	0xbd6084f5	-0.054814298
233	0x3d119863	0.035545718
234	0xbd8c7bc9	-0.06859548
235	0x3d64f14b	0.055894177
236	0xbcb3544f	-0.021890787
237	0xbd857d5b	-0.0651805
238	0xbc3d44c5	-0.01155204
239	0xbcfaba4c	-0.030606411
240	0x3d0bae45	0.034101743
241	0x3d749a4e	0.05971747
242	0xbd136144	-0.03598143
243	0xbc6e0d03	-0.014529469
244	0x3c48d163	0.012256953
245	0xbd06e353	-0.032931637
246	0xbd0ecb0e	-0.034861617
247	0x3d84871a	0.06471081
248	0x3c3a8954	0.011385281
249	0x3d7637c2	0.06011177
250	0xbd298823	-0.041389596
251	0x3c1062aa	0.008812586
252	0xbd1c671e	-0.038184278
253	0xbd84af77	-0.0647878
254	0xbd85ea77	-0.06538861
255	0x3d0fee8f	0.035139617

backbone.2.weight f4 [256, 256]
0	0x3c21bdb0	0.009871885
1	0x3d75b6dc	0.05998884
2	0xbb51c120	-0.003200598
3	0xbc9bc0a7	-0.019012762
4	0xbcd845e4	-0.026400514
5	0x3c9cf2d5	0.01915876
6	0xbd6032f4	-0.054736093
7	0xbd4f19b1	-0.05056161
8	0xbd390894	-0.045174196
9	0xbd824809	-0.06361396
10	0x3c2b1d6f	0.010444029
11	0xbcd1c1c0	-0.025605083
12	0x3c4b524d	0.012409759
13	0xbc7b0666	-0.01532135
14	0x3c9050f0	0.017616719
15	0xbaf92bc9	-0.0019010241
16	0x3d607380	0.05479765
17	0x3c221d14	0.009894628
18	0xbd1b5e7e	-0.03793191
19	0xbce78dbc	-0.028265826
20	0x3d2e09c4	0.042489782
21	0x3d4f89d8	0.050668567
22	0xbccb2c04	-0.024801262
23	0x3d5ed5be	0.05440306
24	0xbabe0840	-0.0014498308
25	0xba96f317	-0.0011516538
26	0x3cea4260	0.028596103
27	0xbcfdd1a8	-0.030983761
28	0xbd0a011e	-0.03369247
29	0xba07d95f	-0.0005182232
30	0xbca2c65d	-0.019869978
31	0xbb989044	-0.0046558697
32	0xbbd0aa9d	-0.006367995
33	0xbc218be5	-0.009860014
34	0xbcb0df08	-0.021590725
35	0xbd13622c	-0.035982296
36	0xbd6ea8d7	-0.058266487
37	0xbbc4c8a3	-0.006005363
38	0x3d1f7c3e	0.038936846
39	0x3c90e524	0.017687388
40	0xbd7e86b2	-0.062140174
41	0x3c09bf0c	0.0084073655
42	0x3d5b1d1c	0.053494558
43	0x3d5e8730	0.054328144
44	0x3ccdbe10	0.025115043
45	0x3c99c854	0.018772282
46	0xbd30d104	-0.043168083
47	0x3d2f295c	0.042764053
48	0xbd331116	-0.043717466
49	0xbc905d18	-0.017622516
50	0xba2a3ac4	-0.0006493742
51	0x3d442d90	0.047895014
52	0xbcf02758	-0.029315636
53	0x3cced26c	0.025246821
54	0x3d44fbfe	0.04809188
55	0x3d5514ba	0.05202172
56	0xbcf77078	-0.030204996
57	0x3c9cb5ce	0.01912966
58	0x3cec6b45	0.028859744
59	0xbcce071c	-0.025149874
60	0xbc90656c	-0.017626487
61	0xbc544a38	-0.012957148
62	0xbd1ca462	-0.038242705
63	0x3cbec085	0.02328516
64	0xbbe1c1ca	-0.0068895565
65	0xbd75202e	-0.059845142
66	0x3d30e818	0.04319009
67	0xbce7c1c0	-0.02829063
68	0xbd31f404	-0.043445602
69	0x3d5dadcd	0.054120827
70	0x3d0a4904	0.03376104
71	0xbd2c33e2	-0.042041667
72	0x3cfc3e00	0.030791283
73	0x3c99cd39	0.018774616
74	0xbd054a28	-0.032541424
75	0x3d3201f6	0.0434589
76	0xbcc7cadd	-0.024388725
77	0xbd4440d2	-0.04791338
78	0x3d486e84	0.04893352
79	0x3c6ba070	0.014381513
80	0xbd4478ba	-0.047966696
81	0x3d4cc561	0.049992923
82	0x3c5484f3	0.012971151
83	0x3ce264c0	0.027635932
84	0x3d176247	0.03695896
85	0xbbaa5785	-0.0051984214
86	0xbc04cd91	-0.0081056515
87	0xbcb7e2c0	-0.02244699
88	0x3cde8f10	0.027167827
89	0xbd00d602	-0.031454094
90	0x3b7f0dc0	0.0038918108
91	0xbd79d628	-0.06099525
92	0x3d5438fa	0.05181215
93	0xbd143060	-0.036178946
94	0x3bd48eb0	0.0064867362
95	0xbd7c3e30	-0.061582744
96	0x3c7e86b8	0.015535049
97	0x3bf996a0	0.007616833
98	0x3d1e5396	0.038653933
99	0x3d0dc9f4	0.034616426
100	0xbd924cee	-0.071435794
101	0xba919740	-0.0011107698
102	0xbd4b005f	-0.0495609
103	0x3d4e298a	0.050332583
104	0xbd419802	-0.047264107
105	0xbcdf9a1d	-0.027295167
106	0x3c110271	0.00885068
107	0x3c9015c0	0.017588496
108	0x3c37ff30	0.011230275
109	0xbd4bce8d	-0.04975753
110	0x3d4106a4	0.047125474
111	0xbd62117a	-0.05519245
112	0xbd0777d0	-0.033073246
113	0xbce49c20	-0.027906477
114	0x3b697320	0.0035621598
115	0x3d33c63c	0.043890223
116	0xbd13de04	-0.036100402
117	0xbcba4140	-0.022736192
118	0x3cd114f6	0.02552269
119	0xbd028644	-0.031866327
120	0x3d085813	0.03328712
121	0x3cdc1d2c	0.026869379
122	0xbbbcf2a0	-0.005766228
123	0xbb9ee510	-0.0048490837
124	0x3bfa6230	0.0076410994
125	0xbac83b6f	-0.0015276502
126	0xbd7c9d6a	-0.06167356
127	0x3c15fc43	0.009154382
128	0xbd3cc843	-0.046089422
129	0x3d570312	0.052493162
130	0x3d486a95	0.04892977
131	0xbd035110	-0.03205973
132	0xbd478d49	-0.048718724
133	0xbd375844	-0.04476191
134	0x3d7d1b1e	0.06179344
135	0xbc0e7098	-0.008693837
136	0x3bb1eb40	0.0054296553
137	0xbd6bd3f8	-0.057575196
138	0xbc9d2ab2	-0.019185398
139	0xbd755f78	-0.0599055
140	0x3cd23008	0.025657669
141	0x3d2f89bb	0.04285596
142	0xbd03fd10	-0.03222376
143	0x3bc73750	0.006079592
144	0xbd7d9fa7	-0.061919834
145	0xbb6b695a	-0.0035920949
146	0xbcc5f1fe	-0.024163242
147	0xbd4f9332	-0.050677486
148	0xbc8f3cb6	-0.017485004
149	0xbca03bb1	-0.019559713
150	0x3c3a9831	0.011388824
151	0x3d2a438e	0.04156833
152	0xbd67d23c	-0.05659698
153	0x3c007e48	0.007842608
154	0x3d2270c4	0.039658323
155	0xbd85b1df	-0.06528067
156	0xbd1d1b0e	-0.03835588
157	0xbce93624	-0.0284682
158	0xbcf82ab8	-0.030293807
159	0x3cdc37b4	0.02688203
160	0x3af5dd21	0.0018757918
161	0x3d4ffc42	0.05077768
162	0x3c490270	0.012268648
163	0xbd7bc26b	-0.06146471
164	0xbc5e8efd	-0.013583896
165	0x3d05e626	0.03269019
166	0x3c1a2db9	0.009410315
167	0x3c8fc144	0.01754821
168	0xbd34fe48	-0.044187814
169	0x3cb25d58	0.021773025
170	0xbcb409a8	-0.02197726
171	0x3c346d48	0.011012383
172	0xbd6ad1c0	-0.05732894
173	0x3bc395d0	0.005968787
174	0xbd5a4b78	-0.05329463
175	0xbbd68128	-0.0065461583
176	0xbd11e120	-0.035615087
177	0x3c07ca09	0.008287915
178	0x3cf95f9b	0.030441096
179	0x3cccd46c	0.025003634
180	0x3b97a188	0.0046274103
181	0x3b31df7d	0.0027141266
182	0x3d1005d6	0.035161816
183	0x3c546ec0	0.012965858
184	0x3ab57a00	0.0013845563
185	0x3b8d7d10	0.004317887
186	0xbd46701a	-0.048446752
187	0xbb4a7f60	-0.0030898675
188	0x3d5cc6df	0.053900596
189	0xbd13d24e	-0.036089234
190	0x3c02be97	0.0079800105
191	0x3d7cedf0	0.061750352
192	0xbb8db4a0	-0.0043245107
193	0x3c9911ec	0.018685304
194	0x3cd30f8e	0.025764253
195	0xbd372584	-0.044713512
196	0xbc26dda8	-0.010184683
197	0xbd31355b	-0.043263774
198	0x3c667b3f	0.01406747
199	0x3d5ed576	0.05440279
200	0x3cd9edf5	0.026602725
201	0x3c9a9fa8	0.018874958
202	0xbd5476f4	-0.051871255
203	0xbc58b658	-0.013227068
204	0x3d2020b4	0.039093688
205	0xbc21341e	-0.009839086
206	0x3d1b4472	0.03790707
207	0xbd2e1eb0	-0.042509735
208	0xbc53f432	-0.012936639
209	0x3c92e228	0.017930105
210	0xbcd04de7	-0.025427772
211	0xbd2f6e82	-0.042829998
212	0x3d17d609	0.037069354
213	0xbd1ed551	-0.038777653
214	0xbca14c64	-0.019689746
215	0xbc974052	-0.018463288
216	0x3d1d4bd6	0.0384024
217	0xbceb8fb0	-0.028755039
218	0x3d0bc4eb	0.034123342
219	0x3d5c029e	0.053713433
220	0xbb2bfb20	-0.0026242211
221	0xbcd4bb74	-0.02596829
222	0x3c8a3297	0.016869826
223	0x3c5fd378	0.013661258
224	0x3cfa5070	0.030555934
225	0xbd5f498e	-0.054513507
226	0x3c48c848	0.012254782
227	0xbd14e234	-0.036348537
228	0x3c834a10	0.016026527
229	0x3d5320ba	0.051544882
230	0x3d4febb5	0.050761897
231	0xbcd030fe	-0.025413986
232	0xbba6bd40	-0.0050884783
233	0x3bfe23e0	0.0077557415
234	0xbc83ed38	-0.016104326
235	0x3cbf2bc2	0.023336295
236	0x3d1f8174	0.038941815
237	0x3cf72bb0	0.030172199
238	0xbd530fb4	-0.051528648
239	0xbd2be088	-0.041962177
240	0x3d0b943a	0.034076907
241	0xba2baa00	-0.00065484643
242	0xbd102322	-0.035189755
243	0xbbc19970	-0.0059081838
244	0x3ced8534	0.02899418
245	0x3d6a5aea	0.05721561
246	0x3cfa2e19	0.03053956
247	0xbce42050	-0.027847439
248	0x3c8014a8	0.01563485
249	0xbd5a7998	-0.053338617
250	0x3b981418	0.0046410672
251	0xbc049a40	-0.008093417
252	0x3cd12d18	0.025534198
253	0x3d153cae	0.03643482
254	0xbd26041e	-0.04053127
255	0x3ccf3420	0.02529341

backbone.2.bias f4 [256]
0	0xbd43afb1	-0.047774974
1	0xbb9b5fb0	-0.0047416314
2	0xbd153627	-0.036428597
3	0xbc97f577	-0.018549664
4	0xbc09c944	-0.008409802
5	0x3d2ee829	0.042701874
6	0xba567d4c	-0.0008182123
7	0xbc209e96	-0.009803435
8	0xbcb3c738	-0.02194558
9	0xbc849ec8	-0.016188994
10	0xbc566455	-0.013085444
11	0x3d98c74f	0.0745989
12	0x3d0abe7f	0.033873077
13	0x3d9fa249	0.07794625
14	0xbc76d66c	-0.015065771
15	0x3d4848a2	0.048897393
16	0xbc905620	-0.017619193
17	0xbbc67d08	-0.0060573854
18	0xbc188f9a	-0.009311581
19	0xbd5acf86	-0.053420566
20	0xbd3409d8	-0.0439547
21	0xbc78db2e	-0.015188975
22	0xbd406548	-0.04697159
23	0xbd352ae4	-0.044230357
24	0xbd01c9fb	-0.031686764
25	0xbd567ff4	-0.05236812
26	0x3da09fb3	0.0784296
27	0xbb6685cf	-0.003517497
28	0x3dbc520f	0.09195339
29	0xbd32848c	-0.043583438
30	0xbda7b91c	-0.08189604
31	0xbd2a42b2	-0.04156751
32	0x3dbb926e	0.091587886
33	0x3d76e858	0.060280174
34	0xbcd8eef7	-0.026481135
35	0xbd38f5fc	-0.045156464
36	0x3d3d9809	0.04628757
37	0xbd81e834	-0.06343117
38	0xbd938ac5	-0.072042026
39	0xbd856ab3	-0.06514492
40	0xbd71df5f	-0.059050914
41	0xbcb164ab	-0.021654448
42	0xbd5361fe	-0.051607125
43	0xbce86844	-0.02837003
44	0xbcbb7257	-0.02288167
45	0xbc935b3f	-0.017987845
46	0xbd36ddad	-0.044645
47	0xbd4ca17c	-0.04995869
48	0xbd4dc84c	-0.050239846
49	0x3d9e9448	0.07743126
50	0xbdaff4a1	-0.08591581
51	0x3d7866f4	0.06064506
52	0xbcf69222	-0.030098978
53	0xbdab6df1	-0.08370579
54	0xbd18fa73	-0.037348222
55	0x3e0f2d56	0.13982138
56	0xbd7fc3ff	-0.062442776
57	0x3db69c20	0.08916497
58	0x3db2b653	0.08726182
59	0xbd281c80	-0.041042805
60	0xbd343771	-0.043998186
61	0xbd096c7d	-0.033550728
62	0xbd5653b9	-0.052325938
63	0xbd5b4194	-0.053529337
64	0x3d2eb29d	0.042650808
65	0xbd4addcb	-0.049527925
66	0xbca02652	-0.019549523
67	0xbc608cb0	-0.0137054175
68	0x3dff8959	0.12477369
69	0xbdb8aba2	-0.09017111
70	0xbd3e591d	-0.046471704
71	0x3d71e4ea	0.0590562
72	0xbd3223ea	-0.04349128
73	0xbcaafaf2	-0.020871613
74	0xbced6edf	-0.028983532
75	0x3d081638	0.033224314
76	0xbc32df86	-0.01091755
77	0xbd6c8a56	-0.057749115
78	0xbd61120e	-0.05494886
79	0xbc5264f0	-0.012841448
80	0xbc2cc5a0	-0.010545164
81	0xbd76a5ad	-0.060216594
82	0xbcd5e6a8	-0.026110962
83	0xbcd62363	-0.02613992
84	0x3d7ad9d2	0.061242886
85	0x3d7fa8c3	0.062416803
86	0xbd12243c	-0.035679087
87	0x3d833fa5	0.064086236
88	0xbd5979e6	-0.053094767
89	0xbd4c1b6a	-0.04983083
90	0xbd89b11d	-0.06723235
91	0xbd347782	-0.044059284
92	0xbce4da43	-0.027936107
93	0xbd65d320	-0.056109548
94	0xbc5e91ad	-0.0135845365
95	0x3d26582f	0.040611442
96	0xbd51cee2	-0.05122269
97	0xbd746393	-0.059665274
98	0x3df1dcde	0.11809705
99	0xbd7b50b8	-0.061356276
100	0x3e06fd95	0.13182671
101	0xbdaca028	-0.08428985
102	0x3d61bede	0.055113666
103	0xbd06e585	-0.03293373
104	0xbb807c91	-0.0039210995
105	0xbce3ae4c	-0.027793072
106	0x3dd4ca07	0.10390096
107	0x3dd9ceb0	0.10635126
108	0xbc2e1759	-0.010625684
109	0xbd418ee6	-0.04725542
110	0xbd7438df	-0.05962455
111	0x3d90deab	0.070737205
112	0xbcc33ebe	-0.023833629
113	0xbcc04e66	-0.023474883
114	0xbd9a6b9c	-0.07540056
115	0x3df74b1a	0.12074871
116	0x3d97ff49	0.07421739
117	0x3d7c01a9	0.06152502
118	0x3d0488c2	0.032356985
119	0xbd62ea7c	-0.055399403
120	0xbcbed990	-0.023297101
121	0x3d9dc744	0.077040225
122	0x3dde796d	0.10863004
123	0x3da07653	0.078350686
124	0x3e1f1ce0	0.15538359
125	0x3d865592	0.0655929
126	0x3dabef5f	0.08395266
127	0xbd01c4e9	-0.03168193
128	0xbc793d3e	-0.015212355
129	0xbdb01702	-0.085981384
130	0xbdb18fb2	-0.08669986
131	0xbd1c4a48	-0.038156778
132	0x3d42659d	0.047460187
133	0xbce3e938	-0.027821168
134	0x3d4f2dfe	0.05058097
135	0xbd03966a	-0.032125868
136	0x3dc9b65e	0.09849237
137	0xbd393bfa	-0.045223214
138	0x3d5393ab	0.0516545
139	0xbd3d9f91	-0.046294753
140	0xbd2704ea	-0.04077617
141	0xbc8eefac	-0.017448269
142	0xbd2d2031	-0.04226703
143	0xbd165e60	-0.036711097
144	0xbdb5d51a	-0.088785365
145	0xbd134705	-0.0359564
146	0xbda061e3	-0.078311704
147	0xbd5f4f65	-0.054519076
148	0xbd7212cb	-0.059099954
149	0xbb69a460	-0.0035650954
150	0xbd25a7b8	-0.040443152
151	0xbd77e2cb	-0.06051902
152	0x3d17d4ce	0.03706818
153	0xbd3707a4	-0.04468502
154	0xbd0d518a	-0.03450159
155	0xbd2a4512	-0.041569777
156	0x3d8e77b3	0.069564246
157	0xbcae4a24	-0.021275587
158	0xbcd612d1	-0.02613202
159	0xbd201783	-0.039084923
160	0xbd4181fa	-0.047243096
161	0xbd088ccc	-0.0333374
162	0xbd28d804	-0.041221634
163	0xbc062e79	-0.008189791
164	0xbc150c6b	-0.009097199
165	0xbda6ef65	-0.0815113
166	0x3dd36a8c	0.103230566
167	0x3d917a35	0.07103387
168	0x3d760e2f	0.06007212
169	0xbda8ab27	-0.0823577
170	0x3dff5d55	0.124689735
171	0xbd35d064	-0.04438819
172	0xbd679635	-0.056539733
173	0xbc6798ed	-0.014135581
174	0x3ddb72ef	0.10715281
175	0xbce0995c	-0.027416877
176	0xbd36f7d2	-0.044669934
177	0xbd1f9a4b	-0.038965505
178	0xbcdaa93e	-0.02669203
179	0x3d00adff	0.031415936
180	0xbd2e050d	-0.042485286
181	0xbcbf65d3	-0.023363983
182	0x3dbe39bb	0.09288355
183	0xbbd5047c	-0.0065007787
184	0xbcef0174	-0.029175498
185	0xbd393a20	-0.045221448
186	0xbdb67868	-0.089096844
187	0xbd30ff57	-0.04321226
188	0x3db4ecfe	0.08834265
189	0xbd096d77	-0.03355166
190	0xbd3fd3d6	-0.046832882
191	0x3dcde5b9	0.10053582
192	0x3e2d1e86	0.16906175
193	0xbd370cb1	-0.044689838
194	0x3dcff293	0.10153689
195	0x3d4f5156	0.050614677
196	0xbbdd709c	-0.006757809
197	0x3d722117	0.05911359
198	0xbd351d18	-0.0442172
199	0xbc714c85	-0.014727716
200	0xbd32cdd5	-0.043653328
201	0xbd2efba9	-0.04272047
202	0xbb4fa155	-0.0031681855
203	0xbd45fba4	-0.048335686
204	0xbcbbd1fe	-0.02292728
205	0xbc66696b	-0.01406322
206	0x3bc27061	0.0059338068
207	0x3d73d036	0.059524737
208	0x3d91a18d	0.071108915
209	0xbd13a10c	-0.03604226
210	0xbcdf63ad	-0.027269209
211	0xbd3fb4ea	-0.046803392
212	0xbcb279c0	-0.02178657
213	0xbd3bec99	-0.045879934
214	0x3e04e30a	0.12977234
215	0xbd9ea387	-0.07746034
216	0x3d0b0d4c	0.033948228
217	0xbc47b415	-0.012188931
218	0x3dc74dd1	0.09731639
219	0xbb1a1035	-0.0023508195
220	0x3e47ee0c	0.19524401
221	0x3d989a1b	0.07451268
222	0x3d344595	0.04401167
223	0xbc99d207	-0.018776907
224	0x3de64c5e	0.11245035
225	0x3d968ce1	0.07351089
226	0x3d9eafd8	0.07748383
227	0x3d00f673	0.031485032
228	0xbd4ba3c9	-0.049716745
229	0xbcc3930e	-0.023873832
230	0x3d0d3e08	0.034482986
231	0x3de29714	0.11063972
232	0xbd6b2dc7	-0.057416704
233	0xbd0b555d	-0.034016956
234	0x3d2c20ce	0.042023472
235	0xbc9d0a44	-0.019169934
236	0x3d80e333	0.06293335
237	0x3d592f30	0.053023517
238	0xbaa2a5d7	-0.0012409043
239	0xbb591ac3	-0.0033127523
240	0xbcc7e65b	-0.024401834
241	0x3da61181	0.08108807
242	0xbd7f0da0	-0.062268853
243	0x3d1c00eb	0.038086813
244	0xbcd606d0	-0.026126295
245	0x3d91abad	0.07112823
246	0xbce877a2	-0.028377358
247	0xbcbec333	-0.023286438
248	0x3dc6c6e4	0.09705904
249	0xbd0b9e13	-0.0340863
250	0xbd590752	-0.052985497
251	0xbcb838f0	-0.022488087
252	0xbd8aeeaf	-0.067838065
253	0xbcd0e42a	-0.025499422
254	0xbd1805c8	-0.03711489
255	0xbd1f607c	-0.038910374

out_n.0.weight f4 [200, 256]
0	0xbd1718ce	-0.03688889
1	0xbd222d22	-0.039593823
2	0xbe6fc32a	-0.23414293
3	0x3d108f79	0.035293076
4	0xbdecdc6e	-0.11565481
5	0xbe92f37e	-0.28701395
6	0x3d047dde	0.0323466
7	0x3ce7d008	0.02829744
8	0xbd7d8ee0	-0.061903834
9	0xbc7edbf0	-0.015555367
10	0xbd7d970c	-0.061911628
11	0xbe735612	-0.23763302
12	0xbe9ccc02	-0.30624396
13	0xbe96a2cc	-0.2942108
14	0x3c91e4d3	0.017809307
15	0xbe84a7e6	-0.25909346
16	0xbdb6c4ed	-0.08924279
17	0x3d18aaa4	0.03727211
18	0xbdb6aa34	-0.089191824
19	0x3cbd4da0	0.023108304
20	0xbe840cc1	-0.2579098
21	0x3a3f9959	0.00073089224
22	0x3cfb0b99	0.030645179
23	0x3d416594	0.047216013
24	0x3c542ea1	0.01295057
25	0xbd9f9aeb	-0.0779322
26	0xbea082e0	-0.3134985
27	0xbe6b4a1c	-0.22977489
28	0xbf3118f8	-0.69178724
29	0x3d395c20	0.045253873
30	0xbf11f7d3	-0.57018775
31	0x3b931bad	0.004489383
32	0xbe9e0913	-0.30866298
33	0xbeacc5f2	-0.3374477
34	0x3c9ba9bc	0.019001834
35	0xbaf7d0ba	-0.001890681
36	0xbeb9d484	-0.3629495
37	0x3cb2af6f	0.021812169
38	0xbd72e5dd	-0.059301246
39	0xbdda3483	-0.10654547
40	0xbcdb479e	-0.026767548
41	0x3d3d4905	0.046212215
42	0xbee6a837	-0.45050213
43	0xbc998cf0	-0.018743962
44	0x3ca7c973	0.0204818
45	0x3ca27a19	0.019833611
46	0xbe254c9c	-0.16142505
47	0x3d6a828a	0.057253398
48	0xbdd7c3ab	-0.105353676
49	0xbeafb6f6	-0.34319276
50	0xbd76b219	-0.06022844
51	0xbe95f6db	-0.29289898
52	0xbc11997d	-0.008886692
53	0x3d330d13	0.04371364
54	0xbd36ab69	-0.044597063
55	0xbf798f38	-0.9748416
56	0xbce38857	-0.027774973
57	0xbf1345cf	-0.57528394
58	0xbeabc77c	-0.33550632
59	0x3bc763ed	0.00608491
60	0x3d05cfa0	0.03266871
61	0x3b6967a4	0.0035614753
62	0x3d430917	0.04761609
63	0x3ca53e00	0.020171165
64	0xbe63e8e9	-0.22256817
65	0xbf2a17ee	-0.66442764
66	0xbe16606f	-0.14685224
67	0xbcdb6c4e	-0.026785042
68	0xbf13a56b	-0.5767428
69	0x3cc14d96	0.023596566
70	0xbece62c2	-0.4030972
71	0xbedcf826	-0.43158072
72	0x3cf93174	0.030419089
73	0x3c3c6e10	0.01150085
74	0xbd87555c	-0.06608078
75	0xbe85cdd5	-0.261336
76	0x3d381e76	0.044950925
77	0xbd2a38ec	-0.04155819
78	0xbc8668e8	-0.016407445
79	0x3c8816a8	0.016612366
80	0x3d0d7130	0.034531772
81	0xbd55909d	-0.052139867
82	0xbd186d11	-0.03721339
83	0xbd74db96	-0.059779726
84	0xbea80df9	-0.3282316
85	0xbef860b5	-0.48511282
86	0xbdd99510	-0.106241345
87	0xbe57d84f	-0.21078609
88	0x3bdd32d0	0.006750442
89	0xbd994f32	-0.074858084
90	0x3cc5da19	0.024151849
91	0x3b978730	0.00462427
92	0x3cb74e9e	0.022376355
93	0x39b2ff00	0.00034140795
94	0xbd1c7157	-0.038194027
95	0xbeaa0d1d	-0.3321313
96	0x3cb71e78	0.022353396
97	0xbf1edcca	-0.6205565
98	0xbeb78a45	-0.3584768
99	0xbea309e0	-0.31843472
100	0xbf04bd95	-0.5185178
101	0x3d186fe2	0.037216075
102	0xbea25f98	-0.31713557
103	0xbcba0676	-0.022708159
104	0xbe16b815	-0.14718659
105	0xbe00a00b	-0.12561052
106	0xbe77706a	-0.24163976
107	0xbf33a343	-0.7017099
108	0xbd01d2c0	-0.031695127
109	0xbd4638e4	-0.0483941
110	0x3b0b6a2a	0.0021272996
111	0xbe727253	-0.23676424
112	0x3c8c7731	0.017146679
113	0xbda10f59	-0.078642555
114	0xbee9676e	-0.45586723
115	0xbeb3c9fc	-0.3511504
116	0xbe703a31	-0.23459698
117	0xbedf4942	-0.4361058
118	0xbeb4847d	-0.3525733
119	0xbe755faf	-0.23962282
120	0xbe2a3fa2	-0.16625836
121	0xbe867d37	-0.26267406
122	0xbede23a8	-0.4338658
123	0xbec6f5f7	-0.3885953
124	0xbeb9046a	-0.3613618
125	0xbe9aba7c	-0.302204
126	0xbf46f62a	-0.77719367
127	0xbcc8fe20	-0.024535239
128	0x3d1f4ad5	0.038889725
129	0xbea5b13a	-0.32361776
130	0xbebe0a2b	-0.37117133
131	0x3d0ec028	0.034851223
132	0xbece2850	-0.4026513
133	0xbd8355d8	-0.06412858
134	0xbe85e554	-0.26151526
135	0xbd81f125	-0.06344823
136	0xbeb7026b	-0.35744032
137	0x3d5f8f04	0.05457975
138	0xbea20356	-0.3164317
139	0x3d56aa85	0.052408714
140	0xbd748e21	-0.059705857
141	0x3d328e9d	0.043593038
142	0xbde66045	-0.11248831
143	0x3c8af43b	0.016962161
144	0xbf3d3d79	-0.73921925
145	0x3d8be961	0.06831623
146	0x3af6ccf8	0.0018829396
147	0xbd86c822	-0.06581141
148	0xbd5be08c	-0.05368094
149	0x3cd7a560	0.026323974
150	0x3cd7a478	0.026323542
151	0x3d2016e9	0.03908435
152	0xbeb8bf35	-0.3608338
153	0xbcb6c390	-0.022310048
154	0xbbbe62b5	-0.0058101066
155	0xbe23d985	-0.16000946
156	0xbe9cef89	-0.306515
157	0xbf11fdbf	-0.5702781
158	0xbd8771c0	-0.06613493
159	0x3caf02a2	0.02136356
160	0xbd4d5a9d	-0.050135244
161	0xbdb99e3f	-0.09063386
162	0xbea87663	-0.32902822
163	0xbcf1a27c	-0.029496424
164	0xbdcc23e1	-0.09967781
165	0xbceea8aa	-0.02913316
166	0xbf10af71	-0.565177
167	0xbea3b5b1	-0.31974557
168	0xbe86a6cc	-0.2629913
169	0x3d536d2f	0.051617797
170	0xbf67c430	-0.90533733
171	0x3830b3a9	4.212899e-05
172	0xbede50fc	-0.4342116
173	0x3cf359c4	0.02970589
174	0xbeb4d70b	-0.35320315
175	0x3b2b1220	0.0026103333
176	0xbde3c497	-0.11121481
177	0xbd92f51a	-0.07175656
178	0xbd92a2da	-0.07159968
179	0xbed1ebe4	-0.41000283
180	0xbc203ad7	-0.0097796535
181	0x3c169922	0.009191783
182	0xbea056f9	-0.31316355
183	0xbe15915f	-0.14606236
184	0x3d711c40	0.058864832
185	0x3d06f580	0.03294897
186	0x3d557ee0	0.05212295
187	0x3c911099	0.01770811
188	0xbe90e009	-0.28295925
189	0xbdb086d2	-0.08619465
190	0xbd8766b0	-0.06611383
191	0xbeaea159	-0.34107473
192	0xbef226dc	-0.47295272
193	0xbdc48618	-0.09595889
194	0xbea1129f	-0.3145952
195	0xbe88ba29	-0.2670453
196	0x3d277d37	0.0408909
197	0xbea5821e	-0.32325834
198	0x3d098e42	0.033582933
199	0x3d1221bd	0.035676707
200	0xbf1bc7f5	-0.60851985
201	0xbcab4268	-0.020905688
202	0xbe360f4b	-0.17779271
203	0xbb89cbe4	-0.004205214
204	0xbece95a1	-0.40348533
205	0x3d2f849b	0.04285107
206	0xbe79b427	-0.24385129
207	0xbea5d70c	-0.3239063
208	0xbe8909d6	-0.26765317
209	0x3a9293c3	0.0011182952
210	0xbe26e302	-0.16297534
211	0xbd4018e4	-0.046898738
212	0xbb32dd53	-0.0027292564
213	0x3dc80125	0.09765843
214	0xbf912b17	-1.1341275
215	0x3b94f5f3	0.004545921
216	0xbec2765f	-0.37980935
217	0xbd55c5ef	-0.052190717
218	0xbf428be4	-0.75994706
219	0xbe1a14b7	-0.15046965
220	0xbf67d96e	-0.90566146
221	0xbe66a0bf	-0.22522257
222	0xbe92f4cb	-0.28702387
223	0xbcf3491f	-0.029697953
224	0xbeac4d38	-0.33652663
225	0xbe92ee94	-0.28697646
226	0xbeaf3bcf	-0.34225318
227	0xbeb74db1	-0.3580146
228	0x3d5e4159	0.05426154
229	0xbcd44860	-0.025913417
230	0xbe781d72	-0.24229982
231	0xbf69ec2d	-0.91376
232	0xbd03f138	-0.032212466
233	0xbe122cd5	-0.14274915
234	0xbe7f4809	-0.24929823
235	0xbe1ec0d9	-0.15503253
236	0xbe804435	-0.25052038
237	0xbe704e61	-0.23467399
238	0xbcd1f4d5	-0.02562944
239	0xbd61dc93	-0.055141997
240	0xbcefd014	-0.029274024
241	0xbe9f0a85	-0.31062713
242	0x3d08267c	0.033239827
243	0xbe856328	-0.26052213
244	0xbd3d0917	-0.046151247
245	0xbe93cee8	-0.28868794
246	0xbe1d2f24	-0.15350014
247	0xbdba922c	-0.09109911
248	0xbf4f6b54	-0.81023145
249	0xbdcb7e7d	-0.09936235
250	0xbeb23edc	-0.34813583
251	0xbe1465d2	-0.14491966
252	0x397ab0d7	0.00023907736
253	0xbc4a7d96	-0.012359044
254	0xbce006a3	-0.027346915
255	0x3d67ed12	0.056622572

out_n.0.bias f4 [200]
0	0xbf4699a1	-0.7757817
1	0x3f06c692	0.52646744
2	0x3dbce921	0.09224153
3	0xbea61a55	-0.32441965
4	0x3e2ab872	0.16671923
5	0xbdedea13	-0.11616912
6	0x3d865083	0.06558325
7	0x3ccc1df7	0.024916632
8	0xbdd60870	-0.10450828
9	0x3d131107	0.03590491
10	0xbdaeaf62	-0.08529545
11	0x3dd4c5eb	0.10389312
12	0xbd7a837a	-0.061160542
13	0x3d025d3a	0.03182719
14	0xbc8044b7	-0.015657766
15	0xbe225b47	-0.15855132
16	0x3db27d03	0.0871525
17	0xbdb4cc13	-0.088279866
18	0x3daff63c	0.08591887
19	0xbe094428	-0.13404906
20	0x3d6a42bc	0.05719255
21	0xbcf49097	-0.029854102
22	0xbd2aae6f	-0.04167026
23	0x3d9d7cfd	0.07689855
24	0xbcd9e670	-0.026599139
25	0x3ccebb5a	0.02523582
26	0xbd4f341b	-0.0505868
27	0xbc0cd8fe	-0.008596657
28	0xbcd4ec33	-0.025991535
29	0xbd25268a	-0.040319957
30	0x3d6c1c4f	0.057644185
31	0xbd22036b	-0.03955404
32	0x3b69922d	0.0035640106
33	0xbdbb2e4f	-0.09139692
34	0xbc146a1b	-0.009058501
35	0xbd8eb3ab	-0.06967863
36	0x3b9fcf22	0.004876987
37	0xbbbd18db	-0.0057707853
38	0xbd76ebe4	-0.060283557
39	0x3dcdc1a9	0.10046703
40	0xbd7f4a2c	-0.062326595
41	0x3c00fdf0	0.007873043
42	0xbcf18ec5	-0.029487023
43	0xbd091c54	-0.03347428
44	0x3dbbbfe7	0.09167462
45	0xbe00a858	-0.12564218
46	0x3db6e1be	0.08929776
47	0xbda7f141	-0.082003124
48	0x3d774bec	0.06037514
49	0xbdcc8f36	-0.09988253
50	0x3c8eb91d	0.017422253
51	0xbcd15b38	-0.025556192
52	0xbdbb1e7d	-0.091366746
53	0x3d860741	0.06544352
54	0xbdf16278	-0.117863595
55	0x3c81bfce	0.01583853
56	0xbceb9302	-0.028756622
57	0x3b715201	0.003682256
58	0xbc8c9ce4	-0.017164655
59	0xbe327520	-0.17427492
60	0x3d27fc4c	0.041012093
61	0xbe1bf31d	-0.15229459
62	0xbce09bdc	-0.02741807
63	0xbdb25c04	-0.08708957
64	0xbcea733b	-0.0286194
65	0x3c31c160	0.010849327
66	0xbc9baa33	-0.019002056
67	0xbbfe79fd	-0.007766007
68	0xbda2ebef	-0.07955157
69	0x3d7768e3	0.060402762
70	0xbd2608ea	-0.040535845
71	0xbcbb4ab4	-0.02286277
72	0x3bb59c83	0.0055423393
73	0xbd343768	-0.043998152
74	0xbc9dc051	-0.019256743
75	0xbd5beac3	-0.053690683
76	0x3dad534d	0.08463154
77	0xbdb12f2d	-0.08651576
78	0x3db933bd	0.090430714
79	0xbd111a12	-0.035425253
80	0x3d245a9d	0.040125478
81	0xbd2cb746	-0.04216697
82	0xbca43153	-0.02004305
83	0xbd1356b8	-0.035971373
84	0xbdf36eb8	-0.11886352
85	0x3cd84803	0.026401525
86	0xbe00b880	-0.12570381
87	0x3d45b8df	0.04827201
88	0x3a8e1302	0.0010839405
89	0xbd8c81c9	-0.06860692
90	0x3cd85c43	0.026411181
91	0xbdb27fdf	-0.08715796
92	0xbc733e58	-0.014846407
93	0xbd9e0f4a	-0.0771776
94	0x3c575c2b	0.013144533
95	0xbc8bfd4a	-0.017088551
96	0xbda50bc9	-0.080588885
97	0x3c29b644	0.010358397
98	0xbba25dfa	-0.0049550505
99	0xbd9eaa9e	-0.077473864
100	0xbc8d93de	-0.017282423
101	0xbdef25c1	-0.11677123
102	0xbd0dac9d	-0.034588445
103	0xbd303c12	-0.043026038
104	0xbc75d004	-0.015003208
105	0xbde9f6f3	-0.11424055
106	0xbdc083dc	-0.0940015
107	0xbde3cd9a	-0.111232
108	0xbc2bd614	-0.010488052
109	0xbda7eef6	-0.08199875
110	0xbdd42845	-0.10359243
111	0x3d29c420	0.041446805
112	0xbd76df96	-0.060271822
113	0xbd011ac2	-0.03151966
114	0x3d2f25ce	0.042760663
115	0xbde53b14	-0.11192909
116	0x3dc69192	0.09695734
117	0xbd93f5a0	-0.072245836
118	0xbd361293	-0.044451308
119	0x3bb8a9de	0.005635484
120	0xbdca9302	-0.09891321
121	0x3dd9607f	0.10614108
122	0xbe2c428c	-0.1682226
123	0x3d86488d	0.06556807
124	0xbdb6f8ad	-0.0893415
125	0xbced74f8	-0.02898644
126	0x3e0d9ab3	0.13828544
127	0xbe41d79a	-0.18929902
128	0x3dd10358	0.10205716
129	0xbe07046e	-0.13185284
130	0x3dde49a9	0.10853893
131	0xbe02df74	-0.12780553
132	0xbd9f3a19	-0.07774753
133	0x3d2b3c4c	0.04180555
134	0xbe16cb97	-0.14726101
135	0x3df12b3e	0.11775826
136	0xbe0cec90	-0.13762116
137	0x3b3c075c	0.002869091
138	0xbcbda613	-0.02315048
139	0xbda2ef49	-0.07955796
140	0x3e04afa7	0.12957631
141	0xbe3941bf	-0.18091486
142	0x3de0f109	0.10983474
143	0xbe0c9b02	-0.13731006
144	0x3cdaeaab	0.026723227
145	0xbd7ae194	-0.061250284
146	0xbd61d05c	-0.055130348
147	0xbc03a96e	-0.008036001
148	0xbe012cc2	-0.1261473
149	0x3ce0b444	0.027429707
150	0xbda74c80	-0.08168888
151	0x3bc6be2c	0.0060651507
152	0x3d206fba	0.03916905
153	0xbcbd00d1	-0.023071678
154	0x3da2bca1	0.07946134
155	0xbe38c1b8	-0.18042648
156	0x3c669790	0.014074221
157	0xbd9ce450	-0.07660735
158	0xbae27d8f	-0.0017279851
159	0xbbda6984	-0.0066654105
160	0xbdb2ab51	-0.08724082
161	0x3d726279	0.059175942
162	0xbe0f22a6	-0.13978061
163	0x3ca1281a	0.019672442
164	0xbdbae8f1	-0.09126461
165	0xbddc0a09	-0.107441016
166	0x3c854f07	0.016273035
167	0xbe35be99	-0.17748488
168	0xbbaebd7c	-0.005332647
169	0xbe1f4744	-0.1555453
170	0x3d4e05d6	0.050298534
171	0xbe17b94d	-0.1481678
172	0xbd13b6fe	-0.036063187
173	0xbe61eca9	-0.22062935
174	0xbc269ac7	-0.010168738
175	0xbdb97cfa	-0.090570405
176	0xbd9dddac	-0.07708296
177	0xbd6a4c3e	-0.057201616
178	0xbc94d423	-0.01816756
179	0xbd45023b	-0.04809783
180	0xbd3dd6a8	-0.04634729
181	0xbe36d4d6	-0.17854628
182	0x3cd066df	0.025439678
183	0xbdfeeb83	-0.12447264
184	0x3d4797e0	0.048728824
185	0x3c81fd6b	0.01586791
186	0xbd8016c5	-0.06254343
187	0x3da290c2	0.079377666
188	0xbdb747ed	-0.08949266
189	0x3cea8e9b	0.028632453
190	0xbd90daaa	-0.07072957
191	0x3cd200c4	0.02563513
192	0x3e8ae96e	0.27131218
193	0xbe38d80e	-0.18051168
194	0x3e1febbf	0.15617274
195	0xbe1c85bf	-0.15285395
196	0x3d819631	0.06327475
197	0xbdbb9946	-0.09160094
198	0x3c5bd315	0.013417025
199	0xbdb22950	-0.08699286

out_d.0.weight f4 [200, 256]
0	0xbb15a91d	-0.0022836395
1	0x3c4bca50	0.012438372
2	0xbdfb59cd	-0.122729875
3	0xbd5a1afc	-0.05324839
4	0xbcbb73f6	-0.022882443
5	0xbc4b0688	-0.012391694
6	0x3d6ed22f	0.058305915
7	0x3ca533b7	0.020166261
8	0xbc305e2f	-0.010764643
9	0x3d073f94	0.033019617
10	0x3d101a38	0.035181254
11	0xbd68bd45	-0.056821126
12	0x3b3cf648	0.0028833319
13	0x3bbe28e7	0.005803216
14	0x3c31027d	0.010803816
15	0x3ae8bca5	0.0017756416
16	0xbd32bc65	-0.0436367
17	0xbd2b6622	-0.04184545
18	0x3cb6017e	0.022217508
19	0x3d597f98	0.0531002
20	0xbdfeeba3	-0.12447288
21	0x3cfe5052	0.03104416
22	0xbd9f8a3c	-0.07790038
23	0xbcbf5f16	-0.02336077
24	0x3d3c5e77	0.045988526
25	0xbd4a15f8	-0.049337357
26	0xbb57cd76	-0.003292886
27	0x3c67292f	0.01410894
28	0xbdb72f92	-0.0894462
29	0xbcab6993	-0.020924365
30	0xbde665ad	-0.11249862
31	0x3d1823e2	0.037143596
32	0xbc80f45d	-0.015741521
33	0xba9d2ed5	-0.0011992106
34	0xbd1e122f	-0.03859156
35	0xbbe59aa0	-0.007006958
36	0xbd0a594a	-0.03377656
37	0xbd40bee4	-0.047057047
38	0xbd86f39f	-0.06589436
39	0x3c660169	0.014038422
40	0xbcbf96b7	-0.023387296
41	0x3d0fc3a6	0.035098694
42	0xbd48d151	-0.049027745
43	0xbd3927f8	-0.045204133
44	0x3bcf4989	0.0063259047
45	0x3c369da9	0.011145988
46	0x3d8fc22f	0.070194595
47	0xbcd3035c	-0.025758438
48	0xbce91e0d	-0.028456712
49	0x3d4ecfd0	0.050491154
50	0x3c46386d	0.012098414
51	0xbdd2b736	-0.10288851
52	0x3cd3320a	0.025780696
53	0x3d6b735b	0.05748306
54	0x3c5b8992	0.013399499
55	0xbd24b03c	-0.040207133
56	0xbc0ba08c	-0.008522164
57	0xbcd45125	-0.025917599
58	0xbc4702f0	-0.012146696
59	0x3b9b7c99	0.004745078
60	0xbd588c38	-0.052868098
61	0xbc28314c	-0.01026566
62	0x3d94c515	0.07264153
63	0x3d55e5ee	0.05222123
64	0xbd42b435	-0.04753514
65	0xbd8a45b8	-0.06751579
66	0xbdf07a7b	-0.11742111
67	0xbd202080	-0.039093494
68	0xbd3db677	-0.04631659
69	0x3b0c0556	0.0021365485
70	0x3acd99d0	0.0015686098
71	0x3c25a90f	0.0101111075
72	0x3c56bc30	0.013106391
73	0xbc38d574	-0.01128136
74	0xbd7a286d	-0.06107371
75	0x3cb6493a	0.022251714
76	0x3c17290d	0.009226096
77	0x3d0e1644	0.034689203
78	0x3cf5f9d8	0.030026361
79	0x3d0350d6	0.032059513
80	0x3d66de6e	0.05636447
81	0xbcfff14e	-0.031242993
82	0x3c940b89	0.018071907
83	0xbd9f747b	-0.07785889
84	0x3c4f306b	0.012645821
85	0xbd15deba	-0.03658936
86	0xbcb81303	-0.022470003
87	0x3d2a2f7d	0.041549195
88	0x3cc277b4	0.02373872
89	0x3c3b77b1	0.011442111
90	0x3bfe971d	0.007769479
91	0x3c30d968	0.010794021
92	0x3c32a168	0.01090274
93	0xbd4cf238	-0.050035685
94	0xbcc3cb90	-0.023900777
95	0xbe015852	-0.12631348
96	0xbca365f8	-0.019946083
97	0xbddcfbf8	-0.10790247
98	0x3d255fbc	0.040374503
99	0xbc14de70	-0.009086236
100	0xbcf31b1c	-0.029676013
101	0xbd0b9bf9	-0.034084294
102	0x3bc3ee3c	0.0059793275
103	0xbd2b5984	-0.041833416
104	0xbcecc688	-0.02890326
105	0xbd42ac1d	-0.04752742
106	0xba115b3b	-0.00055449054
107	0xbc39580d	-0.011312497
108	0xbd8e64d0	-0.06952822
109	0xbac8904a	-0.001530179
110	0x3ca8ee27	0.020621372
111	0xbd82f83a	-0.06395002
112	0xbd7728d2	-0.060341664
113	0xbcb43fbf	-0.022003053
114	0xbd66848e	-0.056278758
115	0x3ba63308	0.0050720014
116	0xbd715150	-0.058915436
117	0xbc19e751	-0.009393529
118	0xbd8d94c9	-0.06913144
119	0x3c2696cb	0.010167788
120	0xbd2ea4cb	-0.042637628
121	0x3c74a2e8	0.014931418
122	0xbc2763b5	-0.010216643
123	0x3cd20f05	0.025641927
124	0xbbc38213	-0.005966434
125	0xbd1b2914	-0.037880972
126	0xbd861098	-0.06546134
127	0x3cfacb5f	0.030614553
128	0xbd24dbfd	-0.04024886
129	0xbd11eb84	-0.035624996
130	0xbccff6f5	-0.025386313
131	0x3d5e863e	0.054327242
132	0x3b9c1262	0.0047629336
133	0x3cd5effc	0.02611541
134	0xbd2ca7d7	-0.042152252
135	0x3d4eaab1	0.050455753
136	0xbd8d4954	-0.06898752
137	0xbc539c30	-0.012915656
138	0x3d8b83cc	0.06812248
139	0x3c88e20e	0.016709354
140	0xbd31cf44	-0.043410555
141	0xbbe59003	-0.007005693
142	0xbd7c554c	-0.061604783
143	0x3d4027ad	0.046912838
144	0xbd63aaf0	-0.05558294
145	0xbd5e76cf	-0.054312523
146	0x3d3fb7c7	0.046806123
147	0xbd29febf	-0.04150271
148	0xbc78f2f3	-0.015194642
149	0xbd72453e	-0.059148066
150	0xbd6bd5bd	-0.057576884
151	0x3d0c242f	0.034214195
152	0xbd829127	-0.06375342
153	0x3b93d0d0	0.0045109764
154	0xbda13b90	-0.07872689
155	0x3d43c89d	0.04779874
156	0xbd279418	-0.040912718
157	0xbc76ebb0	-0.015070841
158	0xbd86d266	-0.06583099
159	0xbd12a920	-0.03580582
160	0xbd9c486a	-0.076309994
161	0xbd6be597	-0.057592
162	0xbd3d17a9	-0.046165142
163	0x3d0133da	0.03154359
164	0x3b87392e	0.0041266894
165	0xbc53b22e	-0.012920899
166	0x3c9c33aa	0.019067604
167	0xbdbff05a	-0.09372015
168	0x3c157816	0.009122869
169	0x3c9d8f50	0.019233376
170	0xbe03d89a	-0.12875596
171	0xbd32f999	-0.043695066
172	0xbd9b3cef	-0.075799815
173	0x3c9915c9	0.018687146
174	0x3d24f953	0.040276837
175	0x3d16c55e	0.036809318
176	0xbdb32e0d	-0.08749018
177	0x3d6a3737	0.057181563
178	0xbd5dc96f	-0.05414718
179	0x3d173cc8	0.0369232
180	0xbda1ea70	-0.079060435
181	0x3d54eef1	0.051985685
182	0xbb5c472c	-0.0033611758
183	0x3ca01d0d	0.019545102
184	0xbcef8040	-0.029235959
185	0xbd4782c0	-0.048708677
186	0xbcf970af	-0.03044924
187	0x3d41cc4d	0.047313977
188	0x3d067f41	0.032836203
189	0xbdbea5be	-0.093089566
190	0xbd0dd27e	-0.03462457
191	0x3c8667f8	0.016406998
192	0x3cc899c6	0.024487387
193	0xbd210dcf	-0.03931981
194	0x3bbc5238	0.005747106
195	0x3d5b632a	0.053561367
196	0xbd194ba6	-0.03742566
197	0xbdd5779b	-0.104232036
198	0x3ca85ad8	0.02055113
199	0xbc743cf7	-0.014907113
200	0xbbd88662	-0.0066078166
201	0xbc8d9887	-0.017284645
202	0xbcabe2e6	-0.020982217
203	0xbbafac56	-0.00536112
204	0xbdef69d5	-0.11690108
205	0x3d13b5aa	0.03606192
206	0xbd3c125c	-0.045915946
207	0x3d16399e	0.03667604
208	0xbcdd3df9	-0.02700709
209	0xbcf5a7f3	-0.029987311
210	0xbc6c416f	-0.014419897
211	0x3ca540b4	0.020172454
212	0xbd32e67b	-0.043676835
213	0x3d191d49	0.037381444
214	0xbd843465	-0.06455306
215	0xbd3addd1	-0.045621697
216	0xbd3e6b22	-0.04648889
217	0x3cd5b05b	0.02608507
218	0xbc0ed980	-0.008718848
219	0xbd0f57d5	-0.034995873
220	0xbd8ba7da	-0.068191245
221	0xbbf5f34b	-0.0075058094
222	0xbc764962	-0.015032144
223	0xbd2ba930	-0.041909397
224	0xbd7e295e	-0.06205117
225	0xbd9a2255	-0.075260796
226	0xbc2b0a47	-0.010439462
227	0xbcbfc5f8	-0.023409829
228	0x3d72067e	0.059088223
229	0x3ccd13c5	0.02503384
230	0xbd8b1445	-0.067909755
231	0xbd5218a9	-0.05129305
232	0x3c984ecc	0.01859226
233	0xbdb82b25	-0.08992604
234	0xbd5b0ce8	-0.053479105
235	0x3c743f06	0.014907604
236	0xbd9a134e	-0.07523213
237	0xba9df169	-0.0012050095
238	0xbd569c10	-0.052394927
239	0x3cdca35c	0.026933365
240	0x3d87f25c	0.06638023
241	0x3d05b16f	0.032639917
242	0x398bc400	0.00026658177
243	0x3d12c755	0.03583463
244	0x3c945a57	0.018109484
245	0x3cea030e	0.02856591
246	0xbd77321e	-0.06035053
247	0xbd0c5d85	-0.034268875
248	0xbe14add3	-0.14519434
249	0xbd5a6dd1	-0.053327385
250	0xbe071152	-0.13190201
251	0xbccdc225	-0.02511699
252	0xbd3da67f	-0.04630136
253	0xbd6aae74	-0.057295278
254	0x3d6a175c	0.057151183
255	0x3d7914c6	0.060810827
