Phase1/ch3_figures_output_tuned_corrected/model_100L_none.pth (torch, 576125 bytes, 8 tensors)

backbone.0.weight f4 [256, 100]
0.022185076 -0.037279654 -0.047106147 -0.07354579 0.037676908 -0.08682185 -0.0022051693 0.03454126
-0.0469005 0.09900186 -0.087159984 -0.04985267 0.002039659 -0.081564605 0.017892038 0.026564062
0.076768495 -0.078681186 -0.027218092 0.026224637 0.0139130475 -0.07141818 0.016456127 -0.035985794
0.0874865 0.04937011 -0.054308593 0.050238073 0.08141549 -0.045499623 -0.058432687 -0.028957332
-0.07538205 -0.017769003 0.046906542 -0.09343567 -0.08157422 0.056092944 0.057961203 0.04231694
0.088906564 -0.007331479 -0.08632741 0.09432974 -0.06114874 -0.005621493 0.046286583 -0.04181086
-0.07513269 -0.05058695 0.03211222 0.057142127 -0.020720124 -0.015921284 0.009786404 0.09357627
0.06066631 -0.08370552 0.07438763 0.034903396 0.06457591 -0.035747994 0.024869954 -0.027056193
0.011339426 0.01600771 -0.031493068 -0.07285177 -0.020217681 -0.008568394 -0.008580602 0.010542882
-0.03081205 -0.027902484 -0.07640239 0.097552456 0.043503642 -0.05603167 -0.0033208847 0.08821087
0.028227067 0.023317015 0.04507761 0.094094746 0.067061104 -0.09781446 -0.07241628 -0.066368364
0.06278372 0.0039210203 0.06476573 -0.007336223 -0.0011883855 0.04762149 -0.09696164 -0.021327866
-0.085560694 -0.057766642 0.09255063 -0.092029326 0.1021201 -0.08179068 -0.02503626 -0.01616077
0.0776981 0.012813012 0.010824394 0.04367342 -0.09049001 -0.05941598 -0.033510406 0.04895508
0.073669404 0.09082738 0.021422258 0.018139614 0.08902945 -0.052035578 -0.112039655 0.048400626
-0.08091436 0.028303912 0.021162512 0.029920755 0.06498698 0.078201465 0.027654396 0.06956032
-0.09948644 0.0443545 -0.08584165 -0.079769194 0.053148393 -0.017125333 0.0663393 0.09901136
0.08301436 0.059602927 -0.073255934 0.06257676 0.06575082 -0.0257836 -0.06549237 -0.03703627
-0.015461944 0.0025001634 0.038839832 -0.021726953 0.108178735 -0.041803665 -0.0021593494 -0.04821378
0.041671988 -0.055943653 0.020266294 0.03147406 0.063957766 0.03879136 -0.0384628 -0.045922037
0.08416152 0.043455422 0.043956418 -0.07055713 -0.08723224 0.009763805 0.059470586 0.05955843
0.054917946 0.05718496 -0.047231805 0.066315636 -0.070055455 -0.04733867 0.0654213 -0.06899703
0.050050914 0.03127244 -0.06242061 -0.10677654 0.032925423 0.038271736 -0.0041734613 0.06396374
0.011711958 -0.039819323 -0.07104121 0.03328978 0.07078236 0.08744303 -0.038262866 0.024482833
-0.009749975 -0.06847175 0.109207705 -0.074566446 0.0022973788 0.028711336 -0.06845867 -0.009171905
0.003563273 0.00026584865 0.00386132 -0.018514086 -0.041948665 -0.030186344 0.094938554 0.060291637
0.017029954 0.099417165 -0.07540782 0.07471428 0.055023313 0.015613354 -0.018848265 -0.009700596
0.055595435 -0.048734616 -0.018830348 -0.057787765 -0.07551756 -0.09447258 -0.051745903 -0.009561002
-0.06051744 0.08106966 -0.078208886 -0.09853234 -0.07426131 0.00580039 -0.017095877 -0.045236316
0.044405878 0.08420079 -0.037384 0.07561498 -0.034363247 0.029465724 0.026006604 0.055242587
0.04133905 0.013407982 0.08135098 0.0016878843 0.058660984 0.062082734 0.005742669 -0.07847738
-0.091144755 -0.027798438 -0.07866334 -0.09627458 -0.0073423865 0.05398432 -0.0052394154 -0.02026168
00000000: 7abd b53c 8db2 18bd 60f2 40bd 2d9f 96bd
00000010: 1a53 1a3d a7cf b1bd 9a84 10bb 237b 0d3d
00000020: bd1a 40bd 7dc1 ca3d ef80 b2bd 5032 4cbd
00000030: cdab 053b 580b a7bd 5392 923c e09c d93c
00000040: cd38 9d3d 9a23 a1bd 7af8 debc 0dd5 d63c
00000050: 8df3 633c b243 92bd 00cf 863c d765 13bd
00000060: 1f2c b33d 5038 4a3d b072 5ebd 70c6 4d3d
00000070: 2abd a63d d05d 3abd 1d57 6fbd ed37 edbc
00000080: e761 9abd 4d90 91bc 1321 403d 335b bfbd
00000090: 6210 a7bd b7c1 653d ba68 6d3d 8754 2d3d
000000a0: a514 b63d e73c f0bb 6dcc b0bd f32f c13d
000000b0: 1a77 7abd 8034 b8bb 0097 3d3d dd41 2bbd
000000c0: 2bdf 99bd 4334 4fbd 1a88 033d dd0d 6a3d
000000d0: 40bd a9bc 5a6d 82bc 2757 203c eaa4 bf3d
000000e0: 3d7d 783d cd6d abbd 8b58 983d ddf6 0e3d
000000f0: 6040 843d 7d6c 12bd 13bc cb3c f3a4 ddbc
00000100: 00c9 393c 9a22 833c e0fe 00bd 4f33 95bd
00000110: 8d9f a5bc 7362 0cbc a795 0cbc 0dbc 2c3c
00000120: 8d69 fcbc c093 e4bc db78 9cbd 95c9 c73d
00000130: e030 323d 7781 65bd 33a3 59bb e7a7 b43d
00000140: 733c e73c 5303 bf3c 4da3 383d bfb4 c03d
00000150: 5557 893d f352 c8bd fd4e 94bd 23ec 87bd
00000160: c094 803d e77b 803b e5a3 843d b364 f0bb
00000170: 9ac3 9bba c00e 433d d393 c6bd c7b7 aebc
00000180: 723a afbd b79c 6cbd 2f8b bd3d df79 bcbd
00000190: 5824 d13d df81 a7bd d818 cdbc 9763 84bc
000001a0: 2e20 9f3d abed 513c cd58 313c e6e2 323d
000001b0: d452 b9bd 2c5e 73bd 3542 09bd 1f85 483d
000001c0: fcdf 963d b503 ba3d bb7d af3c 8799 943c
000001d0: 1355 b63d 4223 55bd 0c75 e5bd bc3f 463d
000001e0: 6eb6 a5bd 9bdd e73c 015d ad3c 5f1c f53c
000001f0: e517 853d 1728 a03d 798b e23c a475 8e3d
00000200: 8cbf cbbd 10ad 353d bfcd afbd 085e a3bd
00000210: 21b2 593d 6d4a 8cbc e6dc 873d 78c6 ca3d
00000220: 6f03 aa3d 3322 743d 3507 96bd 3f28 803d
00000230: 5ea8 863d 2138 d3bc dd20 86bd 58b3 17bd
00000240: 1854 7dbc c8d9 233b 8416 1f3d b9fc b1bc
00000250: d08c dd3d 523a 2bbd df83 0dbb d07b 45bd
00000260: 3fb0 2a3d 2c25 65bd 8005 a63c f2ea 003d
00000270: 4afc 823d b0e3 1e3d 2b8b 1dbd bf18 3cbd
00000280: e05c ac3d 50fe 313d a50b 343d 4280 90bd
00000290: d1a6 b2bd 5ef8 1f3c 6e97 733d 8af3 733d
000002a0: a4f1 603d c73a 6a3d 2376 41bd 7ed0 873d
000002b0: 3c79 8fbd 31e6 41bd 9afb 853d 514e 8dbd
000002c0: 3002 4d3d 8817 003d c1ac 7fbd a9ad dabd
000002d0: cfdc 063d d3c2 1c3d 88c1 88bb 6cff 823d
000002e0: 83e3 3f3c 9619 23bd 0e7e 91bd dd5a 083d
000002f0: 58f6 903d 5515 b33d 86b9 1cbd 3990 c83c
00000300: 5cbe 1fbc eb3a 8cbd 4aa8 df3d 4bb6 98bd
00000310: 9f8f 163b 0934 eb3c 0f34 8cbd c245 16bc
00000320: cd85 693b 9a61 8b39 330e 7d3b daaa 97bc
00000330: 5dd2 2bbd 5a49 f7bc 256f c23d 5df4 763d
00000340: 6782 8b3c 3a9b cb3d 6a6f 9abd cd03 993d
00000350: 2060 613d 27cf 7f3c ad67 9abc 40ef 1ebc
00000360: 0ab8 633d f39d 47bd 1a42 9abc ddb2 6cbd
00000370: f3a8 9abd d77a c1bd 83f3 53bd c0a5 1cbc
00000380: 23e1 77bd da07 a63d fb2b a0bd 53cb c9bd
00000390: 5016 98bd 3311 be3b a70c 8cbc b749 39bd
000003a0: f0e2 353d 7771 ac3d f71f 19bd 07dc 9a3d
000003b0: 7ac0 0cbd 1a62 f13c cd0b d53c 0d46 623d
000003c0: 2353 293d 27ad 5b3c 589b a63d 003c dd3a
000003d0: 8046 703d 774a 7e3d 002d bc3b c0b8 a0bd
000003e0: 1aaa babd 8db9 e3bc 3f1a a1bd 9b2b c5bd
000003f0: 6798 f0bb aa1e 5d3d 67af abbb d3fb a5bc

backbone.0.bias f4 [256]
0.07157548 0.037514474 0.0038369775 0.04145254 0.041943006 -0.066217385 -0.027733209 -0.059402354
-0.01992835 -0.048056234 -0.09674828 -0.04699463 0.03717999 -0.07796233 0.09867598 0.009451914
-0.02068559 0.03625419 -0.03711276 -0.027217317 -0.065757826 -0.06869153 0.03881069 -0.025351811
-0.095305316 -0.09537226 -0.067535065 0.022409316 0.061845616 0.0023575048 -0.109605744 0.06544016
0.06056885 -0.034623053 -0.03834287 0.07912965 0.05230831 -0.09994027 0.035077263 0.027472591
-0.032415032 0.022681177 -0.056616843 0.057532277 -0.045238316 0.04537981 -0.07205164 -0.06072798
-0.04794805 0.04087287 0.042271055 -0.07038089 -0.03316751 -0.03556181 -0.02661269 -0.024462068
0.05542152 -0.0143925315 -0.1016246 -0.0024716712 0.016887117 -0.0730806 0.048088312 -0.019786283
-0.05713645 -0.086404584 0.034082945 -0.093271665 0.014503349 0.06145606 -0.07903302 -0.064065985
-0.061371922 0.08445715 -0.06658103 -0.07845229 -0.092713416 -0.08834957 0.05727095 0.0985712
0.0008216987 0.015131104 -0.013125566 -0.09790416 -0.06904683 0.08438867 -0.012535358 0.0046393904
0.047817387 0.020504821 0.01374619 0.099968486 0.018817984 0.09727488 0.09663143 -0.059915435
0.06948322 0.030013585 -0.016656464 -0.030115165 -0.10854167 0.050462462 0.037871655 -0.011865723
0.028654624 0.049074557 -0.015992213 -0.005586171 0.001398863 -0.0051816385 0.054718602 0.08980974
0.025853707 0.070077375 -0.036371022 -0.042528994 -0.01465522 -0.057646263 -0.065699354 -0.06659527
-0.042798735 -0.09503708 0.0659349 0.05263211 -0.07164318 0.0032356144 0.08961797 0.06534107
0.045700707 -0.08054103 -0.10136222 -0.057189204 0.06749422 -0.014848244 -0.09310179 -0.11155862
0.012464768 0.047714602 -0.0018528104 0.06757865 -0.019972457 -0.011008653 0.043893576 0.026067996
-0.03000288 0.021284997 -0.04192203 -0.055614937 -0.028126074 -0.028235879 0.0105584515 0.010521603
-0.014637697 -0.07689985 -0.057070803 -0.00564132 -0.010882629 -0.067480326 -0.071810596 -0.024838401
-0.0060035004 0.03689283 0.05564355 0.006361013 0.081288934 0.049290475 -0.05737653 0.07570624
-0.06640484 0.0010337115 0.025007164 -0.02231859 0.09245201 0.049026664 0.020202566 -0.07129993
-0.03211015 -0.050895356 0.09681114 -0.04561138 -0.007846606 0.05484127 -0.031558562 0.0014413238
-0.029295225 -0.008019465 0.042749397 -0.069161646 0.06349929 -0.014770279 -0.054043986 0.08714044
-0.070845485 0.0050263307 0.03559486 0.048919253 -0.10408811 -0.04377494 0.09346346 0.030767476
-0.02968632 -0.027575767 -0.06334593 0.07627878 -0.004038012 -0.016533582 -0.031001925 0.01733674
-0.057642438 -0.060814004 -0.0737474 -0.05859071 -0.097636044 -0.024116619 -0.11221192 0.036945608
-0.11125609 -0.007027244 -0.06345242 -0.07196119 0.047505368 -0.08343585 -0.07254266 0.015336096
-0.04154656 -0.08702984 -0.08847764 -0.09811267 -0.08344434 -0.028524233 0.036154818 -0.032529484
-0.074576244 0.029621866 0.046057604 -0.019436872 -0.09214286 -0.08228033 0.030666698 -0.05446137
-0.010486508 -0.016101373 -0.028912796 -0.011549509 -0.010125364 -0.08032218 -0.0672761 -0.09099891
-0.0991958 -0.09143412 -0.024198351 0.020129276 -0.08168546 0.0069484115 -0.08755759 -0.08401928
00000000: 2a96 923d c7a8 193d cd75 7b3b 23ca 293d
00000010: 6ecc 2b3d fb9c 87bd c130 e3bc e24f 73bd
00000020: c740 a3bc 9dd6 44bd f623 c6bd 717d 40bd
00000030: 0c4a 183d b7aa 9fbd a216 ca3d 33dc 1a3c
00000040: d474 a9bc 467f 143d 8d03 18bd daf6 debc
00000050: 0aac 86bd 25ae 8cbd f5f7 1e3d 9aae cfbc
00000060: 6f2f c3bd 8852 c3bd d34f 8abd be93 b73c
00000070: d451 7d3d 5e80 1a3b fa78 e0bd 7e05 863d
00000080: 0b17 783d e7d0 0dbd 6a0d 1dbd ba0e a23d
00000090: 3d41 563d 7cad ccbd 2dad 0f3d 330e e13c
000000a0: a0c5 04bd e0cd b93c 10e7 67bd f7a6 6b3d
000000b0: d04b 39bd 2ee0 393d cf8f 93bd e7bd 78bd
000000c0: 2d65 44bd 4f6a 273d 6a24 2d3d db23 90bd
000000d0: a8da 07bd 43a9 11bd db02 dabc ad64 c8bc
000000e0: ad01 633d a7ce 6bbc 8f20 d0bd c3fb 21bb
000000f0: da56 8a3c 48ab 95bd 40f8 443d d816 a2bc
00000100: e907 6abd e3f4 b0bd 8f9a 0b3d 3705 bfbd
00000110: 749f 6d3c 59b9 7b3d 10dc a1bd 0735 83bd
00000120: 2061 7bbd dff7 ac3d a35b 88bd 98ab a0bd
00000130: 88e0 bdbd 9ff0 b4bd f294 6a3d b3df c93d
00000140: 4467 573a 73e8 773c 9d0c 57bc fa81 c8bd
00000150: 6d68 8dbd f8d3 ac3d 1a61 4dbc 0706 983b
00000160: 2adc 433d baf9 a73c b337 613c 47bc cc3d
00000170: 2c28 9a3c 0d38 c73d b3e6 c53d e369 75bd
00000180: 384d 8e3d 0ddf f53c 2373 88bc 14b4 f6bc
00000190: 184b debd bab1 4e3d 4f1f 1b3d 7368 42bc
000001a0: 1abd ea3c 6702 493d 1a02 83bc 330c b7bb
000001b0: 0e5a b73a bcca a9bb 9d20 603d 2bee b73d
000001c0: 27cb d33c ba84 8f3d c8f9 14bd e232 2ebd
000001d0: 731c 70bc 7d1e 6cbd 628d 86bd 1a63 88bd
000001e0: ba4d 2fbd cda2 c2bd e008 873d c494 573d
000001f0: a9b9 92bd 9a0c 543b a089 b73d 8ad1 853d
00000200: aa30 3b3d b2f2 a4bd ff96 cfbd 3a3f 6abd
00000210: 693a 8a3d 0d46 73bc 27ac bebd d978 e4bd
00000220: 0739 4c3c 6370 433d 00da f2ba ad66 8a3d
00000230: 479d a3bc a35d 34bc c0c9 333d 8d8c d53c
00000240: 9ac8 f5bc e05d ae3c 6fb6 2bbd 7dcc 63bd
00000250: a768 e6bc ee4e e7bc 5bfd 2c3c cd62 2c3c
00000260: f3d2 6fbc ab7d 9dbd 13c3 69bd d2da b8bb
00000270: 0e4d 32bc 2033 8abd 6f11 93bd e779 cbbc
00000280: 03b9 c4bb f01c 173d 7eea 633d 0b70 d03b
00000290: d07a a63d cfe4 493d a703 6bbd e00b 9b3d
000002a0: 43ff 87bd 9a7d 873a d3db cc3c 7ad5 b6bc
000002b0: 7b57 bd3d 2fd0 483d da7f a53c b305 92bd
000002c0: ef85 03bd a677 50bd eb44 c63d 00d3 3abd
000002d0: 0d8f 00bc 3da1 603d 8d43 01bd cdea bc3a
000002e0: 8afc efbc 1364 03bc fe19 2f3d 9fa4 8dbd
000002f0: ea0b 823d 0aff 71bc 3a5d 5dbd b076 b23d
00000300: 7017 91bd ebb3 a43b eacb 113d 8e5f 483d
00000310: 262c d5bd 5a4d 33bd c569 bf3d 130c fc3c
00000320: ba30 f3bc 93e6 e1bc 83bb 81bd 0d38 9c3d
00000330: 4d51 84bb 6f71 87bc c0f7 fdbc c705 8e3c
00000340: 7a1a 6cbd 1b18 79bd e008 97bd d0fc 6fbd
00000350: 68f5 c7bd 3790 c5bc 5dcf e5bd 4754 173d
00000360: 3cda e3bd cc44 e6bb 58f3 81bd 6360 93bd
00000370: fd94 423d 6ae0 aabd 3f91 94bd 4044 7b3c
00000380: ba2c 2abd b33c b2bd c433 b5bd 4cef c8bd
00000390: dee4 aabd a7ab e9bc 1317 143d a33d 05bd
000003a0: 6ebb 98bd 8ea9 f23c e6a6 3c3d 133a 9fbc
000003b0: 65b5 bcbd 9782 a8bd ba38 fb3c e312 5fbd
000003c0: 9acf 2bbc 07e7 83bc 87da ecbc 273a 3dbc
000003d0: dbe4 25bc f57f a4bd 0dc8 89bd a35d babd
000003e0: 2b27 cbbd d041 bbbd 9f3b c6bc 27e6 a43c
000003f0: b54a a7bd 80af e33b 6551 b3bd 4d12 acbd

backbone.2.weight f4 [256, 256]
-0.044653498 0.0077859387 -0.05102995 0.05798489 0.022853024 0.0232874 -0.027551927 -0.05472198
0.06054619 0.043334447 -0.061857402 0.0011715516 0.022647105 0.013697021 -0.028080046 0.045375153
0.01680319 0.012850121 -0.05081708 -0.01830922 0.028032623 0.0030791909 -0.010602318 0.03580404
0.019674465 -0.0059382394 -0.011143342 -0.012153514 0.05916986 0.013998494 -0.04316736 0.03277795
-0.023034662 0.0517985 -0.023830757 -0.007994138 -0.051866196 -0.034673437 -0.028500691 0.009906612
-0.03883399 0.058015987 0.024530724 -0.02920124 0.043263532 0.04012733 0.05303012 -0.057433553
-0.049342394 0.013917908 -0.05133126 0.011381708 -0.061343797 -0.005370222 -0.041251063 -0.045716636
0.06114967 0.03943994 0.043531567 -0.05514361 -0.04910466 0.05862595 0.0063002706 0.04124193
-0.048089832 -0.052580476 -0.027018152 -0.040623218 -0.04792194 0.02454608 -0.023301445 -0.040533036
0.048763454 0.0017092898 0.018053025 -0.060257204 -0.049849875 -0.04192619 0.048582323 0.05180583
0.009201318 0.04218384 -0.0422483 -0.060243174 0.01915431 -0.02115836 0.029934108 0.050693087
0.016061716 0.011478536 0.0484208 0.0021348298 0.024651185 0.039590985 0.032098897 -0.00217285
-0.020183831 -0.034665257 -0.0018823892 0.005696349 -0.011850923 -0.015177846 -0.001006119 0.06023947
-0.03553521 -0.00060367584 -0.0282159 0.03934645 -0.038071044 -0.016352616 0.048448294 0.0500615
0.026614055 0.013163723 -0.043352157 0.009429023 0.0012448356 0.0033807456 0.048064955 0.045877047
0.039722934 -0.014877133 0.017921649 -0.013917431 0.020124212 0.0026327893 -0.015150256 -0.006358899
0.0009556711 0.029672407 -0.058114678 -0.060698584 -0.03895487 0.053516045 -0.021814115 -0.054494202
-0.047373466 0.010807604 0.014359266 0.040172674 0.008964479 -0.02161578 0.03778802 0.059681706
-0.05774106 -0.038428746 -0.07443883 -0.014523797 -0.014245361 -0.024485193 -0.042409755 -0.003244102
-0.043214984 0.031838544 -0.019309387 0.023795687 0.03947424 -0.0211154 -0.03506285 0.041687608
-0.002331607 0.035402775 0.0045398325 0.014129408 0.05902794 0.061244257 0.04543481 0.03635039
0.043477744 -0.04201959 -0.039735377 -0.018578589 -0.056424625 0.056904897 0.014468439 0.018211216
0.026160747 0.05728537 -0.051846363 -0.054037705 -0.010395937 -0.045267276 -0.0041824356 -0.036784552
0.013533257 -0.02373597 -0.014318131 0.04939743 0.027572855 -0.061353974 0.031580687 -0.003714241
-0.0032072589 0.051877834 0.023968928 0.031328537 0.0487677 0.054420255 -0.03429286 -0.044196375
0.036066234 -0.005633369 0.007091932 -0.04272273 0.054594398 0.030408725 -0.04839593 0.015809521
-0.025864333 0.046563856 -0.050610453 0.0036136284 0.047264792 -0.05333151 -0.03697996 -0.030086964
-0.053647853 0.036625847 -0.013413936 0.039509967 -0.03998793 0.024092667 0.05308803 0.048041552
0.014024809 0.022530124 -0.037916988 0.018533021 0.050028585 -0.025952429 0.0073741823 0.0036739334
-0.045962907 -0.03470368 0.0040238947 0.045887865 0.010733806 0.02535849 -0.05010622 -0.03568677
-0.016746677 -0.032399654 -0.01743079 0.013711922 0.0040524006 0.017406024 0.02975358 -0.058697328
-0.05848737 -0.060465798 -0.048397087 0.027260564 -0.014074564 0.04587239 0.053625032 0.022461161
00000000: 96e6 36bd 3021 ff3b c804 51bd 9081 6d3d
00000010: 4436 bb3c 38c5 be3c 94b4 e1bc 2824 60bd
00000020: 48ff 773d 767f 313d 305e 7dbd c08e 993a
00000030: 6c86 b93c 7869 603c 2008 e6bc 4cdb 393d
00000040: d8a6 893c 5089 523c 9225 50bd 38fd 95bc
00000050: aca4 e53c 40cc 493b 58b5 2dbc 42a7 123d
00000060: 582c a13c 9095 c2bb 9092 36bc 881f 47bc
00000070: 185c 723d f059 653c 42d0 30bd 2c42 063d
00000080: 30b3 bcbc aa2a 543d b838 c3bc d8f9 02bc
00000090: a671 54bd bc05 0ebd 487a e9bc 584f 223c
000000a0: 6410 1fbd 2ca2 6d3d a8f4 c83c 7037 efbc
000000b0: 1a35 313d 8e5c 243d 1c36 593d 723f 6bbd
000000c0: 401b 4abd f007 643c ba40 52bd 587a 3a3c
000000d0: a243 7bbd b0f8 afbb e0f6 28bd 5e41 3bbd
000000e0: 1478 7a3d c68b 213d 284e 323d 44de 61bd
000000f0: f821 49bd c421 703d 8072 ce3b 4ced 283d
00000100: d8f9 44bd a05e 57bd 2c55 ddbc 8864 26bd
00000110: cc49 44bd dc14 c93c ace2 bebc f805 26bd
00000120: 30bc 473d 400a e03a f0e3 933c 42d0 76bd
00000130: 622f 4cbd ccba 2bbd 42fe 463d 5a32 543d
00000140: 20c1 163c f6c8 2c3d 8e0c 2dbd 8cc1 76bd
00000150: 80e9 9c3c 4c54 adbc 6038 f53c 8ea3 4f3d
00000160: dc93 833c 7810 3c3c e454 463d 80e8 0b3b
00000170: 48f1 c93c 282a 223d 227a 033d 6066 0ebb
00000180: 9058 a5bc 28fd 0dbd 80ba f6ba 70a8 ba3b
00000190: 602a 42bc 80ac 78bc c0df 83ba aabd 763d
000001a0: 5e8d 11bd 0040 1eba 0825 e7bc be29 213d
000001b0: 62f0 1bbd ecf5 85bc b871 463d 4a0d 4d3d
000001c0: b805 da3c a8ac 573c 0892 31bd 307c 1a3c
000001d0: c029 a33a 808f 5d3b c2df 443d 92e9 3b3d
000001e0: 84b4 223d 38bf 73bc 6cd0 923c f005 64bc
000001f0: 88db a43c e08a 2c3b c838 78bc 505e d0bb
00000200: 0086 7a3a 8c13 f33c a809 6ebd 149f 78bd
00000210: 248f 1fbd a433 5b3d 84b3 b2bc 5035 5fbd
00000220: ae0a 42bd 6012 313c 2043 6b3c 1a8c 243d
00000230: c0df 123c 9413 b1bc 9cc7 1a3d ce74 743d
00000240: e481 6cbd 7667 1dbd 6373 98bd 38f5 6dbc
00000250: 6065 69bc 2c95 c8bc dab5 2dbd 009b 54bb
00000260: 3202 31bd 2269 023d b82e 9ebc 2cef c23c
00000270: beaf 213d 34fa acbc 109e 0fbd a0c0 2a3d
00000280: e0cd 18bb 8002 113d e0c2 943b 087f 673c
00000290: 48c7 713d 42db 7a3d da19 3a3d 26e4 143d
000002a0: b815 323d bc1c 2cbd 90c1 22bd 2032 98bc
000002b0: 821d 67bd 1c15 693d 080d 6d3c b02f 953c
000002c0: 104f d63c 10a4 6a3d da5c 54bd a456 5dbd
000002d0: b853 2abc 2e6a 39bd d00c 89bb 66ab 16bd
000002e0: 98ba 5d3c f071 c2bc 9896 6abc f654 4a3d
000002f0: 78e0 e13c 4e4e 7bbd c05a 013d a06a 73bb
00000300: e030 52bb da7d 543d 7c5a c43c 5a52 003d
00000310: a4c0 473d c6e7 5e3d ac76 0cbd 4207 35bd
00000320: 30ba 133d 2098 b8bb 7063 e83b 08fe 2ebd
00000330: 609e 5f3d b81b f93c d03a 46bd f882 813c
00000340: 70e1 d3bc beb9 3e3d e84c 4fbd a0d2 6c3b
00000350: ba98 413d 2472 5abd 4c78 17bd f078 f6bc
00000360: dabd 5bbd fc04 163d 20c6 5bbc 34d5 213d
00000370: 62ca 23bd fc5d c53c d672 593d 38c7 443d
00000380: 50c8 653c 1891 b83c d84e 1bbd 90d2 973c
00000390: c6ea 4c3d 309a d4bc 20a3 f13b 60c6 703b
000003a0: 9a43 3cbd 7225 0ebd e0da 833b eaf4 3b3d
000003b0: d8dc 2f3c 9cbc cf3c 2e3c 4dbd 4a2c 12bd
000003c0: 5430 89bc 80b5 04bd 04cb 8ebc f8a7 603c
000003d0: 00ca 843b 1497 8e3c c8bd f33c 9c6c 70bd
000003e0: 7490 6fbd fcaa 77bd 063c 46bd 8c51 df3c
000003f0: 0099 66bc b0e4 3b3d eca5 5b3d 7800 b83c

backbone.2.bias f4 [256]
-0.07860697 -0.054120492 0.1252141 -0.020998327 -0.0666108 0.034656174 -0.010732032 0.043133162
-0.09631384 -0.068367496 -0.06317004 -0.08800551 -0.028209051 -0.042401124 -0.05966777 0.07950486
-0.0215827 0.08848931 0.03496579 -0.030824438 0.07090164 0.037521403 -0.04898183 0.12700498
-0.06721083 -0.030884713 -0.056143913 -0.07213529 -0.06105938 -0.06684413 0.019985497 -0.037573613
-0.025582198 0.057774194 0.02181183 -0.032756835 0.017121643 -0.03408649 -0.007250756 -0.01992256
-0.03663948 -0.06805284 -0.012024819 -0.05381238 0.08711826 0.07209868 0.020058947 -0.016772076
-0.061608043 -0.02265796 -0.0681821 0.07031855 -0.022849925 -0.026842577 0.051650498 -0.0067306906
-0.024340784 -0.060197562 -0.038161054 -0.02599329 -0.0065334514 -0.06192984 -0.036930453 0.0004060379
-0.08193536 -0.037917547 0.086064115 -0.02914967 0.0077035334 0.11466428 0.0140762115 0.029024923
-0.020925872 0.012069476 -0.005330696 0.06606345 -0.014779071 0.0035738035 -0.07885252 0.016600037
-0.0359155 -0.03966698 0.04805174 0.016468184 -0.037520915 0.007231104 0.02728775 -0.043276425
-0.010783716 -0.03518206 -0.0030527061 -0.026182938 -0.007611268 -0.04450043 -0.0063505806 -0.044937074
-0.019122988 0.094808385 -0.07788704 -0.031282715 0.008782095 0.04131664 0.00020433584 -0.035464045
0.0025235044 0.056444973 -0.04910796 0.018631654 0.04316493 -0.016950399 0.07301645 0.10678475
0.018902326 0.04988354 -0.01794521 0.04705497 0.051116057 -0.019542594 -0.05029144 0.03368665
0.025285428 0.12790123 -0.054222174 -0.01341821 -0.047410768 0.0353074 0.052185275 0.10170866
0.05267857 0.009212164 0.04036691 -0.080555215 -0.055809736 -0.05949053 0.06860511 -0.09087711
-0.079427786 -0.041617814 -0.05276662 -0.07906038 -0.009229244 -0.08653204 -0.03930652 -0.0040662843
-0.019502219 -0.07862525 -0.052346468 -0.058715317 -0.08745509 0.025460223 0.09508816 0.09036524
0.08984475 0.050510444 0.036643296 0.011486568 0.061268076 0.039689258 -0.019336583 -0.020858884
-0.01268155 0.006199355 -0.006248227 -0.065442845 0.08615932 -0.11048377 -0.025548417 -0.056727495
-0.040178094 0.025297776 0.0494418 -0.06150177 -0.04184623 -0.058882825 -0.061055362 -0.07997056
-0.064215034 -0.048472304 -0.029708032 -0.09541339 -0.0013741496 -0.009015108 -0.106785014 -0.04201478
-0.05423476 -0.016728824 0.032821216 0.04527855 -0.029851526 -0.074590735 0.003628587 -0.0032126978
0.06311011 -0.05791238 -0.078242026 -0.082556665 0.06531535 -0.00676058 -0.034820095 -0.037361313
-0.08473937 -0.03065975 0.05680315 -0.062279582 0.0126019865 0.03557583 -0.06193955 -0.040117174
0.024507402 -0.04242349 -0.049819883 0.0027415017 0.041554745 0.014756319 -0.033272654 -0.023470668
0.077552766 0.028371632 0.005600405 0.0016388752 -0.053458773 -0.038598806 0.14350465 -0.029577252
-0.0037819392 -0.022413678 -0.0410686 -0.018057248 0.09949676 0.0022950438 -0.025522089 -0.02866232
-0.05249863 0.10660012 -0.024226155 -0.06735936 -0.035914887 0.10884851 -0.059545185 -0.030563762
-0.024419293 -0.07857963 -0.011212741 -0.087134436 -0.008470515 -0.05522639 -0.020758897 -0.001660362
0.0151375495 0.03538957 0.028266862 -0.024052028 0.06043357 0.095926605 0.0051984433 -0.00057325023
00000000: b1fc a0bd 73ad 5dbd 2038 003e af04 acbc
00000010: 3e6b 88bd a2f3 0d3d 68d5 2fbc 66ac 303d
00000020: 3140 c5bd 4204 8cbd 4b5f 81bd 3c3c b4bd
00000030: ab16 e7bc cdac 2dbd 3166 74bd 72d3 a23d
00000040: 34ce b0bc e239 b53d 4a38 0f3d 8883 fcbc
00000050: e134 913d 0bb0 193d 2ca1 48bd 980d 023e
00000060: d5a5 89bd f001 fdbc 29f7 65bd abbb 93bd
00000070: 6719 7abd 93e5 88bd a0b8 a33c cae6 19bd
00000080: c291 d1bc a2a4 6c3d b9ae b23c 082c 06bd
00000090: b042 8c3c 469e 0bbd c097 edbb a334 a3bc
000000a0: 4813 16bd 4a5f 8bbd bf03 45bc 5f6a 5cbd
000000b0: 0f6b b23d 79a8 933d a952 a43c 9865 89bc
000000c0: b758 7cbd 309d b9bc 0fa3 8bbd 2c03 903d
000000d0: c42f bbbc f7e4 dbbc 798f 533d 208d dcbb
000000e0: 5366 c7bc b891 76bd c44e 1cbd e1ef d4bc
000000f0: 9016 d6bb 25aa 7dbd 6344 17bd 7ce1 d439
00000100: bacd a7bd 6e4f 1bbd 6242 b03d 4acb eebc
00000110: ec6d fc3b 1bd5 ea3d e99f 663c adc5 ed3c
00000120: bc6c abbc 0dbf 453c 1ead aebb 464c 873d
00000130: eb23 72bc 7936 6a3b 6e7d a1bd cdfc 873c
00000140: 221c 13bd d879 22bd e7d1 443d 49e8 863c
00000150: 88af 19bd e6f2 ec3b 8f8a df3c 9f42 31bd
00000160: 2fae 30bc 101b 10bd e90f 48bb 9a7d d6bc
00000170: f267 f9bb 1546 36bd 8818 d0bb f00f 38bd
00000180: d0a7 9cbc e62a c23d 3e83 9fbd 4e22 00bd
00000190: c7e2 0f3c a33b 293d fc42 5639 bf42 11bd
000001a0: 6161 253b d832 673d 6e25 49bd 69a1 983c
000001b0: b6cd 303d 90db 8abc a689 953d f7b1 da3d
000001c0: 0dd9 9a3c af52 4c3d d501 93bc b6bc 403d
000001d0: 125f 513d ca17 a0bc 66fe 4dbd 03fb 093d
000001e0: 6323 cf3c 8af8 023e 1218 5ebd 0dd8 5bbc
000001f0: cb31 42bd 7e9e 103d 3ac0 553d a14c d03d
00000200: 7cc5 573d 9eee 163c c657 253d 22fa a4bd
00000210: c098 64bd 58ac 73bd d680 8c3d c71d babd
00000220: 09ab a2bd 7177 2abd d021 58bd 69ea a1bd
00000230: 4136 17bc b637 b1bd e0ff 20bd 773e 85bb
00000240: 1ec3 9fbc 4606 a1bd 4069 56bd 797f 70bd
00000250: a71b b3bd f591 d03c 95bd c23d 6911 b93d
00000260: 8600 b83d 0ae4 4e3d 4817 163d 2832 3c3c
00000270: 3cf4 7a3d 3491 223d c167 9ebc 40e0 aabc
00000280: 47c6 4fbc f523 cb3b edbd ccbb e606 86bd
00000290: 4c74 b03d 5145 e2bd ea4a d1bc 175b 68bd
000002a0: c991 24bd 483d cf3c 7c83 4a3d 48e9 7bbd
000002b0: f466 2bbd 1e2f 71bd 3015 7abd 9bc7 a3bd
000002c0: 2c83 83bd e58a 46bd 425e f3bc 1868 c3bd
000002d0: cf1c b4ba 1bb4 13bc 1ab2 dabd b117 2cbd
000002e0: 4525 5ebd e30a 89bc 8a6f 063d 0076 393d
000002f0: 308b f4bc 07c3 98bd 96cd 6d3b 208c 52bb
00000300: e03f 813d 8835 6dbd 5b3d a0bd 7813 a9bd
00000310: 0ec4 853d db87 ddbb 849f 0ebd 2d08 19bd
00000320: d68b adbd 282a fbbc 6baa 683d e018 7fbd
00000330: 9078 4e3c f6b7 113d 53b4 7dbd e851 24bd
00000340: bfc3 c83c 41c4 2dbd ef0f 4cbd c4aa 333b
00000350: 4f35 2a3d 7dc4 713c e848 08bd 8f45 c0bc
00000360: fcd3 9e3d a06b e83c 9a83 b73b 87cf d63a
00000370: 96f7 5abd c819 1ebd e2f2 123e fe4b f2bc
00000380: 69da 77bb e49c b7bc 8c37 28bd cbec 93bc
00000390: f5c4 cb3d 7268 163b b313 d1bc 3ecd eabc
000003a0: ce08 57bd 2a51 da3d ee75 c6bc b4f3 89bd
000003b0: 7d1b 13bd f8eb de3d a7e5 73bd db60 fabc
000003c0: f80a c8bc 5bee a0bd a5b5 37bc 8a73 b2bd
000003d0: eac7 0abc 1135 62bd 900e aabc 81a0 d9ba
000003e0: 7c03 783c a7f4 103d e88f e73c c208 c5bc
000003f0: 3189 773d 2b75 c43d b457 aa3b 2c46 16ba

out_n.0.weight f4 [100, 256]
-0.014510216 -0.015203004 -0.44194108 -0.011116473 0.0042163623 -0.25940564 -0.08845525 0.026253907
-0.006564902 0.043755695 0.01880724 -0.1361488 -0.07207374 -0.15259397 0.013417872 -0.43369332
-0.051597517 -0.38698378 0.04955122 0.02373387 -0.45528582 -0.2404792 -0.035902858 -0.5641573
-0.11958764 -0.056849055 -0.041253563 -0.05855463 0.044056006 -0.08708402 -0.08944676 0.0027809173
-0.20752315 -0.0073561445 -0.12859996 0.03192849 -0.019509852 -0.01602829 -0.1238342 -0.23419149
-0.047088545 0.031295042 6.2557854e-05 -0.024435174 -0.51548314 -0.2488509 -0.11170877 0.0044931467
-0.054190487 -0.044653933 -0.19693808 -0.43769133 -0.047272854 -0.10626215 -0.01396614 -0.053438313
0.044200227 -0.12959774 -0.061490603 0.009409362 0.059342347 -0.0007730422 -0.090905994 -0.059241954
-0.0008899986 0.006607737 -0.37153292 -0.33778894 -0.016716482 -0.39053017 -0.120748274 -0.11653741
-0.040174518 -0.27231637 0.01639579 -0.09544781 -0.052675463 -0.0003772478 -0.049667202 -0.0005324687
-0.08478388 -0.025668338 -0.07855084 -0.25233507 -0.011068878 -0.03976619 0.0040624123 -0.029773656
0.025632465 -0.033797402 -0.018349512 -0.08265278 -0.09115331 0.03666408 -0.069407985 -0.027892573
0.047298305 -0.47526506 -0.08831961 0.02609276 -0.006765987 -0.3476052 -0.07246729 -0.029820198
-0.14291544 -0.4541048 0.022874461 -0.19126964 0.021819409 -0.026447631 -0.36238876 -0.4685252
-0.09906756 -0.52158743 -0.060477138 -0.38154238 -0.44233605 -0.13339128 -0.03219241 -0.25154462
-0.098279096 -0.3891912 -0.13796361 -0.1683433 -0.12098534 -0.18293804 -0.24551526 -0.46263564
-0.43864354 -0.014810641 -0.12655732 0.045195777 -0.041646823 -0.0010524008 -0.4864439 -0.05531928
0.025550244 -0.052248657 0.034321323 0.026186097 -0.035721153 -0.0637582 -0.056338053 -0.12177368
0.037469607 -0.108842134 0.052414518 0.01553074 -0.054778866 -0.04739218 -0.4049397 -0.34384704
-0.4170138 -0.32991382 -0.22873141 -0.046949506 -0.38694587 -0.24953575 -0.037790444 0.019299537
0.03974825 -0.00788488 -0.034144834 -0.20755625 -0.33548045 -0.0748158 -0.08107165 -0.016474493
-0.0037514088 0.041647103 -0.39644986 -0.012065083 -0.03740592 -0.057477877 0.03824893 -0.04146876
-0.009819431 0.023814715 -0.010549978 -0.003806759 -0.041453324 -0.0007859621 -0.066391006 -0.024422573
-0.12754421 0.008133723 -0.10638945 -0.43820742 -0.0070033893 -0.120882526 -0.1380806 -0.016296953
-0.34766638 -0.17827053 -0.053208716 0.020219494 -0.24547544 -0.011396667 0.053735755 -0.07892108
-0.04849182 -0.027501628 -0.4909638 0.007380896 0.051496908 -0.41998276 -0.2548614 0.056684606
-0.22984692 -0.036201198 -0.026821045 -0.089322746 -0.14681417 0.03613806 -0.024941353 -0.20667168
-0.08964941 -0.0041560866 0.012122165 -0.0563173 0.049276132 0.0342139 -0.4374978 -0.05602798
-0.059220422 0.013483655 -0.12846988 -0.013759495 -0.37093827 -0.031743046 -0.04354532 0.014917385
-0.079655126 -0.25236928 0.008966685 -0.08213727 -0.031358656 -0.4445785 0.031749893 -0.09262199
-0.011923291 -0.03928392 -0.01808394 0.005224321 -0.11827643 0.03464553 0.041816667 0.0011064864
-0.043057915 -0.38423133 -0.02918032 -0.05565247 -0.2856521 -0.4610171 -0.05579709 -0.044743206
00000000: 42bc 6dbc 0516 79bc 1a46 e2be de21 36bc
00000010: 6929 8a3b d1d0 84be 0728 b5bd 6f12 d73c
00000020: 641e d7bb 2c39 333d a411 9a3c 976a 0bbe
00000030: 669b 93bd 9841 1cbe a2d6 5b3c 0d0d debe
00000040: eb57 53bd bd22 c6be 38f6 4a3d 886d c23c
00000050: 391b e9be 2e40 76be e00e 13bd 9d6c 10bf
00000060: 5dea f4bd 8eda 68bd 7ff9 28bd fbd6 6fbd
00000070: 1274 343d 1b59 b2bd dd2f b7bd 0d40 363b
00000080: f380 54be d00b f1bb b5af 03be 73c7 023d
00000090: 20d3 9fbc c34d 83bc c99c fdbd e5cf 6fbe
000000a0: ebdf 40bd 3b2f 003d 7e31 8338 462c c8bc
000000b0: b4f6 03bf c5d2 7ebe 91c7 e4bd 3f3b 933b
000000c0: d8f6 5dbd 0be7 36bd 23aa 49be 1419 e0be
000000d0: 2ea1 41bd f89f d9bd 3dd2 64bc 22e2 5abd
000000e0: 4c0b 353d 45b5 04be 92dd 7bbd ba29 1a3c
000000f0: f610 733d fca5 4aba ec2c babd b1a7 72bd
00000100: cc4e 69ba b785 d83b 9039 bebe acf2 acbe
00000110: 01f1 88bc 92f3 c7be df4a f7bd 2aab eebd
00000120: 098e 24bd 0d6d 8bbe 7750 863c 247a c3bd
00000130: 3ac2 57bd 58c9 c5b9 d66f 4bbd 5f95 0bba
00000140: 2ca3 adbd 6846 d2bc 43df a0bd 1032 81be
00000150: 3d5a 35bc dfe1 22bd fc1d 853b e2e7 f3bc
00000160: 2dfb d13c 256f 0abd b751 96bc dc45 a9bd
00000170: 96ae babd 132d 163d c625 8ebd f77e e4bc
00000180: debb 413d f155 f3be e9e0 b4bd 7cc0 d53c
00000190: 36b5 ddbb 4ff9 b1be bb69 94bd 7d49 f4bc
000001a0: 6d58 12be 6d80 e8be 3963 bb3c 30dc 43be
000001b0: 9ebe b23c b4a8 d8bc 058b b9be 89e2 efbe
000001c0: efe3 cabd c186 05bf e0b6 77bd 8659 c3be
000001d0: df79 e2be b997 08be 30dc 03bd 75ca 80be
000001e0: 8d46 c9bd 1244 c7be 5546 0dbe 3062 2cbe
000001f0: 29c7 f7bd 1c54 3bbe 5a68 7bbe 94de ecbe
00000200: e395 e0be 55a8 72bc 3e98 01be 351f 393d
00000210: dc95 2abd b6f0 89ba 2d0f f9be 7896 62bd
00000220: bf4e d13c b002 56bd 8494 0c3d 3a84 d63c
00000230: 5850 12bd a993 82bd bbc2 66bd 7b64 f9bd
00000240: bb79 193d a0e8 debd 9bb0 563d a574 7e3c
00000250: ce5f 60bd 4d1e 42bd 4254 cfbe b80c b0be
00000260: d582 d5be 77ea a8be 9138 6abe 204e 40bd
00000270: c51d c6be 4d86 7fbe 27ca 1abd 101a 9e3c
00000280: 10cf 223d 952f 01bc 74db 0bbd a089 54be
00000290: 18c4 abbe 0739 99bd e508 a6bd 84f5 86bc
000002a0: 32da 75bb 2796 2a3d 7afb cabe a0ac 45bc
000002b0: f336 19bd ec6d 6bbd e9aa 1c3d 26db 29bd
000002c0: aee1 20bc 1417 c33c d1d9 2cbc d17a 79bb
000002d0: f6ca 29bd 0609 4eba 02f8 87bd d911 c8bc
000002e0: f39a 02be 4f43 053c b6e2 d9bd b95c e0be
000002f0: b07c e5bb 4291 f7bd 0065 0dbe 3081 85bc
00000300: 5401 b2be 8d8c 36be 62f1 59bd 5aa3 a53c
00000310: ea5d 7bbe 16b9 3abc 061a 5c3d 60a1 a1bd
00000320: 5c9f 46bd 184b e1bc 9b5f fbbe 71db f13b
00000330: 6cee 523d fb07 d7be 327d 82be 1e2e 683d
00000340: fe5c 6bbe b547 14bd cfb7 dbbc d8ee b6bd
00000350: 7456 16be 8105 143d cf51 ccbc bea1 53be
00000360: 1c9a b7bd c82f 88bb 0c9c 463c f8ac 66bd
00000370: c5d5 493d e023 0c3d b6ff dfbe 987d 65bd
00000380: 1d91 72bd 8cea 5c3c 9c8d 03be 816f 61bc
00000390: 9feb bdbe ff04 02bd 945c 32bd 0c68 743c
000003a0: 3a22 a3bd 8c36 81be 01e9 123c 9637 a8bd
000003b0: ef71 00bd cb9f e3be 2d0c 023d 99b0 bdbd
000003c0: e859 43bc 2de8 20bd c524 94bc c830 ab3b
000003d0: ea3a f2bd 79e8 0d3d f447 2b3d 8607 913a
000003e0: 7f5d 30bd f8b9 c4be 910b efbc d8f3 63bd
000003f0: fe40 92be 6f0a ecbe 7d8b 64bd a744 37bd

out_n.0.bias f4 [100]
-0.36010635 0.1423637 0.011705526 0.22066365 -0.032171737 0.12539746 -0.03588181 0.048670687
0.0042325635 -0.09538475 0.16636035 -0.05975366 0.06921081 -0.010246768 -0.1182121 0.06189965
-0.11271846 0.06127429 0.017971529 0.003502549 0.17810588 -0.03652121 0.077218324 0.024106191
-0.10456993 0.25601098 -0.014497243 0.013232703 0.22512732 -0.07796678 -0.011021732 0.09964061
-0.036058538 0.07905987 0.092743166 -0.05758183 0.06542217 0.06676613 -0.084367186 0.120317996
0.002776042 -0.05556871 0.017735647 -0.068606965 0.008599757 0.035119303 0.04985785 0.08986295
0.03494357 0.053113874 0.005870934 0.048213743 0.008481338 -0.09035334 0.0104079 -0.04839752
-0.023995068 0.016923552 -0.078439325 0.03212608 -0.04141899 0.01627224 0.09648724 -0.069087826
0.031537913 -0.03728493 -0.025126258 0.034064893 -0.014665613 -0.0439901 0.076994665 0.03400184
-0.01356216 0.08514354 0.013099761 0.076611355 0.022505643 0.05098852 0.012767843 0.0010385273
0.032544065 -0.0330988 0.03329927 0.04563066 -0.049535695 0.048489824 0.012810287 -0.03390225
0.028262893 0.0003777631 0.01826249 0.09550768 0.0019340105 -0.07731297 0.026594397 -0.10547166
0.023795139 -0.030520529 0.009421136 -0.11180922
00000000: dc5f b8be cac7 113e 89c8 3f3c a7f5 613e
00000010: 83c6 03bd 3168 003e cef8 12bd ea5a 473d
00000020: 51b1 8a3b 1459 c3bd 5e5a 2a3e 41c0 74bd
00000030: 66be 8d3d 0fe2 27bc 2f19 f2bd 7d8a 7d3d
00000040: f0d8 e6bd c0fa 7a3d 0739 933c 058b 653b
00000050: 6361 363e 4497 15bd a424 9e3d 597a c53c
00000060: c228 d6bd df13 833e d885 6dbc fbcd 583c
00000070: c787 663e 0cad 9fbd 7f94 34bc 6010 cc3d
00000080: 1eb2 13bd 24ea a13d 21f0 bd3d edda 6bbd
00000090: 0ffc 853d aebc 883d b4c8 acbd 4869 f63d
000000a0: 42ee 353b 049c 63bd 594a 913c cf81 8cbd
000000b0: ffe5 0c3c 42d9 0f3d bf37 4c3d 110a b83d
000000c0: fd20 0f3d ef8d 593d f760 c03b c67b 453d
000000d0: 4ff5 0a3c 2c0b b9bd e685 2a3c 7a3c 46bd
000000e0: 4e91 c4bc 43a3 8a3c cca4 a0bd a396 033d
000000f0: f5a6 29bd 5c4d 853c 1a9b c53d eb7d 8dbd
00000100: e62d 013d 15b8 18bd 95d5 cdbc a187 0b3d
00000110: 0a48 70bc f72e 34bd 61af 9d3d 8345 0b3d
00000120: d233 5ebc bc5f ae3d 61a0 563c 6ae6 9c3d
00000130: c15d b83c 57d9 503d 3730 513c 321f 883a
00000140: ed4c 053d 9b92 07bd d164 083d 37e7 3a3d
00000150: f1e5 4abd 449d 463d 3de2 513c 16dd 0abd
00000160: 9587 e73c 810e c639 389b 953c 8899 c33d
00000170: a07e fd3a 4356 9ebd 7edc d93c 8701 d8bd
00000180: 06ee c23c 3006 fabc 1c5b 1a3c 3bfc e4bd

out_d.0.weight f4 [100, 256]
-0.009384326 0.027406007 0.023976374 0.019534493 -0.018556474 0.0010115817 0.08032378 -0.013100368
0.026589777 0.04087449 -0.062296756 -0.03712883 -0.060005553 0.019470582 0.055904098 -0.055321828
0.071571045 -0.06690266 -0.040936813 0.0018090904 -0.03217644 0.015299451 0.016060136 -0.06728929
0.0001737707 0.04853957 0.0076218704 -0.014768622 -0.041816443 0.021604676 -0.06492944 -0.0328378
0.013601337 -0.042935498 -0.059635226 -0.016384251 0.036326468 0.013292569 -0.09128782 0.0054617827
-0.06534399 -0.00059871405 0.024809057 0.02674747 -0.061684906 0.0021897056 -0.009176798 0.03590997
-0.09100564 -0.032098316 -0.049053103 -0.011378014 -0.03470646 0.0050596944 0.05177845 -0.015234925
0.017271219 -0.02497862 -0.025467075 -0.04348688 -0.039956577 0.023402894 -0.04235491 0.024902485
0.051844105 0.04685408 -0.0717393 -0.055623632 0.058230624 -0.010338557 -0.062547594 -0.0436366
0.020137208 -0.04371467 -0.019100327 -0.0009390154 0.016736953 -0.048637673 -0.00021696903 0.054925814
-0.05479965 0.059355006 -0.031984467 -0.04447447 0.0004701218 -0.037501946 -0.012809622 0.009314664
-0.06056147 -0.051728275 -0.07891672 -0.028972795 0.021900497 0.02414496 -0.074772954 0.014671219
0.032070465 0.016173003 0.051067524 0.046362385 0.03629926 -0.044556614 -0.0051766387 -0.040964913
0.010248744 0.019358976 -0.05179509 0.013811267 -0.0318562 -0.03405439 -0.08202723 -0.09598682
-0.035294197 -0.080698945 -0.06317551 -0.01464524 -0.0668496 -0.036886767 0.009285636 0.009144611
-0.017172104 -0.024347115 -0.0711639 -0.042570576 -0.042896457 -0.05303601 -0.042551454 -0.09816356
0.00874144 0.04208297 0.017754726 -0.059465874 0.031005664 -0.071004145 -0.05258659 0.022521479
-0.02021677 0.027160747 -0.032109134 0.018947821 0.025290186 0.040523104 -0.08947494 0.011551203
-0.0054402463 -0.07113753 -0.049323365 -0.047941126 0.016688127 0.0013405315 -0.06627135 -0.0002467789
-0.10060801 0.01451214 0.016495304 0.054015175 -0.09595304 0.011438057 0.052943293 0.022812935
0.030028092 -0.015485163 -0.049057696 -0.0035843118 0.02317499 -0.010956732 -0.028162256 0.014917532
-0.0003768574 0.03793358 0.0008996417 0.05493314 -0.00510973 -0.039076097 0.02470603 -0.0444549
-0.051406745 0.019823277 0.054622445 0.015696373 0.064513855 0.013604043 0.021373468 0.006640197
-0.033732474 -0.040502537 -0.10356302 -0.0065946775 -0.015514784 -0.017196886 0.055678934 -0.019158386
-0.039784823 -0.086263545 0.07497858 -0.012791295 -0.015490355 -0.01619905 -0.0112525225 0.03849961
0.055312295 -0.035302944 -0.063965835 -0.06714402 -0.015510052 -0.0660554 -0.07033694 0.00024678558
-0.060861398 -0.05137313 0.052938282 -0.0423042 -0.0015711006 -0.054804895 -0.029987326 -0.0047657564
-0.06007615 -0.02665131 -0.062478375 -0.03544733 -0.027855592 0.003927056 -0.047723018 0.0032246376
-0.077894725 0.058057047 -0.0743453 -0.035736173 -0.03906565 0.009677325 0.045760468 -0.004634364
-0.0041244533 -0.0022567618 -0.031598307 -0.066350296 0.00039438056 -0.07936498 0.039785367 -0.09608142
-0.034218088 -0.06731961 -0.039166622 -0.034370907 -0.044365004 -0.044580307 -0.054753765 0.0192277
0.0034621097 -0.0505861 0.02390238 0.025708647 -0.05788979 -0.004493452 0.030036395 0.044216957
00000000: b7c0 19bc 9082 e03c 1a6a c43c cd06 a03c
00000010: bf03 98bc 0d97 843a cb80 a43d eda2 56bc
00000020: ced2 d93c 026c 273d e22a 7fbd 6614 18bd
00000030: 62c8 75bd c580 9f3c b2fb 643d 2499 62bd
00000040: d793 923d 4304 89bd 5cad 27bd 001f ed3a
00000050: 71cb 03bd 8caa 7a3c 8c90 833c f8ce 89bd
00000060: 3836 3639 6ed1 463d e2c0 f93b 17f8 71bc
00000070: b847 2bbd 4afc b03c baf9 84bd ee80 06bd
00000080: 24d8 5e3c 22dd 2fbd 1144 74bd 4438 86bc
00000090: 10cb 143d 13c9 593c 1cf5 babd c1f8 b23b
000000a0: 12d3 85bd 05f3 1cba 5d3c cb3c 831d db3c
000000b0: 50a9 7cbd 2a81 0f3b 485a 16bc 5516 133d
000000c0: 2a61 babd 8679 03bd e8eb 48bd da6a 3abc
000000d0: 5c28 0ebd cbcb a53b a415 543d e89b 79bc
000000e0: 5f7c 8d3c f69f ccbc 54a0 d0bc 4c1f 32bd
000000f0: 82a9 23bd 6db7 bf3c 587c 2dbd 4c00 cc3c
00000100: 7c5a 543d 10ea 3f3d 0eec 92bd 9bd5 63bd
00000110: 3c83 6e3d 0d63 29bc f418 80bd 4bbc 32bd
00000120: c9f6 a43c 270e 33bd 4a78 9cbc 4228 76ba
00000130: ef1b 893c 4c38 47bd 2e82 63b9 e4f9 603d
00000140: 9975 60bd 3c1e 733d 2502 03bd dd2a 36bd
00000150: ae7a f639 a49b 19bd 73df 51bc 889c 183c
00000160: 4e0f 78bd 07e1 53bd 179f a1bd 5b58 edbc
00000170: ac68 b33c a7cb c53c 9022 99bd 8d5f 703c
00000180: 525c 033d 3f7d 843c 2e2c 513d 7ce6 3d3d
00000190: 88ae 143d ff80 36bd cba0 a9bb d3ca 27bd
000001a0: 59ea 273c b796 9e3c 1727 54bd a748 623c
000001b0: a67b 02bd 9e7c 0bbd e4fd a7bd bd94 c4bd
000001c0: a690 10bd 7d45 a5bd 2962 81bd 97f2 6fbc
000001d0: 71e8 88bd 9416 17bd c822 183c 47d3 153c
000001e0: 83ac 8cbc 9a73 c7bc 61be 91bd 7c5e 2ebd
000001f0: 32b4 2fbd 4a3c 59bd 6f4a 2ebd fa09 c9bd
00000200: 4238 0f3c 315f 2c3d 5c72 913c 7d92 73bd
00000210: 97ff fd3c 9f6a 91bd 0965 57bd f77e b83c
00000220: a49d a5bc 3780 de3c de84 03bd 7638 9b3c
00000230: 5d2d cf3c 8efb 253d a33e b7bd 4241 3d3c
00000240: 1844 b2bb 8eb0 91bd 4c07 4abd ea5d 44bd
00000250: 8ab5 883c c6b4 af3a 46b9 87bd 1a62 81b9
00000260: 930b cebd 54c4 6d3c 2921 873c 043f 5d3d
00000270: 0783 c4bd b066 3b3c 11db 583d 31e2 ba3c
00000280: 79fd f53c 7bb5 7dbc b9f0 48bd c6e6 6abb
00000290: 7ad9 bd3c dd83 33bc 88b4 e6bc aa68 743c
000002a0: f294 c5b9 3e60 1b3d efd5 6b3a 9201 613d
000002b0: 866f a7bb 420e 20bd 4d64 ca3c 5716 36bd
000002c0: e18f 52bd 6d64 a23c c9bb 5f3d ae95 803c
000002d0: d71f 843d 7ee3 5e3c 6917 af3c 0296 d93b
000002e0: 102b 0abd fde5 25bd d918 d4bd 2a18 d8bb
000002f0: b831 7ebc 7ce0 8cbc 980f 643d 0cf2 9cbc
00000300: 69f5 22bd f1aa b0bd 5f8e 993d 9492 51bc
00000310: 42cb 7dbc dfb3 84bc 805c 38bc c4b1 1d3d
00000320: 258f 623d d299 10bd 8500 83bd ce82 89bd
00000330: e01d 7ebc 0e48 87bd d00c 90bd 0063 8139
00000340: cd49 79bd a26c 52bd d0d5 583d 2b47 2dbd
00000350: 63ed cdba 197b 60bd fba7 f5bc 102a 9cbb
00000360: 6912 76bd d953 dabc 53e9 7fbd 3831 11bd
00000370: 6931 e4bc 89ae 803b 3679 43bd 7154 533b
00000380: 4587 9fbd 3acd 6d3d 5942 98bd 1860 12bd
00000390: 4e03 20bd a58d 1e3c 546f 3b3d dddb 97bb
000003a0: 6c26 87bb 2ee6 13bb 3a6d 01bd aae2 87bd
000003b0: ddc4 ce39 1b8a a2bd fbf5 223d 56c6 c4bd
000003c0: 4428 0cbd ddde 89bd 2e6d 20bd 82c8 0cbd
000003d0: 14b8 35bd d799 36bd 7c45 60bd 6983 9d3c
000003e0: 90e4 623b 5f33 4fbd edce c33c f19a d23c
000003f0: d81d 6dbd cf3d 93bb e30e f63c d71c 353d

out_d.0.bias f4 [100]
-0.013970005 0.055872403 -0.013089429 -0.016387243 -0.023384644 0.03774896 -0.062456522 0.009596245
-0.049683798 -0.008920956 0.001131336 -0.024376433 -0.05796244 -0.023307085 -0.051363096 -0.006789538
-0.006197813 -0.037237816 0.0084030945 0.021636134 -0.014582019 -0.032127745 0.066057295 0.04851805
0.06957808 -0.006965079 0.0043320204 -0.025708774 0.008373279 -0.0010278425 0.068765186 0.060142297
0.0024727639 0.06910506 0.025232691 0.00034496075 0.036293615 0.10011085 0.0341406 0.055532638
0.07035783 0.0057032784 -0.034473337 -0.0033618037 -0.015851678 0.005131726 -0.0038189183 0.06683461
0.032687373 0.08353106 -0.023263117 0.03647016 -0.026695572 0.040173844 0.060900226 0.06875426
0.034714002 -0.00073998974 0.0010976054 0.06487205 -0.020273155 -0.041280586 -0.035544015 0.04047401
0.016677624 0.05061872 0.015534469 0.02740441 0.094663195 0.062105045 -0.015932772 0.021588992
-0.038685933 0.084014066 0.009066325 0.0234285 0.015049 0.08034249 0.066483825 -0.0066928104
-0.050357975 0.006924132 -0.005160859 -0.04601449 0.017862888 0.015763009 -0.048071757 0.044765584
-0.060971975 0.078789 -0.056581106 0.065046646 0.004796265 -0.047441665 0.112885706 -0.056404397
0.038336854 0.06890548 0.17579953 -0.0020853435
00000000: 73e2 64bc 76da 643d 0b75 56bc 8a3e 86bc
00000010: 2791 bfbc a79e 1a3d 69d2 7fbd 9239 1d3c
00000020: 3d81 4bbd 3429 12bc 5649 943a 16b1 c7bc
00000030: 066a 6dbd 80ee bebc 1c62 52bd c67a debb
00000040: 0617 cbbb ae86 18bd 22ad 093c 433e b13c
00000050: 6ce9 6ebc 6298 03bd 0c49 873d ddba 463d
00000060: f47e 8e3d 513b e4bb 9ff3 8d3b 359b d2bc
00000070: 1430 093c acb8 86ba c3d4 8c3d c557 763d
00000080: 180e 223b f486 8d3d cab4 ce3c d9db b439
00000090: 9da8 143d eb06 cd3d 04d7 0b3d 3176 633d
000000a0: c417 903d 91e2 ba3b ea33 0dbd b551 5cbb
000000b0: 61db 81bc 0a28 a83b d146 7abb 96e0 883d
000000c0: 32e3 053d 5512 ab3d 4b92 bebc bc61 153d
000000d0: acb0 dabc 548d 243d 8472 793d 09cf 8c3d
000000e0: 4530 0e3d dffb 41ba 87dd 8f3a a3db 843d
000000f0: e313 a6bc d515 29bd 9a96 11bd 13c8 253d
00000100: 839f 883c 9355 4f3d 4984 7e3c 377f e03c
00000110: c7de c13d dc61 7e3d 7285 82bc 66db b03c
00000120: 2475 1ebd 910f ac3d ec8a 143c 20ed bf3c
00000130: 1590 763c 9a8a a43d ac28 883d 5d4f dbbb
00000140: 2a44 4ebd d4e3 e23b 6c1c a9bb b179 3cbd
00000150: 3155 923c 6d21 813c e4e6 44bd 1e5c 373d
00000160: c0bd 79bd 215c a13d 97c1 67bd 2d37 853d
00000170: fd29 9d3b 3152 42bd 9f30 e73d 4c08 67bd
00000180: 1b07 1d3d 511e 8d3d cb04 343e 42aa 08bb
