Phase1/ch3_figures_output_tuned_corrected/model_100L_poly.pth (torch, 576125 bytes, 8 tensors)

backbone.0.weight f4 [256, 100]
0	0xbd1928c5	-0.037392396
1	0x3b865506	0.004099491
2	0x3dc63fb5	0.0968012
3	0xbab43422	-0.0013748447
4	0xbcfefa6d	-0.031125272
5	0xbd3c39ef	-0.045953687
6	0x3ab30bb8	0.0013660109
7	0x3da14b75	0.078757204
8	0x3d3d0541	0.04614759
9	0xbdc9b080	-0.09848118
10	0xbdbea206	-0.09308247
11	0xbca3ee20	-0.020011008
12	0xbcfa138a	-0.030526895
13	0xbad24523	-0.0016042333
14	0x3db97124	0.09054783
15	0x3e0aeef8	0.13567722
16	0xbd83402d	-0.06408725
17	0x3cc64869	0.02420445
18	0x3cedac1b	0.02901273
19	0x3d2495d0	0.040181935
20	0x3d66c522	0.056340344
21	0x3ce0e6d3	0.027453816
22	0x3d657d65	0.05602779
23	0xbde12eeb	-0.10995277
24	0x3db0d5bf	0.08634519
25	0xba953834	-0.0011384548
26	0xbd4375c4	-0.047719732
27	0xbcae9518	-0.021311328
28	0x3d53b393	0.051684927
29	0xbdaf23c8	-0.085517466
30	0xbaf9e465	-0.0019065259
31	0xbab2ee7a	-0.0013651394
32	0xbd997cf5	-0.07494537
33	0xbbabb5e6	-0.00524019
34	0xbda26863	-0.079300664
35	0x3ccb91c5	0.024849782
36	0x3d1ed34f	0.03877574
37	0xbcbe763f	-0.023249744
38	0x3d89ac57	0.06722324
39	0xbe0a7800	-0.13522339
40	0x3d7f1302	0.062273987
41	0xbd8d53ae	-0.06900726
42	0xbdfb50f3	-0.12271299
43	0x3af0a898	0.0018360792
44	0x3c42b326	0.011883533
45	0xbe00e0fc	-0.12585825
46	0xbd643955	-0.05571874
47	0xbce26bd9	-0.027639316
48	0x3d550e1b	0.052015405
49	0xbd3220d1	-0.043488327
50	0x3d60a97f	0.054849144
51	0x3d80499a	0.062640384
52	0xbd0f60a9	-0.03500429
53	0xbc4b3573	-0.01240288
54	0xbde30859	-0.110855766
55	0x3d5ffec7	0.054686334
56	0xbbc3618f	-0.0059625576
57	0x3c23a233	0.009987402
58	0x3da6b8bb	0.08140703
59	0xbdc34eea	-0.09536536
60	0x3d35d4ea	0.044392504
61	0x3bd01d2a	0.006351133
62	0xbd0415f9	-0.032247517
63	0xbbe7d1fd	-0.007074593
64	0xbdc101d2	-0.09424175
65	0x3d3e4b8a	0.04645876
66	0x3d38d761	0.045127276
67	0xbe01b416	-0.12666354
68	0xbc8f22e1	-0.017472686
69	0xbdc542d7	-0.09631889
70	0xbd96f3f9	-0.07370753
71	0xbb05209a	-0.0020313621
72	0xbd23df09	-0.040007625
73	0x3c454783	0.0120409755
74	0x3dfd4229	0.12366135
75	0x3dbf28b2	0.09333934
76	0x3d821e75	0.063534655
77	0x3d6b5d4d	0.057462025
78	0x3cc83516	0.024439376
79	0x3aa43491	0.0012527873
80	0x3d0585e4	0.03259839
81	0xbd0d8eab	-0.034559887
82	0x3d49aa05	0.04923441
83	0x3d77618b	0.06039576
84	0xbcc61fdc	-0.024185114
85	0xbd1a1257	-0.037615146
86	0xbda1658a	-0.07880695
87	0x3dd48ea2	0.103787675
88	0x3db161da	0.08661242
89	0xbd2e1615	-0.042501528
90	0x3dd4723d	0.10373352
91	0xbd982a88	-0.07429987
92	0x3d3e024a	0.0463889
93	0x3ddf6677	0.109082155
94	0x3dcd9387	0.10037904
95	0xbc8fc85e	-0.017551597
96	0x3cad603d	0.021164054
97	0x3d6f6bdc	0.058452472
98	0xbbb3fbed	-0.0054926784
99	0x3da0bc55	0.078484215
100	0x3d3e08e3	0.046395194
101	0x3da4f7b3	0.080550574
102	0xbd9947af	-0.07484376
103	0xbd8b1867	-0.06791764
104	0xbc90e080	-0.017685175
105	0xbc987f4d	-0.01861539
106	0x3c5bebc0	0.013422906
107	0xbc9dd507	-0.019266618
108	0x3d06d78d	0.03292041
109	0xbd5ad567	-0.053426173
110	0x3d092033	0.033477973
111	0xbd50db07	-0.05099013
112	0xbd880f07	-0.06643491
113	0x3d9c355a	0.076273635
114	0x3d79ca83	0.060984146
115	0x3db9482a	0.09046967
116	0xbc93344d	-0.017969275
117	0xbd64741d	-0.055774797
118	0xbd1b3e67	-0.03790131
119	0x3d850852	0.064957276
120	0x3bb2334d	0.0054382444
121	0x3d5cf663	0.05394591
122	0x3d2ceca3	0.04221786
123	0xbcf1fe73	-0.029540276
124	0xbd40b750	-0.04704982
125	0xbb18decd	-0.002332616
126	0x3d8fdd1b	0.070245944
127	0xbd938660	-0.07203364
128	0xbd0882f7	-0.033328023
129	0x3d37e3cd	0.044894982
130	0xbd1a062d	-0.037603546
131	0x3cd90d87	0.026495708
132	0x3d81a7ff	0.06330871
133	0xbd90c6b5	-0.0706915
134	0xbdc482cf	-0.09595262
135	0x3d53ebe0	0.05173862
136	0xbd9bd26a	-0.07608493
137	0x3d2e4f37	0.042556014
138	0x3d9ad17a	0.07559486
139	0xbd310500	-0.04321766
140	0xbdbfd9f3	-0.093677424
141	0xbc72f25a	-0.014828289
142	0x3d08dab0	0.03341168
143	0xbd82704d	-0.06369076
144	0xbdcabef0	-0.098997
145	0xbdb6edd3	-0.0893208
146	0x3c7e8f5a	0.015537107
147	0xbdaed3ab	-0.08536466
148	0xbdb4a74f	-0.08820974
149	0xbd90fe7d	-0.0707979
150	0x3d6a473a	0.057196833
151	0xbd85ea98	-0.06538886
152	0xbd9f582b	-0.077804886
153	0xbdcb8ac3	-0.09938576
154	0xbc637e67	-0.013885117
155	0x3dbfd0f2	0.09366025
156	0x3d2f8dd7	0.04285988
157	0x3da54205	0.08069233
158	0x3d05be27	0.032652047
159	0x3d90b025	0.07064847
160	0xbd31eb5a	-0.04343734
161	0xbdc32660	-0.09528804
162	0xbd5f5f87	-0.05453446
163	0xbd6678fa	-0.056267716
164	0x3d9fef1d	0.07809279
165	0x39b844cd	0.00035146475
166	0xbd5682d7	-0.052370872
167	0x3cb5723a	0.022149194
168	0xbc877813	-0.016536748
169	0xbdb996ba	-0.09061952
170	0x3b163c33	0.0022924065
171	0xbd822230	-0.06354177
172	0xbd9c00cf	-0.07617342
173	0x3d402220	0.046907544
174	0xb8b3eccd	-8.579493e-05
175	0xbda12945	-0.078692
176	0xbd9f1508	-0.07767683
177	0xbcf6a247	-0.030106677
178	0xbdc6808f	-0.09692489
179	0x3b435100	0.0029802918
180	0x3d0854b0	0.03328389
181	0x3d3c5c2a	0.045986332
182	0xbca89aa7	-0.020581556
183	0x3c156780	0.009118915
184	0x3c9a58ed	0.018841231
185	0x3d9576ff	0.07298087
186	0x3ad9e4cd	0.0016623974
187	0x3d931887	0.071824126
188	0xbcb7406d	-0.022369588
189	0xbb73419a	-0.003711796
190	0x3d409bea	0.04702369
191	0x3d6a906a	0.05726663
192	0x3cb609e0	0.022221506
193	0xbd93f77b	-0.072249375
194	0x3c72fb8d	0.014830482
195	0x3db7b40b	0.08969887
196	0x3dc3c2a2	0.09558608
197	0xbd350167	-0.04419079
198	0xbc83a1cd	-0.016068364
199	0xbd0be9cd	-0.034158517
200	0x3aa58c00	0.0012630224
201	0x3d4d495a	0.05011878
202	0xbd82899d	-0.06373904
203	0x3dc51030	0.09622228
204	0x3dadf0ff	0.08493232
205	0x3db26fc0	0.08712721
206	0xbc1018cd	-0.0087949755
207	0xbdbe4518	-0.09290522
208	0x3caa7727	0.02080877
209	0xbdc35ef0	-0.09539592
210	0xbd18e56d	-0.037328172
211	0xbd9ed1d2	-0.07754864
212	0x3d92ee80	0.071743965
213	0x3d19575a	0.03743682
214	0x3c6148b3	0.013750243
215	0xbd4d3017	-0.05009469
216	0xbdc9f357	-0.098608665
217	0xbd869bb8	-0.0657267
218	0xbd702f1d	-0.05863868
219	0xbbdcf733	-0.0067433356
220	0xbbed8280	-0.007248223
221	0x3c542973	0.012949335
222	0x3d2c8767	0.042121317
223	0x3b942667	0.0045211795
224	0x3d95deb7	0.0731787
225	0x3da4b1df	0.08041739
226	0x3cb81eb3	0.022475576
227	0xbda8508a	-0.082184866
228	0x3cb15fe7	0.021652175
229	0x3d1c33fd	0.038135517
230	0xbda145e3	-0.07874658
231	0x3d7d0b0d	0.061778117
232	0xbd84032b	-0.06445917
233	0x3cd40d2d	0.025885189
234	0xbd7bfef3	-0.061522435
235	0xbd8dacc3	-0.06917717
236	0x3d4279dd	0.0474795
237	0x3dc449ca	0.09584387
238	0xbbd52f4d	-0.006505883
239	0xbc20f880	-0.009824872
240	0x3c4e17e7	0.012578941
241	0xbcabd9fa	-0.020977963
242	0x3ce27540	0.0276438
243	0x3b88959a	0.0041682245
244	0xbc5d8b73	-0.013522017
245	0xbc2ba873	-0.010477173
246	0xbcf24f40	-0.029578805
247	0xbdbd0ffd	-0.09231565
248	0x3ce776ad	0.028254831
249	0xbca0d83a	-0.019634355
250	0xbd899f6a	-0.06719859
251	0x3c32344d	0.010876727
252	0xbd33e507	-0.04391959
253	0xbd9b46eb	-0.07581886
254	0x3d9c6ca5	0.0763791
255	0x3cf5f06d	0.03002187

backbone.0.bias f4 [256]
0	0x3d0b00e6	0.033936404
1	0xbca44413	-0.020051992
2	0xbd8d93bb	-0.06912943
3	0xbd8b825a	-0.06811972
4	0xbdb526d0	-0.088452935
5	0x3daeec45	0.085411586
6	0x3d9837f9	0.07432551
7	0xbc176bb3	-0.009241986
8	0xbc48c6da	-0.012254441
9	0xbd87c185	-0.06628708
10	0xbe00182f	-0.12509225
11	0x3d0ba847	0.03409603
12	0xbcee83a0	-0.029115498
13	0x3b06adf3	0.002055046
14	0x3d0b1027	0.03395095
15	0x3d6d82a3	0.057985913
16	0x3c41d827	0.01183132
17	0xbac65867	-0.0015132547
18	0x3d6da6d7	0.05802044
19	0xbd8c7b38	-0.068594396
20	0xbd0c3d07	-0.034237888
21	0xbd95c5e0	-0.07313132
22	0xbdbd7b9f	-0.092520945
23	0xbd207b77	-0.039180245
24	0x3d4bc383	0.049747
25	0xbba4be5f	-0.005027577
26	0xbc28988d	-0.010290277
27	0x3d22eb93	0.039775442
28	0x3d58bd0e	0.05291467
29	0x3d0e33ed	0.03471749
30	0xbc1e0e3d	-0.009646949
31	0xbd8a0271	-0.06738747
32	0xbdd3d03a	-0.103424504
33	0x3d11ec46	0.03562572
34	0xbdd5700b	-0.10421761
35	0xbdb95631	-0.09049643
36	0xbc572f8d	-0.013133896
37	0xbd576082	-0.05258227
38	0xbd0d37f7	-0.0344772
39	0xbdc3e43d	-0.09565017
40	0x3d36a7a6	0.044593476
41	0xbd9728ad	-0.07380805
42	0xbd7e71b0	-0.06212014
43	0x3d94dbad	0.07268462
44	0x3d44e14d	0.048066426
45	0x3ce2e62e	0.027697649
46	0x3c946dba	0.018118728
47	0x3c458f5a	0.012058103
48	0x3db8b427	0.09018736
49	0x3c2901f7	0.01031541
50	0x3d68adad	0.056806255
51	0xbd8bf18f	-0.06833183
52	0xbc6af627	-0.014340914
53	0xbdbf3e28	-0.09338027
54	0x3dbe2018	0.09283465
55	0xbcfd6cc7	-0.030935658
56	0xbdd8d11a	-0.10586758
57	0xbd9bc97d	-0.0760679
58	0xbca7670d	-0.02043488
59	0x3db11e4b	0.08648356
60	0xbc0b638d	-0.0085076215
61	0xbd2c9077	-0.04212996
62	0xbd4c4217	-0.049867716
63	0xbc357aa7	-0.011076606
64	0x3dbba52a	0.09162362
65	0xbc8e6e18	-0.017386481
66	0x3d9ccbd2	0.07656063
67	0xbba599b1	-0.005053722
68	0x3d094851	0.033516232
69	0x3d491f0a	0.049101867
70	0xbd76701f	-0.06016552
71	0x3d19a9aa	0.03751532
72	0xbc98c88e	-0.01865032
73	0xbd3318e7	-0.04372492
74	0xbda55c8e	-0.08074294
75	0x3d69f7a0	0.05712092
76	0xbc913907	-0.017727388
77	0x3d3e9ba3	0.046535145
78	0xbda4eb6c	-0.08052716
79	0x3ce4b7d0	0.02791968
80	0x3a37ec00	0.0007016063
81	0x3c025ebd	0.007957158
82	0xbd4cda0a	-0.050012626
83	0xbd0a23e7	-0.033725645
84	0x3d69d6de	0.05708968
85	0xbc540467	-0.012940503
86	0xbd9d0bec	-0.076682895
87	0x3dac2b0c	0.08406648
88	0xbe02f1c4	-0.12787539
89	0xbdb36a49	-0.08760507
90	0xbd8eded9	-0.069760986
91	0x3d5a991a	0.053368665
92	0x3b96a3f6	0.0045971824
93	0xbd854e97	-0.065091304
94	0xbd233f89	-0.039855514
95	0xbb38c1a2	-0.0028191586
96	0x3cbe575d	0.023235017
97	0x3d8f229d	0.06989024
98	0xbcff485a	-0.03116243
99	0xbd8245b2	-0.063609496
100	0x3c67390d	0.014112723
101	0xbd94cf34	-0.07266083
102	0xbd901774	-0.07035723
103	0xbd39f6dc	-0.04540144
104	0xbb9984a5	-0.004685002
105	0xbdb71bf9	-0.08940882
106	0xbd653333	-0.05595703
107	0xbe08ceb8	-0.13360107
108	0xbda41aed	-0.08012948
109	0xbdd95b00	-0.1061306
110	0x3d89ef51	0.06735099
111	0x3dc7682d	0.09736667
112	0x3b693167	0.0035582425
113	0xbd586823	-0.052833688
114	0x3db7ea98	0.08980292
115	0xbdabca2e	-0.08388172
116	0xbb179033	-0.002312672
117	0x3d9b6728	0.07588035
118	0xbd6f5180	-0.058427334
119	0xbdd897d1	-0.10575832
120	0xbd8a4ec8	-0.067533076
121	0xbd7507d1	-0.059821907
122	0x3da43227	0.08017378
123	0xbcb32176	-0.021866541
124	0xbb9cc500	-0.0047842264
125	0x3d928a6d	0.07155309
126	0xbdb44293	-0.088017605
127	0x3d9ea451	0.077461846
128	0xbd575d67	-0.05257931
129	0x3cd1def3	0.025619006
130	0x3aab1600	0.0013052821
131	0x3d0a1e55	0.033720333
132	0x3cccddcd	0.025008107
133	0xbbad5203	-0.0052893176
134	0xbd4b9599	-0.049703214
135	0x3d61cbdf	0.055126067
136	0xbdf9f31e	-0.12204574
137	0xbb81d0bc	-0.0039616507
138	0xbcf34cba	-0.029699672
139	0x3da78236	0.08179133
140	0xbba82e97	-0.005132507
141	0x3d935793	0.07194438
142	0xbe073143	-0.13202386
143	0x3d6883ee	0.056766443
144	0xbde79705	-0.113081016
145	0x3dbdf93f	0.092760555
146	0x3c04a960	0.008097023
147	0xbd38ffa2	-0.045165665
148	0x3c45b0b3	0.012066054
149	0x3dbb4728	0.09144431
150	0xbdc78112	-0.09741415
151	0xbd421230	-0.047380626
152	0x3daee75c	0.08540222
153	0x3d8367c3	0.06416275
154	0x3ca82f00	0.020530224
155	0x3cc3245c	0.023821048
156	0xbcd9bb2d	-0.02657851
157	0x3dc50f1b	0.09622022
158	0xbdb088d4	-0.08619848
159	0x3da4ec97	0.080529384
160	0x3cafd199	0.021462249
161	0x3c5dc3eb	0.01353548
162	0x3d135b23	0.035975587
163	0x3d7e0f8d	0.06202655
164	0x3bd2ab67	0.006429124
165	0xbde549ee	-0.111957416
166	0xbd8e1b53	-0.069388054
167	0x3d418d94	0.04725416
168	0x3d7234a0	0.05913222
169	0xbdd3aaa9	-0.10335285
170	0xbd6fbec3	-0.058531534
171	0x3d62fecd	0.05541878
172	0xbc52afa3	-0.012859258
173	0x3d26bd3d	0.040707815
174	0xbdbd4202	-0.092411056
175	0xbdc280ca	-0.09497221
176	0xbc682af0	-0.014170393
177	0xbcb4b8ad	-0.022060717
178	0xbdbe6060	-0.09295726
179	0xbc1a8192	-0.009430306
180	0x3d4ad4cd	0.04951935
181	0x3c3fca59	0.011705958
182	0x3c7d6283	0.015465382
183	0xbdb93587	-0.09043413
184	0xbc534ef9	-0.0128972465
185	0x3cd9146d	0.026498998
186	0xbc74f725	-0.014951502
187	0xbdc0a9b0	-0.09407365
188	0x3d84b25c	0.06479332
189	0x3d3ae67a	0.045629956
190	0xbd136fed	-0.035995413
191	0x3aea01ba	0.0017853298
192	0xbd2a855a	-0.04163108
193	0x3d833550	0.06406653
194	0xbdcb804b	-0.09936579
195	0x3af04a87	0.0018332758
196	0x3cdc0797	0.026859088
197	0x3d83f03b	0.06442305
198	0x3d84c909	0.06483657
199	0x3db2ebc3	0.08736374
200	0x3d8dba49	0.06920297
201	0x3ceeec03	0.029165274
202	0x3cd1b907	0.025600923
203	0x3d0f890f	0.03504282
204	0xbd3b171d	-0.04567634
205	0xbc0ea560	-0.008706421
206	0x3d31bf87	0.043395545
207	0xbcf3c4d3	-0.029756939
208	0xbdd4e2c0	-0.10394812
209	0x3cdf277a	0.027240504
210	0x3ce45516	0.027872603
211	0xbd1295a4	-0.03578724
212	0x3d581baa	0.052760758
213	0xbd78e0bf	-0.06076121
214	0x3d122ebd	0.035689104
215	0xbde454a9	-0.1114896
216	0xbd3b6437	-0.04574987
217	0xbd2062c0	-0.039156675
218	0xbdcca303	-0.099920295
219	0x3cb407ba	0.02197634
220	0x3c3caaa1	0.0115152905
221	0xbd6ac2da	-0.05731473
222	0xbdce7dc5	-0.100825824
223	0xba4815f3	-0.0007632665
224	0xbe09b1e8	-0.13446772
225	0x3c478f8b	0.012180219
226	0xbdf523ee	-0.11969744
227	0xbcb2d480	-0.021829844
228	0xbcf7406b	-0.030182084
229	0x3d807ca0	0.0627377
230	0x3c8d303d	0.017234916
231	0x3cd4d8c7	0.025982274
232	0xbd3d4480	-0.046207905
233	0x3c0b87f3	0.0085163
234	0x3c8b3d40	0.01699698
235	0xbb333e00	-0.0027350187
236	0x3d742e20	0.0596143
237	0x3d5a5dc3	0.053312074
238	0x3bb86ecd	0.005628443
239	0xbd10f1fd	-0.035387028
240	0xbd3f8b4d	-0.046763707
241	0x3cdcaec7	0.02693881
242	0x3c0de543	0.008660617
243	0x3d03558a	0.032064
244	0x3d48061d	0.048833955
245	0xbbb171e3	-0.0054151877
246	0x3d0d9417	0.034565058
247	0xbdbe9532	-0.093058005
248	0xbddcfbfa	-0.10790248
249	0x3ceb0f21	0.028693737
250	0x3cab6a07	0.020924581
251	0xbd7ba01d	-0.061431993
252	0xbd1ee26d	-0.038790155
253	0xbda7faa5	-0.082021035
254	0xbdaac7ed	-0.08338914
255	0xbdc2066f	-0.09473883

backbone.2.weight f4 [256, 256]
0	0x3d1c46ce	0.038153462
1	0x3cd7e2cc	0.026353262
2	0xbb1df200	-0.0024100542
3	0x3d30a8a6	0.043129586
4	0x3d5b6490	0.0535627
5	0x3bb8cdc0	0.0056397617
6	0x3d3bf6c7	0.045889642
7	0xbcd734ad	-0.026270235
8	0xbd4222aa	-0.04739634
9	0xbd7e9e82	-0.062162884
10	0x3d21be10	0.0394879
11	0xbd51e826	-0.051246785
12	0x3c28ce58	0.010303102
13	0x3d442723	0.047888886
14	0xbc9a2cf0	-0.018820256
15	0x3d4f4c25	0.050609726
16	0xbb1d2900	-0.0023980737
17	0xbbb46c50	-0.005506076
18	0xbd308df8	-0.043104142
19	0x3c8edbe8	0.017438844
20	0xbc669198	-0.014072798
21	0xbd3cbb52	-0.04607708
22	0x3d60259c	0.054723367
23	0x3d5b1ce8	0.053494364
24	0xbcd13c06	-0.025541317
25	0xbc1dbd1c	-0.009627607
26	0xbd2a74a2	-0.041615136
27	0xbd700c97	-0.058605757
28	0x3d832b68	0.064047635
29	0xbd7c801e	-0.06164562
30	0x3bfdfcff	0.0077511068
31	0x3d135747	0.035971906
32	0xbd222d5b	-0.039594036
33	0xbc17f671	-0.009275065
34	0x3d2b4a64	0.04181899
35	0xbcc00ee3	-0.023444599
36	0x3be2f640	0.006926328
37	0xbd8eb554	-0.06968179
38	0x3d54bcda	0.051937915
39	0xbb433380	-0.0029785335
40	0x3cbe64f4	0.023241498
41	0x3d792900	0.060830116
42	0x3cd6eed4	0.026236929
43	0x3cfb9a0d	0.030713106
44	0x3b7b702b	0.0038366418
45	0x3cf7a419	0.030229615
46	0xbc36a0fe	-0.011146782
47	0xbd1ca346	-0.038241647
48	0xbcd7535d	-0.026284868
49	0x3d547388	0.05186799
50	0xbd517652	-0.05113823
51	0xb9df6094	-0.0004260583
52	0x3d773d3a	0.060361125
53	0xbc7e2ba8	-0.015513338
54	0xbd7a4bae	-0.06110733
55	0x3d0f45b0	0.03497857
56	0x3c263acf	0.010145857
57	0x3d3a0e9a	0.04542408
58	0x3d1bda3e	0.03804993
59	0x3d019b74	0.031642392
60	0xbd75f968	-0.060052305
61	0xbd1d9d66	-0.038480185
62	0x3c6f7a68	0.014616586
63	0x3c6e5950	0.014547661
64	0xbbf2e600	-0.007412672
65	0xbd257f6b	-0.04040472
66	0x3d7501bc	0.059816107
67	0x3d7060bd	0.058686007
68	0x3a6a531d	0.00089387764
69	0x3b7306c0	0.003708288
70	0x3c2fec50	0.010737494
71	0xbcfd774b	-0.030940672
72	0xbce7e826	-0.02830894
73	0x3ccdd6ec	0.025126897
74	0xbb2ae9c6	-0.0026079281
75	0x3d51dd04	0.051236168
76	0xbb350b20	-0.002762504
77	0x3ba25ef0	0.004955165
78	0xbd441b73	-0.04787774
79	0xbcc3c689	-0.02389838
80	0xbc9f54a4	-0.01944954
81	0xbd5f58ae	-0.05452793
82	0xbbb32250	-0.005466737
83	0xbb537500	-0.0032265782
84	0x3d6e4722	0.058173306
85	0x3d15bfd6	0.036559902
86	0xbcff0e35	-0.031134704
87	0xbc3014df	-0.010747164
88	0xbd6b683d	-0.057472456
89	0xbda80034	-0.08203164
90	0xbd3fd3d7	-0.046832886
91	0x3d5c4626	0.053777836
92	0xbb073481	-0.002063066
93	0x3d0b95ba	0.034078337
94	0x3cb9c39b	0.02267628
95	0xbd26abd9	-0.04069123
96	0x3c893b51	0.016751917
97	0x3d089775	0.033347566
98	0x3d05520c	0.03254895
99	0x3be46770	0.0069703385
100	0xbb8c0280	-0.004272759
101	0x3d4510ce	0.04811173
102	0xbd2d87f3	-0.04236598
103	0xbd5036de	-0.050833575
104	0xbca2d101	-0.019875051
105	0x3d511adf	0.051051017
106	0x3c24ee98	0.010066651
107	0xbcd8a599	-0.02644615
108	0x3ceda28c	0.029008172
109	0x3cb7f44c	0.022455357
110	0xbd187589	-0.037221465
111	0xbc4d3410	-0.01252462
112	0xbba4db90	-0.0050310567
113	0xbcbb9ce0	-0.022901952
114	0xbd16d222	-0.036821492
115	0x3cb14b28	0.021642283
116	0x3b9ca580	0.0047804713
117	0x3b227d20	0.0024793819
118	0xbcedc540	-0.02902472
119	0x3cee60a1	0.02909881
120	0xbafa3e23	-0.0019092005
121	0xbbf231b9	-0.0073911813
122	0x3d0ae1ca	0.033906735
123	0xbd443e83	-0.04791118
124	0x3cd04b98	0.02542667
125	0xbcd86464	-0.026415057
126	0xbd6c118a	-0.057633914
127	0xb9252abf	-0.0001575155
128	0xbd5a8594	-0.053350046
129	0x3d64ada8	0.055829674
130	0x3cb49ab0	0.022046417
131	0xbd6d8cd4	-0.057995632
132	0x3d4a7f04	0.049437538
133	0x3b206ec1	0.0024480077
134	0xbcd56842	-0.02605069
135	0xbd0b9ce6	-0.034085177
136	0xbb656e4d	-0.0035008371
137	0xbd86fa44	-0.06590703
138	0x3cb67488	0.022272363
139	0x3c025c7c	0.00795662
140	0x3c94ac5b	0.018148592
141	0xbd5b6938	-0.05356714
142	0x3d084826	0.03327193
143	0x3c65f62a	0.014035741
144	0x3cb3b959	0.021938967
145	0xbc9e8c34	-0.019353963
146	0x3cb07341	0.021539332
147	0x3b0f7dd6	0.0021895072
148	0xbd602860	-0.054726005
149	0x3d49de82	0.049284466
150	0x3d5c7d8c	0.05383067
151	0xbc2bc01c	-0.010482814
152	0xbd8fb67b	-0.07017227
153	0xbce8e2e8	-0.02842851
154	0xbd4d2a3c	-0.050089106
155	0x3d4a647b	0.049412232
156	0x3d428ef2	0.047499605
157	0x3d748212	0.059694357
158	0x3cdb9d1e	0.026808318
159	0xbcaad5fd	-0.02085399
160	0x3bc809ad	0.006104669
161	0xbbd534bf	-0.006506532
162	0xbb2efd20	-0.0026701167
163	0x3d36e35c	0.04465042
164	0x3d3fb4d6	0.046803318
165	0xbdc67bb5	-0.09691564
166	0xbd298b38	-0.041392535
167	0xbd30d68f	-0.04317337
168	0x3d37075e	0.04468476
169	0x3b843e1f	0.0040357257
170	0x3c70f470	0.014706716
171	0x3d7bf9ea	0.061517633
172	0x3d314571	0.043279115
173	0x3d4c275a	0.049842216
174	0x3d81ccb2	0.06337871
175	0x3c92e090	0.017929345
176	0x3c62a61e	0.013833551
177	0xbc968138	-0.018372163
178	0x3cb4ec48	0.022085324
179	0x3d4a915e	0.04945504
180	0x3a7c9b80	0.00096362084
181	0x3d25bf28	0.040465504
182	0x3c85b9cf	0.016323952
183	0xbd6030c6	-0.054734014
184	0xbc525fc1	-0.012840212
185	0xbd8ec6e1	-0.06971527
186	0xbcd1db50	-0.025617272
187	0xbb8fb650	-0.004385747
188	0x3c7e17ee	0.015508635
189	0x3cdf4984	0.027256735
190	0xbbf4b120	-0.007467404
191	0x3cec381d	0.02883535
192	0xbc246c18	-0.010035537
193	0xbd2907fe	-0.041267388
194	0x3d7df432	0.06200046
195	0xbc7f5672	-0.015584575
196	0xbb39c95e	-0.0028348784
197	0x3c44f560	0.012021393
198	0xbb00d264	-0.0019656653
199	0xbd5cf690	-0.053946078
200	0xbd71d3ac	-0.059039757
201	0xbd13d76d	-0.036094118
202	0xbd19c23e	-0.03753876
203	0x3d5c7827	0.053825524
204	0x3d6fc3bc	0.058536276
205	0xbd79d7f7	-0.060996976
206	0xbd01f6ee	-0.03172963
207	0xbd585eaa	-0.052824654
208	0xbd497712	-0.04918582
209	0x3d3b17de	0.04567706
210	0xbc9596ab	-0.01826032
211	0x3c0d2984	0.008615855
212	0x3d1bc3b4	0.038028434
213	0xbd4e761f	-0.050405618
214	0x3d5d0ed2	0.053969212
215	0x3c8ea3ed	0.01741215
216	0x3c23e1f8	0.010002606
217	0xbcc0d716	-0.023540061
218	0x3d41165a	0.047140457
219	0xbc897a18	-0.016781852
220	0x3ada0c8c	0.0016635819
221	0xbd0d48dd	-0.034493316
222	0x3ce4a0eb	0.027908763
223	0xbcbea4af	-0.023271887
224	0x3c6c4185	0.014419918
225	0xbd73fbdd	-0.059566367
226	0xbd0a6494	-0.033787325
227	0x3cc18bd8	0.023626253
228	0xbbf7303f	-0.007543593
229	0xbcb1883c	-0.021671407
230	0xbd2d173f	-0.042258497
231	0x3ca9b847	0.020717753
232	0xbc6bbcd0	-0.014388278
233	0xbd490444	-0.049076334
234	0x3d6497bc	0.055808768
235	0xbd3063e4	-0.043064013
236	0x3cf2819c	0.029602818
237	0xbce3618c	-0.027756475
238	0x3c947280	0.018121004
239	0x3c59dd2a	0.0132973585
240	0x3d05f242	0.03270174
241	0x3d3b03d2	0.04565794
242	0x398561dc	0.00025440648
243	0xbcd44a58	-0.025914356
244	0xbd22ef1c	-0.039778814
245	0x3c116e26	0.008876359
246	0x3c9456a4	0.01810772
247	0x3d4b3a9a	0.049616434
248	0x3d38c6ca	0.045111455
249	0x3cd0fa88	0.025510088
250	0xbd6a8d7e	-0.057263844
251	0x3d0ba484	0.03409244
252	0xbc9be120	-0.019028246
253	0xbc9f36d8	-0.019435331
254	0xbd302d16	-0.043011747
255	0xbaf73511	-0.001886042

backbone.2.bias f4 [256]
0	0xbcb1187d	-0.021618122
1	0x3cb16758	0.021655723
2	0xbd384392	-0.044986315
3	0x3d298141	0.04138303
4	0x3d2878e3	0.04113091
5	0xbcc666be	-0.024218913
6	0x3d2f6dd6	0.042829357
7	0xbd5e6c94	-0.054302767
8	0x3d1c8ad7	0.038218345
9	0x3d04998d	0.032373
10	0xbc3895ad	-0.011266154
11	0xbce0c6fe	-0.027438637
12	0x3b183ae0	0.0023228452
13	0xbd7e6793	-0.062110495
14	0x3cd369ac	0.025807224
15	0xbd7871ef	-0.06065553
16	0xbd7710d1	-0.06031877
17	0xbd339622	-0.04384435
18	0xbc9aa5d8	-0.018877909
19	0xbd645c78	-0.055752248
20	0x3c5ad8e3	0.013357374
21	0x3d981cbb	0.07427355
22	0x3cf673f6	0.030084591
23	0xbc8573fc	-0.016290657
24	0xbd2ade25	-0.04171576
25	0xbd094d20	-0.033520818
26	0x3bfbc555	0.007683436
27	0xbd9991b2	-0.07498492
28	0x3b444a20	0.0029951409
29	0xbc32a111	-0.010902659
30	0x3d7613f6	0.06007763
31	0xbcc9522d	-0.024575317
32	0xbdfb3ed7	-0.12267845
33	0xbd2b8a12	-0.04187972
34	0xbdba5c5b	-0.09099647
35	0xbd2a5cff	-0.041592594
36	0x3d79cddd	0.060987342
37	0x3d555fbd	0.052093256
38	0xbc8f86f7	-0.017520411
39	0xbd249032	-0.040176578
40	0x3d696895	0.056984503
41	0x3cd3d44d	0.025858069
42	0xbd84e8f7	-0.06489747
43	0x3d1ed7c0	0.038779974
44	0x3c92b4a8	0.01790841
45	0xba214c65	-0.0006153046
46	0x3c40cce0	0.011767596
47	0x3d3c35ac	0.045949623
48	0xbd1e2048	-0.038605005
49	0xbd5741fc	-0.052553162
50	0xbd8faa03	-0.07014849
51	0xbd15aec9	-0.03654364
52	0x3c9e8354	0.019349732
53	0x3d055d54	0.032559708
54	0x3d3222d4	0.043490246
55	0x3d3ab68c	0.045584247
56	0x3dc936f4	0.098249346
57	0xbd7f372c	-0.062308475
58	0xbd21cdf5	-0.039503057
59	0x3cadef0e	0.021232154
60	0x3ced3c31	0.028959366
61	0x3d28ce75	0.041212518
62	0xbccbcfe0	-0.024879396
63	0xbcdbbb92	-0.026822839
64	0xbcd893d5	-0.02643768
65	0x3b3566c0	0.0027679652
66	0x3c8901df	0.016724525
67	0xbcb21a1b	-0.021740964
68	0x3c60360b	0.01368476
69	0x3cbb2456	0.022844475
70	0x3ca2a606	0.019854557
71	0x3c69f8e2	0.01428053
72	0x3c4aa477	0.012368313
73	0x3d965cee	0.07341944
74	0x3bc2c14f	0.0059434543
75	0x3d1458a1	0.036217336
76	0xbd1edc9b	-0.038784605
77	0xbd0eb71a	-0.034842588
78	0x3c87d602	0.016581539
79	0x3d8c5173	0.06851473
80	0xbd46c2cf	-0.048525628
81	0x3d09ad69	0.033612642
82	0xbc90ff31	-0.01769981
83	0x3c3b8103	0.011444333
84	0xbd6ec302	-0.058291443
85	0x3d203e78	0.039122075
86	0xbc4701e8	-0.012146451
87	0xbc704ded	-0.014667016
88	0x3d235517	0.03987607
89	0xbd7b8572	-0.06140656
90	0x3d07033c	0.03296207
91	0x3d3e5c01	0.04647446
92	0xbd12f964	-0.03588237
93	0x3d50a9bb	0.050943118
94	0xbc177209	-0.009243497
95	0x3c9af3f4	0.018915154
96	0xbd7ca0d5	-0.06167682
97	0xbdaa22cd	-0.08307419
98	0xbc83c681	-0.016085865
99	0x3cca551d	0.024698788
100	0xbd7bfc2e	-0.061519794
101	0xbb7fbf42	-0.003902391
102	0xbcdf1cb2	-0.027235363
103	0xbd4765d6	-0.048681103
104	0x3d2d03ec	0.04224007
105	0x3c1e37f2	0.009656893
106	0xbd0e0212	-0.034669943
107	0xbd81ee3f	-0.0634427
108	0xbd5390e6	-0.051651858
109	0xbd9a96dd	-0.07548306
110	0xbd22e6e1	-0.039770965
111	0x3c4018d1	0.011724667
112	0xbd63a04a	-0.055572785
113	0x3d4b1158	0.049577087
114	0xb8a1f4c3	-7.722669e-05
115	0x3d187bc4	0.037227407
116	0xbdb21185	-0.08694748
117	0x3d197fa4	0.037475243
118	0x3c022f90	0.00794591
119	0xbcd223be	-0.025651809
120	0xbd8235e0	-0.06357932
121	0xbda20628	-0.079113305
122	0xbbbe51a3	-0.0058080717
123	0xbcb8137e	-0.022470232
124	0xbcd28e8c	-0.025702737
125	0x3bd813c4	0.006594153
126	0xbc7f2b98	-0.015574358
127	0xbcdf84b0	-0.02728495
128	0x3d936c63	0.071984075
129	0xbda309e4	-0.07960871
130	0x3cd27e4b	0.025694987
131	0x3d435e65	0.047697444
132	0xbd54ee4f	-0.05198508
133	0xbd94421f	-0.07239174
134	0x3d2faf98	0.04289207
135	0xbdc6b216	-0.09701936
136	0x3c3fab69	0.011698582
137	0x3cfc56bd	0.030803079
138	0x3dad34cd	0.084573366
139	0x3cfa6938	0.03056775
140	0x3d65aff9	0.056076024
141	0x3d0b3910	0.033989966
142	0x3d134fd5	0.035964806
143	0xbc324e56	-0.010882935
144	0x3c40f123	0.0117762415
145	0xbd7524ab	-0.059849422
146	0xbbcd754e	-0.0062700873
147	0xbb62aa27	-0.0034586282
148	0x3ab45740	0.0013758913
149	0xbd426c80	-0.047466755
150	0x3d40fe93	0.04711778
151	0xbd450cea	-0.04810802
152	0x3c12785f	0.0089398315
153	0x3cdae0fc	0.026718609
154	0x3d1344e7	0.035954382
155	0xbd43e8f1	-0.047829572
156	0xbb4055f4	-0.0029348107
157	0xbbb8534f	-0.0056251655
158	0xbcbfe2df	-0.02342361
159	0xbd5f8ca6	-0.054577492
160	0x3d1c7a20	0.038202405
161	0x3c65bd75	0.014022221
162	0x3cc599d3	0.0241212
163	0x3d0693cc	0.032855794
164	0xbda0b74c	-0.07847461
165	0xbbbde690	-0.0057953075
166	0xbd1e25a1	-0.038610104
167	0x3a4af094	0.00077415374
168	0x3c12a668	0.008950807
169	0xbd13cf8a	-0.036086597
170	0xbccf6f9d	-0.025321776
171	0xbd1895d4	-0.037252262
172	0x3c40ed8a	0.011775384
173	0xbd02eae2	-0.031962283
174	0xbbf5c080	-0.0074997544
175	0x3bb6319a	0.005560112
176	0x3d1e959d	0.0387169
177	0xbc220ab2	-0.009890245
178	0xbd589df7	-0.052885022
179	0x3cfdbdf8	0.030974373
180	0xbccfe6f6	-0.025378685
181	0xbd331aad	-0.043726612
182	0xbda5fd10	-0.081049085
183	0x3c88639f	0.016649066
184	0x3e2bb6d3	0.1676896
185	0x3bc9ad05	0.0061546587
186	0xbd13f375	-0.03612085
187	0x3ce3e8e8	0.02782102
188	0xbce8481a	-0.028354693
189	0xbc414920	-0.0117972195
190	0x3d325cdf	0.0435456
191	0xbcbcbe71	-0.023040028
192	0x3d02ffaa	0.0319821
193	0xbcee3666	-0.029078674
194	0xbd9aa1f6	-0.07550423
195	0x3c97160f	0.018443136
196	0x3b80101f	0.003908172
197	0x3cd7a8ae	0.02632555
198	0x3c8329e4	0.016011186
199	0x3ae52e85	0.0017485177
200	0xbd6817be	-0.056663267
201	0xbc6ef9cf	-0.014585926
202	0x3cd2eadf	0.02574676
203	0x3dbd05fc	0.09229657
204	0x3cc6b15c	0.024254493
205	0xbd3d05b4	-0.046148017
206	0x39ba5e4d	0.00035546944
207	0x3c93a4bc	0.018022887
208	0xbd48ba77	-0.04900595
209	0x3d16b4d8	0.03679356
210	0x3c295257	0.010334573
211	0xbd40e36e	-0.047091894
212	0xbce9cd48	-0.028540269
213	0xbc296c30	-0.010340735
214	0x3d294ab4	0.041331008
215	0xbd9a9444	-0.07547811
216	0xbd5d0231	-0.053957168
217	0xbd5e0e03	-0.05421258
218	0xbd4ffbbe	-0.05077719
219	0xbc63f5da	-0.013913596
220	0xbca2bdf8	-0.019865975
221	0x3db7eaaa	0.089803055
222	0xbd492535	-0.04910775
223	0x3d1931e4	0.037401095
224	0xbd9a7a31	-0.075428374
225	0x3cc32a02	0.023823742
226	0x3d8cfc17	0.0688402
227	0xbd6c5a5d	-0.057703365
228	0x3d462975	0.04837938
229	0x3c7f108b	0.015567909
230	0xbcff6c7c	-0.031179659
231	0x3ca84740	0.020541787
232	0xbd037d79	-0.032102082
233	0xbd870f7b	-0.065947495
234	0x3d2b3b5c	0.041804656
235	0x3c390160	0.011291832
236	0x3beab1f6	0.007162328
237	0xbce4ca6d	-0.027928555
238	0xbd34435a	-0.044009544
239	0xbcf921cb	-0.030411622
240	0x3c4b3b06	0.012404209
241	0x3cc487de	0.023990568
242	0xbda7f610	-0.082012296
243	0x3d0a7c48	0.03380993
244	0xbd3bf574	-0.04588838
245	0x3d2d968b	0.042379897
246	0x3d05d171	0.032670442
247	0xbbbed727	-0.005823988
248	0xbd5799da	-0.05263696
249	0xbbad3698	-0.005286049
250	0x3cace912	0.02110723
251	0xbd8b4771	-0.06800736
252	0x3d4af7b2	0.049552627
253	0x3d6482af	0.055788692
254	0x3c401a9f	0.011725097
255	0xbd70597c	-0.05867909

out_n.0.weight f4 [100, 256]
0	0xbb6a2614	-0.0035728263
1	0xba2ab7b8	-0.00065123616
2	0x3d068948	0.032845765
3	0xbc804ce4	-0.015661664
4	0xbd052370	-0.0325045
5	0xbd8562f1	-0.06513012
6	0xbda89ae1	-0.08232666
7	0x3bd12610	0.006382711
8	0xbcea9580	-0.02863574
9	0xbcff4015	-0.031158486
10	0xbc3cfc5c	-0.011534777
11	0xbde6f5e6	-0.1127737
12	0x3c4988b8	0.012300663
13	0xbd3cf800	-0.04613495
14	0xbe049504	-0.1294747
15	0xbe56c296	-0.20972666
16	0x3cd2f1d1	0.025750073
17	0xbd33cb14	-0.043894842
18	0xbd4d3a64	-0.050104514
19	0xbd083c44	-0.0332606
20	0xbd7d2da9	-0.061811123
21	0xbe3935f5	-0.18086989
22	0xbd1782bd	-0.036989916
23	0x3d2e6582	0.042577274
24	0x3c774a6a	0.015093425
25	0x3cb9e095	0.022690097
26	0xbad96e7f	-0.0016588717
27	0x3d7895b8	0.060689658
28	0x3d325656	0.043539368
29	0x3d69f631	0.057119552
30	0xbe66690e	-0.22501013
31	0xbdc0ec97	-0.09420126
32	0xbdb208b8	-0.08693069
33	0xbd59f54c	-0.05321245
34	0xbcc8acee	-0.024496522
35	0x3c9b5308	0.01896049
36	0xbe236de2	-0.15959886
37	0xbd66385c	-0.056206092
38	0xbd5688dc	-0.052376613
39	0xbce8e260	-0.028428257
40	0xbcdcf6b5	-0.026973108
41	0xbd20a4be	-0.03921961
42	0x3d52abd8	0.051433414
43	0x3d2157d8	0.039390415
44	0xbcf7c814	-0.030246772
45	0x3d112d6a	0.0354437
46	0xbdb9da7d	-0.090748765
47	0x3d395b08	0.04525283
48	0xbd252d6a	-0.040326513
49	0x3d75107c	0.059830174
50	0x3c63c38d	0.013901603
51	0xbb76f8a2	-0.0037684818
52	0xbe1bf6a6	-0.15230808
53	0xbd60e738	-0.054908007
54	0xbe414f0a	-0.18877807
55	0x3d1e86da	0.038702823
56	0xbe26d0a0	-0.16290522
57	0x3c24946c	0.010045152
58	0x3c05d820	0.008169204
59	0xbde862f3	-0.11346998
60	0xbd8edc33	-0.069755934
61	0xbd8b0f23	-0.067899965
62	0xbd294e66	-0.041334532
63	0xbcfdd7d8	-0.030986711
64	0xbe117386	-0.14204225
65	0xbe087177	-0.13324533
66	0xbdcf7164	-0.101290494
67	0xbd13b52a	-0.036061443
68	0xbbcfd895	-0.0063429573
69	0xbce63648	-0.028102055
70	0xbe1e6624	-0.15468651
71	0xbd111cd8	-0.0354279
72	0x3d44e79b	0.04807244
73	0xbe688cc4	-0.22709948
74	0xbaf0087e	-0.0018313078
75	0xbe254b4c	-0.16142005
76	0x3d219797	0.039451208
77	0x3cff3904	0.031155117
78	0xbd9c3e51	-0.076290734
79	0xbd99cfd9	-0.07510347
80	0x3c51eeef	0.012813314
81	0xbdc53de8	-0.09630948
82	0xbe2a3a0f	-0.1662371
83	0xbc055e95	-0.008140226
84	0x3d15e3a8	0.036594063
85	0x3c929389	0.017892616
86	0xbda8d598	-0.08243865
87	0xbb95e955	-0.0045749345
88	0xbdc256e4	-0.09489229
89	0x3d0383a6	0.03210797
90	0xbe1f49b6	-0.15555462
91	0xbdf8608c	-0.1212779
92	0x3d6e44b6	0.058170997
93	0xbdd9076d	-0.105971195
94	0xbdd82250	-0.105534196
95	0xbe215c20	-0.15757799
96	0x3d014391	0.031558577
97	0x3da7aa39	0.08186764
98	0x3b2ba6b0	0.0026191883
99	0xba9d2e8a	-0.0011992019
100	0xbd3184ee	-0.043339662
101	0x3c8f0cb3	0.01746211
102	0xbd478b87	-0.048717048
103	0xbd11c4a5	-0.035587925
104	0x3d4e9ab0	0.05044049
105	0xbb00546d	-0.0019581572
106	0x3d0ccb41	0.034373526
107	0x3c7f8084	0.015594605
108	0x3d0d103e	0.034439318
109	0xbceb2cde	-0.028707918
110	0xbd4039fd	-0.046930302
111	0x3c492759	0.012277448
112	0xbde88c68	-0.11354905
113	0x3caace77	0.020850403
114	0xbdca209d	-0.09869502
115	0xbdfaa632	-0.122387305
116	0xbc517426	-0.01278404
117	0x3d144508	0.036198646
118	0x3cfa3415	0.030542413
119	0xbd221cc2	-0.039578207
120	0x3d049aec	0.032374308
121	0xbd48b941	-0.049004797
122	0xbc4f2190	-0.012642279
123	0x3c884f08	0.016639248
124	0xbd013aa4	-0.031550065
125	0xbdbcdccd	-0.09221802
126	0xbbd716f0	-0.0065640137
127	0x3b963300	0.0045837164
128	0xbdc9a9ac	-0.098468155
129	0x3d73225c	0.05935894
130	0x3c108182	0.00881994
131	0xbd80c83f	-0.06288194
132	0xbdd6035a	-0.10449858
133	0xbd40f567	-0.047109034
134	0x3d586744	0.052832857
135	0xbd6e20df	-0.058136817
136	0x3d7a99c3	0.061181795
137	0xbc7787dd	-0.015108076
138	0xbe012795	-0.12612756
139	0xbc8f9284	-0.017525919
140	0xbe103ca6	-0.14085636
141	0xbd20dde6	-0.03927412
142	0xbd862c28	-0.06551391
143	0xbd9ebdd8	-0.077510536
144	0xbca816b6	-0.020518642
145	0x3c8cf26f	0.017205445
146	0xbd0b40b7	-0.033997264
147	0xbe21ad77	-0.15788828
148	0xbd67f7be	-0.05663275
149	0x3d6ab982	0.05730582
150	0xbd9aa5df	-0.07551169
151	0x3c915204	0.017739303
152	0xbc818c05	-0.015813837
153	0x3bb826c7	0.005619857
154	0x3c1145a4	0.008866701
155	0xbd86ec94	-0.065880924
156	0xbde9e4be	-0.11420582
157	0x3d1b802b	0.037964027
158	0xbde5d390	-0.11221993
159	0xbde7481e	-0.11293052
160	0xbd504629	-0.05084816
161	0xbde13613	-0.10996642
162	0x3ce7ce6e	0.028296676
163	0xbde14796	-0.10999982
164	0xbde8872d	-0.11353908
165	0xbe899c87	-0.26877233
166	0xbcd7f6f9	-0.026362883
167	0xbd066534	-0.03281136
168	0xbd4f9804	-0.050682083
169	0xbd44b55e	-0.048024528
170	0xbd9526aa	-0.07282765
171	0xbcdb3688	-0.026759401
172	0xbdc8c77b	-0.09803673
173	0xbd0f9cd6	-0.03506168
174	0x3cccd151	0.025002154
175	0x3d0382b8	0.032107085
176	0xbd706bef	-0.058696683
177	0xbcd47467	-0.025934411
178	0xbd8e684d	-0.069534875
179	0xbdb49061	-0.088166006
180	0xbdbf7e66	-0.093502805
181	0x3d298341	0.04138494
182	0xbe199f89	-0.15002264
183	0xbe3e0e0d	-0.18560047
184	0xbebbafe3	-0.36657628
185	0x3ae6269e	0.0017559116
186	0xbdf817ee	-0.12113939
187	0x3c6c6200	0.014427662
188	0xbcb4ed2d	-0.02208575
189	0xbd1703e4	-0.036868945
190	0x3cada3ec	0.021196328
191	0xbd485b10	-0.04891497
192	0xbd195e99	-0.03744373
193	0xbdb58c9b	-0.08864709
194	0xbda1dd61	-0.07903553
195	0xbd4b0b6c	-0.04957144
196	0x3cc1954d	0.023630762
197	0xbd775cd6	-0.06039127
198	0x3d083273	0.033251237
199	0x3c975717	0.018474145
200	0xbd4fece0	-0.05076301
201	0xbd2df81f	-0.042472955
202	0xbdf59e55	-0.1199309
203	0xbe268ee7	-0.1626545
204	0x3d33d14c	0.043900773
205	0xbaf80324	-0.0018921834
206	0x39e824b3	0.0004427783
207	0xbd63473a	-0.05548785
208	0xbd8c7dfb	-0.06859966
209	0xbdd6c7ca	-0.104873255
210	0xbd594b09	-0.053050075
211	0xbc377418	-0.0111971125
212	0xbc657aa8	-0.014006294
213	0xbca03f57	-0.019561453
214	0x3c318879	0.01083576
215	0xbc2b1e90	-0.010444298
216	0x3d321250	0.043474495
217	0x3c1c3699	0.0095345015
218	0x3ccd0580	0.025027037
219	0xbdca63b1	-0.09882296
220	0xbdf34925	-0.118791856
221	0xbe48b60a	-0.19600692
222	0x3bdb11c0	0.0066854656
223	0x3bd39c56	0.0064578457
224	0xbd3ef966	-0.046624564
225	0xbd9347cf	-0.07191431
226	0xbd0663e1	-0.032810096
227	0xbb111df0	-0.0022143088
228	0xbbe70354	-0.0070499573
229	0xbd571b41	-0.052516226
230	0xbcd9f488	-0.02660586
231	0x3cc47bf8	0.023984894
232	0xbdd5646c	-0.104195446
233	0x3c9ddbf2	0.019269917
234	0xbb990b43	-0.004670532
235	0xbd2a6190	-0.04159695
236	0xbda948af	-0.082658164
237	0xbcde944f	-0.027170328
238	0xbe028114	-0.12744552
239	0xbbef9f8c	-0.0073127206
240	0xbd5d5ba5	-0.054042477
241	0xbe0e7fba	-0.13915911
242	0xbd8f2535	-0.069895186
243	0xbda59957	-0.08085888
244	0x3aae0800	0.0013277531
245	0xbe1f32b0	-0.1554668
246	0xbd8f8a21	-0.07008768
247	0x3d25cef1	0.040480558
248	0xbde59902	-0.112108245
249	0xbd756c0d	-0.0599175
250	0xbd1d7bcb	-0.038448136
251	0xbd84144c	-0.06449184
252	0xbe2b0f14	-0.1670497
253	0xbe339809	-0.17538466
254	0xbd9d7940	-0.07689142
255	0x3d293d86	0.04131844

out_n.0.bias f4 [100]
0	0xbe0b6ce8	-0.13615763
1	0x3cbe2850	0.023212582
2	0x3c8fda4a	0.017560143
3	0xbcef16c1	-0.029185655
4	0x3da2f4c4	0.079568416
5	0x3d07e030	0.033172786
6	0xbdd7e1ab	-0.105410896
7	0x3cd88ea8	0.026435211
8	0xbda4326f	-0.08017432
9	0x3d25da62	0.04049147
10	0xbb58e6e0	-0.0033096597
11	0x3d492191	0.049104277
12	0x3da3b9a4	0.079943925
13	0xbd49cd77	-0.049268212
14	0x3cbb1e6a	0.022841651
15	0xbda899eb	-0.082324825
16	0xbc21c653	-0.009873944
17	0xbc82f4d5	-0.015985886
18	0xbc02eac7	-0.007990546
19	0x3d1b9b7b	0.037990075
20	0xbd6597e3	-0.056053054
21	0x3c9e898f	0.019352702
22	0xbdee1e7a	-0.11626907
23	0x3d0c62b2	0.03427381
24	0xbd7f23b3	-0.062289905
25	0xbd8805b6	-0.06641714
26	0xbca6f99f	-0.0203827
27	0xbd316aa5	-0.043314595
28	0x3d59dbcf	0.05318814
29	0xbd936a82	-0.07198049
30	0xbd2feb4c	-0.042949006
31	0x3d867bde	0.065665945
32	0xbd8c71b8	-0.06857628
33	0xb8330576	-4.268201e-05
34	0xbd763966	-0.060113333
35	0xbcf80863	-0.030277437
36	0xbd5b429a	-0.053530313
37	0x3ca52526	0.020159315
38	0xbd06ac13	-0.032878947
39	0xbc31f95f	-0.010862677
40	0x3d729bb4	0.05923052
41	0xbc4efdd3	-0.012633759
42	0x3d051fcd	0.03250103
43	0xbab47104	-0.0013766591
44	0xbd0db18e	-0.034593157
45	0x3c80b2f1	0.015710326
46	0x3cc02359	0.023454355
47	0xbcad96d1	-0.021190079
48	0xbb6049ab	-0.0034223597
49	0xbd06ef2e	-0.032942943
50	0xbd0a11e4	-0.033708468
51	0x3d102135	0.03518792
52	0x3d1e3861	0.038627986
53	0x3cb9f1bf	0.022698281
54	0xbd8eb66b	-0.06968387
55	0x3c61d747	0.013784236
56	0xbbba3522	-0.0056826035
57	0xbd31f2cc	-0.04344444
58	0xbca7a93a	-0.020466436
59	0xbd7b5edf	-0.061369773
60	0x3d6b78bd	0.057488192
61	0x3cca2489	0.024675624
62	0xbc1bd071	-0.0095101455
63	0xbd6dd08b	-0.05806021
64	0xbd6f065e	-0.05835568
65	0x3c9d40a8	0.01919587
66	0xbd96e416	-0.07367723
67	0xbac02a2b	-0.0014661005
68	0xbcea1d8a	-0.028578538
69	0xbda6c64f	-0.08143293
70	0x3d02357d	0.03178929
71	0x3c2ec9f0	0.010668263
72	0x3d9ecb59	0.07753629
73	0xbd902774	-0.07038775
74	0xbd12b6e3	-0.035818946
75	0xbd4936e1	-0.049124602
76	0xbc49c352	-0.012314634
77	0xbb8c49a4	-0.0042812396
78	0xbd07e5d3	-0.03317816
79	0x3c01ed71	0.007930146
80	0xbb9d17f3	-0.0047941147
81	0x3d1058ef	0.035241064
82	0x3be5abfc	0.0070090275
83	0x3d1b3670	0.037893713
84	0x3cb703db	0.022340706
85	0x3d380d9c	0.044934854
86	0xbc0daca0	-0.008647114
87	0x3d800308	0.06250578
88	0xbd5471ae	-0.051866226
89	0xbd42e42d	-0.047580887
90	0xbbfee922	-0.0077792564
91	0xbb74501d	-0.0037279197
92	0x3c3261c4	0.010887567
93	0xbcc38655	-0.023867765
94	0x3d01b0da	0.0316628
95	0xbd7dbe62	-0.06194914
96	0x3cdc17bc	0.026866786
97	0xbd825019	-0.06362934
98	0x3ded8883	0.11598303
99	0xbe364a07	-0.17801677

out_d.0.weight f4 [100, 256]
0	0x3c88eb2c	0.016713701
1	0x3cc87137	0.024468048
2	0x3d195af6	0.037440263
3	0xbc579592	-0.013158219
4	0xbdb76690	-0.08955109
5	0xbd15eb9b	-0.036601644
6	0xbd204f49	-0.039138112
7	0xbc8ff8e8	-0.017574742
8	0xbc9c66e8	-0.019092038
9	0xbd0d0a45	-0.034433622
10	0xbd75c6fb	-0.060004216
11	0xbd4b2f11	-0.049605433
12	0xbd12f2f2	-0.035876222
13	0xbbd7ef24	-0.006589787
14	0xbd655064	-0.05598487
15	0xbb4c38f5	-0.0031161879
16	0xbd1bb310	-0.038012564
17	0xbce5a64c	-0.028033398
18	0x3cfb4c22	0.030675951
19	0x3cd69384	0.026193388
20	0x39df8938	0.0004263611
21	0x3d18dc7a	0.037319638
22	0x3d4b562e	0.049642734
23	0x3caf1a85	0.02137495
24	0xbc6fed12	-0.014643924
25	0xbbc141ca	-0.0058977352
26	0xbcb7a464	-0.022417255
27	0x3c369870	0.011144742
28	0x3d402f8e	0.04692035
29	0xbc9a45dc	-0.01883214
30	0xbdab8617	-0.08375185
31	0x3c02bb3a	0.007979209
32	0x3d4f1725	0.05055918
33	0xbce5f8a9	-0.028072672
34	0xbcbed628	-0.023295477
35	0xbd87caa7	-0.0663045
36	0x3d8ff642	0.07029392
37	0xbd0ecb20	-0.034861684
38	0xbd1e0557	-0.03857931
39	0x3d0c4a26	0.0342504
40	0xbb767dad	-0.003761153
41	0x3d4784c7	0.04871061
42	0x3d5f4298	0.054506868
43	0x3d28e4f6	0.04123398
44	0xbd1f3758	-0.03887114
45	0xbb2d5550	-0.0026448555
46	0xbd9bd3e9	-0.07608778
47	0x3d040de4	0.03223981
48	0xbc9f2a6a	-0.019429404
49	0xbca2c4b4	-0.019869186
50	0x3d48865a	0.048956253
51	0x3d448f0d	0.047987986
52	0xbcd96a0b	-0.026539823
53	0x3d536aa3	0.05161537
54	0xbc942bd7	-0.01808731
55	0xbd1e4783	-0.038642418
56	0x3911f201	0.00013918431
57	0xbcb86bf4	-0.022512414
58	0x3d80cdb3	0.06289234
59	0xbc230320	-0.0099494755
60	0xbd176436	-0.036960803
61	0xbd22d5ed	-0.039754797
62	0xbcb31938	-0.021862611
63	0xbca298fc	-0.01984834
64	0x3d522a9d	0.05131017
65	0xbd4ce7d0	-0.05002576
66	0xbdc362fe	-0.09540366
67	0x3aa63f27	0.0012683616
68	0xbd6854c6	-0.05672147
69	0xbcd68c98	-0.026190087
70	0xbcdda5cc	-0.027056597
71	0xbbabc935	-0.0052424916
72	0xbce9bfcb	-0.028533837
73	0xbdadc2e5	-0.08484439
74	0xba5d434f	-0.0008440511
75	0xbd385b73	-0.045009088
76	0x3b8002f5	0.0039066025
77	0x3d62dfa2	0.055389054
78	0x3d305d5b	0.04305778
79	0x3d98c1e8	0.0745886
80	0xbd90005c	-0.070313185
81	0xbd99a043	-0.075012706
82	0x3d8b84e4	0.06812456
83	0xbcf527c6	-0.029926192
84	0xbd44e57a	-0.04807041
85	0x3c89b735	0.016810993
86	0x3caf539f	0.021402178
87	0xbc7810e7	-0.015140749
88	0x3d2558be	0.040367834
89	0x3cbb0406	0.022829067
90	0xbd79e1a8	-0.06100622
91	0xbd818b6f	-0.06325423
92	0x3c8fb754	0.017543472
93	0xbb7ced54	-0.0038593607
94	0x3c8740e8	0.016510442
95	0x3c3f02eb	0.011658411
96	0x3d147cec	0.036251947
97	0x3d8ead69	0.06966669
98	0xbd54b9a4	-0.051934853
99	0xbbe32824	-0.0069322754
100	0xbcae3ca0	-0.021269143
101	0xbcc89e02	-0.024489406
102	0xbd0f9984	-0.035058513
103	0xbda2142b	-0.07914003
104	0x3c950d00	0.018194675
105	0xbc2c18e8	-0.010503985
106	0xbb878691	-0.0041359146
107	0x3d2865e9	0.041112814
108	0xbd7dacb6	-0.061932288
109	0xbd4c7ddd	-0.04992472
110	0x3d990eb1	0.07473505
111	0xbb278744	-0.0025562802
112	0xbd8ded3f	-0.06930017
113	0x3d2931a5	0.04130711
114	0x3d18eda5	0.03733601
115	0xbc578a59	-0.013155543
116	0x3ca606bb	0.020266881
117	0x3d0020a2	0.03128112
118	0x3bc01a27	0.0058624926
119	0xbd1e4f8d	-0.038650084
120	0x3cb5d83e	0.022197839
121	0xbd91818b	-0.071047865
122	0xbc400bf5	-0.011721601
123	0xbd7eca0f	-0.062204417
124	0x3caafb24	0.020871706
125	0xbd8b500c	-0.06802377
126	0xbcf1e698	-0.029528901
127	0xbd5d2824	-0.05399336
128	0x3ccbb630	0.024867147
129	0x3cdb0d95	0.026739875
130	0x3cc4467d	0.023959393
131	0x3d416d1d	0.0472232
132	0xbb916b80	-0.004437864
133	0xbd8d8580	-0.06910229
134	0xbcecb2d0	-0.028893858
135	0x3d849293	0.06473269
136	0x3cbd5777	0.023112996
137	0xbd0d8dd0	-0.03455907
138	0x3c301b3f	0.0107486835
139	0x3d368296	0.04455813
140	0x3d81ba5b	0.063343726
141	0xbd2a451d	-0.041569818
142	0xbca17ce0	-0.019712865
143	0xbd148dd6	-0.036268078
144	0xbd621503	-0.05519582
145	0xbce83fe9	-0.028350787
146	0xbda7d301	-0.08194543
147	0x3d265ffb	0.040618878
148	0xbd722972	-0.059121557
149	0x3a64cc80	0.00087279826
150	0xbd256096	-0.040375315
151	0x3ca4b0b1	0.020103784
152	0xbd9333f4	-0.07187644
153	0xbc848aec	-0.016179524
154	0x3c6349b4	0.013872553
155	0x3c8b1ad4	0.016980566
156	0x3b162757	0.0022911632
157	0xbd11010e	-0.035401396
158	0xbd0198b2	-0.031639762
159	0xbd3c279c	-0.045936212
160	0x3d65fba4	0.056148186
161	0xbc38fb97	-0.011290452
162	0x3aee82b6	0.0018196914
163	0x3ce5bac7	0.028043164
164	0xbcea2299	-0.02858095
165	0x3ae8ac56	0.0017751555
166	0xbca6a2ed	-0.020341361
167	0xbc5b6829	-0.013391533
168	0xbbc433e1	-0.0059876298
169	0xb9a6a800	-0.00031787157
170	0xbd42a287	-0.04751828
171	0xbd6234c4	-0.055226102
172	0xbd48b35e	-0.048999183
173	0x3c15cdbe	0.009143291
174	0xbbb8a28f	-0.005634613
175	0xbcd6b7c2	-0.02621067
176	0x3d590d92	0.052991457
177	0xbd5460b5	-0.05185004
178	0xbd1a3d32	-0.037656017
179	0x3c03f6ca	0.008054445
180	0xbdc57e69	-0.096432514
181	0x3d61dbae	0.055141144
182	0xbd559a51	-0.05214912
183	0xbdbebcd2	-0.09313358
184	0x3cc9404a	0.024566788
185	0x3cb4fd46	0.022093426
186	0x3c9b1d9c	0.018935017
187	0x3cbd797c	0.023129217
188	0xb9005edb	-0.00012242368
189	0xbbd27e10	-0.006423719
190	0x3c8ce1e7	0.017197562
191	0xbd833c69	-0.06408007
192	0xbc10b08c	-0.008831155
193	0xbd4ef5b6	-0.050527297
194	0xbd724944	-0.059151903
195	0x3c35470b	0.011064301
196	0xbd7d5cbe	-0.061856024
197	0xbd61b98f	-0.055108603
198	0xbd08d40a	-0.03340534
199	0x3cd2c3c1	0.025728108
200	0x3bf1a220	0.007374063
201	0xbd9e0db9	-0.07717461
202	0x3d5e13e9	0.054218207
203	0x3d0496fe	0.03237056
204	0x3d598582	0.05310584
205	0x3cdfa6e2	0.027301256
206	0x3d1877d3	0.03722365
207	0xbcec79c4	-0.028866656
208	0xbcf936eb	-0.030421695
209	0x3cbe0cd5	0.023199478
210	0x3d51bcb8	0.051205367
211	0x3cc2b000	0.023765564
212	0xbd29fa9c	-0.041498765
213	0xbd6e0137	-0.058106627
214	0x3cf7f299	0.030267047
215	0x3cbc655a	0.022997547
216	0xbd104d2d	-0.03522985
217	0xbd56daea	-0.052454866
218	0xbcae2178	-0.021256194
219	0x3be69df5	0.007037873
220	0x3cdbdf75	0.026839951
221	0xbd7f0afb	-0.06226633
222	0xbd8589f7	-0.06520455
223	0xbcd023e3	-0.025407737
224	0xbd373487	-0.04472783
225	0xbc1e7a02	-0.009672644
226	0x3d499329	0.04921261
227	0xbbec81e9	-0.007217635
228	0xbce83781	-0.028346779
229	0xbd9bd558	-0.076090515
230	0x3cb926a4	0.022601433
231	0xbd4eba5c	-0.050470695
232	0xba15cf7c	-0.00057148165
233	0x3d5abc31	0.05340213
234	0xbda8cc02	-0.082420364
235	0x3d505fe0	0.050872684
236	0xbd83b4b8	-0.06430954
237	0xbc8487ab	-0.016177973
238	0xbd083035	-0.0332491
239	0xbd031c7c	-0.032009587
240	0xbccda6f1	-0.025104018
241	0xbd45af6d	-0.048263002
242	0xbd694fc2	-0.05696083
243	0xbcfa615a	-0.030563999
244	0xbc079bc0	-0.00827688
245	0xbcd881bb	-0.026429048
246	0x3c1ba2f2	0.009499298
247	0x3d61776c	0.05504553
248	0x3c92a0d3	0.017898953
249	0xbd5ee616	-0.054418646
250	0xbd2900c9	-0.041260514
251	0xbb4f2d3e	-0.003161266
252	0x3d7b9ce9	0.061428938
253	0xbd4a6223	-0.049409997
254	0xbd409e33	-0.04702587
255	0x3c97d6c0	0.018535018

out_d.0.bias f4 [100]
0	0xbc80187f	-0.01563668
1	0xbdc49e3d	-0.09600494
2	0xbcde220e	-0.027115848
3	0x3cbba895	0.022907535
4	0x3b1fa2ba	0.0024358467
5	0xbc595de4	-0.013267014
6	0xbd2fb54a	-0.0428975
7	0xbd47488a	-0.048653163
8	0xbd66eb91	-0.056376997
9	0x3bbe9b38	0.0058168434
10	0xbaf1f388	-0.0018459419
11	0xbccc4a51	-0.02493778
12	0x3d5eee36	0.054426394
13	0x3c84cc90	0.016210824
14	0xbcf83455	-0.030298391
15	0xbcb37731	-0.02190742
16	0xbce565b5	-0.0280026
17	0xbc0c10f4	-0.008548964
18	0x3d06e48e	0.03293281
19	0x3aee7451	0.0018192624
20	0x3d1a783e	0.037712328
21	0xbd351052	-0.044205017
22	0x3c9957b0	0.01871857
23	0x3d205e4e	0.039152436
24	0x3d45ff30	0.04833907
25	0x3d3b9fbe	0.04580664
26	0xbd453f5f	-0.04815614
27	0x3c6c231d	0.0144126685
28	0xbc941d73	-0.018080449
29	0xbacf4fd5	-0.0015816638
30	0xbcd6a7b7	-0.02620302
31	0x3c8a09c4	0.01685036
32	0xbc6b2624	-0.014352355
33	0x3ce365f8	0.027758583
34	0xbbf741ae	-0.0075456714
35	0x3d63e2d9	0.05563626
36	0xbd1d0617	-0.038335886
37	0xbcfc427d	-0.030793423
38	0xbc61decf	-0.013786032
39	0x3cdf4a41	0.027257087
40	0xbd01c5eb	-0.03168289
41	0x3d29f823	0.041496407
42	0x3cfc557f	0.030802486
43	0x3bb3d275	0.005487735
44	0xbd3cc77b	-0.046088677
45	0xbc391fa7	-0.01129905
46	0xbd09f65a	-0.033682205
47	0xbd1779ee	-0.036981516
48	0x3c91f96e	0.017819133
49	0x3d3dc6e2	0.046332248
50	0x3bc16884	0.005902352
51	0xbb451b51	-0.0030076096
52	0x3b24bfa2	0.0025138636
53	0xbd22bb0b	-0.03972916
54	0xbca0d25a	-0.019631553
55	0x3d3b9788	0.04579881
56	0x3d1cd79f	0.03829157
57	0xbc5f01f2	-0.013611304
58	0x3b98c836	0.004662539
59	0xb6bd5beb	-5.6433396e-06
60	0x3d28031f	0.0410186
61	0xbd0fc92f	-0.035103973
62	0x3c4a5c06	0.012351042
63	0x3d589b8c	0.052882716
64	0x3d704172	0.058656164
65	0xbb18ac9b	-0.002329624
66	0x3cc4ce40	0.024024129
67	0xbd4b04d7	-0.049565163
68	0x3d1a58dd	0.037682403
69	0xbaf1fda3	-0.001846243
70	0xbd2311c4	-0.039811864
71	0x3ca95b39	0.020673381
72	0xbd63ff9b	-0.055663686
73	0xbca5eefa	-0.020255554
74	0xbd4fe033	-0.050750922
75	0xbccd3d85	-0.025053749
76	0xbd722fd1	-0.059127633
77	0xbcb00cee	-0.02149054
78	0x3c8232ca	0.015893359
79	0x3d07fe14	0.033201292
80	0x3c4e26c5	0.012582486
81	0xbcf83e0a	-0.03030302
82	0xbcc7a002	-0.02436829
83	0xbd5b6278	-0.053560704
84	0x3d4b715e	0.049668662
85	0xbd91e365	-0.0712345
86	0x3d2ec36e	0.042666845
87	0x3c83a349	0.016069071
88	0x3d6227d9	0.055213783
89	0x3bd1e4f1	0.006405466
90	0xbd5e90f8	-0.05433747
91	0xbd2edbdc	-0.042690143
92	0x3cc48060	0.023986995
93	0x3d38c394	0.045108393
94	0xbc18cfec	-0.009326916
95	0x3d1298df	0.03579032
96	0xbc968425	-0.018373558
97	0x3d212ed3	0.039351296
98	0x3d9d8187	0.07690721
99	0xbd9889e3	-0.07448175
