Phase1/ch3_figures_output_tuned_corrected/model_100L_exp.pth (torch, 576111 bytes, 8 tensors)

backbone.0.weight f4 [256, 100]
0.028245222 0.0632209 0.08677079 0.04799355 0.032772023 0.039114285 0.075109914 0.08428314
0.04921043 -0.019535929 0.06073156 0.08775427 0.0531536 0.08408221 0.0020839628 0.071056694
-0.038142342 -0.03186424 -0.0105876615 -0.05880453 -0.08595216 0.07098556 -0.0003487327 0.073117875
-0.03374419 -0.08645264 -0.076192915 -0.054078203 0.04706306 -0.08185668 -0.030285832 -0.083086245
-0.07903645 -0.03213233 0.082806885 -0.008559887 -0.087295435 -0.053909756 -0.04319595 -0.070281506
0.0108359335 -0.022680465 0.038585052 0.008984859 -0.029049806 0.01760812 -0.023119709 0.008853212
0.082864024 0.07053405 -0.04071437 -0.04988436 0.042694025 -0.049429026 0.042760387 -0.087943725
0.025748447 -0.097335815 -0.0552203 0.054490283 -0.10348796 0.04976484 -0.010866048 0.0042192703
-0.10045588 0.018389622 0.00818035 -0.08080342 -0.08010072 -0.033970647 -0.0031391417 -0.09668551
-0.085561514 -0.076861866 0.053717546 0.0991435 0.021049483 0.027592314 0.007824633 -0.06755204
-0.055047944 0.05794721 0.08495474 0.07508585 -0.082395755 0.036198653 0.091760665 0.037813313
-0.07114696 -0.045610905 -0.035516102 0.082992524 -0.033585 0.024608241 -0.030489074 0.0065292795
0.0924358 -0.05190028 0.07041308 -0.071217425 -0.026365567 -0.034408927 0.058632232 -0.072909094
0.08126117 0.05623888 -0.016869009 0.09694904 0.030576242 -0.028240371 -0.075324215 -0.01292305
0.083918944 0.0045582536 -0.02612934 0.06150756 0.05622519 0.04945905 0.077109 0.043908276
0.0134902 -0.003912449 0.048349142 -0.026497532 -0.055610385 0.06326878 0.083029345 0.03390292
-0.036109533 -0.060593713 0.07623511 0.018629862 -0.039269663 0.012658561 0.061935343 -0.05234319
0.05111598 0.09592869 -0.066848315 -0.02438767 -0.052622866 -0.044186022 -0.097762 0.098455526
-0.013823819 -0.063915454 -0.049532797 0.04507916 0.06613325 -0.011624253 0.009631491 -0.09797491
0.031715274 -0.061896574 0.085594214 -0.008522379 -0.015441907 -0.002874732 -0.013881576 -0.0721897
0.009018219 0.09072894 -0.09154888 -0.095679276 -0.07277955 0.0076744556 0.05725595 -0.013123465
0.08725947 -0.07271242 0.023427142 -0.0688045 -0.08503061 0.056117024 -0.08140917 0.022179855
0.07505967 0.08841204 -0.0871823 0.021085097 -0.021940982 0.079914965 -0.006132698 -0.054003563
0.03351569 -0.061910916 -0.031908 0.05616491 -0.0071551683 0.068549626 -0.024876667 -0.013748169
-0.083508156 0.047651507 0.055085447 -0.08076435 0.0809319 -0.067182265 -0.08970841 -0.037704468
0.08756256 -0.086066045 -0.07506684 -0.024041547 0.09706845 -0.038467206 -0.042299807 -0.036977183
-0.053355124 -0.019828284 -0.016197324 -0.048898052 -0.09479069 0.06047045 -0.088257134 -0.043578185
-0.08157646 0.045381676 -0.090652466 0.024538064 -0.08360453 -0.019156206 0.09167041 -0.09788159
0.06611701 0.07199208 -0.0062781693 0.019738222 -0.044684984 -0.016108727 -0.025004184 -0.030434525
-0.084969595 0.008338439 0.08240386 0.045670178 0.042149544 -0.08957831 -0.058535684 0.06786609
-0.035379436 -0.09389251 0.055449344 0.09196514 0.07844927 -0.03426932 -0.008354592 -0.05902337
0.006692326 0.036890246 0.038383868 -0.09632629 0.06924736 -0.035785057 0.084185 -0.083093636
00000000: 8662 e73c f679 813d e2b4 b13d e294 443d
00000010: f53b 063d 4d36 203d 3ad3 993d a49c ac3d
00000020: e090 493d d009 a0bc a8c1 783d 83b8 b33d
00000030: 97b7 593d 4b33 ac3d 1893 083b 2c86 913d
00000040: 253b 1cbd 1484 02bd df77 2dbc 05dd 70bd
00000050: b007 b0bd e160 913d 1cd6 b6b9 d3be 953d
00000060: 5937 0abd 150e b1bd 080b 9cbd 1b81 5dbd
00000070: 32c5 403d 7aa4 a7bd fe19 f8bc 1f29 aabd
00000080: dddd a1bd 319d 03bd a896 a93d c53e 0cbc
00000090: f3c7 b2bd 7ad0 5cbd 3dee 30bd c0ef 8fbd
000000a0: 3389 313c 62cc b9bc 5c0b 1e3d 3b35 133c
000000b0: dcf9 edbc e73e 903c 8b65 bdbc 100d 113c
000000c0: 9db4 a93d 2874 903d 1cc4 26bd 8b53 4cbd
000000d0: eedf 2e3d 1776 4abd 8425 2f3d d71b b4bd
000000e0: 68ee d23c 0058 c7bd ae2e 62bd 3431 5f3d
000000f0: 7ff1 d3bd 38d6 4b3d 8207 32bc ce41 8a3b
00000100: d0bb cdbd d5a5 963c e006 063c 437c a5bd
00000110: d90b a4bd ce24 0bbd 0fba 4dbb 0d03 c6bd
00000120: e03a afbd c169 9dbd ee06 5c3d bf0b cb3d
00000130: f76f ac3c 4709 e23c e432 003c b958 8abd
00000140: f479 61bd 0e5a 6d3d c0fc ad3d 9cc6 993d
00000150: 1bbf a8bd 0a45 143d 04ed bb3d 22e2 1a3d
00000160: 7fb5 91bd 80d2 3abd 5579 11bd fcf7 a93d
00000170: 6d90 09bd 3997 c93c 39c4 f9bc 91f3 d53b
00000180: fb4e bd3d 6395 54bd bc34 903d 71da 91bd
00000190: 9afc d7bc 60f0 0cbd 5a28 703d 5d51 95bd
000001a0: 426c a63d bd5a 663d e030 8abc 388d c63d
000001b0: 077b fa3c 5a58 e7bc 9543 9abd 33bb 53bc
000001c0: b2dd ab3d 675d 953b 330d d6bc 5aef 7b3d
000001d0: 634c 663d 9395 4a3d 53eb 9d3d 2ad9 333d
000001e0: 0006 5d3c 0034 80bb c009 463d 5a11 d9bc
000001f0: b7c7 63bd 1093 813d 4a0b aa3d cadd 0a3d
00000200: 97e7 13bd 1d31 78bd 2721 9c3d a79d 983c
00000210: 3ad9 20bd da65 4f3c eaaf 7d3d d065 56bd
00000220: fd5e 513d 4376 c43d c5e7 88bd a7c8 c7bc
00000230: 138b 57bd 67fc 34bd 7237 c8bd 0da3 c93d
00000240: 4d7d 62bc 1be6 82bd e7e2 4abd eda4 383d
00000250: df70 873d a773 3ebc 67cd 1d3c 12a7 c8bd
00000260: e0e7 013d 4387 7dbd 054c af3d 73a1 0bbc
00000270: 0d00 7dbc 0066 3cbb 8d6f 63bc 32d8 93bd
00000280: 27c1 133c 18d0 b93d fb7d bbbd 7ff3 c3bd
00000290: 720d 95bd 007a fb3b 3785 6a3d cd03 57bc
000002a0: 18b5 b23d 40ea 94bd 47ea bf3c 60e9 8cbd
000002b0: 8724 aebd f7da 653d dab9 a6bd 87b2 b53c
000002c0: e2b8 993d 5f11 b53d a28c b2bd a7ba ac3c
000002d0: 93bd b3bc 75aa a33d cdf4 c8bb d732 5dbd
000002e0: c047 093d 4d96 7dbd f7b1 02bd 2d0d 663d
000002f0: e775 eabb bf63 8c3d 27ca cbbc 0040 61bc
00000300: 5306 abbd 3a2e 433d 47a1 613d c867 a5bd
00000310: a0bf a53d db96 89bd 0bb9 b7bd 0070 1abd
00000320: 0054 b33d 6543 b0bd a5bc 99bd c7f2 c4bc
00000330: d3cb c63d ca8f 1dbd 9042 2dbd 6375 17bd
00000340: e78a 5abd ed6e a2bc 40b0 84bc 5349 48bd
00000350: 9f21 c2bd ddaf 773d 28c0 b4bd 0a7f 32bd
00000360: 8f11 a7bd 23e2 393d 00a8 b9bd 0d04 c93c
00000370: da38 abbd 7aed 9cbc b2bd bb3d 2576 c8bd
00000380: 5b68 873d 9570 933d 1ab9 cdbb 0db2 a13c
00000390: 9a07 37bd 73f6 83bc 93d5 ccbc d351 f9bc
000003a0: 8a04 aebd f39d 083c 5bc3 a83d a710 3b3d
000003b0: 00a5 2c3d d574 b7bd 1dc3 6fbd 60fd 8a3d
000003c0: 07ea 10bd b74a c0bd da1e 633d 3858 bc3d
000003d0: 03aa a03d fd5d 0cbd b3e1 08bc 7dc2 71bd
000003e0: 4d4b db3b 3a1a 173d 6738 1d3d b846 c5bd
000003f0: 8fd1 8d3d 5a93 12bd 2f69 ac3d ff2c aabd

backbone.0.bias f4 [256]
0.076711856 0.06113118 0.030218435 0.090204194 0.038274623 0.04239443 0.06199062 0.03916824
-0.076717705 -0.05432303 -0.015827466 -0.035420094 0.07782275 -0.10251733 0.032889236 0.01410408
0.018354347 -0.054596424 0.0043237223 0.062286306 -0.060125794 -0.025463928 -0.00390769 0.04025998
0.03899486 0.005325866 0.051217355 -0.00282979 -0.04554186 0.009758402 -0.05045728 -0.09146644
0.0610922 -0.050012767 -0.04083955 0.020407012 0.043636553 -0.075384706 0.06583711 0.08104602
-0.025656596 -0.09352678 -0.08986856 0.017163135 0.015735304 0.07632002 0.068136156 -0.043542504
-0.009641886 -0.023780048 0.054886524 0.018837487 0.03990531 0.036586285 0.008871115 -0.08084314
0.0849721 -0.06513261 0.051431492 0.03952849 0.0143978475 -0.062677704 0.021451687 -0.0051322104
0.03455912 -0.01570472 0.01211666 -0.06442119 -0.095730856 0.036516704 -0.10439683 0.09480771
0.07031629 0.084431544 -0.06553226 -0.075893275 0.0005198178 -0.048339333 -0.09204606 -0.07407818
-0.04699279 -0.06006781 -0.09636268 -0.098679945 0.062349487 -0.05942601 0.0011916161 -0.09915327
-0.024294874 -0.06468049 -0.086969666 0.03764173 -0.10762997 0.08227095 -0.03536833 0.012875199
0.10743148 0.0153709 0.05130953 -0.025391353 -0.015965581 0.001512742 -0.06852215 -0.0600016
0.047715224 -0.0013518151 -0.024002051 -0.040367596 0.038536157 -0.059738368 -0.019456787 -0.08422041
-0.0056795715 -0.00976944 -0.07258767 -0.025325144 0.028146828 0.066313416 0.044625595 0.08632108
-0.0045252084 -0.08148129 0.032883536 -0.07159376 0.03783814 0.00863117 0.043441895 0.04262607
-0.09351982 -0.039314236 -0.0036368729 0.06557908 0.08526659 -0.094432436 -0.020469248 -0.019801116
-0.024933929 0.028828645 -0.06637859 -0.007741964 -0.065637566 0.048121374 -0.080857456 0.09229059
-0.0693643 -0.099574916 -0.09461492 0.056702703 -0.055009406 0.0215956 0.07784444 -0.004531634
-0.07203221 0.07492041 -0.009797338 0.026216317 -0.07299115 -0.0076428056 0.06840497 -0.01962365
-0.023224438 0.017585421 -0.030126512 -0.09293061 -0.08838456 -0.051209092 -0.10916233 0.011994803
-0.06817548 -0.052614007 -0.051689558 -0.043702807 -0.06746735 0.07553541 0.04307221 -0.019093072
-0.018960036 0.055677384 -0.015257991 0.001037925 9.882362e-05 -0.11259148 0.0890876 0.07084873
0.023456061 -0.0844928 -0.0060084583 0.022028899 -0.0314172 -0.04283799 -0.0074382783 0.045331568
0.033575285 -0.082202725 -0.053578123 0.030436423 0.0038781452 -0.08233937 0.0109255975 0.06092919
-0.064563766 -0.061408885 0.09505891 -0.04727988 0.07238377 -0.018574012 0.051435966 -0.10482631
0.04609096 -0.076618195 0.03071425 -0.082496956 0.024197195 -0.0061473297 -0.08565008 -0.024247337
-0.022057557 0.05781869 -0.047217365 -0.07444642 -0.06966921 -0.08665422 -0.012233651 -0.003033799
-0.08983481 -0.071787454 0.07076768 -0.011855567 -0.058668997 -0.011365629 -0.0783449 0.04691378
0.05449153 -0.061157025 -0.013910462 0.032464907 0.08684208 0.096869804 -0.042739797 0.08556396
0.06354951 0.029692043 -0.048916437 -0.11819309 0.028217161 0.0014502406 -0.07578677 -0.069858454
0.055190373 -0.069436 0.0549765 -0.0009540533 -0.09240854 -0.040293325 0.08257476 0.09681695
00000000: 1b1b 9d3d b064 7a3d a78c f73c fabc b83d
00000010: dac5 1c3d c8a5 2d3d e0e9 7d3d e06e 203d
00000020: 2c1e 9dbd d381 5ebd 9aa8 81bc a914 11bd
00000030: 8961 9f3d 9bf4 d1bd ddb6 063d cd14 673c
00000040: db5b 963c 80a0 5fbd 03ae 8d3b ed1f 7f3d
00000050: 7746 76bd ba99 d0bc 140c 80bb a6e7 243d
00000060: 13b9 1f3d 9a84 ae3b 4ac9 513d 0074 39bb
00000070: 1a8a 3abd b4e1 1f3c 4bac 4ebd c252 bbbd
00000080: d13b 7a3d 30da 4cbd 5f47 27bd 9b2c a73c
00000090: 3ebc 323d 4c63 9abd 9bd5 863d 75fb a53d
000000a0: c82d d2bc f88a bfbd 020d b8bd b499 8c3c
000000b0: 53e7 803c ac4d 9c3d f88a 8b3d a059 32bd
000000c0: 00f9 1dbc 60ce c2bc b1d0 603d 1351 9a3c
000000d0: c073 233d 80db 153d 2758 113c 1791 a5bd
000000e0: da05 ae3d 3f64 85bd d4a9 523d a0e8 213d
000000f0: f3e4 6b3c 2b5d 80bd 73bb af3c 1a2c a8bb
00000100: dd8d 0d3d 2fa7 80bc f584 463c 42ef 83bd
00000110: 8a0e c4bd 8a92 153d 01ce d5bd 8b2a c23d
00000120: fd01 903d 72ea ac3d c735 86bd ef6d 9bbd
00000130: 6244 083a 77ff 45bd a582 bcbd 4db6 97bd
00000140: 837b 40bd aa09 76bd cc59 c5bd b618 cabd
00000150: 2d62 7f3d b068 73bd 0030 9c3a df10 cbbd
00000160: 0b06 c7bc 3477 84bd 271d b2bd 372e 1a3d
00000170: 1a6d dcbd ac7d a83d 62de 10bd 80f2 523c
00000180: 0905 dc3d 3ad6 7b3c f129 523d 8701 d0bc
00000190: 40ca 82bc 3347 c63a 5755 8cbd 3dc4 75bd
000001a0: 0a71 433d 632f b1ba f39f c4bc 7e58 25bd
000001b0: 17d8 1d3d 38b0 74bd d763 9fbc c07b acbd
000001c0: b31b babb 0010 20bc d8a8 94bd ad76 cfbc
000001d0: 2d94 e63c 54cf 873d 54c9 363d 1bc9 b03d
000001e0: 3348 94bb aadf a6bd e3b0 063d c09f 92bd
000001f0: 2afc 1a3d c069 0d3c 21f0 313d ad98 2e3d
00000200: 5287 bfbd f707 21bd 9a58 6ebb 534e 863d
00000210: 40a0 ae3d cb65 c1bd 20af a7bc f335 a2bc
00000220: 3d42 ccbc 0d2a ec3c 80f1 87bd 4db0 fdbb
00000230: fd6c 86bd eb1a 453d 9898 a5bd d902 bd3d
00000240: df0e 8ebd efed cbbd 78c5 c1bd 1841 683d
00000250: 8b51 61bd 41e9 b03c e86c 9f3d 1a7e 94bb
00000260: a085 93bd df6f 993d 0485 20bc 9ac3 d63c
00000270: 627c 95bd 8070 fabb e817 8c3d c7c1 a0bc
00000280: 2d41 bebc 4d0f 903c e0cb f6bc 6752 bebd
00000290: f702 b5bd a0c0 51bd 8090 dfbd da85 443c
000002a0: 969f 8bbd c981 57bd 6eb8 53bd b701 33bd
000002b0: 522c 8abd 4fb2 9a3d 7c6c 303d 1369 9cbc
000002c0: 1452 9bbc f80d 643d a7fc 79bc fc0a 883a
000002d0: 873f cf38 5d96 e6bd 8f73 b63d 2419 913d
000002e0: ed26 c03c 900a adbd 9ae2 c4bb f375 b43c
000002f0: 52af 00bd e376 2fbd cdbc f3bb 98ad 393d
00000300: 3d86 093d e759 a8bd bc74 5bbd ce55 f93c
00000310: 7b28 7e3b 8ba1 a8bd 4701 333c e390 793d
00000320: 023a 84bd e287 7bbd 3fae c23d 8ca8 41bd
00000330: f13d 943d 8728 98bc 85ae 523d 2daf d6bd
00000340: e0c9 3c3d 00ea 9cbd 739c fb3c 2af4 a8bd
00000350: 3239 c63c 8a6f c9bb 4f69 afbd 5aa2 c6bc
00000360: 0db2 b4bc 4ad3 6c3d ff66 41bd 5d77 98bd
00000370: bbae 8ebd c577 b1bd a76f 48bc b3d2 46bb
00000380: 50fb b7bd 4d05 93bd a5ee 903d da3d 42bc
00000390: e74e 70bd e736 3abc 4a73 a0bd aa28 403d
000003a0: 8332 5f3d ca7f 7abd b5e8 63bc ecf9 043d
000003b0: 43da b13d ad63 c63d ed0f 2fbd 283c af3d
000003c0: 3f26 823d ba3c f33c 9a5c 48bd 380f f2bd
000003d0: ad27 e73c 0016 be3a 1836 9bbd f311 8fbd
000003e0: 4d0f 623d 7634 8ebd 0a2f 613d 6f19 7aba
000003f0: b040 bdbd 9d0a 25bd f51c a93d f747 c63d

backbone.2.weight f4 [256, 256]
0.018533975 0.039205052 -0.012019314 0.062483087 -0.062066935 -0.004561463 0.025354698 0.007841848
0.013130854 0.027347893 0.0157862 0.030737635 -0.02405402 0.023044107 -0.0012780577 0.017035618
-0.044218447 -0.029521853 0.009106491 0.04336055 -0.02570191 -0.048914053 -0.042946476 0.01161933
0.024799287 0.040017404 0.040160928 0.03035795 -0.018162243 0.056897786 0.025131466 -0.029888963
0.041708812 0.038266726 0.054804016 0.012914529 0.041230164 0.004290635 -0.011581428 -0.050629277
0.03969061 -0.015627414 -0.031008922 -0.004980658 -0.048317276 0.010884921 0.061926797 0.036876094
-0.033380076 0.047926024 0.004404199 0.051051244 0.035473518 0.046776973 -0.05392924 0.003883049
-0.032301955 -0.050397396 -0.07446617 0.058962457 0.030335866 -0.05406085 0.04747007 0.047530837
-0.034315534 0.0007107198 -0.055169206 -0.06020064 0.023246361 -0.004131142 -0.012771662 -0.05132424
0.009628899 0.008361318 -0.05715762 0.023490217 -0.028311988 0.054132715 -0.013077222 -0.050900027
0.062309228 -0.049436264 -0.030036196 0.012625073 0.04430788 -0.02372466 0.039029226 -0.038558
0.0076313196 -0.06941436 0.017536893 0.02105286 -0.03578148 0.015934411 -0.015339916 -0.06196443
-0.033345178 0.0149297025 0.0065868655 0.033487305 0.04636374 0.05154249 -0.061820492 0.023940489
-0.0068176463 -0.07923882 -0.0439284 -0.045736488 0.03478214 0.040657878 -0.04361906 0.023120195
0.05582215 -0.046291493 0.041265607 -0.0010812953 0.047557637 -0.022048105 -0.0026912559 -0.049901567
0.026254848 0.0280313 0.046004515 0.012703533 0.04286634 -0.03161429 0.008045417 -0.03370612
0.025838444 -0.06109236 0.030331694 -0.021323003 0.015206635 -0.017958071 0.009774692 -0.046801776
0.02316381 0.018068373 -0.020005288 0.0046012327 0.012197412 0.014542462 -0.07327842 0.03355525
0.012492053 -0.05807697 -0.03234264 0.020822287 0.027998557 0.05116607 0.014761791 0.050550744
0.019076608 0.034442425 -0.05528696 -0.041250795 -0.051391996 -0.008695513 -0.03212057 0.009213671
0.00018172711 -0.05337073 -0.030431965 0.052590802 -0.06266785 -0.034850165 -0.08132086 0.008956052
0.022087682 -0.055168815 -0.028537543 0.009433351 0.0068426095 0.042984433 -0.06283354 -0.056853957
-0.00079564383 -0.023815453 0.052687444 -0.05575185 0.015361451 -0.060814764 -0.0113493875 0.007068196
-0.020384736 -0.05888296 0.062274702 -0.008890457 5.1747535e-05 -0.04056063 0.0054680407 -0.04984255
-0.054203667 0.036265872 0.047434833 -0.069304004 -0.025919449 -0.004642114 0.023149094 -0.0070086643
0.02906131 0.03174577 -0.0466847 -0.008581989 0.019275188 0.00542634 -0.042111948 -0.030078499
-0.023195632 -0.03247507 -0.0021654665 0.037220143 0.0001031221 0.00020340469 0.036161404 0.032721892
0.053419545 0.023982368 0.047668274 -0.009346552 -0.05583941 0.04285694 0.00795348 -0.02582287
-0.00522691 0.011878885 -0.0244492 -0.021986656 0.05112674 -0.040883303 0.04896965 -0.047320247
-0.0613498 0.06133218 -0.024439182 -0.06889078 -0.013333447 0.058206707 -0.056428067 -0.021905571
0.05671422 -0.04790739 0.027889065 -0.06455903 0.011204712 0.006242819 -0.0539994 -0.024823956
0.042871833 0.0031296846 -0.0033911392 0.027070412 -0.01882863 0.054289706 0.048370346 -0.03737711
00000000: 90d4 973c 7a95 203d a8ec 44bc 44ee 7f3d
00000010: e639 7ebd 5378 95bb a8b4 cf3c 187b 003c
00000020: cb22 573c b008 e03c 1052 813c 7ecd fb3c
00000030: f00c c5bc ffc6 bc3c 8084 a7ba 488e 8b3c
00000040: 671e 35bd d0d7 f1bc 6433 153c d59a 313d
00000050: d08c d2bc 1a5a 48bd a5e8 2fbd 015f 3e3c
00000060: e027 cb3c 4ae9 233d c97f 243d 3cb1 f83c
00000070: fcc8 94bc a70d 693d 81e0 cd3c b3d9 f4bc
00000080: dcd6 2a3d 92bd 1c3d 2d7a 603d 7697 533c
00000090: f6e0 283d 7598 8c3b 08c0 3dbc a560 4fbd
000000a0: 9f92 223d 1005 80bc 6c06 febc ca34 a3bb
000000b0: 56e8 45bd ab56 323c f4a6 7d3d 630b 173d
000000c0: 8cb9 08bd 144e 443d 1951 903b 1c1b 513d
000000d0: ae4c 113d 3699 3f3d e8e4 5cbd c07a 7e3b
000000e0: 0e4f 04bd 806d 4ebd b881 98bd 9e82 713d
000000f0: ec82 f83c e96e 5dbd fa6f 423d b2af 423d
00000100: 728e 0cbd 994f 3a3a 1bf9 61bd f294 76bd
00000110: 276f be3c 885e 87bb 3c40 51bc 5e39 52bd
00000120: 88c2 1d3c e9fd 083c 1c1e 6abd 8e6e c03c
00000130: 8bee e7bc 44ba 5d3d d841 56bc 8c7c 50bd
00000140: f637 7f3d ae7d 4abd 780e f6bc 65d9 4e3c
00000150: 2e7c 353d 385a c2bc 1cdd 1f3d feee 1dbd
00000160: 2610 fa3b 1e29 8ebd 88a9 8f3c 0c77 ac3c
00000170: 9a8f 12bd e288 823c 4554 7bbc 6ace 7dbd
00000180: f494 08bd b69b 743c a2d6 d73b fc29 093d
00000190: e8e7 3d3d 381e 533d 7c37 7dbd d81e c43c
000001a0: 9066 dfbb f647 a2bd 44ee 33bd 2f56 3bbd
000001b0: b877 0e3d e088 263d e6a9 32bd 9066 bd3c
000001c0: c4a5 643d 269c 3dbd 2006 293d 40ba 8dba
000001d0: cccb 423d 3a9e b4bc c85f 30bb 9665 4cbd
000001e0: 6814 d73c e6a1 e53c 3b6f 3c3d 7b22 503c
000001f0: 9e94 2f3d fc7d 01bd edd0 033c 6e0f 0abd
00000200: 25ab d33c fc3b 7abd 2c7a f83c 94ad aebc
00000210: 4025 793c ce1c 93bc 0826 203c 38b3 3fbd
00000220: 08c2 bd3c 2004 943c 21e2 a3bc f0c5 963b
00000230: a7d7 473c 8243 6e3c ff12 96bd 3b71 093d
00000240: 78ab 4c3c 1ee2 6dbd b779 04bd 8093 aa3c
00000250: 3b5d e53c 8393 513d 70db 713c 4c0e 4f3d
00000260: 8c46 9c3c 8013 0d3d 9474 62bd 98f6 28bd
00000270: 6a80 52bd a077 0ebc dc90 03bd f0f4 163c
00000280: 008e 3e39 449b 5abd 754c f9bc 7469 573d
00000290: 0058 80bd 0cbf 0ebd 8d8b a6bd 68bc 123c
000002a0: 3af1 b43c b2f8 61bd 91c7 e9bc 588e 1a3c
000002b0: f837 e03b 7210 303d dfae 80bd b2df 68bd
000002c0: c192 50ba a018 c3bc cace 573d 0d5c 64bd
000002d0: 98ae 7b3c e718 79bd c8f2 39bc 539c e73b
000002e0: e4fd a6bc 422f 71bd c213 7f3d 48a9 11bc
000002f0: 7e0b 5938 e722 26bd 402d b33b b427 4cbd
00000300: aa04 5ebd 868b 143d 074b 423d 42ef 8dbd
00000310: 0655 d4bc e01c 98bb 2ba3 bd3c f0a8 e5bb
00000320: fc11 ee3c da07 023d 7538 3fbd 799b 0cbc
00000330: 00e7 9d3c 70cf b13b 947d 2cbd 2f67 f6bc
00000340: c404 bebc 9404 05bd 80ea 0dbb 2674 183d
00000350: 4243 d838 0849 5539 fb1d 143d 6407 063d
00000360: 74ce 5a3d ac76 c43c cf3f 433d 4822 19bc
00000370: ddb7 64bd c28a 2f3d 504f 023c 7c8a d3bc
00000380: 8046 abbb a89f 423c b049 c8bc 5c1d b4bc
00000390: 466a 513d 4075 27bd 6694 483d e0d2 41bd
000003a0: ee49 7bbd 7437 7b3d ae34 c8bc 9c16 8dbd
000003b0: 8874 5abc 286a 6e3d 1e21 67bd 5073 b3bc
000003c0: 2c4d 683d 8a3a 44bd 9c77 e43c 8637 84bd
000003d0: f893 373c 9090 cc3b 7a2e 5dbd 9c5b cbbc
000003e0: 609a 2f3d 651b 4d3b e03d 5ebb c5c2 dd3c
000003f0: 803e 9abc e25e 5e3d fc1f 463d be18 19bd

backbone.2.bias f4 [256]
-0.02563464 -0.0018603808 -0.07587978 -0.0050142333 -0.05475983 0.0029800332 0.009099594 -0.01915091
-0.04365104 -0.049905904 -0.0745837 -0.0017155185 -0.03868582 0.040630434 0.041524064 -0.012013446
-0.083455846 -0.06341892 -0.046108972 0.036023438 -0.018314853 -0.057617296 -0.02137202 -0.03122434
-0.058428597 0.019934854 0.07709766 -0.049555242 0.06365752 -0.022263663 -0.022413064 -0.042364962
0.055256125 -0.036509488 -0.010541888 -0.08872307 0.040644523 0.022561215 -0.039103474 0.0073737637
-0.0428823 -0.08114664 0.00928238 -0.037629906 0.04236567 -0.012477025 -0.047506098 -0.017892214
0.05906797 -0.07428255 0.09168162 -0.046724822 0.0520343 0.045269147 -0.041553095 -0.036806453
0.01452592 0.0057128416 -0.08635967 0.059822284 -0.0015535188 -0.025886785 0.012072877 -0.015494324
-0.011156246 -0.039108235 0.033902224 0.03453186 -0.002202464 0.046983935 0.017494895 -0.019564446
0.010681481 -0.080502905 -0.021141162 -0.025525535 -0.0364623 -0.0886013 -0.046843097 -0.021710493
-0.035634637 -0.009566307 -0.03463952 -0.013194625 0.055149462 0.017242678 -0.01246015 0.012246892
-0.021042842 0.0066658934 0.0017414123 -0.06402621 -0.08699602 -0.022157794 0.019573621 -0.0544274
0.057734363 -0.07424845 -0.04530587 0.04476823 -0.044470746 -0.011188907 -0.016153067 -0.043442316
-0.0037720678 0.0018957241 0.0076178014 0.030337261 -0.0040225186 0.028274013 0.007026866 -0.05479871
-0.05993355 -0.05590702 -0.021717032 -0.062626764 0.02055204 -0.00829061 0.05060046 -0.066438705
0.03350746 -0.031134732 -0.010727984 0.036869388 -0.009734016 -0.07103917 -0.051612854 -0.005801893
0.02777149 0.033670504 0.087217964 0.034423076 -0.062726505 0.03454173 0.003204815 -0.037979554
0.053232297 0.19373104 -0.06071835 0.01529903 0.03365649 -0.013388094 -0.010007889 -0.05435497
-0.051190272 0.05317146 -0.005894608 0.039990716 -0.029052079 -0.11170692 -0.05584358 -0.07037243
-0.059220575 0.0447997 0.017380657 -0.04977445 0.054777294 0.04560054 0.008819476 0.033451974
0.021126803 0.04444087 -0.0024420843 -0.024395986 -0.036503986 -0.007433043 0.052714787 -0.057113104
-0.01602686 -0.017326891 -0.0023196638 -0.071204886 -0.0019293706 0.010820805 -0.059286665 0.054534666
0.045171425 0.006704358 0.035742864 -0.09184135 0.00038951382 0.061094616 0.022308791 -0.031055253
0.030490791 0.02104404 -0.0031559593 0.03306432 -0.037724122 0.06276282 -0.03109625 -0.021024361
-0.0148095125 -0.059887774 -0.02780558 0.01954253 -0.04281667 -0.032517947 -0.02088245 -0.026807223
-0.06615764 0.021634473 -0.0063120225 -0.055128373 -0.032920547 0.014348753 0.040345106 -0.022459252
-0.013007803 -0.0036035175 -0.023976984 -0.054890566 -0.0124186985 -0.019510604 -0.039480582 -0.016779352
-0.035368316 -0.03136699 0.011038102 0.04390935 -0.061828934 0.049193826 -0.043009154 -0.06930629
0.0285799 -0.0018042115 0.03533863 -0.060514014 -0.029146273 -0.069664136 0.015254522 0.06792921
-0.035073645 -0.017858058 0.04043567 0.04170232 0.01785685 -0.08005645 -0.040875155 0.05614834
0.009937114 -0.018673427 0.017742932 0.03159434 -0.043718256 0.012043558 0.041239165 0.0026088431
-0.026194073 -0.0027619677 0.058836233 0.02698129 -0.02572991 0.040315337 -0.06032116 -0.0012916067
00000000: bdff d1bc 05d8 f3ba dc66 9bbd 704e a4bb
00000010: d84b 60bd a94c 433b 7716 153c 5fe2 9cbc
00000020: 6fcb 32bd 226a 4cbd 57bf 98bd 40db e0ba
00000030: 0675 1ebd 196c 263d 2315 2a3d 0bd4 44bc
00000040: e6ea aabd c7e1 81bd c3dc 3cbd 508d 133d
00000050: 0809 96bc 1d00 6cbd 6014 afbc 30ca ffbc
00000060: d352 6fbd 6b4e a33c 61e5 9d3d 70fa 4abd
00000070: e05e 823d 4962 b6bc 9a9b b7bc e286 2dbd
00000080: 3f54 623d f98a 15bd e2b7 2cbc 71b4 b5bd
00000090: df7a 263d 4cd2 b83c f72a 20bd 9d9f f13b
000000a0: 5aa5 2fbd 3630 a6bd 2015 183c d121 1abd
000000b0: a087 2d3d 706c 4cbc c195 42bd b192 92bc
000000c0: 41f1 713d 7321 98bd 93c3 bb3d 8762 3fbd
000000d0: eb21 553d 246c 393d 9433 2abd 5dc2 16bd
000000e0: 20fe 6d3c ca32 bb3b 57dd b0bd 3608 753d
000000f0: 719f cbba 8610 d4bc 51cd 453c e8db 7dbc
00000100: b0c8 36bc f52f 20bd 0fdd 0a3d 4871 0d3d
00000110: 3757 10bb 3a72 403d 7451 8f3c 9e45 a0bc
00000120: 6101 2f3c b5de a4bd 3b30 adbc ed1a d1bc
00000130: 7e59 15bd 9974 b5bd 8cde 3fbd 34da b1bc
00000140: a0f5 11bd 00bc 1cbc 2be2 0dbd 452e 58bc
00000150: 67e4 613d 8440 8d3c a825 4cbc 30a7 483c
00000160: 0a62 acbc 916d da3b 1a40 e43a 2c20 83bd
00000170: f82a b2bd 4384 b5bc dc58 a03c 44ef 5ebd
00000180: de7a 6c3d 920f 98bd a692 39bd e45e 373d
00000190: f526 36bd ad51 37bc 7053 84bc 92f0 31bd
000001a0: cc34 77bb f279 f83a c09e f93b d985 f83c
000001b0: 55cf 83bb e79e e73c a041 e63b 9d74 60bd
000001c0: e27c 75bd c2fe 64bd ebe7 b1bc 7642 80bd
000001d0: c05c a83c 57d5 07bc 6e42 4f3d 0411 88bd
000001e0: 1e3f 093d 440e ffbc 6dc4 2fbc 5b04 173d
000001f0: 6c7b 1fbc fc7c 91bd 0068 53bd ce1d bebb
00000200: 0981 e33c 15ea 093d 559f b23d 36ff 0c3d
00000210: c176 80bd a17b 0d3d e007 523b 7390 1bbd
00000220: 1c0a 5a3d 6e61 463e ceb3 78bd c8a8 7a3c
00000230: 63db 093d bc59 5bbc 21f8 23bc 51a3 5ebd
00000240: e4ac 51bd 51ca 593d 8e27 c1bb 4ecd 233d
00000250: a0fe edbc 99c6 e4bd 3dbc 64bd 6c1f 90bd
00000260: 4691 72bd e47f 373d e161 8e3c 4be0 4bbd
00000270: 285e 603d a2c7 3a3d 907f 103c f004 093d
00000280: 1e12 ad3c a107 363d 600b 20bb 17da c7bc
00000290: 3485 15bd e290 f3bb 76eb 573d 6eef 69bd
000002a0: c34a 83bc 20f1 8dbc 8005 18bb ded3 91bd
000002b0: efe2 fcba bf49 313c 93d6 72bd be5f 5f3d
000002c0: ac05 393d 3bb0 db3b 1c67 123d 5117 bcbd
000002d0: a937 cc39 593e 7a3d edc0 b63c 9667 febc
000002e0: d3c7 f93c 8d64 ac3c 36d4 4ebb 746e 073d
000002f0: 9c84 1abd cb89 803d 90bd febc 483b acbc
00000300: 99a3 72bc e24c 75bd 87c8 e3bc a817 a03c
00000310: 8860 2fbd 8a31 05bd ac11 abbc d29a dbbc
00000320: a87d 87bd c73a b13c 15d5 cebb 4ace 61bd
00000330: b2d7 06bd 0817 6b3c e940 253d 77fc b7bc
00000340: ae1e 55bc fe28 6cbb 616b c4bc eed4 60bd
00000350: cc77 4bbc b4d4 9fbc 64b6 21bd da74 89bc
00000360: 5ede 10bd ac7a 00bd 28d9 343c 4ada 333d
00000370: 5640 7dbd 777f 493d 5e2a 30bd 75f0 8dbd
00000380: 6520 ea3c 4b7b ecba 3dbf 103d 8bdd 77bd
00000390: 2ac4 eebc 12ac 8ebd 1aee 793c 781e 8b3d
000003a0: 62a9 0fbd 104b 92bc e09f 253d 0dd0 2a3d
000003b0: 8748 923c a3f4 a3bd b56c 27bd cdfb 653d
000003c0: 47cf 223c 04f9 98bc a059 913c 1169 013d
000003d0: ea11 33bd 5852 453c 66ea 283d 20f9 2a3b
000003e0: f494 d6bc 2102 35bb 43fe 703d de07 dd3c
000003f0: 88c7 d2bc b221 253d 5213 77bd 214b a9ba

out_n.0.weight f4 [100, 256]
-0.011130337 -0.011719161 -0.013473733 -0.007787779 0.034958575 -0.067214504 0.015687844 -0.039279837
-0.06957256 0.036557637 -0.032865077 0.029753879 -0.023302149 -0.1563021 -0.07043703 -0.05789836
-0.021580685 -0.012301661 0.049259756 -0.1765273 0.010898627 0.027501449 0.015808161 0.061408468
-0.08094094 -0.038826704 -0.11856869 -0.008109655 -0.22147205 -0.19366692 -0.06878901 -0.094756834
-0.13031477 -0.047001336 0.0032259948 0.031608656 -0.030935382 -0.11826454 0.06296635 -0.0051803254
-0.0102469325 -0.00275578 -0.051780775 0.039681494 -0.11306327 0.042525314 -0.012369635 -0.081263125
-0.21439785 -0.013593666 -0.17292519 -0.009940753 -0.0695662 -0.15193506 0.05467048 0.0071758055
-0.015558511 -0.050064456 -0.049784027 -0.09204018 -0.07040551 -0.038938373 -0.09158897 0.04494437
-0.049247876 -0.043194603 -0.0581239 0.057626925 -0.018239498 -0.11222174 0.028393783 -0.10035153
-0.022284623 -0.061076894 -0.0076449485 -0.12934881 -0.0007781163 0.028237415 -0.060741365 0.024813676
-0.017631084 -0.047593728 0.03865303 -0.15023242 -0.11097949 -0.08562207 -0.008298244 0.03971596
-0.085264325 -0.07689973 -4.6400342e-05 -0.10801509 -0.107682474 -0.0020440065 -0.046612788 0.05778511
0.002673827 -0.087803245 0.020803591 -0.11614447 -0.09653846 -0.00952987 0.021176517 -0.06361349
0.029521808 -0.22014165 -0.030787647 -0.06645332 -0.055680253 -0.06433092 0.012198128 -0.04782399
-0.045612045 -0.19498599 -0.043127242 -0.05572544 -0.05966959 -0.04784826 -0.03450484 -0.018148607
-0.15561043 -0.057531767 -0.012956834 -0.020482099 0.009803081 -0.058119137 0.039624434 0.014594884
0.0106593305 -0.26393947 -0.186609 -0.12137469 0.014105283 -0.063729495 -0.112279214 0.06445063
-0.07726832 -0.35471448 0.057793178 -0.082220696 -0.03763207 0.011653966 0.016403822 -0.14922825
-0.058186285 -0.07097616 -0.13465998 -0.10332859 0.02643569 -0.071017824 -0.06420849 -0.021574885
-0.031441614 -0.176278 -0.07524815 -0.07220985 -0.010902196 0.04164341 -0.003819272 -0.036657214
-0.047881667 -0.06654067 -0.052355133 -0.026120175 0.00031739473 -0.13255301 -0.1292821 -0.065128624
-0.050668333 -0.12005573 0.0557983 -0.08691096 -0.28792998 -0.031087318 -0.055243123 -0.16662075
-0.024244934 -0.070762105 0.008406654 -0.10124854 0.05198926 -0.06012892 0.00615332 -0.052962493
-0.11481601 -0.09468103 -0.08706611 -0.09778551 -0.031269323 -0.09985829 -0.0048367307 -0.045341328
-0.12300623 -0.0062019005 -0.08563678 -0.026338935 0.004685208 0.014733262 -0.106717326 -0.23402157
0.0048677986 -0.15380654 -0.13679355 -0.00284075 -0.2086239 -0.021423452 -0.010095621 -0.0098460885
0.015494862 -0.16280782 -0.10702905 -0.11907591 0.051329397 0.05030835 -0.09970498 -0.019271484
-0.060303986 -0.015628533 -0.035863064 -0.065484464 0.054788657 -0.036751106 0.030548528 -0.034159504
-0.12163531 -0.137172 -0.1881325 -0.12810192 0.05987845 0.0200881 0.002555726 -0.056887068
-0.14599353 -0.113391325 0.046110786 -0.0694864 0.06365015 -0.101496145 0.047338128 -0.05794754
-0.08296586 -0.09359758 -0.13897647 -0.048881188 -0.0265119 -0.05609133 -0.059341736 -0.02099511
-0.01686135 -0.027434096 -0.11472558 -0.05050605 -0.059612337 -0.17299461 -0.11107276 -0.18761292
00000000: 045c 36bc b901 40bc efc0 5cbc a030 ffbb
00000010: b930 0f3d c2a7 89bd cb83 803c e5e3 20bd
00000020: 0f7c 8ebd 76bd 153d 889d 06bd 68be f33c
00000030: 26e4 bebc a80d 20be 4a41 90bd d526 6dbd
00000040: fac9 b0bc e88c 49bc 99c4 493d 93c3 34be
00000050: 2890 323c b84a e13c 1e80 813c 7287 7b3d
00000060: 5dc4 a5bd c008 1fbd 24d4 f2bd 5cde 04bc
00000070: 92c9 62be 9f50 46be 41e1 8cbd df0f c2bd
00000080: 3c71 05be 7984 40bd 366b 533b 1478 013d
00000090: 336c fdbc ae34 f2bd 80f4 803d b8bf a9bb
000000a0: c0e2 27bc 519a 34bb 1418 54bd 1089 223d
000000b0: b78d e7bd 062f 2e3d 02aa 4abc 486d a6bd
000000c0: 1c8b 5bbe f8b7 5ebc 4d13 31be 8ade 22bc
000000d0: b978 8ebd dd94 1bbe 27ee 5f3d 0523 eb3b
000000e0: 20e9 7ebc 6310 4dbd 56ea 4bbd 907f bcbd
000000f0: c430 90bd d87d 1fbd ff92 bbbd 9617 383d
00000100: 24b8 49bd d3ec 30bd 5413 6ebd 360a 6c3d
00000110: 006b 95bc 83d4 e5bd 149a e83c 1a85 cdbd
00000120: 3e8e b6bc c42b 7abd 7a82 fabb 0474 04be
00000130: 80fa 4bba 2752 e73c f0cb 78bd 0d46 cb3c
00000140: 106f 90bc a4f1 42bd a452 1e3d 87d6 19be
00000150: 3749 e3bd a05a afbd 5cf5 07bc 34ad 223d
00000160: 109f aebd 9b7d 9dbd fd9d 42b8 0437 ddbd
00000170: a188 dcbd bdf4 05bb 0ded 3ebd 14b0 6c3d
00000180: 603b 2f3b 30d2 b3bd 4b6c aa3c 27dd edbd
00000190: f5b5 c5bd 2c23 1cbc 607a ad3c ca47 82bd
000001a0: b8d7 f13c d06c 61be 6036 fcbc ae18 88bd
000001b0: fa10 64bd eebf 83bd a8da 473c 17e3 43bd
000001c0: b2d3 3abd 68aa 47be 31a6 30bd 5c40 64bd
000001d0: 1a68 74bd 89fc 43bd f254 0dbd 63ac 94bc
000001e0: 5758 1fbe 6ea6 6bbd e748 54bc 13ca a7bc
000001f0: 1a9d 203c 550e 6ebd 3b4d 223d 611f 6f3c
00000200: 79a4 2e3c 1323 87be 6e16 3fbe 4b93 f8bd
00000210: d819 673c 9c84 82bd a5f2 e5bd b1fe 833d
00000220: da3e 9ebd 239d b5be 8ab8 6c3d 5363 a8bd
00000230: 1624 1abd 47f0 3e3c 4f61 863c 4acf 18be
00000240: be54 6ebd f35b 91bd 4ee4 09be f19d d3bd
00000250: a98f d83c cb71 91bd be7f 83bd d0bd b0bc
00000260: ecc8 00bd 3882 34be b41b 9abd c2e2 93bd
00000270: 209f 32bc 4892 2a3d c04c 7abb e025 16bd
00000280: 911f 44bd 7a46 88bd 5672 56bd faf9 d5bc
00000290: 0068 a639 fabb 07be 8762 04be 2862 85bd
000002a0: 9989 4fbd c7df f5bd c28c 643d 60fe b1bd
000002b0: 8f6b 93be d5aa febc 9d46 62bd a19e 2abe
000002c0: 509d c6bc b9eb 90bd 10bc 093c 655b cfbd
000002d0: b1f2 543d be49 76bd caa1 c93b 33ef 58bd
000002e0: a824 ebbd 21e8 c1bd b74f b2bd c543 c8bd
000002f0: 4314 00bd 8182 ccbd 707d 9ebb d4b7 39bd
00000300: b1ea fbbd 5039 cbbb 5662 afbd c0c4 d7bc
00000310: 6086 993b c863 713c 9d8e dabd 5aa3 6fbe
00000320: 0e82 9f3b 767f 1dbe 9c13 0cbe e02b 3abb
00000330: 81a1 55be 3c80 afbc 1b68 25bc 7d51 21bc
00000340: 29de 7d3c 18b7 26be 0c32 dbbd 12de f3bd
00000350: c63e 523d 2110 4e3d 2032 ccbd 3bdf 9dbc
00000360: 5001 77bd 6907 80bc 26e5 12bd b81c 86bd
00000370: 126a 603d 5488 16bd e840 fa3c d6ea 0bbd
00000380: ef1b f9bd d176 0cbe cea5 40be 262d 03be
00000390: 1b43 753d cd8f a43c f87d 273b 6a02 69bd
000003a0: 547f 15be b639 e8bd aade 3c3d e34e 8ebd
000003b0: 035b 823d 36dd cfbd a0e5 413d 665a 6dbd
000003c0: 01ea a9bd 17b0 bfbd d94f 0ebe a437 48bd
000003d0: 7c2f d9bc 06c0 65bd 5210 73bd f0fd abbc
000003e0: d020 8abc 78bd e0bc 3ff5 eabd 6fdf 4ebd
000003f0: 112c 74bd 8025 31be 1d7a e3bd 9a1d 40be

out_n.0.bias f4 [100]
-0.13588275 0.061733 0.13159789 -0.020053012 0.084485926 0.0933961 -0.039355617 0.08908453
-0.13379756 0.059834674 -0.08374948 0.030738248 0.04079552 -0.020613205 0.045165133 -0.032545764
0.09508348 0.04025206 -0.032897364 0.004745146 -0.09614384 0.10298312 -0.029472824 0.06566163
0.046611648 -0.0049648457 -0.01493656 -0.048416395 0.031212583 -0.04032874 -0.01740228 -0.021235963
-0.08181556 -0.027143687 -0.02563647 -0.015630683 -0.0002833645 0.040902827 -0.02246526 0.009118495
0.028782615 0.0071506337 -0.04968182 -0.034830645 -0.054830644 0.06753864 -0.011260922 0.041199088
-0.064184055 0.05899998 -0.030662548 0.009832107 -0.02700631 0.009917082 -0.03189325 -0.059224386
-0.060490306 -0.0070211156 0.016086712 0.04091946 -0.0062939846 -0.036877092 -0.03275678 -0.016383722
0.012692167 -0.056069028 -0.023296503 -0.05339842 -0.0323993 0.0054264003 -0.031616673 0.0070649567
-0.024234442 -0.012501026 0.03435687 -0.023174006 0.025153175 -0.020217044 -0.056224756 0.04813939
-0.0069118557 0.023584789 -0.08783047 0.0701809 -0.04245094 -0.023806363 0.105127 -0.031731285
0.04766799 -0.013651295 -0.080056965 0.009222438 0.033624526 -0.014147794 0.030987209 -0.11293686
0.10212501 -0.043569524 -0.018043937 -0.123439535
00000000: d924 0bbe bedb 7c3d 99c1 063e 3746 a4bc
00000010: f506 ad3d 7446 bf3d 5b33 21bd f371 b63d
00000020: 3a02 09be 3415 753d d984 abbd c7ce fb3c
00000030: 3419 273d 06dd a8bc 13ff 383d b54e 05bd
00000040: 21bb c23d 58df 243d 63bf 06bd 2b7d 9b3b
00000050: 10e7 c4bd d0e8 d23d fe70 f1bc 9b79 863d
00000060: dbeb 3e3d 25b0 a2bb 79b8 74bc 4550 46bd
00000070: 88b1 ff3c c02f 25bd 3a8f 8ebc 0bf7 adbc
00000080: eb8e a7bd 705c debc 9303 d2bc eb0b 80bc
00000090: 8a90 94b9 b989 273d 1109 b8bc bd65 153c
000000a0: 85c9 eb3c dd4f ea3b 2a7f 4bbd 94aa 0ebd
000000b0: 1996 60bd b351 8a3d bb7f 38bc 60c0 283d
000000c0: ee72 83bd f7a9 713d 0630 fbbc d916 213c
000000d0: 563c ddbc 427b 223c 7fa2 02bd 4595 72bd
000000e0: afc4 77bd 6311 e6bb 48c8 833c 2a9b 273d
000000f0: c53d cebb 6f0c 17bd f92b 06bd 2837 86bc
00000100: cff2 4f3c a3a8 65bd 4fd8 bebc 4db8 5abd
00000110: 21b5 04bd f2cf b13b 7c80 01bd 2781 e73b
00000120: 4f87 c6bc 1ad1 4cbc cab9 0c3d 6ad7 bdbc
00000130: 080e ce3c 379e a5bc ee4b 66bd cf2d 453d
00000140: d97c e2bb e334 c13c 76e0 b3bd 01bb 8f3d
00000150: 09e1 2dbd 9005 c3bc d34c d73d aaf8 01bd
00000160: 833f 433d aea9 5fbc e8f4 a3bd b519 173c
00000170: dfb9 093d 26cc 67bc e3d8 fd3c 714b e7bd
00000180: eb26 d13d f575 32bd e1d0 93bc decd fcbd

out_d.0.weight f4 [100, 256]
-0.057835553 0.064149536 0.05857583 0.060251184 0.010515143 -0.069301315 0.05622284 0.020759214
-0.014019662 0.0461438 -0.006231312 0.058777228 -0.012566293 -0.025777726 -0.04481423 -0.039407793
-0.030800583 -0.0019430758 -0.037801526 -0.08425106 0.009609707 0.0077734604 -0.037813153 -0.036127828
-0.050673004 -0.04842917 -0.021182742 -0.0640999 -0.02731902 0.005732355 0.054264657 0.016237326
-0.025978802 -0.02477327 -0.022400966 0.05527166 -0.04854222 -0.059303656 0.041281406 0.008490557
-0.018405654 -0.037677463 0.0027816743 0.027257187 0.040383134 -0.028541587 -0.03685119 0.0064896764
-0.0518235 0.0202382 -0.0065065976 -0.05362468 -0.057339072 0.02847188 0.02634287 -0.021307688
-0.053533323 0.035109367 -0.01003076 0.007023782 -0.09020543 -0.010658461 -0.062068865 0.07884361
-0.07239654 0.03226755 -0.06661001 -0.016233603 0.046532888 -0.051165342 0.06079851 0.056504447
-0.07356999 -0.042036865 0.028945995 -0.029640505 -0.043801308 -0.03240426 0.035818152 0.017462617
-0.059278876 0.014142569 0.016813338 0.020172158 -0.040276166 -0.042216614 -0.017113557 0.04866261
-0.041748278 -0.0014474475 0.078519516 -0.07957338 -0.03115397 0.05310641 -0.01732473 0.041485302
-0.058171444 -0.06792362 0.019127565 0.025959248 0.0032857896 -0.0036961685 0.0024148747 -0.022770632
-0.07011804 -0.00088578125 0.061934724 -0.09292202 -0.012011285 -0.0019044048 -0.057592057 -0.02656774
0.034827083 -0.05307923 0.052719057 -0.018480038 -0.03282406 -0.00022431779 0.05149772 -0.08169268
0.0048025954 0.02775362 0.046959266 0.02914439 0.06339349 -0.010697741 0.0140025215 0.040969163
-0.0013890004 -0.08941446 -0.0132871475 -0.028256007 -0.026305277 -0.05181404 -0.060619142 0.07441357
0.041004665 0.056655124 0.04087192 -0.025191197 -0.0498948 0.043838907 0.035612904 -0.038807634
0.027663752 -0.018217098 0.012419965 -0.015605549 -0.019774076 0.02609824 0.052926816 0.056745127
0.02886606 -0.028250232 -0.014073974 -0.045237802 0.023288578 -0.055166654 0.021038935 -0.059134834
-0.06287937 0.052859988 0.045776345 -0.036699947 -0.039698303 0.060391072 -0.012251721 -0.056495007
0.047323324 -0.07662246 0.016093493 -0.07574521 -0.07035292 0.002311344 0.03315652 -0.015886968
0.024875708 -0.025887523 -0.013619892 0.025142081 0.0011638358 -0.0050488017 -0.04321018 -0.048752286
0.04692625 0.0041467724 0.0381187 -0.008864294 -0.048322085 0.051684894 0.05121035 0.03430938
0.033135585 -0.017698795 -0.057222676 -0.054501783 -0.041051418 -0.023116872 -0.0400525 -0.07326672
0.023451276 -0.0007971175 0.008866837 0.021292493 -0.033073444 0.05908201 -0.016764596 -0.06704523
0.033037137 -0.056802534 -0.035314348 -0.029108034 -0.013084532 0.033597488 0.012054588 -0.041667763
0.044618886 0.030310588 0.06222088 -0.03748393 0.05972907 -0.03327841 -0.03817389 -0.002360506
-0.044745833 -0.07802324 -0.07079212 0.03472929 0.0076384586 -0.051215548 0.033721525 -0.03183762
0.0074077034 0.034286287 0.036149375 -0.05785865 0.08092645 -0.09339879 0.043231238 -0.04458887
0.006469923 0.044118095 -0.046624433 -0.01577719 0.027986586 -0.026786283 0.010300678 -0.005364135
0.015074275 0.014612721 -0.052292343 -0.070828855 0.045536794 0.006953033 -0.06078669 -0.074194394
00000000: f9e4 6cbd d560 833d 36ed 6f3d f2c9 763d
00000010: b547 2c3c d9ed 8dbd ec49 663d 3a0f aa3c
00000020: b9b2 65bc 4801 3d3d 0930 ccbb 64c0 703d
00000030: dae2 4dbc cf2b d3bc 208f 37bd 116a 21bd
00000040: 8151 fcbc ceae feba c6d5 1abd d28b acbd
00000050: 0872 1d3c 83b8 fe3b f7e1 1abd c6fa 13bd
00000060: 7f8e 4fbd aa5d 46bd 6e87 adbc cf46 83bd
00000070: 23cc dfbc 7bd6 bb3b 9e44 5e3d 2404 853c
00000080: 7fd1 d4bc 50f1 cabc 3b82 b7bc 8964 623d
00000090: 35d4 46bd 64e8 72bd b116 293d fa1b 0b3c
000000a0: 74c7 96bc af53 1abd c04c 363b 774a df3c
000000b0: c968 253d 0cd0 e9bc 46f1 16bd 5aa7 d43b
000000c0: e144 54bd 95ca a53c 4c35 d5bb 8da5 5bbd
000000d0: 60dc 6abd dc3d e93c 01cd d73c 768d aebc
000000e0: c245 5bbd d7ce 0f3d 0f58 24bc c127 e63b
000000f0: a0bd b8bd d3a0 2ebc ec3b 7ebd c278 a13d
00000100: a344 94bd fa2a 043d d46a 88bd 55fc 84bc
00000110: 4599 3e3d c092 51bd dc07 793d 3571 673d
00000120: ddab 96bd d92e 2cbd 2720 ed3c a5d0 f2bc
00000130: 0069 33bd 54ba 04bd 0eb6 123d c30d 8f3c
00000140: 68ce 72bd 3cb6 673c 20bc 893c 1540 a53c
00000150: 9ff8 24bd 54eb 2cbd bb31 8cbc 7252 473d
00000160: 3e00 2bbd 47b8 bdba d7ce a03d 5ef7 a2bd
00000170: 9c36 ffbc 1b86 593d 98ec 8dbc 7eec 293d
00000180: 2e45 6ebd 8a1b 8bbd 69b1 9c3c 7da8 d43c
00000190: 6756 573b 6b3b 72bb e042 1e3b 7a89 babc
000001a0: 0c9a 8fbd c633 68ba 44af 7d3d e64d bebd
000001b0: fbca 44bc 399d f9ba a6e5 6bbd 97a4 d9bc
000001c0: d8a6 0e3d 9b69 59bd f0ef 573d 7363 97bc
000001d0: 8672 06bd d936 6bb9 46ef 523d 7e4e a7bd
000001e0: 175f 9d3b 8f5b e33c 5c58 403d 37c0 ee3c
000001f0: 72d4 813d 9445 2fbc d56a 653c 48cf 273d
00000200: 1f0f b6ba ee1e b7bd 56b2 59bc 2479 e7bc
00000210: 2a7e d7bc f53a 54bd c74b 78bd 2466 983d
00000220: 82f4 273d 340f 683d 5069 273d c55d cebc
00000230: 7d5e 4cbd 6d90 333d d6de 113d c1f4 1ebd
00000240: 189f e23c 063c 95bc 1c7d 4b3c 6bae 7fbc
00000250: 3efd a1bc facb d53c cac9 583d 946d 683d
00000260: 8478 ec3c 086d e7bc 8796 66bc 464b 39bd
00000270: b0c7 be3c 6ef6 61bd d859 ac3c 5e37 72bd
00000280: e6c6 80bd b783 583d fa7f 3b3d af52 16bd
00000290: b09a 22bd a15c 773d 71bb 48bc 4f67 67bd
000002a0: 1ad6 413d 3cec 9cbd 80d6 833c 4e20 9bbd
000002b0: 3115 90bd eb79 173b 22cf 073d 6325 82bc
000002c0: 24c8 cb3c 1212 d4bc f825 5fbc c4f6 cd3c
000002d0: d98b 983a 6b70 a5bb 28fd 30bd 7ab0 47bd
000002e0: bd35 403d a6e1 873b 5b22 1c3d 8b3b 11bc
000002f0: 61ed 45bd 8ab3 533d f2c1 513d fe87 0c3d
00000300: 2eb9 073d 10fd 90bc 5362 6abd 433d 5fbd
00000310: 8825 28bd 985f bdbc 170e 24bd dd0c 96bd
00000320: e41c c03c a6f5 50ba 3646 113c 986d ae3c
00000330: 0578 07bd faff 713d e855 89bc 024f 89bd
00000340: f351 073d c6a9 68bd c7a5 10bd f973 eebc
00000350: 8160 56bc 859d 093d 9b80 453c d1ab 2abd
00000360: 4bc2 363d e94d f83c 52db 7e3d c088 19bd
00000370: 78a6 743d f14e 08bd 3a5c 1cbd b8b2 1abb
00000380: 6847 37bd a6ca 9fbd 76fb 90bd 4d40 0e3d
00000390: 094c fa3b 65c7 51bd 951f 0a3d 2a68 02bd
000003a0: 52bc f23b c76f 0c3d 5e11 143d 31fd 6cbd
000003b0: c4bc a53d dd47 bfbd 3d13 313d d2a2 36bd
000003c0: a601 d43b 2db5 343d 43f9 3ebd 2a3f 81bc
000003d0: 2044 e53c e86e dbbc 2dc4 283c a0c5 afbb
000003e0: 18fa 763c 326a 6f3c 7f30 56bd b80e 91bd
000003f0: ca84 3a3d 45d6 e33b 77fb 78bd 3bf3 97bd

out_d.0.bias f4 [100]
-0.063443676 -0.04450757 -0.041289885 0.05863917 0.011301326 0.009957687 0.022942094 -0.016429983
-0.010759833 0.04443201 0.024073105 0.07306818 0.016819987 0.00647208 -0.0051265606 0.0422147
-0.047870625 -0.031464648 -0.042167712 -0.04643789 -0.05519976 0.042120535 0.018269591 -0.05069543
0.026574245 -0.0041117263 -0.03286525 -0.0065419036 -0.041234806 -0.0025096396 0.04517895 -0.049129475
0.025471127 0.034535177 -0.0575624 0.00370486 0.04970065 0.027943444 0.040149387 -0.06468568
-0.0006499975 0.05812461 -0.021357242 -0.032754663 0.033721913 -0.025277862 0.05858198 -0.046346456
-0.047906507 -0.026963526 0.028021747 0.05561456 -0.064612344 0.037944585 0.038417157 -0.023322625
0.02856474 0.024132136 0.025132736 0.01888094 -0.005466271 -0.04778272 -0.049380932 0.020953102
0.009146299 -0.006859828 -0.036292113 0.040949505 -0.034058828 -0.06392476 -0.041599315 -0.064258285
0.036935326 0.013737374 -0.02913047 -0.009375128 0.015713641 -0.03016168 -0.052760303 -0.01799876
-0.054907814 0.012008801 -0.0025855494 0.017008457 0.0059751333 -0.034024842 -0.037609946 0.048290484
-0.066504665 0.035570215 0.0132268 0.038465336 0.004832036 0.067549236 -0.005088551 -0.009775388
-0.036102828 0.03683584 0.049761903 -0.047301292
00000000: c2ee 81bd 924d 36bd 951f 29bd a02f 703d
00000010: 3229 393c 9125 233c 0ff1 bb3c 2c98 86bc
00000020: 034a 30bc 57fe 353d f634 c53c c5a4 953d
00000030: 12ca 893c be13 d43b b5fc a7bb 52e9 2c3d
00000040: fd13 44bd 13e1 00bd 0db8 2cbd a835 3ebd
00000050: 2519 62bd 9586 2c3d 1caa 953c 03a6 4fbd
00000060: 3bb2 d93c a9bb 86bb b69d 06bd 775d d6bb
00000070: d4e5 28bd c478 24bb 900d 393d fd3b 49bd
00000080: d3a8 d03c c274 0d3d 8dc6 6bbd 3dcd 723b
00000090: e992 4b3d a6e9 e43c af73 243d ed79 84bd
000000a0: 9864 2aba 1214 6e3d 62f5 aebc c129 06bd
000000b0: fd1f 0a3d 8513 cfbc a9f3 6f3d c8d5 3dbd
000000c0: 9d39 44bd 9de2 dcbc dd8d e53c 18cc 633d
000000d0: 7a53 84bd c86b 1b3d 4f5b 1d3d 170f bfbc
000000e0: 9a00 ea3c c2b0 c53c 2be3 cd3c 33ac 9a3c
000000f0: 681e b3bb d0b7 43bd a943 4abd d7a5 ab3c
00000100: 5cda 153c 68c8 e0bb 0aa7 14bd abba 273d
00000110: 4581 0bbd fcea 82bd 0b64 2abd d999 83bd
00000120: 7f49 173d b912 613c 06a3 eebc 239a 19bc
00000130: e5b9 803c a115 f7bc 301b 58bd 2372 93bc
00000140: 04e7 60bd 90c0 443c 5272 29bb 5255 8b3c
00000150: 0dcb c33b a25d 0bbd e30c 1abd 3ecc 453d
00000160: 9933 88bd 13b2 113d 38b5 583c d48d 1d3d
00000170: 0e56 9e3b 4157 8a3d dcbd a6bb f328 20bc
00000180: 8fe0 13bd 2ee1 163d 23d3 4b3d 00bf 41bd
